Project/Assets/MyProject/Train/Chaser/CVR 4/Models/ver 8/PoliceBrain.onnx (onnx, 655880 bytes, 6 tensors)

action_model._discrete_distribution.branches.0.bias f4 [7]
00000000: 9351 4a3e 7258 19be fa8f 003e bbde 5abd
00000010: 0b4d 9dbd 292d 19be 16db 0dba
0.1975768 -0.14975145 0.12554923 -0.05343507 -0.076807104 -0.14958633 -0.00054113695

action_model._discrete_distribution.branches.0.weight f4 [7, 256]
00000000: a0ba 64bd 5031 b0bb 5a3f 293d 3f7f 98bb
00000010: 9aab 8e3b 49c4 ce3c 094b 08bb 1cf8 7cbd
00000020: 8343 7abe 1c02 f8bd 92a3 73be d369 a93e
00000030: d789 1b3e 09bb 16be dce2 263c 7a8f 843e
00000040: efa8 bd3e ee97 d338 189d 893e dec2 103e
00000050: 04aa 9c3d 4346 6abd 8457 60be 78a1 55be
00000060: 8c05 813e aeb1 a8be 9d4d 8a3c a98a 82be
00000070: 70f2 02be 250e b83d 986c 8ebe bbf8 443e
00000080: 5a55 61be 6e54 d93d 92bd 283e d3aa 633e
00000090: b515 803e 31a7 8bbe ad2e 133e 271c 473e
000000a0: 175d 183e 446c 1abd 9062 3c3e 4833 81be
000000b0: 62fa cfbe 2e7e 2dbe d9ee 1c3e 02b1 8ebe
000000c0: 5331 ba3d 1bdf 9ebd d240 813e 4ad3 d5be
000000d0: f8bb 153e 1347 683c eaec 113e c08e 373e
000000e0: 80bc 4d3e 0814 52be 456f 1f3d 1e82 3e3e
000000f0: d39a e23d a5e9 98bd 59b2 c6be 41cc 6e3e
00000100: f96a 093e 0065 a23d 3b99 7a3d ba47 e5bd
00000110: 0f14 64be 529c 003c a3f8 d23d a1f8 a73c
00000120: 2450 be3d 0ee9 f3bd 7ee8 ec3d 531f edbd
00000130: b649 6c3d 60c5 c43d e39a 4d3c f44d 9dbd
00000140: 27aa a4be 2b34 d53d 03b0 92bd 8a8e a43d
00000150: c844 183e fdc1 33bd f593 bf3d f425 4abc
00000160: 8f69 253e 7290 363e 5221 5cbe 0535 bbbd
00000170: 799f aa3d d9c8 5fbe 8065 853e 7792 f83c
00000180: cb79 ecbc 91e3 babd 6303 fbbd 1048 153e
00000190: 62b0 69be 149e a3be ce9c 2e3e acd3 3ebe
000001a0: 5458 183e e6a0 09bf 6970 823e 7d59 7c3e
000001b0: cba3 fd3d e43e 7b3c e33c 4d3e 44b9 713e
000001c0: 6d19 c93e e8ae 8a3d 393e 42bd f894 013d
000001d0: 50b4 cfbe e592 32be 9605 0b3c f045 eabd
000001e0: 2ff4 9fbd c75d 733c ee93 f0be c770 9b3d
000001f0: 99d4 54be 51bd 04be a547 913e b7dd e73d
00000200: 1361 dcbd 5ac5 933e 9284 34bc 3658 9a3d
00000210: 781c 0ebe 0dc6 343e 9cac f0bd bdd8 b8bd
00000220: 3564 783e 2cda 3e3e 4cb2 123d a456 573d
00000230: 12e1 e8bd baf5 3c3e c504 7c3e 116e cbbe
00000240: c724 903d 0256 233e 5a13 3bbe 8b40 51be
00000250: f290 82be ea8b 0dbe 6fe8 35bd 35f6 cebe
00000260: 2fb4 983d 859a 50bd aeec 3ebd 010f 013e
00000270: a689 ab3e 6648 273d cc9c c4bb f0f4 59be
00000280: 4952 023e 3762 b83d b6bb 28be 1722 1b3d
00000290: af8a 7abe f8b4 2c3e c91e 1b3d adfa e0bd
000002a0: 9f6b b7be 3537 ef3e 0400 6f3e 74c6 b0bd
000002b0: 0c71 26be 876b e9bd 43b5 b0bd 3296 dc3d
000002c0: 0664 14be 3862 853e 18ea 583e 8d11 95bd
000002d0: 5beb 1e3c 3560 06be e090 6abb 7949 d93c
000002e0: 8121 a73e fd2b b7be 7a44 5fbd 329a d4bd
000002f0: 0f26 28be 64cf 7ebe fe5c 453b d228 83be
00000300: 2b1b 82be d597 b33e 428b febd 7678 77be
00000310: c9d2 5f3d f05e 32be bfcf 073e b4be 733e
00000320: 076a 25bb 7950 fd3d 5f56 983d f142 ddbe
00000330: 4a16 9a3d 1b7f 2a3e a3e6 1c3d a5d3 bbbe
00000340: aaf8 81be 1c21 c6be f4e9 093e a214 41bd
00000350: bcbc 4fbe db59 ac3e fec0 eb3d 455b b0be
00000360: b921 133e 1239 c13c 2661 9a3d bd4c 7fbd
00000370: b8a7 69be 353b 573c 6a4d 4dbe 92a6 5d3d
00000380: 5ded 4bba fac3 813e 9729 f0be ac23 9dbe
00000390: 18f4 583e d615 1f3e aca4 38be f271 b13d
000003a0: 5dd5 edbd c39f 32bd e1d0 32bd aa9d bebe
000003b0: 917a b5bc 4f4b 5fbe cb91 c9bd 0bd0 0d3e
000003c0: 9286 903d 71b6 0f3e 6e0f 343e d522 563d
000003d0: d41d ae3d 6a35 44bd d106 6dbe 0389 25be
000003e0: 55cb efbd f5a1 25be 04a8 d3bd 32de a83e
000003f0: b528 82be 1815 d4be 157e 473d 3173 17be
-0.055842042 -0.0053769723 0.041320182 -0.004653841 0.0043539526 0.02524008 -0.0020796678 -0.061760053
-0.24439816 -0.12109777 -0.23792866 0.3308855 0.151893 -0.14719786 0.010185923 0.25890714
0.3704295 0.00010089563 0.26877666 0.14136836 0.076496154 -0.057195913 -0.21908385 -0.20862377
0.25199544 -0.3294806 0.016882712 -0.25496414 -0.12787795 0.08987073 -0.27817225 0.19235508
-0.22005215 0.10611807 0.16478565 0.22233133 0.2501656 -0.27275994 0.14373274 0.19444333
0.14879261 -0.037700906 0.18396974 -0.25234437 -0.40620714 -0.16942665 0.15325488 -0.2786942
0.09091439 -0.07757398 0.25244766 -0.41762763 0.14622486 0.014177102 0.14250532 0.17925549
0.20091438 -0.20515454 0.038924474 0.18604323 0.110646866 -0.07466439 -0.38807943 0.23320104
0.13419713 0.079294205 0.06118129 -0.111953214 -0.22273277 0.00784977 0.1030133 0.020504298
0.09292629 -0.11909686 0.11567782 -0.1157824 0.057687484 0.09607959 0.012549135 -0.07680884
-0.32161066 0.10410341 -0.07162478 0.08035 0.14869988 -0.043886174 0.093543924 -0.01233815
0.16153549 0.17828539 -0.21497086 -0.09140972 0.08331198 -0.21853961 0.26054 0.030343277
-0.02886667 -0.09125436 -0.12256505 0.14578271 -0.22821191 -0.31956542 0.17052004 -0.18635434
0.14877445 -0.53761137 0.25476387 0.24643512 0.12384757 0.0153348185 0.20042758 0.2360583
0.3927721 0.06771642 -0.04742262 0.03163621 -0.40567255 -0.17438848 0.0084852185 -0.11439121
-0.07810246 0.014853901 -0.4698786 0.0758987 -0.20784225 -0.12962843 0.28374973 0.113215856
-0.10760703 0.28861505 -0.011017935 0.07536356 -0.13878047 0.17653675 -0.117516726 -0.090257145
0.24256976 0.18637913 0.03581457 0.05257286 -0.11371054 0.18453112 0.24611194 -0.39732412
0.07038265 0.15950778 -0.18269101 -0.20434777 -0.2550121 -0.13822904 -0.04441112 -0.40422216
0.07456242 -0.05092861 -0.046612434 0.1260338 0.33503455 0.04084053 -0.006000137 -0.21284842
0.12726702 0.09003108 -0.16477856 0.037874307 -0.24466966 0.16865909 0.037871156 -0.109853126
-0.35824296 0.46721807 0.2333985 -0.08631602 -0.16254061 -0.11397462 -0.08628323 0.10770835
-0.14491281 0.26051497 0.2118305 -0.07278738 0.009699668 -0.13122638 -0.0035791919 0.026524292
0.3264275 -0.35775748 -0.054508664 -0.10380973 -0.16420768 -0.248838 0.0030115242 -0.2561708
-0.25411353 0.35076776 -0.12428905 -0.24167046 0.05464438 -0.17419028 0.13262843 0.23803216
-0.00252402 0.123688646 0.07438349 -0.43215135 0.075237826 0.1665005 0.03830589 -0.3668491
-0.25385028 -0.38697135 0.13468152 -0.047138818 -0.2028684 0.33662304 0.1151142 -0.34444633
0.14368333 0.023586784 0.07538061 -0.062329043 -0.22817886 0.013136675 -0.20049062 0.054113932
-0.00077792053 0.2534483 -0.4690673 -0.30691278 0.21186864 0.15535673 -0.18031567 0.086643115
-0.116129614 -0.043609392 -0.043656234 -0.37229663 -0.02215317 -0.21806072 -0.09842261 0.13848893
0.07056917 0.1403444 0.17584011 0.052279312 0.08501783 -0.047902502 -0.23147132 -0.16165547
-0.117087044 -0.16175063 -0.10334781 0.32982022 -0.25421682 -0.41422343 0.048704226 -0.14790036

network_body.linear_encoder.seq_layers.0.bias f4 [256]
00000000: 9b9a b2bc 50cb 3ebd 6233 e7bd afa0 f4bc
00000010: f514 cdbd b47e 79bd 605b 65bb 11a7 6dbe
00000020: fc59 6abd 7384 00bc 53b9 34be 4462 e4bd
00000030: 2f96 02bd 9b86 e1bb 40b7 95bd adc5 57ba
00000040: b815 fa3d 2f81 0bbe 7375 99bc 6904 b2bd
00000050: f7a3 e7bc 1825 e2bd 12aa 2a3d 3685 9b3c
00000060: 5791 f6bd 1232 363d 0cd2 19bd 9070 cebc
00000070: 7e71 c53b a917 9bbc 45f3 81bd d0a3 bb3b
00000080: 2e87 48bd 4733 a8bb 4030 d3bc 87e3 72bd
00000090: 9d5f d9bc c185 4abd 7ec0 7bbd e555 c6bd
000000a0: cf84 4aba 6876 b4bd 0af7 c13c ec15 9b3c
000000b0: add5 f6bd d70e c0bd 6a87 5e3d 247b 5cbc
000000c0: 6d31 b7ba ee1c 4c3d 411f ae3b 585c 193d
000000d0: 2760 25be 06d2 3f3c f39f 62be cd04 283d
000000e0: 1793 9b3c 5c81 c1bc 30a5 1bbc efd8 80bc
000000f0: 49b8 64be a2c7 62bd 1c65 a63c 4b5c 20bd
00000100: badf d63d 8ae2 c7ba 8bff 70be b675 05bd
00000110: 3c67 0c3a 854e 5cbd ee00 3abd cea3 673b
00000120: e84e 2abe f995 abbd c68d bd3c f3bd 913c
00000130: 6506 24be 5b56 033c f269 2e3d d54c 9cbd
00000140: b77a 53bd 0915 51bd 8507 93bd 418d 083d
00000150: e490 32be a70b 243c 76dc a2bc 6fa1 d63d
00000160: 505a debc 6750 fe3c 2c4a e9bc 742e 80bd
00000170: ec7f 8b3d 571b e13d ade8 05be 22e9 dbbd
00000180: 4d85 19bd 31c6 2bbd 2b73 14be 2e60 f33c
00000190: 458d a3bc 5a23 4fbd 66ba ebbd 0ae2 acbd
000001a0: 619c a7bc b736 e63d bded 5abe 1c67 0fbe
000001b0: 8911 0bbe c358 e83d 897a d7bc a3b9 5bbc
000001c0: 83cf 103d 8bcc 7fbc 4c93 7abd 0dea 3abd
000001d0: 8c6e ba3c d6ea 0abd c32d 183c a1cb 5bbd
000001e0: 9848 0bbe 7409 f2bd 702b 62bd 3850 8b3d
000001f0: f761 40bc 0cf5 d8bc 762e dbba b7eb 2fbe
00000200: 353e 8d3d d7e1 1d3d 2360 3ebb db65 b2bd
00000210: c18a b73c ac56 31bc 65ba 60bc ada2 3bbd
00000220: 5bde 21be f268 8dbd 5586 81bd 0a2b 8c3c
00000230: a870 c53d 1390 f03d b9f0 41bd 588e de3b
00000240: de27 3cbd 5afb 73be 873c 8f3d c8d1 29bd
00000250: 1e8a bfbd 3cfd 7abc 4cca adbc 5131 edbc
00000260: 24ee af3d e1c4 c6bb 1f89 98bd 331d a63b
00000270: 28ea f23c d517 6cbd 853e 2c3c 09e9 a7bc
00000280: 9e41 cc3c 183c acbd c3f1 3a3d 2b4e 583d
00000290: 1f71 60bd d73b 443d b21a c7bd 1028 163e
000002a0: f9fd d9bd 432d a2bd 30e0 b839 d0b4 14bd
000002b0: f432 8abd a2d9 c1bd 2036 71bd f1f8 91bb
000002c0: 5eb8 94bc 2cc3 433d 96f7 f2bc 2772 8fbd
000002d0: a5e3 5d3d 48d2 3d3c 9d0e 863d 8674 513d
000002e0: 7bef 00be edad 16be b18c e6ba b3b0 25bd
000002f0: a03f 98bd 89d1 ebba c987 f3bd 3a47 16be
00000300: 1096 c1bd 1696 083c 313c fcbe 8bb3 c63c
00000310: 9b20 a83d 73f2 1f3d 8560 253d cadc 3abd
00000320: ac53 d7bc 6275 c7bd d1b7 d83c d277 56bd
00000330: 9977 dfbc 8b2d b8bd da8c e83c 6fac 8dbd
00000340: f146 1bbc 8301 403d 4186 aabd 6e91 1a3d
00000350: 5a61 8cbe 61ef 05bd 39c0 fbbc f6c4 3dbd
00000360: 8b78 e8bd 0c10 24be d9aa c8bd ef46 2c3d
00000370: 505a edbd 1b1c 6c3d fbb9 a2bd 06cf 03bd
00000380: a585 b5bd e04c a0bb 9c3d 13be 7281 e1bd
00000390: 337b cabc a082 97bc ee9d 04be 470b 4abd
000003a0: c154 213d f0a7 d8bb f87e a03d 4922 55bd
000003b0: 5301 1fbe 1f00 c1bc 79e8 b5bc a9ad 79bc
000003c0: 895b 6a3d ebb8 f6bd bcaa 5a38 c422 453b
000003d0: ba59 5cbe ab0d 0e3d f447 43be 947a 66bd
000003e0: 2e4f a83c d7f0 6cbe f49f eebc e7aa 98bd
000003f0: dbed 0e3c 8c19 28bd df9a e83c eead 17be
-0.021802237 -0.046580613 -0.11289097 -0.029861776 -0.10013763 -0.06091185 -0.003499709 -0.23208262
-0.057214722 -0.007844078 -0.1764882 -0.11151555 -0.031881507 -0.0068825013 -0.07310343 -0.0008231055
0.12211174 -0.13623498 -0.018732762 -0.086922474 -0.028276427 -0.11042231 0.041666098 0.018984418
-0.1203944 0.044481345 -0.037553832 -0.025200158 0.006025492 -0.01893218 -0.06345228 0.005726315
-0.048957042 -0.005133066 -0.025779843 -0.05929902 -0.02653485 -0.049443964 -0.06146287 -0.09684352
-0.00077254785 -0.08811647 0.023677368 0.018931352 -0.12052474 -0.093778305 0.05432836 -0.013457093
-0.0013976522 0.049832277 0.0053137843 0.03744158 -0.1614996 0.011707788 -0.22131328 0.041020203
0.018991036 -0.023621254 -0.009499833 -0.015728442 -0.22335924 -0.055366166 0.020311885 -0.039150517
0.10491891 -0.0015250009 -0.23534982 -0.03258296 0.00053559593 -0.05378582 -0.045411043 0.0035345438
-0.16631663 -0.083782144 0.023138892 0.01779077 -0.16018064 0.008016194 0.042581506 -0.07631842
-0.051630702 -0.05104545 -0.071791686 0.033337835 -0.17438084 0.010012544 -0.019880515 0.1048001
-0.027142674 0.031044198 -0.02847775 -0.0625886 0.068115085 0.10991543 -0.1307704 -0.10737826
-0.03748064 -0.041937057 -0.14497058 0.029708948 -0.019964823 -0.050570823 -0.11510162 -0.08441551
-0.02046031 0.11240905 -0.21379752 -0.14004177 -0.13580908 0.11345055 -0.026303547 -0.013410958
0.03535415 -0.015612732 -0.06117563 -0.045633364 0.022757791 -0.033915363 0.009288254 -0.053660993
-0.13601911 -0.11818209 -0.055217206 0.0680241 -0.011742107 -0.026484035 -0.001672222 -0.17179762
0.06896631 0.038545456 -0.0029049001 -0.08710834 0.02240503 -0.010823887 -0.013716315 -0.045809437
-0.15807478 -0.06904782 -0.0632445 0.017110366 0.09640628 0.1174623 -0.04734871 0.006791871
-0.045936458 -0.23826352 0.069939665 -0.04145983 -0.09352516 -0.015319165 -0.021214627 -0.02895418
0.085903436 -0.0060659503 -0.07448029 0.005069399 0.02965267 -0.057639915 0.010512953 -0.020496862
0.024933632 -0.084098995 0.04564072 0.05280892 -0.05479538 0.04790863 -0.097218886 0.1466372
-0.106441446 -0.07918789 0.00035262248 -0.03630525 -0.06748 -0.09465338 -0.05888951 -0.004454725
-0.01815432 0.047793552 -0.029659074 -0.07004195 0.054172177 0.0115857795 0.06545756 0.051136516
-0.12591355 -0.14714785 -0.0017589537 -0.040451717 -0.074340105 -0.0017991523 -0.11891133 -0.14675608
-0.0945245 0.0083365645 -0.49264672 0.024255535 0.08209344 0.039049577 0.04037525 -0.045620717
-0.026285015 -0.09739186 0.026454838 -0.052360363 -0.027278708 -0.08993062 0.028387476 -0.06917655
-0.009477363 0.04687644 -0.08326388 0.03773635 -0.27418023 -0.032698993 -0.030731307 -0.046330415
-0.11351117 -0.16021746 -0.097982116 0.042059835 -0.11589491 0.05764399 -0.07945629 -0.032179855
-0.08863381 -0.0048919767 -0.14378971 -0.11011018 -0.02471695 -0.018494904 -0.1295087 -0.04932716
0.03938747 -0.0066118166 0.07836717 -0.05203465 -0.15527849 -0.023559628 -0.022205578 -0.015239158
0.0572162 -0.12046989 5.213426e-05 0.0030080536 -0.21518603 0.034681004 -0.19070417 -0.056269243
0.020545568 -0.23138748 -0.029129006 -0.07454472 0.008723701 -0.04103999 0.02839416 -0.14812443

network_body.linear_encoder.seq_layers.0.weight f4 [256, 373]
00000000: d6a2 0f3e 395e 87be 1337 a6bd 3f03 9bbd
00000010: 9d50 013d 6343 d4bb d084 1dba 883f 273e
00000020: d123 c13c bfc6 c2bd 72d2 853d cc0a 93bc
00000030: 8631 fbbd b638 dfbd e9a4 2fbe d0f4 fbbd
00000040: 30f8 fb3d d3f2 9b3d 28f5 57be fc26 24bf
00000050: c3ee b5bd 5dd5 2bbe 2985 5cbe 53fe 743e
00000060: 570f 223d 0716 84bd af6c a03d 577f 89be
00000070: 1efb 203d 06c0 63bd 1d05 443d 4153 3c3f
00000080: 457f 02be 93d7 0dbe 95d3 573d 9df0 05bf
00000090: abdd ffbd d72e e73c 3a81 133d c199 393f
000000a0: 0dd3 b0bd 99ca 7ebd 85b9 11be eac3 81be
000000b0: 4b30 23bd cdfa 9e3d c27b 503d 592f 343f
000000c0: c770 05be 9ad3 3bbe 59c7 6cbe 8d6d 48bd
000000d0: 2056 893e 3d08 9e3d a8d1 08bd b646 4a3f
000000e0: 3451 2abd c5fb 2dbd 4d93 1a3d 76da 5b3f
000000f0: 13fd 6bbb 75bf 30bd dfc5 703e eecc b53d
00000100: 53d9 bebd af53 48be 5e12 11be 9ff5 8e3e
00000110: 5676 773d b03e f83d f8e4 ed3c 65ad d5bc
00000120: 7ab7 e93d 6f1f c6bd 2764 3a3d 60e8 8bbd
00000130: 0a47 57be 44ba c9bc c03b 45bd bc9a 9e3b
00000140: 12c2 f83d e257 00bd 7ecc c3bd a7a4 933d
00000150: 0120 cd3d 74bb adbd 7c75 30be 5401 0b3d
00000160: d51b 8f3d e0ae 86bb 0de9 3c3e e4c2 adbc
00000170: 9982 c6be 9a53 1c3d 6d1f 423e 7db2 3dbd
00000180: 307a 42be d53f 57bd 7430 323f fdc4 1fbe
00000190: 1986 763e 934f 363e 3f61 ecbe 0f91 d5be
000001a0: 78d8 463e 1798 58be 750f 23be 0ec0 34be
000001b0: 3439 083f bd42 91be 5a5b b13e aeb2 523e
000001c0: 4bf3 513e 2953 c1be ffd7 583d 703f 8d3d
000001d0: 1385 f9bd e44f 00be f612 ad3e d6e8 2dbe
000001e0: 9f2d 8d3e 74c1 8e3e 488e 143d d4d7 bebe
000001f0: 186e 63bd 6794 443e 7470 9ebb 21ff c1be
00000200: 31db 5f3e 395b 1bbd 5fbd 1d3d 02f1 da3d
00000210: 7a42 1ebf 583b aebe 95f4 94bd 8864 1a3e
00000220: 0c9d 78bd d8fb 0dbe 402e 643d 6ba1 813d
00000230: 12a4 89be aa90 873c 8356 dcbe 0793 9e3c
00000240: 0b69 6cbe 0c32 923e 42e6 353d dd59 01bf
00000250: 5839 183e cba5 4d3e d86d 70bd 23e7 443e
00000260: e235 a8be 0c55 95be 926c dc3d a08b 843e
00000270: ba05 b03d 420c 5fbf 2949 5b39 166c a23d
00000280: 6fe8 e63d 76c0 8f3e cc05 f7be 2e3a 11be
00000290: 0fd9 5abe 8406 e93d def2 343d feff 5abf
000002a0: 9f65 783c 5a46 813d c30e 7e3e 927d 583e
000002b0: 7522 a5be 2793 773d 23d4 f4be ab87 b73e
000002c0: 20f8 823d 0249 6cbf 22f7 933e 9384 97bd
000002d0: 256c 813e 62b6 583e 00cb 1dbe 75f8 babd
000002e0: 391f 9bbd fac3 433d 6c92 363d 91ad dfbe
000002f0: d215 2ebd 48d9 843d 5fea e63e 7bfe e93d
00000300: c282 98bd 40b5 5bbd 5461 50be 2e23 0fbd
00000310: 7f8d 42bd e91e b73e b629 3d3e 2ffa ffbb
00000320: cda6 833e 01eb db3d 353e ea3b 7015 8cbd
00000330: fa02 3abe 6a61 983d 0ccc 2ebe 28dc b93e
00000340: c472 983e 092e 243d 68b5 00be 24ce 523d
00000350: 5899 253d 4baf 87be 6d9c 9dbd 2b27 98be
00000360: ac50 aebd 98cc 2dbf de0f 17be 2a71 8cbe
00000370: d287 663e 7fb8 21bc bf9b aabe 6885 9ebe
00000380: 41d9 cb3c c119 c3bd 1cf4 ffbc 675b b0be
00000390: 1ec8 f2be ec76 55bd 7c3b 0b3e d097 cabc
000003a0: ed7c 7abe 7c47 c4be acad 303e 3e6a 7dbe
000003b0: 3021 84be c856 babe 52c1 8c3e 57ac 18be
000003c0: a47d be3b 91e4 6e3d 6da0 b4be 8066 13bf
000003d0: 8241 a53d af26 33be ae2b 8abe 87f0 38be
000003e0: ac45 cabd 6dac 4ebe 4616 453e 5ce2 0f3d
000003f0: 5ace 1abe b9d7 32be f551 e73d 516a c9be
0.1402696 -0.26439074 -0.08115973 -0.075689785 0.03157102 -0.0064777597 -0.00060088653 0.16332829
0.023576649 -0.09510564 0.0653428 -0.017949484 -0.12265305 -0.10899489 -0.17152752 -0.12302554
0.123031974 0.076146744 -0.21089613 -0.64121985 -0.08883431 -0.1678061 -0.21535172 0.23925142
0.03956541 -0.06449514 0.0783323 -0.26854965 0.039301984 -0.05560305 0.04785644 0.73564535
-0.12743862 -0.13851766 0.052692015 -0.5232027 -0.12493452 0.028220577 0.036011912 0.72500235
-0.08634005 -0.06220493 -0.14230926 -0.25344783 -0.039840978 0.0776268 0.050899275 0.70384747
-0.13031302 -0.18342438 -0.2312292 -0.0489326 0.2682352 0.07716415 -0.03340307 0.79014146
-0.041581348 -0.042476434 0.037738133 0.8588022 -0.0036008998 -0.043151338 0.23512982 0.08876978
-0.09318795 -0.19563173 -0.14167163 0.2792177 0.06041559 0.12121332 0.029039845 -0.026083658
0.114119485 -0.09673964 0.04550567 -0.068314314 -0.21023193 -0.024624951 -0.048152685 0.004840223
0.12146391 -0.03133381 -0.09560488 0.07209139 0.1001587 -0.084830195 -0.17232317 0.033936813
0.069877304 -0.004110202 0.18448277 -0.021211095 -0.38771513 0.038165666 0.189573 -0.046312798
-0.18991923 -0.05255111 0.69605184 -0.15602489 0.24074592 0.17803793 -0.46167943 -0.41712233
0.19418514 -0.21151768 -0.15923865 -0.17651388 0.53212285 -0.2837123 0.34640008 0.20575973
0.20502965 -0.3775876 0.052940365 0.06896865 -0.12183585 -0.12530476 0.3380353 -0.16983351
0.2757387 0.27881968 0.036268502 -0.3727404 -0.055524915 0.19197236 -0.004835183 -0.3788996
0.21860959 -0.037928794 0.038510676 0.106905 -0.61820185 -0.3402965 -0.07273213 0.15077412
-0.060696647 -0.13865602 0.05570817 0.06329616 -0.26882988 0.016548473 -0.43034753 0.019357217
-0.23086946 0.28553808 0.044409044 -0.50527745 0.14865625 0.20082776 -0.058698505 0.19228797
-0.3285361 -0.29166448 0.10762896 0.25887775 0.08594842 -0.8712808 0.00020912722 0.07930772
0.11274802 0.28076524 -0.4824661 -0.1418235 -0.21371864 0.11378196 0.04417693 -0.85546863
0.015160947 0.063122466 0.24810319 0.21141651 -0.3225285 0.06044307 -0.47818097 0.35845694
0.06394982 -0.922989 0.28899485 -0.073983334 0.2527782 0.21163324 -0.1540947 -0.09129421
-0.075743146 0.04779432 0.044573233 -0.43687108 -0.04250128 0.064867556 0.45100686 0.114254914
-0.07446815 -0.05363965 -0.20349628 -0.03494566 -0.047498222 0.3576577 0.18472943 -0.0078118066
0.25713196 0.10738183 0.007148529 -0.068400264 -0.18165198 0.07440455 -0.17070025 0.36300778
0.2977506 0.040082965 -0.12569201 0.051466122 0.040429443 -0.26500925 -0.076958515 -0.29717383
-0.08511481 -0.6789031 -0.14752147 -0.27430087 0.22512749 -0.009870647 -0.3332195 -0.30961156
0.024883868 -0.095263965 -0.03124433 -0.34444734 -0.47418302 -0.052115366 0.1359691 -0.024730593
-0.24461718 -0.38335788 0.1725375 -0.2474756 -0.2580657 -0.36394334 0.27491242 -0.14909492
0.0058133174 0.058323447 -0.35278645 -0.5757828 0.08069135 -0.17495225 -0.2698645 -0.18060504
-0.0987657 -0.20182963 0.19246778 0.035127982 -0.1511778 -0.17465104 0.11294929 -0.39338925

network_body.linear_encoder.seq_layers.2.bias f4 [256]
00000000: efea 2dbe eb71 1dbe 8474 f93c 8515 a1bd
00000010: 764d c1bd d8b9 5cbe 7431 1f3d 95d3 ea3c
00000020: e599 dfbc ec01 8cbe 50b8 27be 0ce1 17be
00000030: 7cc5 1fbe 156c 91be 2ce3 2abe 841f 5cbe
00000040: d5b0 8cbd 8cfd c5bd cfc6 8fbe fc60 7ebe
00000050: cfe4 d8bc 698e 393b d4ee 0f3d 9e43 31be
00000060: a9de 3dbe 8432 5f3e be36 f6bd f51d 18be
00000070: 7411 fcbd f4cb 7abe 59d3 41be a417 b5bd
00000080: 7fc8 58be 660c 34be 5c7b 10be 55b5 66bc
00000090: d9de 25be 55bf 95be 1142 3fbb 7b39 40be
000000a0: 0775 2fbd 63c4 c7bd 2933 45bb e00f 2fbe
000000b0: 9ecf 59be 0665 98be e14c 81be ea22 d9bd
000000c0: 06b1 2bbe cbb3 acbe 93a9 bd3b 8f18 003d
000000d0: 198f aebd c749 33be 86b2 3dbe ec29 b7bd
000000e0: 98bc 78be be07 4bbd 85d2 57bd a076 edbd
000000f0: 0d2f 03be c4ce 17be 57b7 57bd c73e 77bd
00000100: 6ae2 1ebe 55b5 2ebe c5c1 bbbd 5df8 e4bc
00000110: 9bac 29be bdcf d2bd 3413 74be e712 ffbd
00000120: cce5 81bd 1a7d 0ebc e81b 61bd 99d0 74be
00000130: a2ef 0f3d 8d59 85be 1adc 85bc e1f6 4bbe
00000140: 6efa 8e3c 5891 3cbc 0dd0 20be 4328 0abe
00000150: efde 89be 8f05 08be 4b4e 5cbe 96bc 96bd
00000160: c4d6 38be d3a6 24be cfbe 5dbe af07 0abe
00000170: 6198 65be 4802 00be 5bac ae3d 30b7 19be
00000180: 67cb 00be 481b 49be 3064 00bd 0fb2 3dbe
00000190: 708c c6bd c317 35be 44ca b63d 08ac 583c
000001a0: 734a 43be 62b2 36be 2726 6abe 1946 4cbd
000001b0: 1d14 12be 8fb6 52be 2ff9 81bd 11d6 4dbe
000001c0: 1f2b 2d3b 55c9 9a3d 1f49 e6bc c3c2 9ebd
000001d0: 0ec0 b3bd 8620 20be 2d10 96be cbdb 30bd
000001e0: 695e 92bd 0e08 20be 3e31 0fbd cb07 9cbc
000001f0: 1832 79bd 3abc cdbc 1283 71be 904e 4ebc
00000200: a180 42bd 0a40 e7bd 32e9 eebc af10 7cbc
00000210: b0df 32bd 720d e7bd a177 5f3d 3ad1 90bd
00000220: 7607 2bbe 9cda 36be e3c1 40be 55dc 88bb
00000230: 8ce5 11be 2397 d0bd e29d 04be 4bf7 61be
00000240: 6b07 0dbe 9262 2d3d 76de 9cbd a532 71bd
00000250: a282 1abd 9377 ee3b 15c9 4fbe 49ec 53bd
00000260: 6b87 413d e0ec 07be 30b4 cf3c ee5c 4abe
00000270: e538 11bd fc09 163d fb20 51be a404 e9bd
00000280: 85e1 d4bc d1bb 30be abd2 7fbe b3ec d1bc
00000290: d525 f5bd c4e6 dd3b 4941 84bd 85f2 81be
000002a0: 6f6d 87be fac5 debe 9e4f 22bd 9178 73be
000002b0: 9012 723d 2b7c 433c e74f f3bd d278 c6bd
000002c0: e648 ab3d fdc3 8dbe 27e4 70be 6854 d23c
000002d0: 064e 84bd d648 5dbe a099 8ebe 31e1 abbe
000002e0: c978 a3bc cb61 c2bd 1829 d8bd 61e9 2cbe
000002f0: e4be 82be f15b ebbb 69c9 febd e2f7 7dbd
00000300: 0a0c 1dbe f8aa 703d 1ac0 8fbd 40f1 c5bd
00000310: ef35 313b 1c5d f4bd 04d9 0dbe 8418 60bd
00000320: d599 15be ed23 7cbd 8ebd a9bd b6b8 223d
00000330: 25ee 86be 4953 a6bb 51c7 533d b4b0 2dbe
00000340: c65d 7d3d f327 90bd 1394 11be f9d3 453d
00000350: 085e a9bd 287f d13c 7211 41be da2d c43c
00000360: add6 15bd 30ed e8bd 9a12 d6bc d868 9abd
00000370: ad82 1fbe d363 e7bd 8132 86bc d074 23be
00000380: 50d0 5abc a9ea 0fbe 3304 66bd c8f3 acbd
00000390: 02df 4bbe 50eb a6be 256f 1fbe 53d9 d7bd
000003a0: a232 98bd 1711 0dbe 71f9 65bd 8fb9 76bd
000003b0: 1973 86be 6660 39be 3784 e63d 0570 05bd
000003c0: 7b16 64be d9b8 35bd 5d01 9dbd a074 b6bd
000003d0: cffe 10be da8e 423d 7bb7 2ebe 9e5c a4be
000003e0: d39f cfbd c7d4 19be 1806 09be fc44 52be
000003f0: 3274 63be ad55 02be 1d35 40bd e123 adbd
-0.16984151 -0.15375488 0.030451067 -0.07865433 -0.094386026 -0.21555269 0.03886552 0.028665343
-0.027295062 -0.27345216 -0.16378903 -0.14831942 -0.15602678 -0.28402773 -0.16688222 -0.21496397
-0.068696655 -0.09667501 -0.28081366 -0.24841684 -0.026476292 0.0028313643 0.035139874 -0.1731095
-0.1854197 0.21796614 -0.1202216 -0.14855178 -0.123080164 -0.24491864 -0.18928279 -0.088424
-0.21170233 -0.17582855 -0.14109558 -0.014081319 -0.16198291 -0.29247537 -0.0029183666 -0.18771927
-0.042836215 -0.09754255 -0.0030090308 -0.170959 -0.21270606 -0.29764575 -0.25253966 -0.106023625
-0.16766748 -0.3373092 0.005788037 0.03127342 -0.085233875 -0.17508613 -0.18525133 -0.08943543
-0.24290693 -0.04956793 -0.052691 -0.115948915 -0.12810917 -0.14824969 -0.05266508 -0.060362604
-0.15516058 -0.1706136 -0.09167818 -0.02795046 -0.1656975 -0.10293529 -0.2383545 -0.12454777
-0.063426584 -0.008696819 -0.054958254 -0.23907699 0.03514064 -0.26044884 -0.016340304 -0.19918396
0.017453399 -0.011509262 -0.15704365 -0.13491921 -0.26927897 -0.1328337 -0.21514241 -0.07360189
-0.18050677 -0.16079263 -0.21654819 -0.13479494 -0.22421409 -0.1250087 0.08528968 -0.15011287
-0.12577592 -0.19639313 -0.031345546 -0.18524955 -0.09694755 -0.17684846 0.08925298 0.013224609
-0.19071369 -0.17841485 -0.22866116 -0.049871538 -0.14265485 -0.20577453 -0.06346356 -0.20101191
0.0026423407 0.07557932 -0.028111039 -0.077519916 -0.08776866 -0.15637407 -0.29309216 -0.04317836
-0.071469136 -0.15628073 -0.03495907 -0.019046685 -0.06083879 -0.025114167 -0.23585156 -0.012591973
-0.04748595 -0.11291511 -0.02916393 -0.015384837 -0.043670356 -0.11281861 0.054557446 -0.07071157
-0.16702065 -0.1785683 -0.18823962 -0.0041766562 -0.14247721 -0.10185077 -0.12950853 -0.22066991
-0.13772361 0.042330332 -0.076596186 -0.05888619 -0.037722237 0.007277438 -0.2029155 -0.05173901
0.047248285 -0.13273954 0.025354475 -0.19762012 -0.03545465 0.036630616 -0.20422737 -0.11377838
-0.025986442 -0.17259146 -0.24982707 -0.025625562 -0.119701065 0.006771894 -0.06457765 -0.2538034
-0.2645068 -0.4351042 -0.03962671 -0.23776461 0.059099734 0.011931459 -0.118804745 -0.096910134
0.08363514 -0.2768859 -0.23524533 0.025675014 -0.06460194 -0.21609816 -0.27851582 -0.33570245
-0.019955056 -0.09491309 -0.10554713 -0.16885902 -0.25536263 -0.007182591 -0.1244076 -0.062003978
-0.15336624 0.0587568 -0.07019062 -0.096651554 0.0027040204 -0.11931822 -0.13852316 -0.05471088
-0.14609464 -0.0615577 -0.08288108 0.039726935 -0.26353565 -0.0050758463 0.051703755 -0.16961938
0.061857007 -0.0703887 -0.14216642 0.048297856 -0.08269888 0.025573328 -0.18854311 0.023947645
-0.036581684 -0.11373365 -0.026131917 -0.075395286 -0.15577193 -0.11298337 -0.016381504 -0.15962529
-0.01335533 -0.1405436 -0.05615635 -0.08444935 -0.1990929 -0.32601404 -0.15569742 -0.10539498
-0.074315324 -0.1377605 -0.05614609 -0.060235556 -0.26259688 -0.1810318 0.11255687 -0.032577533
-0.222742 -0.044365738 -0.07666276 -0.08908963 -0.14159702 0.047499515 -0.1706218 -0.3210191
-0.10137906 -0.15022574 -0.13381231 -0.20534128 -0.22212294 -0.12727995 -0.046925653 -0.08454109

network_body.linear_encoder.seq_layers.2.weight f4 [256, 256]
00000000: 92da 49bd 1472 533e dfff f2bd c2f5 8abe
00000010: 86aa 8c3e 7ad9 24be 726c 9ebe 718a 65bd
00000020: 5951 143e 8715 18bc b68f 6fbd 663f 023e
00000030: 2a6d 1c3d 95e9 49be f9f5 483e 2e81 bb3e
00000040: c827 273d 29c1 82be 1e3b c2bd 854a bdbd
00000050: 12e0 2ebe c4a8 013b 96de 35be db3c 23be
00000060: 98af 66be 8f7c 36bd 2118 8e3d 4090 43bd
00000070: a824 883e 5792 083e 7d29 6abe cbcb f5bd
00000080: 9032 de3e 9e24 57be 5faa aebe 98c6 c7bd
00000090: 54e4 90bc c4ec 3abd 991c 193d 7fb7 033f
000000a0: 3e2d 6abe c89d c83e 7445 08be 4341 c63c
000000b0: f731 713e b0f6 f6bc 8ac1 05bb fa95 6e3e
000000c0: aa97 ff3d acc5 e23e 63e8 0cbe 5549 713d
000000d0: 3f0a 15be 34e9 3b3f 1bbf 51bd 6a25 2b3e
000000e0: 0422 c9be cef0 f3bd 3b10 6a3d c5c4 f0bd
000000f0: df07 5e3e ed8f 82bc 727c 65be 4d38 8c3d
00000100: 35da 2abb 04a4 8cbe 543a 50be c44c fc3d
00000110: 4422 793d b770 123e 9639 b03e 35ee 85be
00000120: f810 ee3d 4483 f6be e9d7 11be 0ff0 063f
00000130: 32f1 483e 9f0c a13e 0ab7 0f3e 03e8 96bd
00000140: 6442 a43e 55ea dabc 73fb b53e e19e 22bd
00000150: ce14 54bd 44b8 3fbe 1a33 20be 420d 203e
00000160: 97f1 6f3e ff4d 053e 21e2 87be 69fb 5d3e
00000170: dc4b 9abc 7a6f ee3d 0690 24be 86f9 4abc
00000180: 2a63 bfbe 1b03 c6be 595c 9a3d 7d7a 60be
00000190: f808 6dbe faf3 10be 8abd 4d3e 07a4 37bd
000001a0: eff6 993e 78ff 493b 6b39 1f3f 029f 15bd
000001b0: 364e 27bd 328e 5c3e c999 65be bc20 413e
000001c0: b29a cc3d 5d79 41bd fed4 13be 5808 dabe
000001d0: d95f 1dbe fdb3 093e 4476 4bbe 086c df3e
000001e0: 5f7a babe 86f4 d0bd b192 79be ab2e ac3c
000001f0: 73e5 68bc 0d16 503e 51e1 743e dcb0 7a3e
00000200: 6a92 df3e 557d 1c3d df71 cbbc 47df 07bf
00000210: 0579 a9be 8db0 453e 3299 1f3e 6103 3f3e
00000220: ffd9 873e 597a 183e 3063 95be 6a68 93be
00000230: 58dc 403e 11d4 7d3e d8ea 10be a64e e7bb
00000240: 625f 91bd 0da4 5f3d 32ee 6bbe f251 863e
00000250: 8211 493e 5821 2cbe e962 3c3d b861 6abe
00000260: f497 ecbd 84b8 ea3b 16c0 93be ec9e 183e
00000270: d817 0dbe ec01 d6be b8f5 2abe 9897 16bf
00000280: f246 05be 7efd 273e 6954 33be 753f d13d
00000290: baf9 4e3d 9629 5f3e 8d2b 583e 5b8a 9cbe
000002a0: d68b 0fbf de23 903e 81ce 153e 22c2 31be
000002b0: 43f0 133e b400 4d3d a902 18be fe38 773e
000002c0: 5b66 f53d 6a6e 34be ebe3 9b3e 6d3d 053e
000002d0: 08e7 31be faf3 1a3e 4376 db3e 9b56 87bd
000002e0: 930a e93d 7aa0 ccbe 7fbd dcbe 60b1 863e
000002f0: dcc9 cd3e 868b 27be db03 a83d 848f 633d
00000300: a1ac 9d3e 7ca7 7b3e d0e2 b83e 7726 10be
00000310: caa0 7bbd fbce c5be c851 dfba 6aa0 0bbe
00000320: f207 13be 1262 46be d266 5b3e 8961 ab3e
00000330: aa8f 36bc 7c6a 0cbe 4887 83bd 90f7 783e
00000340: 873d b5bd 3bd6 14be b0e4 32bd 5710 babd
00000350: 9f87 6c3e edac c63c 5795 9b3e 7f70 8e3c
00000360: 9260 193e d028 893e 6c2a b03e d991 113e
00000370: eb92 8d3d e9e6 babd f48f 023e 872d 0bbe
00000380: a120 923d e8de 95be a66a 5bbc c696 94bd
00000390: 2bf8 a9bd 9e22 773e 63df a0bd 05ec 8e3b
000003a0: 0aae a0bd d032 8a3e de43 233e 8e69 86bd
000003b0: 8dfe 73bd 76c4 c4bd 1e08 7b3d dbc6 be3d
000003c0: 5d21 5f3e 6706 863e c937 413e 8aa1 c8bd
000003d0: 2fc4 67bc b61e 383d 9aab 8b3e e6d5 18be
000003e0: 712b cdbe f514 503e f616 303e 5948 b8bc
000003f0: 258a 92bd cccb cebe 53f2 573e 4ee7 c03e
-0.04928071 0.20648986 -0.1186521 -0.27140623 0.2747385 -0.16098586 -0.30942112 -0.05604023
0.14484157 -0.009282476 -0.058486663 0.12719497 0.038190044 -0.1971801 0.19625081 0.36621994
0.040809423 -0.25537995 -0.09483932 -0.09242729 -0.17077664 0.001978443 -0.17760691 -0.15941183
-0.22527921 -0.044552382 0.06938196 -0.04774499 0.26590466 0.13337074 -0.22867389 -0.12001761
0.4339795 -0.21010062 -0.34114358 -0.097546756 -0.017687 -0.045635954 0.03738079 0.5145187
-0.22868821 0.39182878 -0.13307744 0.024201041 0.23554216 -0.030146927 -0.0020409548 0.23299399
0.124800995 0.44291437 -0.13760523 0.058907825 -0.1455469 0.73402715 -0.051207643 0.16713491
-0.39283764 -0.11911164 0.057144385 -0.11756281 0.2168269 -0.01593777 -0.22410753 0.06846676
-0.0026070003 -0.27468884 -0.2033475 0.123193294 0.060823694 0.1430081 0.34418935 -0.261583
0.1162433 -0.48147023 -0.1424252 0.5271005 0.19623259 0.31454942 0.14034668 -0.073684715
0.32081902 -0.026723066 0.35543403 -0.0397023 -0.051777653 -0.18722636 -0.15644494 0.15630057
0.23432003 0.13018034 -0.2653971 0.21677937 -0.018835 0.11642356 -0.16070566 -0.012388593
-0.37380344 -0.38674244 0.07537145 -0.21921726 -0.23147953 -0.1415557 0.20091835 -0.044834163
0.30071208 0.0030822437 0.6219699 -0.036528595 -0.040846072 0.21538618 -0.22421946 0.18860143
0.09990443 -0.04723488 -0.14436719 -0.4258449 -0.15368594 0.13447566 -0.19869334 0.4363711
-0.36421487 -0.10202889 -0.24372365 0.021018347 -0.014214861 0.20320912 0.23914076 0.24481529
0.43666393 0.038205463 -0.024834571 -0.5307507 -0.33100143 0.1930563 0.15585783 0.18653633
0.26533505 0.14890422 -0.29177237 -0.287906 0.18834054 0.24787928 -0.14152086 -0.007058936
-0.07098271 0.05459981 -0.23040083 0.26234394 0.19635585 -0.16809595 0.045992766 -0.22888839
-0.1155242 0.0071631093 -0.28857487 0.14904374 -0.13778627 -0.4179834 -0.16695297 -0.58825064
-0.13015345 0.16405293 -0.17512669 0.102171816 0.050531127 0.21793208 0.21110363 -0.30574307
-0.5607275 0.28152364 0.14629556 -0.17359212 0.14447121 0.0500495 -0.14844765 0.24142835
0.119824134 -0.17620245 0.30447325 0.13011713 -0.17373288 0.15132132 0.42863664 -0.066083156
0.1137897 -0.39966184 -0.43113324 0.263072 0.4019307 -0.16361818 0.0820386 0.05555679
0.30795768 0.24575609 0.36110544 -0.14077173 -0.061432637 -0.38634476 -0.0017037923 -0.13635412
-0.143585 -0.19373348 0.21425942 0.3347285 -0.011142651 -0.13712496 -0.06422287 0.24313188
-0.08849626 -0.14534847 -0.043675125 -0.09085148 0.2309861 0.02425238 0.30387375 0.017387627
0.14978245 0.2678895 0.34407365 0.14215793 0.06912788 -0.09126074 0.12750226 -0.13591586
0.0713513 -0.29271626 -0.013392126 -0.0725532 -0.082992874 0.24134299 -0.07855108 0.004361632
-0.07845695 0.26991892 0.15943858 -0.06563102 -0.05956893 -0.096077845 0.061287038 0.093152724
0.21790071 0.2617676 0.18868937 -0.09796436 -0.014145895 0.044951163 0.2727936 -0.14925346
-0.40072206 0.20320494 0.17196259 -0.022495436 -0.07155255 -0.4038986 0.21088533 0.3767647
