Project/Assets/MyProject/Chaser/CVR 4/Models/ver 7/PoliceBrain.onnx (onnx, 655880 bytes, 6 tensors)

action_model._discrete_distribution.branches.0.bias f4 [7]
00000000: 5d0b fabc 330f 91bd b7e6 323e d73c 613d
00000010: 99b6 10bd 9690 83bd 01c1 c9bc
-0.030522997 -0.07082977 0.17470823 0.054989662 -0.03533039 -0.06424062 -0.024628164

action_model._discrete_distribution.branches.0.weight f4 [7, 256]
00000000: 3de2 d73d ca7d dcbd 97db 273d 730b 5dbe
00000010: 972e 8abe 9c58 2c3c b92d c4bb a560 97bc
00000020: 348f 34be 003d ecbd a25f 13be c988 463d
00000030: ef3b acbe bcc0 d1bd ed64 193d 2f8a ca3d
00000040: 8d89 683e f950 4cbe dbe3 93be fea6 25be
00000050: 4661 003e 2955 e8bd eca6 3fbe 2f07 92ba
00000060: 1275 ddbd 0777 5a3e 4757 41be a4bb aebd
00000070: b5fc 8e3e c338 7b3e 4645 273e b832 aebb
00000080: 4b54 d53d b5f1 653e 6368 2c3d 0afc a13e
00000090: 7194 52be 7a4d a7be ec85 883e 1ddf 983e
000000a0: 9071 50bd bdf8 953d eeae 5ebe 904a 6c3e
000000b0: 4c84 71be 84d1 773c e409 8f3d 9984 1c3e
000000c0: c7df b5bd a166 7d3d 4497 503e 76c6 63bd
000000d0: d523 c7be b538 593e f435 e1bd 2cd6 8ebe
000000e0: 59f8 87bd 9fdf c1bd 8239 e53d ff74 8dbb
000000f0: 3f43 11be 7a57 74be 8b16 c33b 849c 54b9
00000100: d366 d63c bb52 4f3e 0e9c 743e d89f d7be
00000110: 8798 9cbe 2f6b 7e3e 9001 92be 460c 7e3e
00000120: 23a0 103e fc19 e73d c609 593e 6fe9 4cbe
00000130: 33a8 96be ad0c 7fbe 5141 0d3d d94f 143e
00000140: 9eff 663e 20f6 a33c bb93 ac3e e8eb 84be
00000150: 3b09 debd b536 29bd 1f4b 05be 1e64 6d3b
00000160: 8adc 8d3e 2248 833e 5124 8c3d d5f7 c9be
00000170: e640 e6bd cd1a a33d 8ccb 84bd 26e5 2bbd
00000180: 8b04 6b3e db16 3dbe 164a a7bd 40d6 5fbb
00000190: eeb9 d5bd a6e0 93bd 405a a0bd 9876 d23d
000001a0: aa1c 6abe db17 f23d 74ef 483d 2561 a4bc
000001b0: 2d0f ca3d b8ca 59be a931 323d b7b3 7abe
000001c0: 7cbc 44bc 95e4 253d 57d5 8a3d d51d 4d3d
000001d0: 6608 193e fa68 f63d 91a8 c13d 501a 8e3b
000001e0: 1927 663d f991 8fbc 1e16 503e 7e9b cf3e
000001f0: 03f7 26be 8dbf 56be aa34 96be 3321 6fbe
00000200: 45b4 7fbe 1eb2 04be 7e12 6a3e 72ed 9cbd
00000210: bdf6 5fbe 67de 1f3d 6a99 cabe 47c2 c53d
00000220: 5e05 473e b57d a6be 7c43 f1bc 5169 c73d
00000230: d1cb 263e 3a93 63be 90d9 283e ad34 5a3c
00000240: 7bb8 94bd 5e3b ca3c 4469 adbe eea1 a5be
00000250: 4286 6cbe 341b 763e 8ac7 98bc 88ef 033c
00000260: 8c38 fa3d 87c8 123c a1fa cbbd 5b9c b8be
00000270: 55df 43be d796 8f3d f831 d6bd b5f6 083c
00000280: 4897 e83d a4dc cbbc e2e3 a53c 86be bc3d
00000290: 7716 b23d c6cb 463e a0dc f83d 7a93 253d
000002a0: 9016 bf3d 8514 b03b e830 26be 529f 9fbd
000002b0: ce0e 25be 8e9c 76be 12ec 81bd c522 243e
000002c0: 0a15 c63e 4980 56be 8d6f d9bd 134d 2abe
000002d0: a7e9 4dbe 1c6f 1a3e f2d0 7ebe 9539 993d
000002e0: bd28 86be f572 183a faa8 c3be 82d9 90be
000002f0: 0881 b1bd f194 b0be d682 1e3e d3e9 593e
00000300: 8b6e 8e3e abaf d03d 72e1 cf3d 5a78 63be
00000310: 562e 0f3e b7e7 6bbc 4976 08be a82b 26bd
00000320: 1995 173e 3b3a 9bbd a719 6d3c c5e2 fe3e
00000330: f537 06be 110f 2e3e 41b8 003e 8c61 7e3e
00000340: 6ea8 bfbe 944f b4be 6446 003e f85b 9a3e
00000350: cce0 1e3d f0a1 2ebe 6f67 a33d b866 6fbe
00000360: 6a6f 9dbe fd50 723e 2fd4 4a3c 3477 623d
00000370: 3ba2 803d fb07 af3d a160 0d3e 6898 093e
00000380: 2212 67be ea4b 1a3e 138a 313d 7739 033e
00000390: 3400 fcbb 118b 1d3e ab64 00be 3919 6f3e
000003a0: a458 2e3e 7e1d 343e 44e5 6a3d 37e9 9c3d
000003b0: a3cd 0abd 6a77 64be 4a0b 99be 3353 1b3e
000003c0: 58ce 00bf edc5 acbe 4e5e 893e c73f 25bc
000003d0: 1e00 853d 4088 383d 8ee7 80bd aee1 e9bd
000003e0: 1f99 6bbe 4e86 3a3e 44f3 c5bc bc00 cb3d
000003f0: 03db c0bd 37cd 45be 040d dabd 8e1c 193d
0.105411984 -0.1076618 0.0409809 -0.21586399 -0.2698867 0.010519173 -0.005986896 -0.0184787
-0.17632753 -0.11535072 -0.1439195 0.048470292 -0.33639476 -0.10241839 0.037449766 0.09889638
0.22708721 -0.19952764 -0.28884777 -0.16176984 0.12537107 -0.11344368 -0.1871602 -0.0011141057
-0.10813345 0.21334468 -0.1888095 -0.08531883 0.27927175 0.24533372 0.1633502 -0.0053161047
0.10416468 0.22455485 0.04209174 0.31637603 -0.20564438 -0.32676297 0.26664674 0.29857722
-0.05088955 0.07322834 -0.21746418 0.23075318 -0.23585624 0.015125636 0.06984308 0.15284957
-0.08880573 0.061865453 0.20370203 -0.05560919 -0.38894525 0.21213038 -0.10996619 -0.27897775
-0.066391654 -0.094664805 0.11192609 -0.0043169255 -0.14185809 -0.23861495 0.005953615 -0.00020276202
0.026172077 0.20246403 0.23887655 -0.4211414 -0.3058512 0.24845575 -0.28516817 0.2480937
0.14123587 0.11284253 0.21195135 -0.20010923 -0.294252 -0.24907179 0.03448612 0.14483584
0.22558448 0.020014822 0.3370646 -0.25961232 -0.10841604 -0.04131194 -0.13016938 0.0036223005
0.2770732 0.2564097 0.06842864 -0.39446893 -0.11242847 0.07964096 -0.06484136 -0.04196658
0.22950952 -0.1846575 -0.08168428 -0.0034154803 -0.10435854 -0.07220583 -0.07829714 0.10276526
-0.22862497 0.11820956 0.049056485 -0.020065853 0.09866176 -0.21268737 0.04350439 -0.24482618
-0.012007829 0.040501196 0.067789726 0.05007728 0.1494461 0.120317414 0.094559796 0.004336633
0.05618963 -0.01752566 0.20320937 0.4054832 -0.16305165 -0.20971508 -0.29337054 -0.23352508
-0.24971111 -0.12958571 0.22858617 -0.076624766 -0.21871467 0.03903046 -0.3957017 0.09656196
0.19435641 -0.32517782 -0.029451124 0.097368844 0.16288687 -0.22224131 0.16489244 0.013318223
-0.07261749 0.024686512 -0.33869374 -0.32350105 -0.2309809 0.24033815 -0.018649835 0.008052714
0.12217817 0.008958942 -0.09959913 -0.3605679 -0.19128163 0.07011192 -0.104587495 0.008359601
0.113569796 -0.024885483 0.020250265 0.09216027 0.08695691 0.19413671 0.12151456 0.040423848
0.09330475 0.00537354 -0.16229594 -0.0779406 -0.16118929 -0.24083158 -0.06343855 0.16028889
0.38687927 -0.20947374 -0.1061698 -0.16630964 -0.20108663 0.15081447 -0.24884394 0.07481686
-0.26202956 0.000581547 -0.38214856 -0.28290945 -0.08667189 -0.34488633 0.15479597 0.21280603
0.27818713 0.10189756 0.10150422 -0.22213879 0.1398252 -0.014398507 -0.13326372 -0.040568978
0.1480297 -0.07579466 0.014471448 0.49782386 -0.13107283 0.16997935 0.12570287 0.24841899
-0.3743319 -0.35216963 0.12526852 0.30148292 0.0387886 -0.17053962 0.07978713 -0.23379028
-0.30749065 0.23663707 0.01237969 0.055289462 0.06280943 0.08546444 0.13806392 0.13437045
-0.22565511 0.15068021 0.04334457 0.1281489 -0.007690454 0.15385081 -0.12538402 0.23349465
0.17026001 0.17589375 0.05734755 0.0766167 -0.033887517 -0.22311178 -0.29891425 0.15168457
-0.50314856 -0.33744755 0.2682976 -0.0100860065 0.06494163 0.045051813 -0.062941656 -0.11419998
-0.2300763 0.18215296 -0.02416385 0.099122494 -0.09416773 -0.19316565 -0.10647014 0.037380747

network_body.linear_encoder.seq_layers.0.bias f4 [256]
00000000: 3dbb 803d e1e5 47be 0592 003d 95a2 f1bd
00000010: 2c89 2abc 6f3b 25be f35d 9b3d 076f 5abc
00000020: be3c a2bd c5ab a2bc 6f6c 483d 691c 73be
00000030: 66ba 7b3d 015a 3fbd 6a06 05be de5e 343b
00000040: fdde 87bd 6b98 1ebe a952 733d acfe a3bb
00000050: 9a6e a5bc 097a 32bd f9cd 233b 01f1 163d
00000060: e4ea 87bd 6f44 26bc 38d7 b8bd 1911 51bd
00000070: 379f 87bc e040 46bc c00d 0dbd 3397 22bd
00000080: 286d c7bc e00e d0bd 35a5 94bc 82ce 5f3a
00000090: a12a 15be f403 3dbd 928d 213b 0348 14bc
000000a0: 4f57 12bd 8f7c aabc 7f39 b8bd 96d4 75b9
000000b0: 6b1b ad3d 3b0e 2cbd 273a f5bc cf1b 2ebe
000000c0: f25c 6fbd ca0f 0fbe 2d98 0c3d 4cc6 bcbd
000000d0: 1c77 a7bd 5a18 96bc 4943 b5bc 7700 1d3d
000000e0: 7546 00be 0baa 8b3d d7d3 87bc 214c d1bd
000000f0: 1d91 7b37 0310 0bbe 4655 673c 9570 6dbe
00000100: c8b7 02be b5b7 a9bd 5499 343d a123 e73c
00000110: d837 56be 75ec 08be 3d72 89be 8ce5 a7bd
00000120: 1eb1 b0bd cbf7 da3d 0838 ee3a 85c7 5abc
00000130: b58f 31bd aaa3 4cbd 1b9b 13be dda9 593d
00000140: 9819 51bc bcaf a5bd da9b 98bd 2244 86bd
00000150: 3723 29bd adf6 18be b7c7 3fbd 9d8a 06bd
00000160: f59d cc3d 8d11 9ebd 48b6 09be 33fe aebd
00000170: f5e4 823d c2a1 57bd 6d53 d73c cf09 53be
00000180: e27d a8bc b914 3abe b57b 25bc fc0f d1bc
00000190: 1e09 90bb 2852 d9bd 1327 833a 7cbe b13b
000001a0: e9ae 96bd 73b6 61be 4787 a0bd eb2c 86bd
000001b0: 736a 37bd a691 58be 7c91 46be 5d66 6bba
000001c0: b5ec a8bc b306 dabd eefa a93c bad8 a6bd
000001d0: 182a 003d 0a08 423c 5ced 0fbe 740f 2bbe
000001e0: 7c20 34bc 3646 67bd 6700 22be 6794 103c
000001f0: 7267 07bd ee2c e4bd a095 c1bd 22b1 c13d
00000200: d378 2a3d e2cd ebbc c701 8bbc 22b4 78bd
00000210: 8075 1fbe c64e aabd 99a6 f9bc 2fbd 61be
00000220: e2fc ccbd aa34 1ebc efa3 d9bd 4332 53be
00000230: c6d8 31bd 83f7 b8bd 0528 a2bd 4ee9 cf3d
00000240: e341 1ebe 48ff 92bd cbf3 0ebd 55af e9bd
00000250: bfb1 643b 0b3a 2c3e b06c 47be 720a c33d
00000260: 5edf 82bd ce14 d8bd 873e 813d 796a e73d
00000270: e9de 753b d20a 3fbd 5b03 8abc c689 17be
00000280: 34d3 b8bd 3e53 aeb9 89a3 043c 1df3 e33b
00000290: f8b2 36bd 85ef debd 02b2 67bc fcd7 cc3d
000002a0: 757f 42bd 8aa0 8e3c d550 26be 41a0 8c3c
000002b0: abce 4cba e408 17be 54ef 5cbd 9783 20be
000002c0: 61f1 88bd 18d2 cbbc 3549 40bc 49a7 28be
000002d0: c434 22be 825f 07be 6873 f33c dc82 273d
000002e0: ac31 c5bd a1a9 743c 55a0 25be a75b f13c
000002f0: 4b5a 0fbd 0c20 8c3d c736 3b3d 7dfb a5bc
00000300: 0bde 69bd 0010 a6bd 6710 ea3b d939 5abd
00000310: 21e6 383d 8ca9 283d b4ec dcbd 2b46 ab3d
00000320: 170b 15be 1231 bf3c e5b2 b9bd b86d bdbb
00000330: d834 efbd 0eda adbd 15e7 dabd bc11 d3bd
00000340: 8628 703c d409 c0bd dee9 0d3d 1cf5 163a
00000350: 86ee fabd 51b3 e33d 7d56 ea3c 9a9a 2d3d
00000360: a85f fbbd 4816 57bd 9ad9 d93c 73b5 233c
00000370: 4124 91be 0749 b5bd 03bb f53b 8d0a 263c
00000380: 4700 dfbc 9a80 64bd be1f 25bd b15f 3ebd
00000390: 32d9 823d 5cbc 0fbd 2802 863c da33 06bd
000003a0: 9e08 b6bc 9dbf 9a3c cdf1 0fbe d010 ba3c
000003b0: 3a82 ebbd d69d 27be e23f 42be ea8d d13b
000003c0: 73eb 35bc b2a6 cb3c 4764 5ebe b032 07bd
000003d0: 84eb 72bb 599a 723d 46df 11bd c66b 3ebe
000003e0: 2348 3ebe 402b 913c 9898 32be 2642 0bbd
000003f0: 5ff7 32bd e732 1b3e 0b5c 4ebd 55ba f9bc
0.06285713 -0.19521286 0.031389255 -0.11798588 -0.010408681 -0.16135953 0.07586279 -0.013332135
-0.07921742 -0.019857297 0.048931535 -0.23741306 0.06145706 -0.046716694 -0.12990728 0.0027522366
-0.066343285 -0.1548783 0.059405003 -0.0050047245 -0.02019434 -0.043573413 0.0024994595 0.036850933
-0.06636599 -0.010148152 -0.09025425 -0.051041696 -0.016555412 -0.012100428 -0.03443694 -0.039694976
-0.024344042 -0.10159087 -0.018145183 0.0008537547 -0.14567043 -0.046146348 0.0024651033 -0.009050372
-0.035727795 -0.020811347 -0.089953415 -0.00023444215 0.08452495 -0.04200576 -0.029934956 -0.17002796
-0.05843825 -0.13970867 0.034324814 -0.092175096 -0.08177015 -0.018322159 -0.02212681 0.03833052
-0.12526877 0.068195425 -0.016580505 -0.102195986 1.4994553e-05 -0.13580327 0.014119452 -0.23187478
-0.1276542 -0.082869925 0.044091538 0.028215231 -0.2091974 -0.13371451 -0.2684497 -0.081980795
-0.086275324 0.10691794 0.0018174658 -0.013353233 -0.04334994 -0.04996077 -0.14414637 0.05314051
-0.01276245 -0.08090159 -0.07451601 -0.06555964 -0.04129335 -0.1493785 -0.046821322 -0.032847036
0.099910654 -0.07718191 -0.13448441 -0.085445784 0.06391326 -0.0526445 0.026284898 -0.2060921
-0.020567838 -0.18171968 -0.010100295 -0.025520317 -0.004395618 -0.10611373 0.0010006152 0.005424319
-0.0735758 -0.22042255 -0.07838302 -0.06551536 -0.044779252 -0.2114931 -0.19391435 -0.0008979792
-0.020620683 -0.10645809 0.020749535 -0.08146806 0.031290144 0.011842737 -0.14055389 -0.16705114
-0.010994073 -0.056463443 -0.15820466 0.008824444 -0.033057638 -0.11141382 -0.09452367 0.094576135
0.041619133 -0.028784696 -0.016968621 -0.060718663 -0.15572166 -0.08315806 -0.030474948 -0.22044824
-0.10009171 -0.009656111 -0.10626971 -0.20624642 -0.043419622 -0.09031584 -0.07917789 0.10151921
-0.15454821 -0.07177597 -0.034900468 -0.11410395 0.0034895984 0.16819017 -0.19475055 0.09523477
-0.0639026 -0.10550843 0.06310754 0.11299605 0.0037516898 -0.04664118 -0.016847303 -0.1479865
-0.09024659 -0.00033249886 0.00809563 0.0069564716 -0.04460427 -0.108855285 -0.014141561 0.10002133
-0.047484834 0.017410535 -0.16241772 0.017166259 -0.00078127783 -0.14749485 -0.05393918 -0.15675198
-0.066866644 -0.024880454 -0.011736204 -0.16470064 -0.15840441 -0.13220027 0.029718116 0.04089628
-0.09628615 0.014933021 -0.16174443 0.029462649 -0.03499822 0.0684205 0.045706537 -0.02026152
-0.057096522 -0.081085205 0.0071430686 -0.053277824 0.045141343 0.041177318 -0.10787335 0.08362993
-0.14555012 0.023338828 -0.090673245 -0.0057809018 -0.11680001 -0.08488856 -0.10688607 -0.10306117
0.014658099 -0.093768746 0.03464686 0.000575857 -0.12252526 0.11118186 0.028605694 0.042383768
-0.12274104 -0.052511483 0.026593018 0.009991991 -0.28347972 -0.088518195 0.0074991 0.010134351
-0.027221812 -0.055786707 -0.040313475 -0.046477977 0.06389083 -0.035091743 0.01635845 -0.032764293
-0.022220906 0.018890196 -0.14057083 0.022713095 -0.11499448 -0.16368803 -0.18969682 0.0063950913
-0.011103499 0.02485976 -0.2171794 -0.033007324 -0.0037066648 0.05922923 -0.03561332 -0.185958
-0.18582205 0.017720819 -0.17441022 -0.03399863 -0.043692943 0.15156136 -0.050380748 -0.030484358

network_body.linear_encoder.seq_layers.0.weight f4 [256, 373]
00000000: 4731 74be 0f2f 15be 99d3 653e a374 0b3d
00000010: 0fae 593b 3878 763c 4ca6 6ebd e029 fbbd
00000020: 69e3 8bbd d9d7 863d 052f cc3e cd91 3fbe
00000030: eb84 06bf c712 47bc f978 283e ff19 233e
00000040: c6e2 9d3c 2e56 3abd 304f c3bd cecd d2be
00000050: 81c9 b3bd 0c21 07be 6e89 a63e 0e8f 13be
00000060: 8d75 f6bd bd84 23bd fceb a6be d63f 3a3e
00000070: 1e53 013d f83e cf3c a6e1 4e3e c28e fabe
00000080: 8454 b6bd 9a84 6abd 433b 1dbf 6fc4 693f
00000090: 26ce 90bb 0cf1 033d 5ca9 9c3d 211a 04bf
000000a0: f408 85bd 3b8d 873d 3362 06be 51c8 a63e
000000b0: 3cdc d5bc 9fd0 893d 1901 f23e 2553 4d3e
000000c0: ce6e 2cbe 16a4 79bc 32d5 113e 522f 333f
000000d0: b785 9abd cd6d d8bc 25a9 603e 06b1 053d
000000e0: 8b4f 07be ce9f 6ebd 113d 393e adfd 3b3d
000000f0: 04ad d9bd 1684 cabc a146 a9be 9144 463d
00000100: 84e7 de3d 24b0 87bd 2dc7 dbbd c017 7ebe
00000110: e671 f9bd 08bb 5dbc 8ac8 b1bd 0a53 a43d
00000120: b0ef 86bd ed00 1b3d 853b 29bd efec 66be
00000130: 3057 853d 08c6 cbbd 135b 813e 1cf4 b33d
00000140: 0381 f6be 3d6f 92bd 40f1 70be c33a 66bd
00000150: 7990 2d3a 3bc3 783e d775 85bd 3765 7e3d
00000160: 48bc 653e df79 b7bd 527e d3bd b160 5ebd
00000170: 80c0 0abf ac7a bfbd 75b8 bf3d 7284 c73d
00000180: 49c5 e1bd 146e bcbe b50f a4be 0f81 253c
00000190: 4007 a43e 3ee9 aa3c 0d2b 98be 7e24 9c3d
000001a0: a54e b13d acf3 d5bd 5e79 b1bd 0e1d 04bf
000001b0: fa37 4abd 05cf 02be d7a8 993e b427 513e
000001c0: 9a5f e73d 3b63 27be 481f 9e3d f4d8 b4bd
000001d0: 7855 89be 5e34 acbe c32a 183d a5fe 54be
000001e0: 795a fc3e 421c 3e3e 044e f73d 9a18 b8be
000001f0: 668d 0abd 35a4 6abe 3070 72be e6cd 9fbe
00000200: 6b64 143e 3796 34be 83c4 313f 12ce 4e3e
00000210: 2984 3b3d 111a 93bd 2ffa 79bd 352f d5be
00000220: 95d6 99be 0db4 cebc 4352 b8be 3a48 25be
00000230: aa3b 163f 8aef bc3e 870a 403e f6e6 07bd
00000240: 09fc 47bc ea31 f5bd 9d8b 19be 16e1 b33e
00000250: 355c 0bbf ae28 3dbe 32af 2f3f e079 083e
00000260: 9eaf 833e 15ff 803d 131f 63be 0765 c9bd
00000270: 55e4 a3bd 30d8 60bd dc3c 01bf 9051 86be
00000280: 261f fa3e 084e 3f3e 2d3b 6dbc 0b2b 5a3e
00000290: 4a7f 65be b641 86be 146c 0bbe 574d 0abe
000002a0: f01f b6be 977b 81bb b939 f23c f842 bc3c
000002b0: 39db 98bd b43e 1d3e e76f 18be 4b56 20bf
000002c0: 4024 6bbe a8f0 503c c70e b3be 6e78 c8bd
000002d0: c350 643e d817 533e 8d7d ad3d cdb0 b83e
000002e0: bf1f 1cbe 5486 a1bd 53a7 39be 14a6 79be
000002f0: 51fe 6fbe d85f e1bd 4f7a fd3e ccc2 853e
00000300: ac5a e73d 2dd4 c83e 0df8 94bd 5d2a b0be
00000310: 4b07 8cbe ddac 833d 9b56 0b3e f904 f2bc
00000320: ff37 cf3d 2846 f93d f2f5 63be edc8 103f
00000330: 48b6 58be e4cb 863e 1c63 34bd c847 1abd
00000340: 3a75 5c3e f5b0 3ebd e704 1b3e 3eae 093e
00000350: 8937 06bf ca0d e63e a5fb 35be 5885 9a3e
00000360: ce8f 903d 1bc0 683e 17e6 2bbf 8c9f 2f3d
00000370: 5619 9e3e 3281 38bd 71a3 10bd c1a6 40be
00000380: e43c 363d 0121 523e f22b 1d3e 7d4b 89be
00000390: 543b 2dbf e871 b53d 6ae4 3e3e 91a5 b5bc
000003a0: 70c7 1bbe 464f f8bd c7ae e83c 9f9a d03e
000003b0: a2c8 293e f7e2 71be 862b cebe 0b4c 053e
000003c0: 09ce 54bc 4560 29bd 875f 74bd 805e 053d
000003d0: 2a41 5d3c a0f3 023f 7144 b13d eaee 253e
000003e0: 8a0f 7cbe f2ab db3d 741f d9bb 9fcc 7ebd
000003f0: 43f4 48be fda3 d6bc 5e90 e3bd e637 513f
-0.23846923 -0.14568733 0.22444 0.03404678 0.003321532 0.015043311 -0.05826406 -0.122638464
-0.068304844 0.065841384 0.39879623 -0.18707962 -0.52546567 -0.012150473 0.16452397 0.15927885
0.019273173 -0.045492344 -0.09536588 -0.41172642 -0.08778668 -0.131962 0.32526726 -0.1441004
-0.1203414 -0.03992151 -0.32601917 0.18188414 0.031573407 0.02529858 0.20203266 -0.4893704
-0.08902839 -0.057255365 -0.6141855 0.9131536 -0.004419106 0.032212302 0.0764949 -0.5160237
-0.06495848 0.066187344 -0.13123398 0.32574704 -0.026105992 0.067292444 0.47266462 0.20051248
-0.16839144 -0.015236875 0.14241484 0.6999408 -0.07545035 -0.026419545 0.21939524 0.032639526
-0.13213937 -0.05825787 0.18089701 0.04589622 -0.10628703 -0.024721187 -0.33061698 0.048405234
0.10884002 -0.06625393 -0.10731349 -0.24813747 -0.121799275 -0.013533361 -0.08680828 0.08023651
-0.065886855 0.03784268 -0.041316528 -0.2255132 0.0651077 -0.09949881 0.25264797 0.087867945
-0.48145303 -0.07150123 -0.2352953 -0.056208383 0.00066209544 0.24293225 -0.06516617 0.062108245
0.22435105 -0.08958792 -0.10326828 -0.05429143 -0.5419998 -0.0934957 0.09361354 0.09742059
-0.11023957 -0.36802733 -0.32043234 0.010101571 0.3203678 0.020863172 -0.29720345 0.07624148
0.086575784 -0.10446867 -0.08665727 -0.51606834 -0.04936979 -0.12774284 0.30011627 0.20425302
0.112975314 -0.16346447 0.0772081 -0.08830443 -0.2682302 -0.33633703 0.037150156 -0.20800264
0.49287775 0.18565467 0.12075427 -0.3595627 -0.033826254 -0.22914203 -0.23675609 -0.31211776
0.14491431 -0.17635427 0.6944048 0.20195797 0.045780335 -0.07182706 -0.06102961 -0.4163758
-0.30046526 -0.02523234 -0.3600026 -0.16140833 0.5868479 0.36901504 0.18754016 -0.033179246
-0.012206086 -0.11972411 -0.14994664 0.35132664 -0.5443757 -0.1847255 0.686267 0.13327742
0.25719923 0.06298653 -0.22179823 -0.098337226 -0.08002535 -0.054893672 -0.5048349 -0.26234102
0.4885189 0.1868211 -0.014479441 0.21305482 -0.22411838 -0.26222008 -0.13615447 -0.13506065
-0.3557124 -0.0039515006 0.02956854 0.022981152 -0.074636884 0.1535595 -0.14886437 -0.6263167
-0.22963047 0.012752689 -0.34972212 -0.09788595 0.22296433 0.20614564 0.084712125 0.36072388
-0.15246485 -0.07886949 -0.18130235 -0.2437976 -0.23436858 -0.11004609 0.49507377 0.2612518
0.11296591 0.39224377 -0.072738744 -0.3440732 -0.27349314 0.064294554 0.13607256 -0.029543387
0.10118102 0.12171584 -0.2226179 0.5655659 -0.21163285 0.2632743 -0.04403983 -0.037666112
0.21529093 -0.046555478 0.15138589 0.13445374 -0.5242849 0.44932395 -0.17771776 0.30179858
0.070586786 0.22729532 -0.67147964 0.042876765 0.30878705 -0.045045085 -0.03531212 -0.18813612
0.044491664 0.20520402 0.15348795 -0.26815405 -0.6766865 0.088596165 0.1864182 -0.022173675
-0.15212798 -0.12124495 0.028403653 0.40742967 0.16580442 -0.23621736 -0.4026758 0.1301729
-0.012988576 -0.041351575 -0.059661414 0.032560825 0.013504306 0.5115299 0.08655632 0.1620442
-0.24615303 0.10726155 -0.006626064 -0.06220686 -0.19624428 -0.026201243 -0.1111152 0.8172592

network_body.linear_encoder.seq_layers.2.bias f4 [256]
00000000: 142f 5ebe dc27 4abe 4f59 54bd 55d4 35be
00000010: 5d2c 4cbe 6649 87bc 5800 18be d875 9ebd
00000020: 5985 703d 70fc 80bd c944 57be 5e78 b7be
00000030: d8f9 b0bd 164b 41be 01b8 91be 8666 b4bc
00000040: e0e7 9dbe 9f54 763d ab48 33be 7625 51be
00000050: cb4a 80be e08d 4bbe 7749 0bbe 3663 52be
00000060: 9f93 3fbe b7ef 5cbe dca4 03be d1a3 2fbe
00000070: 2975 89be 28e8 a9bd 934c e03c 527c 31bd
00000080: d85e 1ebe f28e 81be 0982 f5bc 8cbc 51be
00000090: 960c 5dbd 2d49 77be ba05 9abe 8f94 60be
000000a0: 0de1 94be 8eef 54bb 4b35 29be 02d0 6abe
000000b0: 8345 53bd f94b 7cbe e4bf 00be 612c 0dbe
000000c0: 20f0 27be 5ec3 64be cd39 68bb c21b bebd
000000d0: f253 a5bd 822c edbe b899 03be 0e2a 25bd
000000e0: 01e5 edbd afb5 2abe f746 a8be bc0a 8fbd
000000f0: 9dc0 98be 3145 2dbd 10e1 8dbe 742b 293d
00000100: 1c51 91be b3b3 49be f4fb 83be 6c94 b0bc
00000110: 5538 18be dced e1bd 123d 23bd fc41 7ebd
00000120: d071 90be 2193 83bd f7ca 19be 894a 8abe
00000130: c42b c9bd 51aa 26bd 1bff 4dbe a113 48be
00000140: 4c2f bfbd f253 90be 552b 99bd 01d7 13be
00000150: 0a87 c7bc 76bf b3be 4ae6 b7bd e976 72be
00000160: 7e95 76bd d74e 6d3d eb98 34be a0aa eebc
00000170: b9e6 8b3c a0f5 8bbd ee8e 963b 9112 61be
00000180: 71c1 59bd 869f ef3d 33da 7fbe b58c b9be
00000190: 851c 2dbe 6134 11be b8e2 3dbe 3922 78bc
000001a0: cfba 90be 20c6 09be 1526 8dbe 7070 ec3c
000001b0: 13a2 17be 6388 66be e3bb f9bd 7e7b 29be
000001c0: 4d12 9dbd b22b 7fbe 55ed 98be bdf3 92bd
000001d0: d7a3 a2be d4e4 ab3b 43db 8dbe 3630 88be
000001e0: 6c53 34be 58a9 24be 6601 4bbe 8ae2 1cbe
000001f0: 0a99 abbe 82d6 4abe cc7f a2bd 1890 0abe
00000200: a69e 063e 45b3 9bbc bc04 a1be b18d 29be
00000210: 2283 3fbd d8dd 94be 4e31 ecbd 126e 8bbe
00000220: 47b7 b7be 7ba9 3bbe db3c fbbd b930 e3bc
00000230: d39e 85bd 9ef1 2bbe 560c f0bd f7a4 b1bd
00000240: d489 b6bd 6c3c 3fbd 5036 72bc 8885 56be
00000250: 04b3 12be 46f8 cabd 22a4 52bc 4e89 2dbd
00000260: 4df4 d8bd 448b 6fbd daaf 72be 4eb6 1cbe
00000270: 885e 89be fdc8 4dbd 82da d1bc aaea 81be
00000280: c9bc 053e 530e 94be c737 8abe aad1 3bbe
00000290: 8335 cbbd ac88 c8bd b579 21be ed83 9cbd
000002a0: 48cf 75bd 0a0e a5bd cea7 07be 91a6 e7bd
000002b0: c02a 03be a781 a9bd af6b 63be 9247 4dbd
000002c0: cd89 13be 4762 c0bd e362 81be 8461 07be
000002d0: 592a 58be f8a9 f2bd 1e18 82be 7e35 64bd
000002e0: a161 d5bd 084d 53be 2d9e 14be c86a 8dbe
000002f0: f622 eabd 1251 59be 2d1a 22be 72c8 94bc
00000300: 6eef 40bd 86f7 ef3c 1501 92be cacb e0bd
00000310: 3c9d c6bc 5f06 7fbe 5ca4 adbd dcd1 83be
00000320: 92a5 d4bd 5666 a5be 323d b2bd f50b c6bd
00000330: 5af5 5c3d 15c0 d33c 4966 4ebe 47fb a43d
00000340: b9e1 e6bd bd4d 7fbe 8187 943d 296e 35be
00000350: eeae 2dbe a6db c0bd 05fd febd ad3f 30be
00000360: 267d 00be 5105 5dbe 80e9 e6bb db76 43be
00000370: d8f1 00be 3340 2fbd dbd7 71be 0299 f4bd
00000380: 9994 6dbe 1ad7 29bd d55d a3be a9f6 63be
00000390: d881 c9bd 52ef b33d 9ba4 60be 349c 94be
000003a0: 5967 fdbd 51ce eebd f945 013d d166 1dbe
000003b0: b38f 5dbe bc69 e3bb 5bb7 9ebd 880a 7bbd
000003c0: 8066 2ebc fe1d 4ebe 5e9e aabe c8f8 7abe
000003d0: 0763 5abe d7ed 5bbe 8487 26be f04c 97be
000003e0: 9cd6 38be 4887 f03d 80e2 76bd e3b3 cbbc
000003f0: d677 85be 6ec0 8bbe 418b 4fbe 2e13 f6bc
-0.21697646 -0.19741768 -0.051842984 -0.1775678 -0.19938798 -0.016514491 -0.14843881 -0.07737321
0.05872092 -0.06298149 -0.21022333 -0.3583402 -0.08641404 -0.188763 -0.28460696 -0.022021543
-0.3084097 0.060139295 -0.1750819 -0.20424446 -0.25057063 -0.1987834 -0.13602243 -0.20545658
-0.18708657 -0.21575819 -0.12855858 -0.17152335 -0.268472 -0.082962334 0.027380263 -0.04333145
-0.15465868 -0.2530437 -0.029969232 -0.20482081 -0.05396708 -0.24149008 -0.30082494 -0.2193167
-0.2907795 -0.0032491419 -0.16524236 -0.22930911 -0.051579963 -0.24638356 -0.125732 -0.1378646
-0.16400194 -0.22340152 -0.0035434843 -0.09282638 -0.08072652 -0.4632302 -0.12851608 -0.04032331
-0.11615945 -0.1667087 -0.32866642 -0.06984469 -0.29834452 -0.042302314 -0.27710772 0.041301206
-0.28382194 -0.19697456 -0.25778162 -0.021555148 -0.14865239 -0.11031696 -0.039853163 -0.062074646
-0.28211832 -0.06424547 -0.15018831 -0.2700999 -0.09822801 -0.04068977 -0.20116846 -0.19538738
-0.09335193 -0.28189045 -0.07478968 -0.14437486 -0.024356384 -0.3510701 -0.08979471 -0.23678173
-0.06020116 0.057936516 -0.17636459 -0.029134095 0.01707779 -0.068339586 0.0045946753 -0.21979739
-0.053162996 0.117003486 -0.2498558 -0.36240163 -0.1690541 -0.14180137 -0.18543518 -0.015144878
-0.28267524 -0.13454485 -0.27568117 0.028862208 -0.1480792 -0.22512965 -0.1219404 -0.16551015
-0.07669506 -0.24919012 -0.2986857 -0.07175396 -0.31765625 0.0052457843 -0.27706346 -0.26599282
-0.17609948 -0.16080225 -0.19824752 -0.15320793 -0.33515197 -0.1980839 -0.079345316 -0.1353153
0.13146457 -0.01900638 -0.31448925 -0.16557957 -0.046755917 -0.29075503 -0.115328416 -0.27232414
-0.35882017 -0.1832637 -0.12267467 -0.027733194 -0.06524434 -0.16791388 -0.11721103 -0.08674043
-0.089130074 -0.046688482 -0.014783457 -0.20949376 -0.14326102 -0.09910636 -0.012856515 -0.042367272
-0.10593472 -0.058482423 -0.23699895 -0.15303919 -0.26829934 -0.050240505 -0.025616888 -0.25374347
0.13060297 -0.2891718 -0.2699568 -0.18341699 -0.09922316 -0.09791693 -0.15769084 -0.0764235
-0.060012132 -0.08059318 -0.13247606 -0.11311067 -0.12809277 -0.08276682 -0.22209047 -0.050117083
-0.14408036 -0.09393745 -0.25270757 -0.13220793 -0.21109904 -0.11848825 -0.25409025 -0.055715077
-0.10419012 -0.20634854 -0.14513464 -0.2762053 -0.114324495 -0.21222332 -0.15830298 -0.018161986
-0.047103338 0.029292833 -0.2851645 -0.1097637 -0.024244897 -0.24904774 -0.08478615 -0.25746047
-0.103831425 -0.3230464 -0.08703078 -0.096702494 0.053944923 0.025848428 -0.20156206 0.0805574
-0.11273522 -0.24931999 0.07252408 -0.17717804 -0.16961262 -0.094168946 -0.124506034 -0.1721179
-0.1254774 -0.2158406 -0.0070468783 -0.19088309 -0.12592256 -0.042785835 -0.23617499 -0.119432464
-0.23201217 -0.041464902 -0.31907526 -0.22262062 -0.09839219 0.08785881 -0.21937792 -0.29025424
-0.123732276 -0.116604455 0.03156087 -0.15371253 -0.21636848 -0.0069400948 -0.07749816 -0.06128934
-0.010644555 -0.20128629 -0.3332395 -0.24508965 -0.21326838 -0.21477447 -0.16262633 -0.29550886
-0.18050617 0.11744553 -0.0602746 -0.02486605 -0.2606799 -0.2729525 -0.20267965 -0.030038442

network_body.linear_encoder.seq_layers.2.weight f4 [256, 256]
00000000: 2c03 80be 33d5 983d d9f7 253e c6f8 fd3e
00000010: db46 91bd d62a 8bbd 5998 50be 6c35 8abe
00000020: 574a 303e 967e e13d 4227 523e 5fc5 46bd
00000030: e9ec f6be 7bc3 90bd 6b95 f03d 2b91 c0be
00000040: 37c3 3dbe ce95 4f3d 4278 543e e379 03bf
00000050: 97a5 a3be 73dd 84bd da93 f03e 6d86 54bd
00000060: 8056 133f 3163 20bd 1f45 163f d7b6 393d
00000070: e13a cfbd 8877 d13d 450a 843e 0e01 7f3e
00000080: a6c9 063e fd08 38bd 34f9 6cbd aaa3 43be
00000090: 1f52 82bd e3ed 82be 9907 013e d68b debd
000000a0: 8c17 793e da54 9c3e 0745 c3bc f92d 0d3f
000000b0: 6d94 ab3c 96d0 22bd 22c4 d5bd e4d1 39be
000000c0: 2687 973d 61be c73c 6c7e e4bd e134 313e
000000d0: 6e99 c3bd 9fb6 cc3c 6739 cabe ca03 d13e
000000e0: ef95 013e 8a55 41be 65b9 0cbc 9e22 a03c
000000f0: 9eb3 683e 9a6c 1dbe 2666 173e 1b98 553c
00000100: f1c2 cf3e 2e0b 533e 5815 b23d ce57 bbbd
00000110: e536 a93d dba8 5c3e de8f 4b3e 7eb8 8c3d
00000120: 9d51 38bd 0155 733c 2251 6c3e b23b 993d
00000130: 83a5 583e 74c2 b43d 4a65 ed3e bec3 6c3e
00000140: 9783 ed3c 2c02 7bbe 45aa babd e29b bf3e
00000150: dc1e 083e 8c1d 2e3e 62bf c13e ed2c 513e
00000160: 0536 ab3d 7bbf 053d af79 4f3e a8a4 133e
00000170: 8db3 733e 7416 babe cfd4 b13b 4f63 a83d
00000180: 81f0 933d 647a a13e d5e0 11bd 411f 6c3c
00000190: a849 f53d e172 b63e c23f 3ebe 179f da3d
000001a0: 8647 a6be 3901 8abd fafb aabe 7479 303e
000001b0: fd00 81be ec2c cabd add3 4a3e ea74 8dbe
000001c0: 0124 b3be 133d eb3e 0bb6 f5bd bb1d 4c3e
000001d0: 8fec 2ebe a33b 57bd 4d77 b73e aa57 6b3e
000001e0: a0f6 fb3e 3680 b13d cbf1 243e 774f a63d
000001f0: 7b66 703e 014e 993c 9d4e 57be b034 93be
00000200: 019f 213e f6d5 7e39 a60e 6cbc 5fce 853e
00000210: ed8a 903e a78a 7ebc 934a 0c3c 3604 10bc
00000220: dda7 9f3e fddd 553a 712c 17bc a663 2c3e
00000230: 1841 963e 1e30 81bd 2b48 273e 8d35 3abd
00000240: 0e74 bc3d d96e 81bc f5d7 ba3e 87b8 d2bc
00000250: 0548 bd38 33bf 01bd 5c4a 823e e73a 51bc
00000260: 92e9 a63e 9d0e 59bd 187f 053c a4db ae3e
00000270: 4a78 2dbe b82d bbbc 8046 c73e c925 d5bd
00000280: 9419 ab3d b67d d03d 35be 00be 214d 0c3e
00000290: 78bf a33e 1c15 cb3d 00fe ac3e 6d0b 21be
000002a0: 5f58 633e ccf1 42be 2601 b23e 2baf 48be
000002b0: 0f5d 933e 7a49 b13e 10e2 ba3d 0207 2c3c
000002c0: 4998 413e 5581 9a3d 01b8 163d 6ead 133c
000002d0: 47ee d73e 3777 0e3e acff a8be 90a4 d43d
000002e0: a59d e43d 38e6 d03e e12d 323e e436 8abe
000002f0: d014 cdbe cb80 ee3e 224c 91be c69b 5a3e
00000300: bb39 97bd 283f 843e 3eac d83e e349 18be
00000310: 84be 55be 6c99 e0be 31f0 df3e 6c47 45bf
00000320: 8647 033e 5a72 e43d f5f9 e43d bf93 b73d
00000330: 8673 babd 6710 0abd 2ad2 af3e 3513 f33d
00000340: 88cc be3e 5dd2 0cbe 6441 05be 8bec 843e
00000350: e66c 2c3d 373d d43e a420 dbbd e805 b8be
00000360: 0f97 f83e 217a a9bc 0a65 9a3e 4825 023f
00000370: 0b4e 103d 58ab bebe aca2 a7be a10c ae3d
00000380: 20c2 da3c 145d 803e 88db 663e 7f28 0bbe
00000390: a8f5 f5bb f397 523e 35ca b7bd b4cb 0c3e
000003a0: ff42 dfbd 87d0 213e f087 513d 7172 6e3d
000003b0: a19f 8bbe b544 dd3d 487d 86be 1aaa 4ebd
000003c0: cf2c 1bbc 5c73 613e a3a8 de3d f3b0 313f
000003d0: f4e9 0bbe 6616 bdbe 3bbe 27bd c2da 2ebd
000003e0: 4404 843e 9bf1 c63d 2c41 ca3e 5ef8 57bb
000003f0: 5699 a2be e10e b2bd 26c2 3e3e 642c a93d
-0.2500242 0.074625395 0.16207828 0.49603862 -0.07093593 -0.0679528 -0.20370616 -0.26993883
0.17215858 0.110104725 0.20522788 -0.04852807 -0.48227623 -0.07068535 0.11747249 -0.37610754
-0.185315 0.050679974 0.20749 -0.5135786 -0.31962273 -0.064875506 0.46987802 -0.05188601
0.57553864 -0.039157096 0.5869922 0.045340385 -0.10118652 0.10227877 0.25789085 0.24902746
0.1316286 -0.044930447 -0.057854846 -0.19105402 -0.063633196 -0.25572118 0.12600555 -0.10866515
0.24325389 0.30533487 -0.023836626 0.55148274 0.020944798 -0.039749704 -0.104378 -0.18146473
0.073988244 0.024382772 -0.111569256 0.17305328 -0.09550749 0.024989424 -0.3949692 0.40823203
0.12654851 -0.18880287 -0.008589123 0.019547757 0.22724769 -0.1537346 0.1478506 0.013036753
0.40578416 0.20609733 0.08695477 -0.09147607 0.082624234 0.21548788 0.198791 0.068711266
-0.044999707 0.0148518095 0.23077825 0.07482089 0.21156888 0.088261515 0.4636634 0.23121545
0.028993411 -0.24512547 -0.091145076 0.37423617 0.13293022 0.17003459 0.37841326 0.20427294
0.08359913 0.032653313 0.20261262 0.1441828 0.23798962 -0.36345255 0.00542698 0.082220666
0.07223607 0.3153869 -0.035614807 0.014411748 0.119769394 0.3563452 -0.18579009 0.10674875
-0.32476443 -0.067385145 -0.33395368 0.1723383 -0.25196066 -0.098718494 0.1980731 -0.2762826
-0.34988406 0.45945033 -0.119976126 0.19933216 -0.17082427 -0.05254711 0.35833207 0.2298266
0.49211597 0.086670324 0.16107862 0.081206255 0.23476593 0.018713953 -0.21026082 -0.28751135
0.15783311 0.00024303034 -0.014407789 0.2613401 0.28230992 -0.015535987 0.008562702 -0.0087900665
0.31182757 0.0008158384 -0.009226904 0.16834888 0.29346538 -0.06308006 0.16336124 -0.045461226
0.09201823 -0.015799927 0.36492887 -0.025722755 9.025637e-05 -0.031676482 0.25447357 -0.012770391
0.32600075 -0.052992452 0.008147977 0.34151947 -0.16940418 -0.022848949 0.38920975 -0.104075976
0.08354488 0.101802275 -0.12572558 0.13701297 0.31982017 0.09916136 0.33787537 -0.15727015
0.2220168 -0.1903755 0.347665 -0.19598071 0.28781936 0.3462637 0.09125149 0.010499718
0.18905748 0.075441994 0.036796574 0.009013517 0.4217398 0.13912664 -0.33007562 0.1038295
0.11162881 0.40800643 0.17400314 -0.26995003 -0.4005494 0.46582636 -0.28378397 0.21348485
-0.07384058 0.25829434 0.4231891 -0.14871936 -0.20873457 -0.43867052 0.4373794 -0.77062106
0.12820253 0.11154623 0.11180488 0.08963727 -0.091040656 -0.03370705 0.3434003 0.11868898
0.3726542 -0.13752122 -0.13013226 0.25961718 0.04209604 0.41452953 -0.10699585 -0.35942006
0.4855275 -0.020688118 0.30155212 0.50838137 0.035230678 -0.372401 -0.32741296 0.084985025
0.026703894 0.25071013 0.22544682 -0.13589667 -0.007506091 0.20565777 -0.08974115 0.13749582
-0.1090145 0.15802203 0.05115503 0.05821461 -0.27270225 0.108041205 -0.26267457 -0.05045519
-0.009471132 0.22016662 0.10872009 0.6941063 -0.13663465 -0.3693115 -0.040952902 -0.042689092
0.25784504 0.09714051 0.39502847 -0.0032954435 -0.3175761 -0.08694244 0.18628749 0.0826042
