Project/Assets/MyProject/Chaser Vs. Runner 2/brain/ChaserBrain.onnx (onnx, 367019 bytes, 6 tensors)

action_model._discrete_distribution.branches.0.bias f4 [7]
0.018605389 0.018290376 0.02142151 -0.031310894 -0.025852801 -0.0060629663 0.011255436
00000000: 546a 983c b3d5 953c 2a7c af3c da3f 00bd
00000010: 41c9 d3bc d9ab c6bb b868 383c

action_model._discrete_distribution.branches.0.weight f4 [7, 256]
-0.025107063 -0.032141607 0.025434198 -0.021560898 0.030100368 0.0405189 0.025339974 0.020152317
-0.0052613798 0.0065124533 0.005012454 0.025938986 0.018538456 0.006073594 0.025711084 0.02020565
0.013257481 -0.0068127387 -0.014558118 0.017534385 0.014185999 0.028774237 -0.037679266 0.025153337
-0.0034839218 -0.0620501 0.034654025 -0.015488453 0.029955471 0.03144015 0.011730668 0.028246578
0.0017751285 0.00415038 0.029070925 -0.040335998 0.03236903 0.02408574 0.03242791 0.01948244
-0.005029644 0.015749456 -0.008311345 0.0060028327 0.00230545 0.0018592393 0.011148739 -0.02924277
0.02796209 -0.0013681226 0.025135236 0.007888874 -0.009942228 0.017634863 0.0022484914 0.014755539
0.007044229 0.0328643 -0.026242903 -0.007868435 0.005798639 0.024347896 0.021777492 0.014900923
0.0299453 -0.0012181586 -0.008512325 0.028801505 0.032832753 -0.0077023287 0.0063140956 0.019314736
0.008052541 -0.03292677 0.030707764 0.017810432 0.02520626 0.012241474 -0.029547688 -0.009754929
-0.03428409 0.004326738 0.029197479 0.01720325 0.02718369 0.0024867365 0.02175694 -0.009439074
0.013361518 -0.013132377 0.027340703 -0.011342671 -0.014225817 0.014534387 0.01310326 -0.018158892
0.019388681 0.025646841 0.03676269 -0.008338093 -0.007941807 -0.030553976 -0.015757909 0.005308281
-0.0033022077 -0.03247453 0.009010935 -0.0055925874 -0.041720815 -0.015396499 0.039070558 0.01295872
-0.017962698 -0.020619081 0.0051991786 0.002105821 0.018451769 0.03324711 -0.0047190716 0.02473214
-0.0071060173 0.021510014 -0.0061895656 0.026787648 0.005958938 -0.017521596 0.0068738037 -0.038049996
0.037679017 0.025573984 0.012117548 -0.027855335 0.005779891 -0.018610157 -0.004277913 0.008116407
-0.015681813 -0.00041463724 -0.020519495 0.017722692 -0.006643709 0.035434376 0.017065419 -0.004916784
0.031364758 0.032740552 0.0221838 0.0070698517 0.037613705 -0.023724733 0.02681274 0.020375926
0.016362745 -0.042260252 0.030286793 -0.01749421 0.0076262555 0.009650919 -0.004628892 -0.00074510055
0.006343145 0.030939978 0.029530471 -0.013173694 -0.028702464 0.0325955 -0.0092608025 -0.0012959007
0.030974843 -0.031880785 -0.015590377 -0.0150589645 -0.012892393 -0.03708593 0.024674613 0.020018792
-0.015961766 0.030067295 -0.025164701 -0.0045824256 0.023219166 -0.03654287 -0.029586421 -0.02312893
0.024635712 -0.0035220648 0.025529532 0.035326127 0.04364204 0.024714567 0.022153385 -0.016956782
0.022729475 0.009447556 0.038207833 0.0065677743 -0.0030597015 0.013374367 0.011816806 0.016815431
-0.016731236 0.02835874 0.001352043 0.021923231 0.0007874546 -0.02119397 0.036780182 0.013344086
-0.005579157 0.020911502 -0.013305187 0.019757187 0.015031613 0.038104456 0.029992737 0.03883723
0.016990371 0.028135596 -0.004743443 0.01750511 0.0073857047 -0.012707181 -0.0046530506 0.03937721
-1.053008e-05 -0.012098315 -0.028970761 -0.0037167824 -0.00041996152 -0.012972192 0.047042254 0.047634263
0.021848189 0.019754788 0.011185006 0.0020501735 -0.031129561 -0.0047677197 -0.0152583765 -0.014742179
0.015024833 0.010279539 0.021931095 0.02082533 -0.0032563433 -0.014534282 0.027978444 0.018605066
0.0202286 0.001827883 -0.008719413 -0.0020198831 1.6986669e-05 -0.0050589605 0.017623074 0.013768259
00000000: 54ad cdbc eba6 03bd 615b d03c 7ba0 b0bc
00000010: 0c95 f63c 25f7 253d c795 cf3c 7916 a53c
00000020: a767 acbb 6b66 d53b 833f a43b ff7d d43c
00000030: f6dd 973c 0005 c73b 0da0 d23c 5286 a53c
00000040: e835 593c 653d dfbb 2c85 6ebc 45a4 8f3c
00000050: 646c 683c f3b7 eb3c 9355 1abd 5f0e ce3c
00000060: 8252 64bb 3f28 7ebd 61f1 0d3d 48c3 7dbc
00000070: 2d65 f53c 63c7 003d fd31 403c 5e65 e73c
00000080: 6eab e83a e9ff 873b 2626 ee3c 5c37 25bd
00000090: 6395 043d 754f c53c 21d3 043d a399 9f3c
000000a0: b6cf a4bb 0105 813c 4f2c 08bc 69b3 c43b
000000b0: 0817 173b b8b1 f33a 33a9 363c 898e efbc
000000c0: c110 e53c 9452 b3ba 69e8 cd3c 5640 013c
000000d0: bae4 22bc fd76 903c 6d5b 133b 37c1 713c
000000e0: 47d3 e63b b79c 063d 5bfb d6bc 9cea 00bc
000000f0: 8202 be3b 3d75 c73c b666 b23c 0023 743c
00000100: d94f f53c 9faa 9fba 4777 0bbc 22f1 eb3c
00000110: a37b 063d d163 fcbb 79e6 ce3b f039 9e3c
00000120: ceee 033c 39de 06bd d98e fb3c 2fe7 913c
00000130: 5c7d ce3c 7790 483c fe0d f2bc 23d3 1fbc
00000140: 796d 0cbd 4fc7 8d3b 8d2f ef3c d5ed 8c3c
00000150: 54b0 de3c 84f8 223b 9c3b b23c 59a6 1abc
00000160: 45ea 5a3c 2e29 57bc 9cf9 df3c 9cd6 39bc
00000170: 6713 69bc a321 6e3c 0eaf 563c f5c1 94bc
00000180: 03d5 9e3c 5319 d23c 7994 163d 7f9c 08bc
00000190: 5a1e 02bc 554c fabc bb16 81bc 17f1 ad3b
000001a0: da69 58bb 0304 05bd 9aa2 133c 0642 b7bb
000001b0: 72e3 2abd 9941 7cbc 7308 203d d050 543c
000001c0: 8226 93bc 59e9 a8bc df5d aa3b d001 0a3b
000001d0: 2a28 973c 1f2e 083d 71a2 9abb 0f9b ca3c
000001e0: 98d9 e8bb c535 b03c d7d1 cabb c571 db3c
000001f0: 3243 c33b 7389 8fbc a53d e13b 50da 1bbd
00000200: 5055 1a3d 8880 d13c ae88 463c df30 e4bc
00000210: 3d65 bd3b 5474 98bc bc2d 8cbb aefa 043c
00000220: 2577 80bc ab63 d9b9 8018 a8bc 2e2f 913c
00000230: 78b3 d9bb a323 113d c7cc 8b3c f91c a1bb
00000240: 5578 003d f51a 063d cdba b53c 37aa e73b
00000250: d410 1a3d 5f5a c2bc 64a6 db3c 6aeb a63c
00000260: 2a0b 863c 1619 2dbd 021c f83c 0450 8fbc
00000270: abe5 f93b e31e 1e3c f6ad 97bb da52 43ba
00000280: 28da cf3b d675 fd3c e3e9 f13c 7ad6 57bc
00000290: 6e21 ebbc dc82 053d 9fba 17bc 36db a9ba
000002a0: f4be fd3c 6d95 02bd c86e 7fbc e0b9 76bc
000002b0: 9e3a 53bc 6be7 17bd 6a22 ca3c 73fe a33c
000002c0: 40c2 82bc b04f f63c 3426 cebc 2c28 96bb
000002d0: 1f36 be3c faad 15bd 395f f2bc e278 bdbc
000002e0: d5d0 c93c 71d2 66bb 4f23 d13c 21b2 103d
000002f0: ffc1 323d 3476 ca3c 047b b53c f3e8 8abc
00000300: 2a33 ba3c ecc9 1a3c d17f 1c3d 7c36 d73b
00000310: 4685 48bb 2920 5b3c 479b 413c 84c0 893c
00000320: f20f 89bc 9750 e83c 0937 b13a 5998 b33c
00000330: 2f6d 4e3a fa9e adbc d1a6 163d 27a1 5a3c
00000340: 5cd1 b6bb 994e ab3c 00fe 59bc d3d9 a13c
00000350: 2847 763c 6b13 1c3d 54b3 f53c ca13 1f3d
00000360: 642f 8b3c 9f7c e63c e26e 9bbb e066 8f3c
00000370: c803 f23b c831 50bc 9e78 98bb ff49 213d
00000380: 59aa 30b7 0338 46bc 1754 edbc 4395 73bb
00000390: 482e dcb9 5189 54bc 61af 403d 251c 433d
000003a0: f9fa b23c cbd4 a13c 5141 373c 345c 063b
000003b0: 6c03 ffbc 883a 9cbb 45fe 79bc 2e89 71bc
000003c0: b82a 763c 836b 283c d7a8 b33c e299 aa3c
000003d0: 6068 55bb 3221 6ebc 0d33 e53c a769 983c
000003e0: 73b6 a53c 9395 ef3a dedb 0ebc 0460 04bb
000003f0: 987e 8e37 a3c5 a5bb 445e 903c 4494 613c

network_body.linear_encoder.seq_layers.0.bias f4 [256]
-0.0032875875 -0.007177494 0.038409203 -0.014762669 0.007739517 -0.008763549 0.02700742 0.020729376
0.0012129438 0.015107471 0.010471241 -0.040752217 0.0063554985 -0.0008119384 -0.014516071 0.005679274
0.0022257348 0.005179165 0.03375513 -0.0056164325 0.0150043685 0.035050213 0.00909678 -0.012377754
-0.0003856233 0.013909124 -0.0083607035 0.0037893238 -0.01125856 0.044098806 0.0022888854 -0.003032815
0.0074721514 0.06298965 0.042686395 -0.006715422 0.008899033 0.0069090645 0.0066433228 -0.035054006
0.019257758 0.004621695 -0.01246879 -0.011967251 -0.008784044 0.034438975 0.013393437 0.039436467
0.04643656 0.0061954153 0.0011591018 0.019225076 -0.025941646 -0.013906472 -0.0033818232 0.0012397104
-0.04500625 -0.013310506 0.03827626 -0.0031208945 0.015893867 0.03301368 0.0030926557 -0.0035779881
0.03212979 0.029209789 -0.003935792 0.023728747 0.01110769 -0.0236906 0.029773043 0.04270633
0.034115694 0.038316563 0.0037817599 -0.009108542 0.004954557 -0.004266433 -0.013416337 -0.013636732
-0.022048837 0.013281705 -0.0012418107 0.026882544 0.0667862 -0.0050733387 0.000962704 0.018108178
0.037559517 -0.006362704 -0.032237157 -0.008499849 0.02401705 0.027138744 0.027191473 0.04736964
-0.027983844 0.035836805 -0.011868384 -0.0100364145 0.00036692942 -0.006545508 0.01403954 0.001999538
0.024753978 0.003208911 0.027117688 0.020528778 -0.010434749 0.006059555 -0.025772424 0.029324977
-0.0056670248 -0.0142554585 0.04090238 0.04305526 0.0091888625 0.02563826 0.033871632 -0.024643376
0.013617842 -0.007208784 -0.03397061 0.03480972 -0.026192512 -0.008019908 0.014919988 -0.0036433998
0.02988084 0.0011235999 0.011928345 0.02937611 0.0033389502 0.024301749 0.016987897 0.020721316
-0.0051115677 0.00592163 0.011675965 -0.012587778 0.03304528 0.02963118 0.033611726 0.017918184
0.014227486 -0.016834294 0.03725234 -0.003050807 0.009301212 0.029177133 0.012106345 0.02650812
0.0055259666 0.011850763 -0.016883513 0.012092146 0.011414005 0.010957973 0.030433701 -0.0071413172
0.015049768 0.028985942 0.030915307 0.020851996 0.0022777405 0.039292563 -0.015318539 -0.012453507
0.038799617 0.027634032 0.009621508 0.02675694 0.06485464 0.0015155763 0.0016851644 0.008513551
0.0069410126 0.03182163 0.058166143 -0.005614809 -0.0062434827 -0.010820799 0.0007947006 0.026937464
-0.020925768 0.015076484 -0.022738114 0.013257278 0.041026834 0.020101765 -0.021096922 0.021961996
0.022008343 -0.020435289 0.04540808 -0.009026684 0.029390778 -0.041043352 -0.0077218106 -0.010615679
0.0089013865 0.00023907743 0.056943897 0.029058168 -0.030889895 -0.0018980989 0.03083783 0.039243508
0.0037731738 0.007723742 -0.0049127615 0.009851671 -0.017435659 0.036912195 0.007448795 -0.03208173
-0.022713229 -0.009887488 0.037422676 -0.0057603274 0.013972561 0.014477969 -0.041142747 0.014463302
0.014588202 -0.012800867 0.022623714 0.013819876 0.03610163 0.022953907 0.026086437 -0.036339384
0.015356833 0.060812686 0.035295296 0.0062284884 0.030958071 0.0126155345 0.017953329 -0.020035714
0.025302188 -0.0042238366 0.010448466 -0.008788035 0.022905877 0.004816715 -0.0054176264 0.02981902
0.037236184 0.019217942 -0.006959328 0.0011654922 -0.0061746486 0.024960568 -0.020788755 0.0062873657
00000000: 9174 57bb 2f31 ebbb f852 1d3d 1fdf 71bc
00000010: c69b fd3b fd94 0fbc aa3e dd3c a7d0 a93c
00000020: a4fb 9e3a 5385 773c 918f 2b3c cceb 26bd
00000030: c941 d03b 43d8 54ba d1d4 6dbc 3419 ba3b
00000040: a2dd 113b fcb5 a93b d242 0a3d 0d0a b8bb
00000050: e2d4 753c d090 0f3d a90a 153c 10cc 4abc
00000060: 7c2d cab9 18e3 633c 55fb 08bc 4e56 783b
00000070: d375 38bc f3a0 343d 2001 163b 31c2 46bb
00000080: f3d8 f43b b800 813d eed7 2e3d 0b0d dcbb
00000090: 40cd 113c 6f65 e23b 3bb0 d93b ca94 0fbd
000000a0: 72c2 9d3c 9671 973b e549 4cbc 4a12 44bc
000000b0: f3ea 0fbc e20f 0d3d 2570 5b3c 2288 213d
000000c0: 4334 3e3d e902 cb3b 01ed 973a e87d 9d3c
000000d0: 9383 d4bc f9d7 63bc 94a1 5dbb c77d a23a
000000e0: 7958 38bd 4f14 5abc 91c7 1c3d ec87 4cbb
000000f0: db33 823c 5a39 073d 27ae 4a3b ae7c 6abb
00000100: 879a 033d 5e49 ef3c d1f7 80bb ca62 c23c
00000110: 07fd 353c ca12 c2bc 99e6 f33c d5ec 2e3d
00000120: e6bc 0b3d d4f1 1c3d 67d7 773b ff3b 15bc
00000130: d659 a23b 6fcd 8bbb 32d0 5bbc 996c 5fbc
00000140: c39f b4bc 829b 593c 41c4 a2ba c838 dc3c
00000150: 34c7 883d 403e a6bb f95d 7c3a 9a57 943c
00000160: 02d8 193d 3b7e d0bb 1c0b 04bd f342 0bbc
00000170: 68bf c43c 1252 de3c a7c0 de3c ab06 423d
00000180: 603e e5bc 9dc9 123d 9c73 42bc c66f 24bc
00000190: 6f60 c039 b37b d6bb 1906 663c ae0a 033b
000001a0: dbc8 ca3c 984c 523b ea25 de3c f82b a83c
000001b0: 82f6 2abc 3b8f c63b b120 d3bc ef3a f03c
000001c0: 73b2 b9bb ba8f 69bc 4189 273d b65a 303d
000001d0: e28c 163c 5407 d23c fbbc 0a3d e8e0 c9bc
000001e0: 5f1d 5f3c aa37 ecbb c424 0bbd a394 0e3d
000001f0: ae91 d6bc ef65 03bc f772 743c 1bc6 6ebb
00000200: aac8 f43c c245 933a 1b6f 433c 2ba6 f03c
00000210: 4ad2 5a3b 7614 c73c 342a 8b3c c0bf a93c
00000220: f07e a7bb 3c0a c23b 8c4c 3f3c f83c 4ebc
00000230: 7d5a 073d 17bd f23c 73ac 093d 28c9 923c
00000240: 671a 693c 13e8 89bc e995 183d 0cf0 47bb
00000250: 1c64 183c e204 ef3c b159 463c 8f27 d93c
00000260: 2b13 b53b b429 423c 4b4f 8abc 231e 463c
00000270: cf01 3b3c 1289 333c 1950 f93c b601 eabb
00000280: 4d93 763c ed73 ed3c 1942 fd3c ced1 aa3c
00000290: 2546 153b 3df1 203d 9cfa 7abc cb09 4cbc
000002a0: 59ec 1e3d c460 e23c 88a3 1d3c 5f31 db3c
000002b0: 82d2 843d 4da6 c63a bce0 dc3a 6c7c 0b3c
000002c0: 6f71 e33b 6657 023d 9f3f 6e3d 6ffc b7bb
000002d0: 2196 ccbb b849 31bc 7453 503a f5ab dc3c
000002e0: 846c abbc 5b03 773c 4845 babc 0e35 593c
000002f0: c10b 283d 75ac a43c 74d3 acbc a5e9 b33c
00000300: d74a b43c e867 a7bc d3fd 393d a8e4 13bc
00000310: eec4 f03c 131d 28bd 3e07 fdbb 63ed 2dbc
00000320: 1fd7 113c dcb0 7a39 013e 693d 650b ee3c
00000330: ce0c fdbc a1c9 f8ba 9e9f fc3c cdbd 203d
00000340: 5a47 773b 7217 fd3b 3bfb a0bb e768 213c
00000350: 3ad5 8ebc 3e31 173d 0515 f43b 2268 03bd
00000360: 1811 babc 21ff 21bc 8548 193d 21c1 bcbb
00000370: 2bed 643c 0135 6d3c 4c85 28bd 7cf7 6c3c
00000380: 5b03 6f3c baba 51bc 5e55 b93c c36c 623c
00000390: 4edf 133d d509 bc3c 39b3 d53c 9bd8 14bd
000003a0: 3a9b 7b3c b916 793d cd91 103d 5918 cc3b
000003b0: c89b fd3c 63b1 4e3c dc12 933c f021 a4bc
000003c0: 8946 cf3c 1c68 8abb 0b30 2b3c b1fb 0fbc
000003d0: 1ba5 bb3c 89d5 9d3b 5886 b1bb 0447 f43c
000003e0: f884 183d f26e 9d3c 130b e4bb 6ec3 983a
000003f0: b554 cabb 1b7a cc3c 2e4d aabc 3f06 ce3b

network_body.linear_encoder.seq_layers.0.weight f4 [256, 91]
0.099585876 0.121028416 -0.21075 -0.38939813 0.08072921 -0.012534861 0.08631932 -0.01160372
0.16437587 -0.09392194 -0.012819288 0.076056704 -0.0024353992 0.1688318 -0.031140443 -0.49292937
-0.03453815 -0.14883843 0.010598609 -0.17531408 0.0010311453 -0.042540453 0.23405214 0.033369802
-0.15754241 -0.03445874 0.029391324 -0.43395704 0.07479139 0.14240865 0.05036752 -0.1651756
0.18622348 -0.12030277 0.110856295 0.055744424 -0.16277471 0.008401751 0.07962553 -0.1889894
-0.040129427 0.005027868 -0.16831876 -0.31319886 0.08410496 0.069911174 0.048941858 -0.1491223
-0.10232301 -0.08784227 -0.017135127 -0.17824696 0.17918395 0.15187576 -0.08452661 -0.19917925
-0.025672158 -0.056539245 0.047769196 0.09131624 0.10384034 -0.15365416 -0.3176702 -0.01017802
-0.016346758 -0.06921901 0.071257 0.07585351 -0.21193014 -0.029311972 0.024053076 -0.13289495
0.1739357 0.06623044 -0.0052663255 0.100468725 0.15065533 0.1484341 0.12116549 -0.064960055
-0.19839868 -0.12063535 0.057342183 -0.016668033 0.00035864394 -0.10535536 -0.045169238 -0.09782523
0.15851189 0.066592455 -0.0388523 0.18579096 0.1595993 -0.03589255 0.004244005 0.13973519
0.12633589 -0.0025569766 -0.12983109 -0.01942839 -0.1885504 0.06918199 0.1902232 0.0048231008
0.14156228 0.050656922 -0.031506974 -0.13260715 0.0055027064 -0.18990347 0.15873906 0.052938104
-0.1962343 -0.12376958 0.03249823 -0.053675767 -0.14429678 0.074688904 0.04798974 -0.04422105
-0.014111522 -0.19463304 -0.033492673 -0.020618647 -0.2547069 0.06240045 0.20055026 0.0005602923
0.11907008 -0.22401628 0.20799156 -0.02215255 0.06239344 -0.1565382 0.08620755 0.18021303
-0.31406844 -0.06566041 -0.13117252 -0.11719578 0.024534298 -0.040300194 0.25778118 0.14686126
0.11565264 0.039588682 -0.06488955 0.11955783 -0.06855204 0.065030254 -0.030947927 -0.21971798
-0.1917213 -0.025885204 0.08344077 -0.110634096 0.14687295 -0.012858421 0.01165059 0.12946615
-0.1745344 -0.023072906 0.03727043 0.10639388 -0.034288555 0.097416595 0.25270116 -0.319586
-0.06761106 0.0018209161 -0.050416414 0.00042556788 0.05724384 -0.037207145 0.20588835 0.15639886
0.04100589 -0.028719788 0.052106135 0.047157496 0.0041189427 0.032358807 -0.13964903 -0.032576825
0.01730567 -0.13283668 0.06859057 0.14795515 0.16701497 -0.07552357 -0.024099018 0.13832173
-0.103154324 0.074540034 0.05206502 -0.052969433 -0.0673886 -0.09795575 0.10602511 0.0053389836
0.03216869 -0.34525228 0.18083328 0.16970806 -0.03159058 0.00165668 -0.08521869 0.25068226
-0.04607398 -0.26300624 0.020958776 0.21489446 -0.17261893 -0.13091798 -0.16757035 0.49720514
-0.028954202 0.05701395 0.08961271 0.28207082 0.1294039 -0.19003253 0.13909554 0.11250014
-0.054555144 -0.07874123 -0.063898094 0.43107083 -0.11633716 -0.02258619 0.123526245 0.15075864
-0.14282109 -0.2741728 0.010418204 -0.050385293 0.029774975 0.1808417 0.02680232 0.37259296
-0.008789099 0.0007724649 0.11503039 -0.07998402 0.034201577 -0.38005418 0.22174089 0.0024267356
0.15878852 0.20090662 -0.14115593 0.41804716 -0.088654466 -0.0061731315 0.18304871 0.094407134
00000000: aef3 cb3d bfdd f73d d9ce 57be 315f c7be
00000010: 5b55 a53d 055f 4dbc 2fc8 b03d 871d 3ebc
00000020: 2652 283e 255a c0bd fe07 52bc 9ec3 9b3d
00000030: 389b 1fbb 3ee2 2c3e 3e1a ffbc 3d61 fcbe
00000040: e077 0dbd 1a69 18be caa5 2d3c 8985 33be
00000050: 7f27 873a e63e 2ebd 5dab 6f3e c6ae 083d
00000060: cc52 21be 9c24 0dbd 13c6 f03c 9e2f debe
00000070: 3a2c 993d 93d3 113e 2c4e 4e3d cb23 29be
00000080: 5eb1 3e3e 4c61 f6bd a008 e33d 4454 643d
00000090: 6aae 26be 7fa7 093c b612 a33d 7086 41be
000000a0: c15e 24bd d0c0 a43b c15b 2cbe 9a5b a0be
000000b0: 393f ac3d 972d 8f3d 4277 483d 84b3 18be
000000c0: ba8e d1bd a6e6 b3bd f75e 8cbc 5f86 36be
000000d0: ff7b 373e 5285 1b3e 4a1c adbd a5f5 4bbe
000000e0: 6b4e d2bc b295 67bd a2a9 433d 0204 bb3d
000000f0: 3faa d43d 8457 1dbe aba5 a2be b6c1 26bc
00000100: a3e9 85bc b2c2 8dbd 31ef 913d 1659 9b3d
00000110: 3704 59be a91f f0bc f50a c53c 9d15 08be
00000120: 331c 323e d3a3 873d 2491 acbb 8cc2 cd3d
00000130: 6445 1a3e 1cff 173e 9d25 f83d c709 85bd
00000140: 0629 4bbe ab0f f7bd a3df 6a3d 668b 88bc
00000150: 6008 bc39 8dc4 d7bd 6103 39bd 9858 c8bd
00000160: f150 223e a061 883d 9723 1fbd fc3f 3e3e
00000170: 006e 233e 1104 13bd 4b11 8b3b be16 0f3e
00000180: 325e 013e f392 27bb 71f2 04be 4928 9fbc
00000190: 5b13 41be 4aaf 8d3d dfc9 423e 1a0b 9e3b
000001a0: b4f5 103e a27d 4f3d 750d 01bd 2bca 07be
000001b0: 0c50 b43b 0e76 42be 7e8c 223e a0d5 583d
000001c0: a5f1 48be e87a fdbd dd1c 053d 1fdb 5bbd
000001d0: 89c2 13be 7ff6 983d e490 443d 2221 35bd
000001e0: 0334 67bc e24d 47be 9d2f 09bd 70e8 a8bc
000001f0: f168 82be 9d97 7f3d 0c5d 4d3e 94e0 123a
00000200: 04db f33d 8664 65be bdfb 543e 4479 b5bc
00000210: 4490 7f3d 8d4b 20be 958d b03d c489 383e
00000220: 94cd a0be f778 86bd 1752 06be 5704 f0bd
00000230: 27fc c83c d111 25bd e5fb 833e cc62 163e
00000240: 4bdb ec3d be27 223d d0e4 84bd bcda f43d
00000250: 0365 8cbd 952e 853d 8286 fdbc c0fd 60be
00000260: 9752 44be 350d d4bc ffe2 aa3d 2194 e2bd
00000270: dd65 163e 20ac 52bc 1ee2 3e3c c692 043e
00000280: 25b9 32be 6403 bdbc e1a8 183d 09e5 d93d
00000290: 2872 0cbd 5a82 c73d 0c62 813e c7a0 a3be
000002a0: ab77 8abd ceab ee3a 7181 4ebd c11e df39
000002b0: 8478 6a3d 8566 18bd 65d4 523e 0627 203e
000002c0: cbf5 273d c345 ebbc 3e6d 553d 3828 413d
000002d0: 32f8 863b ab8a 043d 2800 0fbe 476f 05bd
000002e0: 9fc4 8d3c 5706 08be 3679 8c3d 8e81 173e
000002f0: f905 2b3e 1aac 9abd 4e6b c5bc 36a4 0d3e
00000300: 9342 d3bd 72a8 983d 2142 553d 7af6 58bd
00000310: 0903 8abd 069d c8bd b123 d93d a4f2 ae3b
00000320: 51c3 033d e8c4 b0be 5c2c 393e f3c7 2d3e
00000330: 2065 01bd f524 d93a 2387 aebd 6d59 803e
00000340: 12b8 3cbd c1a8 86be bdb1 ab3c 4b0d 5c3e
00000350: 04c3 30be 5d0f 06be 9097 2bbe ac91 fe3e
00000360: 5d31 edbc 7687 693d de86 b73d 966b 903e
00000370: 7582 043e e397 42be 106f 0e3e 7966 e63d
00000380: 3775 5fbd 1543 a1bd 01dd 82bd 51b5 dc3e
00000390: 2d42 eebd ac06 b9bc 54fb fc3d 7960 1a3e
000003a0: b13f 12be 6160 8cbe 1db1 2a3c cf60 4ebd
000003b0: a6ea f33c 912e 393e 8a90 db3c 81c4 be3e
000003c0: 2700 10bc 3e7f 4a3a 0e95 eb3d a9ce a3bd
000003d0: f416 0c3d 7696 c2be 0b10 633e de09 1f3b
000003e0: 7599 223e 77ba 4d3e 2e8b 10be 470a d63e
000003f0: 7990 b5bd fb47 cabb 1f71 3b3e 8758 c13d

network_body.linear_encoder.seq_layers.2.bias f4 [256]
0.025126448 -0.014347517 0.0005638575 -0.006478329 -0.014418149 -0.006469885 -0.009315815 0.018561197
0.028900947 -0.018307954 -0.0024125264 -0.0024860604 0.015709149 0.024708992 0.0039621345 -0.02362523
-0.025808407 0.008309466 -0.022733554 0.007237848 0.025259668 0.03925868 0.024572842 0.011975666
-0.0055841287 -0.01557061 0.0017551155 0.04111948 0.028670024 0.017112495 -0.00018922417 -0.008908361
0.006000177 -0.009779182 -0.0052901213 0.025861645 0.043081667 0.029281035 0.0068797655 0.0054686437
0.043127693 -0.0062176776 0.014796718 0.0017049931 0.004918617 0.029525975 -0.039324794 0.0013348456
0.005683569 0.04289894 -0.00548391 0.016831707 -0.008629144 -0.0115934545 0.0012643579 0.011475416
0.0061250096 0.03215387 0.014715934 -0.017027901 -0.0066080093 0.0099651115 0.018388515 0.0024581847
-0.04839252 -0.0104684355 0.021177843 0.00613208 -0.00895323 -0.006764375 -0.033664286 0.028532607
0.022521 0.0241077 0.034949016 -0.0019690162 -0.012197503 -0.0067231352 -0.0039120233 -0.012677493
0.020290608 0.005420537 0.04424393 0.00081601116 0.031125877 -0.003907294 0.015089203 -0.0115913525
-0.012575951 0.0071975 0.0004962496 -0.02101525 0.010792651 -0.0047245747 -0.0231252 -0.03469432
0.040954378 0.0041280296 0.010279159 0.01017498 0.015482075 -0.002334449 0.03648951 0.001437096
-0.0010127871 0.017687386 -0.015739478 -0.010213741 0.015191176 0.009931141 0.0051329187 -0.0062589096
0.015740354 -0.012902592 -0.00061067485 0.011097494 -0.014059429 0.030080134 -0.0014311186 0.015274386
-0.0069982153 0.033940554 0.042479794 0.005423707 0.0072031473 0.00065287575 0.0042005223 -0.015286719
0.018467179 0.02764983 0.023187004 0.02857587 0.0022619036 -0.024942975 -0.004535825 0.022775454
0.01590153 0.012489773 0.023829727 0.010409851 0.008540709 0.023531051 0.0255835 -0.02214969
-0.0027117468 0.02168259 0.026460813 -0.012559291 -0.020755375 0.010854159 0.036306605 0.009024665
-0.028312236 0.03098097 -0.0071336194 -0.014060132 -0.010955632 0.019533396 -0.023220483 0.028373126
0.03359851 0.019047188 -0.008001972 0.044097155 -0.007106766 0.007071219 0.017087124 -0.024120366
0.0015075875 0.027547278 -0.012153927 0.00856733 -0.020844523 0.017943067 0.025865136 -0.025017764
-0.003941602 0.032994103 0.016681118 0.021894183 0.0029268705 0.02822458 0.014972804 0.017460508
-0.0088232 0.0044257413 0.010143209 -0.0056185643 0.029156355 -0.0014513502 0.02793394 0.010483465
0.022503905 0.0007165126 -0.0028090675 -0.0024134375 -0.00012519496 -0.00943176 0.01321506 0.01180865
0.02776211 0.024882875 0.0056472193 0.028231489 0.03320366 0.009634812 0.003963163 -0.02694609
0.012140452 0.0097853495 -0.030515302 0.012285794 -0.021256993 0.002744908 0.008638521 0.027634023
0.011608781 0.014708516 -0.021990731 -0.011158724 -0.0033289012 -0.038369242 0.040454283 0.010548288
0.011297423 0.03789261 0.0011814348 0.022510035 -0.001109734 -0.017248083 -0.00069609197 0.0018270704
0.0064828526 0.03991613 0.022533841 0.016160842 -0.0070026107 0.0029467912 -0.028837848 -0.0072290674
0.030404432 0.0014223753 -0.0009845315 0.018116837 0.0035036555 0.03630777 -0.0049907826 0.014000763
0.028415088 0.033043507 -0.0017135638 -0.028874945 0.016167816 0.00080322864 -0.0021901245 0.004449997
00000000: fbd5 cd3c d911 6bbc d6cf 133a 2a48 d4bb
00000010: 1a3a 6cbc 5401 d4bb 5ca1 18bc a70d 983c
00000020: aec1 ec3c 90fa 95bc 7a1b 1ebb 2ced 22bb
00000030: 79b0 803c 836a ca3c cbd4 813b b389 c1bc
00000040: 276c d3bc 6d24 083c b83b babc 782b ed3b
00000050: 5ded ce3c b6cd 203d fc4c c93c 9535 443c
00000060: 11fb b6bb df1b 7fbc e70b e63a e66c 283d
00000070: 66dd ea3c 812f 8c3c 7a6a 46b9 60f4 11bc
00000080: 229d c43b dd38 20bc c158 adbb cddb d33c
00000090: 6776 303d c8de ef3c a86f e13b 4f32 b33b
000000a0: aaa6 303d a9bd cbbb ef6d 723c 137a df3a
000000b0: 5a2c a13b 75e0 f13c 0913 21bd fcf5 ae3a
000000c0: 3b3d ba3b cdb6 2f3d 5fb2 b3bb a6e2 893c
000000d0: 4161 0dbc 79f2 3dbc d0b8 a53a 6203 3c3c
000000e0: 4eb4 c83b c7b3 033d 1a1b 713c 197e 8bbc
000000f0: 0088 d8bb b544 233c 83a3 963c 7f19 213b
00000100: 3c37 46bd cd83 2bbc 287d ad3c 9eef c83b
00000110: 92b0 12bc b1a7 ddbb 90e3 09bd 37bd e93c
00000120: f67d b83c 837d c53c b326 0f3d 9c0a 01bb
00000130: 09d8 47bc bf4d dcbb 6e30 80bb 42b5 4fbc
00000140: 7d38 a63c c39e b13b 2039 353d 95e9 553a
00000150: b2fb fe3c c208 80bb b438 773c a8e9 3dbc
00000160: 5d0b 4ebc 02d9 eb3b bf16 023a 2c28 acbc
00000170: a9d3 303c 9bd0 9abb 0f71 bdbc a21b 0ebd
00000180: c7bf 273d 6c44 873b eb69 283c f6b4 263c
00000190: 87a8 7d3c 8efd 18bb 0676 153d f15c bc3a
000001a0: 7fbf 84ba 23e5 903c 14f0 80bc 8957 27bc
000001b0: 69e4 783c 39b6 223c 0b32 a83b 8a17 cdbb
000001c0: eaf1 803c 6565 53bc b215 20ba 43d2 353c
000001d0: 8559 66bc 9d6a f63c 5f94 bbba 6b41 7a3c
000001e0: 4951 e5bb 4005 0b3d 4bff 2d3d 5ab9 b13b
000001f0: 6108 ec3b c025 2b3a 89a4 893b 2675 7abc
00000200: 7b48 973c e581 e23c acf2 bd3c f117 ea3c
00000210: 723c 143b 3655 ccbc 42a1 94bb 9793 ba3c
00000220: ed43 823c e8a1 4c3c 8f36 c33c 148e 2a3c
00000230: 54ee 0b3c 31c4 c03c 7d94 d13c 4473 b5bc
00000240: 90b7 31bb b09f b13c 59c4 d83c 7cc5 4dbc
00000250: 2d07 aabc a4d5 313c 3cb6 143d 30dc 133c
00000260: 10ef e7bc cecb fd3c 23c1 e9bb 785c 66bc
00000270: 407f 33bc 8004 a03c e238 bebc c26e e83c
00000280: 979e 093d d908 9c3c b41a 03bc 389f 343d
00000290: e0df e8bb afb5 e73b 4cfa 8b3c 1398 c5bc
000002a0: 3e9a c53a d4aa e13c 4421 47bc fd5d 0c3c
000002b0: 22c2 aabc 57fd 923c 1fe3 d33c 0ef2 ccbc
000002c0: 8e28 81bb d324 073d d7a6 883c 6e5b b33c
000002d0: bdd0 3f3b 3c37 e73c 7e50 753c 5709 8f3c
000002e0: 2f8f 10bc cf05 913b b42f 263c ef1b b8bb
000002f0: 4fd9 ee3c 3b3b beba b8d5 e43c d7c2 2b3c
00000300: 1c5a b83c 59d4 3b3a 5518 38bb c32a 1ebb
00000310: c446 03b9 ab87 1abc fb83 583c 1179 413c
00000320: 5d6d e33c 2cd7 cb3c 4f0c b93b b945 e73c
00000330: 9000 083d 55db 1d3c 6cdd 813b 0cbe dcbc
00000340: bfe8 463c bb52 203c 3afb f9bc 5b4a 493c
00000350: 2523 aebc eae3 333b 9588 0d3c bf60 e23c
00000360: c232 3e3c fdfb 703c e825 b4bc 15d3 36bc
00000370: b229 5abb 1129 1dbd 64b3 253d bad2 2c3c
00000380: d418 393c 4835 1b3d 60da 9a3a f766 b83c
00000390: 7e74 91ba da4b 8dbc f179 36ba 4f7a ef3a
000003a0: 1c6e d43b 197f 233d e498 b83c be63 843c
000003b0: 2876 e5bb f41e 413b 5a3d ecbc d0e1 ecbb
000003c0: b712 f93c ff6e ba3a 650b 81ba c369 943c
000003d0: 969d 653b 75b7 143d b889 a3bb 7563 653c
000003e0: c2c6 e83c a158 073d a999 e0ba 268b ecbc
000003f0: 5e72 843c c38f 523a 3188 0fbb 48d1 913b

network_body.linear_encoder.seq_layers.2.weight f4 [256, 256]
0.05690317 0.020454073 -0.09215246 0.0076445783 0.02448349 -0.07944552 -0.20539914 0.12313639
-0.04334501 -0.024132436 0.05496309 0.051545206 -0.03532392 0.16789344 0.0569253 -0.048338074
0.08800742 -0.07592163 0.1939935 -0.025853494 -0.08197335 -0.13255137 -0.13893488 -0.028243642
-0.029806422 -0.009396565 -0.051359087 0.041918553 -0.047017757 0.092095524 -0.031206677 0.06558763
0.02428063 -0.1152944 0.05906286 0.07741644 0.038242217 0.008206485 0.09003295 0.05781692
0.017696517 0.08152395 0.07584243 0.06293581 -0.0007968544 0.03189149 -0.010658854 0.02096768
-0.06223949 -0.030956862 -0.043323196 0.059212223 -0.010634945 -0.04629657 0.0052008303 0.014239833
0.065080814 -0.020174129 -0.013039914 0.0942475 0.122367136 -0.024051992 -0.044935986 -0.056027785
0.006197266 0.08083813 -0.09871412 0.042840295 -0.044938397 -0.12203491 -0.11296172 0.10261281
-0.028828433 -0.022369623 0.028454818 -0.025682451 -0.092754595 -0.07098656 0.042882476 -0.12034737
-0.034529895 0.059404302 -0.07713629 -0.22889754 0.059061173 0.06505317 0.03300277 -0.128877
-0.010503741 0.0063813413 -0.06329181 -0.002263603 -0.11113804 -0.019407636 -0.08545569 -0.09579006
-0.025963213 0.089957975 0.025190303 -0.018028546 0.022434877 -0.052225206 0.1405593 -0.014394447
-0.03582816 0.024086641 0.014597955 0.0014324004 0.1467091 -0.022590814 0.054715853 0.06130517
0.016515648 0.029982973 -0.03813009 -0.02876276 -0.093295775 -0.09642491 0.13756609 -0.08216505
0.089755036 -0.07993064 -0.06686491 0.09771481 -0.114764884 -0.05267439 0.0480384 -0.06926432
0.12790765 -0.16435792 0.037514083 -0.043705087 0.0034564761 0.04307907 -0.0115943225 0.02527546
0.030881263 -0.13381319 -0.05960478 -0.07706574 -0.07682843 0.13761753 0.04606033 0.095431104
0.026777871 0.051231466 -0.009607795 0.09173568 0.038678225 -0.024681233 0.03110822 0.070294045
0.036102433 -0.07800639 0.0848006 0.13585047 -0.03429229 -0.074822225 -0.0126616685 -0.02485847
-0.0231319 0.16890687 0.010517559 -0.0101506235 -0.017185312 0.010893034 0.02760219 0.052779015
0.016973045 0.080092676 -0.02543539 0.03230319 -0.0399329 -0.016382385 0.11485246 -0.12873867
0.032243803 -0.023588503 -0.092816226 -0.015814861 -0.09181278 0.098594464 -0.20494328 -0.02145312
0.013268548 -0.19160736 -0.04418244 0.076697424 -0.11229119 0.051269155 0.003004341 -0.059988704
0.06111223 -0.008099602 -0.07002232 0.05898382 -0.036481496 0.07921322 -0.06072653 0.0139576495
0.05846827 -0.103019424 0.045474548 0.024709443 0.04141945 0.11950241 -0.014519174 0.16125466
-0.008754325 0.15769503 0.010272843 0.03159859 -0.022128887 0.09289008 -0.08404886 -0.005728173
-0.0063590943 -0.0552572 -0.00625259 0.02533085 0.0857807 0.0221811 0.033664305 0.021713588
-0.060304813 -0.13993786 0.04191981 -0.0088334875 0.063006185 0.0661489 -0.008729162 -0.016414601
-0.076310255 -0.011466714 0.05549293 0.08700533 0.0110578975 0.006421672 0.0074393866 -0.025066944
-0.15478116 0.11772919 0.11252141 -0.030209666 0.1212649 0.064742185 -0.095866784 -0.029713318
0.13762242 0.0006707337 -0.036427148 0.05155637 -0.044024248 0.034212794 0.019559542 0.007279628
00000000: 4c13 693d 4d8f a73c 6eba bcbd 5f7f fa3b
00000010: 9a91 c83c 55b4 a2bd 2754 52be ee2e fc3d
00000020: 8a8a 31bd 63b1 c5bc fa20 613d 1121 533d
00000030: d1af 10bd 42ec 2b3e 812a 693d 25fe 45bd
00000040: 3c3d b43d cd7c 9bbd 3ba6 463e b5ca d3bc
00000050: a5e1 a7bd 8cbb 07be f244 0ebe 365f e7bc
00000060: 992c f4bc 0df4 19bc e85d 52bd cab2 2b3d
00000070: b195 40bd 949c bc3d 25a5 ffbc cf52 863d
00000080: 2ce8 c63c 781f ecbd e6eb 713d 838c 9e3d
00000090: dfa3 1c3d 7e74 063c 3263 b83d 6fd1 6c3d
000000a0: 49f8 903c 07f6 a63d 4753 9b3d 7de4 803d
000000b0: fee3 50ba a7a0 023d 79a2 2ebc 69c4 ab3c
000000c0: d6ee 7ebd 3f99 fdbc aa73 31bd 8488 723d
000000d0: 313e 2ebc 79a1 3dbd ba6b aa3b 304e 693c
000000e0: 1749 853d 3744 a5bc 5da5 55bc d504 c13d
000000f0: 9f9b fa3d af08 c5bc cc0e 38bd 647d 65bd
00000100: 6f12 cb3b 768e a53d a12a cabd 4e79 2f3d
00000110: 5311 38bd 70ed f9bd 7958 e7bd aa26 d23d
00000120: 9b29 ecbc 8040 b7bc 141a e93c 0164 d2bc
00000130: 1ff6 bdbd 6761 91bd 89a5 2f3d af78 f6bd
00000140: 386f 0dbd ed51 733d a2f9 9dbd 1e64 6abe
00000150: 21ea 713d 993a 853d ea2d 073d 55f8 03be
00000160: e217 2cbc 921a d13b 239f 81bd f558 14bb
00000170: 579c e3bd c3fc 9ebc 6503 afbd 942d c4bd
00000180: ceb0 d4bc e33b b83d e55b ce3c 9ab0 93bc
00000190: 59c9 b73c 19ea 55bd c7ee 0f3e b0d6 6bbc
000001a0: 8cc0 12bd 5951 c53c 432c 6f3c 62bf bb3a
000001b0: e93a 163e 5f10 b9bc bb1d 603d 211b 7b3d
000001c0: d34b 873c da9e f53c 4c2e 1cbd e19f ebbc
000001d0: db11 bfbd 6c7a c5bd 20de 0c3e 2646 a8bd
000001e0: 7dd1 b73d adb2 a3bd 78f0 88bd b41e c83d
000001f0: da09 ebbd 1ac1 57bd eac3 443d 74da 8dbd
00000200: 39fa 023e 714d 28be 5ea8 193d 1b04 33bd
00000210: 0c86 623b ae73 303d 1df6 3dbc 7b0e cf3c
00000220: b4fa fc3c 5306 09be 2424 74bd a5d4 9dbd
00000230: 3958 9dbd 9ceb 0c3e c2a9 3c3d 6271 c33d
00000240: 445d db3c 16d8 513d 036a 1dbc ebdf bb3d
00000250: 0f6d 1e3d 4c30 cabc aad6 fe3c 53f6 8f3d
00000260: 25e0 133d d0c1 9fbd f0ab ad3d 631c 0b3e
00000270: 1376 0cbd 653c 99bd e372 4fbc fda3 cbbc
00000280: 1c7f bdbc ecf5 2c3e d751 2c3c cd4e 26bc
00000290: 36c8 8cbc b278 323c fd1d e23c cf2e 583d
000002a0: 0e0b 8b3c a107 a43d e15d d0bc 5a50 043d
000002b0: ae90 23bd 5a34 86bc c437 eb3d 12d4 03be
000002c0: 1412 043d ad3c c1bc 6f16 bebd 2b8e 81bc
000002d0: 5708 bcbd e5eb c93d a7dc 51be 74be afbc
000002e0: 5364 593c b834 44be a5f8 34bd 8a13 9d3d
000002f0: ecf8 e5bd 9bff 513d 7ae4 443b b7b6 75bd
00000300: d150 7a3d 31b4 04bc dd67 8fbd 0599 713d
00000310: 9f6d 15bd 8a3a a23d 62bc 78bd a0ae 643c
00000320: 6d7c 6f3d d9fb d2bd 8543 3a3d 756b ca3c
00000330: 71a7 293d aebd f43d d4e1 6dbc f11f 253e
00000340: 4d6e 0fbc ce7a 213e 6d4f 283c 866d 013d
00000350: a447 b5bc 273d be3d cf21 acbd 66b3 bbbb
00000360: f35f d0bb 6055 62bd 87e2 ccbb a582 cf3c
00000370: cbad af3d 23b5 b53c 95e3 093d b2e0 b13c
00000380: 2e02 77bd df4b 0fbe 1bb4 2b3d 55ba 10bc
00000390: 6309 813d 1379 873d c204 0fbc ea77 86bc
000003a0: 8d48 9cbd e2de 3bbc 8e4c 633d da2f b23d
000003b0: 2f2c 353c e46c d23b 19c6 f33b 3159 cdbc
000003c0: f47e 1ebe 001c f13d a071 e63d 437a f7bc
000003d0: bb59 f83d 8d97 843d ce55 c4bd 5869 f3bc
000003e0: e4ec 0c3e 2dd4 2f3a a234 15bd c62c 533d
000003f0: c552 34bd b722 0c3d 553b a03c f289 ee3b
