Project/Assets/MyProject/Train/Chaser/CVR 4/Models/ver 5/ThiefBrain.onnx (onnx, 598448 bytes, 6 tensors)

action_model._discrete_distribution.branches.0.bias f4 [7]
-0.017968968 -0.0017999609 0.013331983 -0.0024462424 0.043133892 0.028958527 -0.016473409
00000000: a833 93bc aaec ebba 646e 5a3c 2351 20bb
00000010: 2aad 303d 6f3a ed3c 3ef3 86bc

action_model._discrete_distribution.branches.0.weight f4 [7, 256]
-0.0700246 0.047560304 0.037420094 0.044420533 0.037543565 0.10250386 0.07500087 -0.18868856
0.07420065 0.076503694 0.053898457 -0.005199176 0.046005648 0.018333914 -0.036998235 0.009309571
0.11362358 0.03049742 0.038464118 0.108687826 0.03228341 0.04488154 0.014912133 0.04594037
0.04814733 0.020074401 0.015706208 -0.22980332 0.080463134 0.099268176 0.019665565 -0.04399614
0.08269593 0.15092166 0.111787595 -0.03941001 -0.0211959 0.025611803 0.014162352 0.07248378
0.0047801835 0.03273127 -0.031984087 -0.059864808 -0.0049052704 -0.004727644 0.14609171 0.013279617
-0.08779975 0.120199166 0.057873778 -0.06763387 0.19217475 0.07980643 -0.0055380715 0.075672984
-0.14053215 -0.03401376 0.09566119 -0.13035211 0.01868975 0.04065504 -0.080798686 0.14610979
0.048617035 0.11868375 -0.10127998 -0.04314386 0.14132781 0.041620497 0.20538737 -0.18296182
-0.15196836 -0.0050050304 0.11056545 0.09262683 0.07393057 -0.06560739 0.13529758 0.064959586
-0.1225718 -0.122815676 0.042408563 0.032319322 -0.19921353 -0.17777619 0.0620694 0.15107882
-0.0038845073 -0.15994255 -0.056213897 -0.042681836 -0.23123707 -0.17914923 -0.017244693 0.13713199
0.109887145 0.023143822 -0.014046749 0.036880255 0.19109029 -0.12508386 0.08391128 -0.12653328
0.045739908 -0.3008987 0.11869301 -0.006063491 0.038119428 0.12366089 0.053861924 -0.123165324
0.046358723 -0.07777898 0.082725845 0.1813744 -0.02770368 -0.11140575 -0.16219871 -0.20633683
0.03113018 -0.036057156 -0.10339412 0.062650464 0.07657905 -0.062464293 0.027172618 -0.042430006
0.09048306 -0.024436403 -0.009278804 0.03400302 0.1555494 0.028758686 -0.06034349 -0.2016988
-0.018599555 0.11593968 -0.1735215 -0.18676893 -0.059443813 -0.23538135 -0.13618621 0.1115488
-0.28804085 0.096945524 -0.15531792 0.06381666 -0.13459401 -0.087936066 0.10215339 -0.03368695
0.078130685 0.10791254 -0.093411185 0.0950614 -0.13776582 -0.016401803 0.19656426 0.05178764
-0.0063245883 -0.08790594 0.058450162 0.008789473 0.06255135 -0.12402631 -0.087027505 -0.08472717
-0.1466263 0.102911994 -0.09136388 0.080069765 -0.0013315685 -0.14501783 -0.09585038 0.022046093
-0.05415938 0.18409294 0.111446135 -0.1747823 0.122266985 0.03366289 -0.05193719 0.04764432
-0.046206392 0.052241083 -0.032775674 -0.08734046 0.05344674 -0.11500984 0.10444204 -0.050636727
-0.061284054 0.1221492 -0.033719584 -0.12572914 0.040598154 0.022468332 -0.0015783027 0.04990462
0.06392302 -0.018519023 0.06264533 -0.0053419797 -0.07458092 0.09224125 0.11072944 -0.090247095
0.017963285 0.08426294 0.06254815 0.05173938 -0.014904275 0.10919024 0.06415905 0.06075926
-0.10723901 -0.14165498 0.032465465 -0.02395567 0.031250395 0.017300265 0.04883022 -0.0710719
-0.04416573 -0.02933316 -0.07768666 -0.15207765 0.060384404 -0.045403097 -0.24104893 -0.06467764
0.050429758 0.012587072 -0.03279658 0.014495922 0.04802339 0.062205847 0.09727048 -0.020504741
0.14802368 0.048821066 -0.036395613 0.17801486 -0.01864063 -0.17718296 0.04989279 0.08606182
-0.11908039 -0.16566107 -0.05391694 -0.0026520754 -0.111887634 -0.010865667 0.10524373 -0.08423036
00000000: 0f69 8fbd 98ce 423d d045 193d 4ef2 353d
00000010: 48c7 193d 8bed d13d 0e9a 993d 9337 41be
00000020: 83f6 973d f8ad 9c3d a1c4 5c3d d95d aabb
00000030: 6b70 3c3d 0131 963c 768b 17bd 2c87 183c
00000040: 7bb3 e83d bad5 f93c 8d8c 1d3d b997 de3d
00000050: 9c3b 043d b5d5 373d 0552 743c f82b 3c3d
00000060: 2236 453d 1273 a43c 4eaa 803c 9051 6bbe
00000070: dbc9 a43d 1d4d cb3d ae19 a13c 4c35 34bd
00000080: 7c5c a93d 358b 1a3e e5f0 e43d 646c 21bd
00000090: 06a3 adbc d8cf d13c 3609 683c 6072 943d
000000a0: 16a3 9c3b 3911 063d bf01 03bd cd34 75bd
000000b0: 64bc a0bb 5aea 9abb 1199 153e c092 593c
000000c0: 5bd0 b3bd fb2a f63d 0e0d 6d3d a083 8abd
000000d0: 75c9 443e 8e71 a33d b678 b5bb 70fa 9a3d
000000e0: a9e7 0fbe 0352 0bbd 04ea c33d 067b 05be
000000f0: 3f1b 993c e685 263d c879 a5bd ce9d 153e
00000100: a822 473d 7710 f33d e16b cfbd 9eb7 30bd
00000110: 3db8 103e 417a 2a3d 1151 523e 585a 3bbe
00000120: 989d 1bbe 3d01 a4bb 2370 e23d 23b3 bd3d
00000130: e968 973d 2b5d 86bd 738b 0a3e 8809 853d
00000140: ed06 fbbd c986 fbbd 9ab4 2d3d 4461 043d
00000150: a2fe 4bbe f60a 36be 7c3c 7e3d 68b4 1a3e
00000160: 3893 7ebb fbc7 23be 8b40 66bd 26d3 2ebd
00000170: 69c9 6cbe e572 37be be44 8dbc 546c 0c3e
00000180: 830c e13d 1d98 bd3c 5624 66bc c00f 173d
00000190: 2cad 433e fc15 00be add9 ab3d f191 01be
000001a0: c559 3b3d 650f 9abe 5215 f33d 40b0 c6bb
000001b0: 1e23 1c3d ec41 fd3d 529e 5c3d 1a3e fcbd
000001c0: a5e2 3d3d 964a 9fbd 2b6c a93d 36ba 393e
000001d0: d4f2 e2bc b328 e4bd 6b17 26be f649 53be
000001e0: b804 ff3c abb0 13bd 4cc0 d3bd e34e 803d
000001f0: 7ad5 9c3d 8fda 7fbd 1c99 de3c 16cb 2dbd
00000200: 2f4f b93d da2e c8bc 2006 18bc c046 0b3d
00000210: 5848 1f3e 5697 eb3c bc2a 77bd 218a 4ebe
00000220: 185e 98bc c871 ed3d 9faf 31be 5b40 3fbe
00000230: 5b7b 73bd cf07 71be 6674 0bbe b273 e43d
00000240: 177a 93be 608b c63d a90b 1fbe 4fb2 823d
00000250: 03d3 09be d317 b4bd cc35 d13d 54fb 09bd
00000260: fb02 a03d 4001 dd3d 5d4e bfbd 8daf c23d
00000270: 7c12 0dbe 135d 86bc 2448 493e 471f 543d
00000280: 7e3e cfbb 0808 b4bd 7069 6f3d b901 103c
00000290: ec1a 803d 8201 febd 7a3b b2bd 7085 adbd
000002a0: 3425 16be 86c3 d23d fc1c bbbd 9efb a33d
000002b0: 0688 aeba 8e7f 14be 344d c4bd 029a b43c
000002c0: 3ad6 5dbd dc82 3c3e df3d e43d 22fa 32be
000002d0: 1d67 fa3d 19e2 093d 17bc 54bd b126 433d
000002e0: ea42 3dbd bffa 553d c93f 06bd 8edf b2bd
000002f0: f8ea 5a3d 478a ebbd b5e5 d53d 7568 4fbd
00000300: fd04 7bbd 5c29 fa3d 8c1d 0abd 24bf 00be
00000310: 404a 263d 820f b83c 0ddf ceba c968 4c3d
00000320: 13ea 823d 35b5 97bc 324c 803d c60b afbb
00000330: e2bd 98bd fbe8 bc3d 1ec6 e23d 78d3 b8bd
00000340: bd27 933c 0c92 ac3d 3f19 803d acec 533d
00000350: 0f31 74bc 229f df3d d265 833d b4de 783d
00000360: 20a0 dbbd 010e 11be 82fa 043d ae3e c4bc
00000370: 6a00 003d 49b9 8d3c 3202 483d 258e 91bd
00000380: 20e7 34bd 184c f0bc 2f1a 9fbd 3eba 1bbe
00000390: a355 773d 99f8 39bd 88d5 76be b675 84bd
000003a0: 6f8f 4e3d 023a 4e3c b555 06bd 4e80 6d3c
000003b0: 2db4 443d 8fcb 7e3d bf35 c73d 8ff9 a7bc
000003c0: 8593 173e 99f8 473d 9113 15bd 8749 363e
000003d0: 3cb4 98bc 736f 35be 625c 4c3d 2e41 b03d
000003e0: 6be0 f3bd 0ea3 29be 02d8 5cbd 71ce 2dbb
000003f0: 5825 e5bd e905 32bc 068a d73d f880 acbd

network_body.linear_encoder.seq_layers.0.bias f4 [256]
-0.046604197 -0.04564708 -0.035873942 0.0041990043 0.03274088 -0.02923776 -0.015799094 0.033141043
-0.041694056 -0.00027772048 0.17205612 0.02387379 0.0055804397 0.065254435 0.011126913 -0.19820993
-0.04906442 -0.014982156 0.017149175 0.06364146 -0.06538807 0.028744983 0.022112563 0.032550223
-0.033042524 0.04334933 0.0017170352 0.08236563 0.0027699012 -0.08695254 0.036841974 -0.052648846
-0.0070063714 0.07668501 0.065728635 0.082303904 0.08707063 0.09622615 -0.004769897 -0.014350687
-0.04704804 -0.015589969 0.020150665 -0.012589792 0.008238693 0.19834787 -0.013308756 -0.01144558
-0.03202136 -0.04525686 -0.009873538 -0.056415368 -0.006824553 -0.035928663 -0.056390576 -0.020217208
-0.044578 0.0712712 0.045692798 -0.0032905478 -0.036781494 0.017352486 0.080400616 0.040864997
-0.0996035 -0.034416117 0.05204548 -0.038702726 -0.03383071 -0.01841183 -0.0053463555 0.09721041
0.12760507 0.095637076 -0.016302116 -0.07880524 0.037547316 0.031975143 -0.010743398 -0.051075067
-0.029345715 -0.049504578 0.09629556 -0.07691136 -0.019459674 0.012391284 -0.028774517 0.07290727
-0.029739287 0.012779725 -0.014863002 -0.052038804 0.016238622 -0.030594544 -0.056017995 0.06814652
-0.043335985 -0.04914701 -0.06757749 -0.04623352 0.004181039 -0.11099488 0.10306229 0.039712243
0.023950836 0.005844856 -0.022169353 0.069640644 0.0050757146 0.0018468415 -0.04662899 -0.029387461
0.020372225 -0.076025136 -0.045739356 -0.04480077 0.06445758 0.09961659 -0.049646538 0.017121308
0.18024206 -0.11058013 0.17632148 0.10880724 -0.039941747 0.068259425 0.0024401234 0.038539138
0.053142287 0.025972242 0.027505672 0.058737233 -0.015724769 -0.07505403 0.03448821 0.10131714
-0.08478832 0.0047280556 -0.07163545 0.028531056 0.15080512 0.049103916 0.058334727 -0.043160476
0.15573888 0.025663184 -0.060875334 0.0024310048 -0.022780802 0.09526462 -0.046072863 0.036073048
0.0031261852 0.004665635 0.045281153 0.019240106 -0.019839223 0.04513282 0.07563371 -0.09319808
-0.022485485 -0.114939585 -0.027188266 0.026160674 0.05081136 -0.044772774 0.039977487 0.0031044781
0.16586302 0.07588499 -0.009435272 -0.02942717 0.02385883 0.062722705 0.0019223966 -0.005159393
0.04795092 0.057017703 -0.009424583 0.0067167087 -0.04750227 -0.024645705 -0.013611934 -0.011730845
-0.0073839016 -0.024626425 -0.09987034 0.08327722 0.033511303 -0.047514074 -0.041473944 -0.0025609366
0.038795188 -0.08564094 0.03425526 0.06684125 0.09916163 0.06857951 -0.04782525 0.0019804218
-0.030646998 0.1133285 0.06393565 -0.08346921 -0.052292325 0.029208744 0.03366571 -0.02003123
0.033375226 -0.009000502 -0.0051319073 0.009642057 -0.04167973 0.052291084 -0.06221993 0.042979214
0.018520437 0.0386549 0.04039563 -0.05937414 -0.013192277 0.012114071 0.043096468 -0.0024329463
-0.0056534884 -0.070712306 -0.06636996 -0.045048412 0.036079664 -0.02410174 -0.00029177603 -0.060760893
0.0041563977 -0.06603709 -0.0026921576 0.021595493 0.052181095 0.022392169 -0.072790086 -0.038436912
-0.015104567 -0.13294439 0.08791535 0.012789986 -0.0035010492 0.08875949 -0.13870142 -0.038172558
-0.047810137 -0.021767396 -0.090006165 -0.042932097 -0.0045874086 -0.06371315 0.060995884 0.11032337
00000000: 0be4 3ebd 6ff8 3abd 8ef0 12bd cd97 893b
00000010: 4d1b 063d 0784 efbc 1a6d 81bc e7be 073d
00000020: 63c7 2abd 039b 91b9 7b2f 303e f792 c33c
00000030: 1fdc b63b 1ea4 853d a84d 363c 8bf7 4abe
00000040: c6f7 48bd b877 75bc 6d7c 8c3c 7456 823d
00000050: 2eea 85bd 997a eb3c 6825 b53c 6253 053d
00000060: 9957 07bd 118f 313d 240e e13a 50af a83d
00000070: 3b87 353b 2c14 b2bd 9ce7 163d 51a6 57bd
00000080: b495 e5bb 080d 9d3d bc9c 863d f38e a83d
00000090: 1652 b23d 3712 c53d cc4c 9cbb 251f 6bbc
000000a0: 72b5 40bd 126d 7fbc 0213 a53c 6a45 4ebc
000000b0: 95fb 063c b41b 4b3e f80c 5abc 3e86 3bbc
000000c0: d428 03bd 425f 39bd 9fc4 21bc cd13 67bd
000000d0: 80a0 dfbb ef29 13bd cef9 66bd 8f9e a5bc
000000e0: 6c97 36bd a3f6 913d 5f28 3b3d 3ba6 57bb
000000f0: 31a8 16bd cd26 8e3c 14a9 a43d 0e62 273d
00000100: ebfc cbbd eaf7 0cbd a42d 553d c086 1ebd
00000110: 1292 0abd 68d4 96bc 7b30 afbb 4016 c73d
00000120: e7aa 023e 5fdd c33d 048c 85bc a464 a1bd
00000130: 37cb 193d 5ef8 023d 1405 30bc 1734 51bd
00000140: 6d66 f0bc 50c5 4abd 9b36 c53d b483 9dbd
00000150: e569 9fbc d004 4b3c 89b8 ebbc 6850 953d
00000160: ce9f f3bc 0d62 513c f383 73bc a426 55bd
00000170: dc06 853c 69a1 fabc 2073 65bd 6790 8b3d
00000180: 1381 31bd 604e 49bd 1166 8abd 5c5f 3dbd
00000190: 1901 893b 4951 e3bd 5212 d33d 4ea9 223d
000001a0: 8b34 c43c 3586 bf3b 819c b5bc c19f 8e3d
000001b0: 2e52 a63b b811 f23a 0afe 3ebd f9bd f0bc
000001c0: a7e3 a63c 11b3 9bbd 3159 3bbd 0381 37bd
000001d0: 5602 843d c803 cc3d 2b5a 4bbd fc41 8c3c
000001e0: 6091 383e d677 e2bd 9e8d 343e 55d6 de3d
000001f0: f599 23bd 99cb 8b3d 7aea 1f3b 37db 1d3d
00000200: baab 593d bdc3 d43c 9353 e13c 7496 703d
00000210: 3bd1 80bc edb5 99bd 8243 0d3d 5c7f cf3d
00000220: 80a5 adbd ceed 9a3b 9bb5 92bd f6b9 e93c
00000230: a86c 1a3e 3021 493d 65f0 6e3d 0ac9 30bd
00000240: 037a 1f3e 993b d23c 6a58 79bd 7e51 1f3b
00000250: ce9e babc 191a c33d e6b6 3cbd 55c1 133d
00000260: afe0 4c3b 2fe2 983b bb78 393d 6d9d 9d3c
00000270: de85 a2bc 31dd 383d d9e5 9a3d a3de bebd
00000280: 7b33 b8bc 7265 ebbd edb9 debc e94e d63c
00000290: 931f 503d a863 37bd 6fbf 233d 8074 4b3b
000002a0: ffd7 293e 9769 9b3d 6696 1abc 4011 f1bc
000002b0: 9873 c33c c374 803d edf8 fb3a 2010 a9bb
000002c0: 2f68 443d 658b 693d 9169 1abc d617 dc3b
000002d0: be91 42bd cae5 c9bc 9704 5fbc bb32 40bc
000002e0: a8f4 f1bb 5bbd c9bc d288 ccbd 3f8d aa3d
000002f0: 2643 093d 1e9e 42bd 95e0 29bd 63d5 27bb
00000300: b4e7 1e3d 8464 afbd 3e4f 0c3d 11e4 883d
00000310: 4115 cb3d 6a73 8c3d 69e4 43bd f7c9 013b
00000320: 6a0f fbbc c618 e83d b2f0 823d e8f1 aabd
00000330: 7a30 56bd 2d47 ef3c 0ee5 093d 8918 a4bc
00000340: 76b4 083d d776 13bc 8f29 a8bb b8f9 1d3c
00000350: 5db8 2abd 2d2f 563d 53da 7ebd f90a 303d
00000360: 2cb8 973c 9a54 1e3d e375 253d 4c32 73bd
00000370: 6c24 58bc 197a 463c ec85 303d 1172 1fbb
00000380: e640 b9bb 9dd1 90bd f9ec 87bd af84 38bd
00000390: 45c8 133d 0371 c5bc 84f9 98b9 6ae0 78bd
000003a0: 6432 883b 743e 87bd e96e 30bb 08e9 b03c
000003b0: d8bb 553d c86f b73c f812 95bd 0670 1dbd
000003c0: 2579 77bc 9322 08be f70c b43d 178d 513c
000003d0: dc71 65bb 89c7 b53d bf07 0ebe d45a 1cbd
000003e0: 90d4 43bd 8a51 b2bc 2755 b8bd 91d9 2fbd
000003f0: f951 96bb 0a7c 82bd d2d6 793d 38f1 e13d

network_body.linear_encoder.seq_layers.0.weight f4 [256, 317]
-0.12383437 0.088712215 0.10510968 0.020596413 -0.26783416 0.15024109 -0.029979095 -0.06458119
-0.039170634 -0.117029674 0.15199807 0.106570706 -0.05046437 -0.24137826 -0.22546704 -0.098993056
-0.019125463 -0.15214254 -0.04728848 -0.032112464 -0.17365372 -0.0780613 -0.04484107 -0.04975694
-0.13692006 0.22450568 -0.14162962 0.03795198 -0.19877234 0.11347593 -0.12870428 -0.054264452
0.0122956745 -0.1167222 -0.05664428 -0.14871414 -0.08671545 0.14771365 -0.18243591 -0.05991551
-0.091763586 0.049208853 -0.13967234 -0.009074101 -0.17059669 0.010441099 0.101756684 -0.034843836
-0.099049106 0.090433866 0.18279469 -0.0787475 -0.103050664 0.11814186 0.10079513 -0.20373343
0.027146108 0.09399371 0.18950711 0.06834693 -0.14857925 0.06633348 -0.1438841 -0.06786512
0.12744339 -0.30412504 -0.04311561 -0.1696621 0.18028511 -0.025115833 -0.090434365 -0.024081929
0.013406238 -0.05719057 0.15548173 -0.030531311 -0.0102429725 -0.1586029 0.08387683 0.040463798
0.19811714 -0.025519893 0.026542619 -0.1345452 0.08470348 -0.009720507 0.040154092 -0.095482506
0.031237783 0.05892638 0.08704185 0.05779057 0.1142268 0.0256491 0.07479862 -0.02120152
-0.03785397 -0.19172634 -0.026395451 0.22492887 0.026979325 -0.00040937387 0.17894097 -0.009026001
0.09183384 0.003028848 0.05545152 -0.1028439 -0.017095996 -0.015066302 0.0050456407 -0.15195057
0.16537017 0.08842795 0.018010767 0.08795208 0.07454147 -0.062251408 -0.099647135 0.095249414
-0.23533623 -0.14890428 0.2113774 0.13444652 0.061630256 0.02216111 0.090096705 0.059995838
-0.030282333 0.15312172 -0.37950405 -0.16466191 0.27514726 0.08390979 -0.018244633 0.16251434
0.15548974 -0.020757528 0.06287741 0.08703812 -0.34260505 -0.17809395 0.1267176 -0.1062011
0.021999693 0.13787122 0.055071738 0.02592945 -0.12747082 0.1435725 -0.27575758 -0.21134172
0.009095944 0.064727545 -0.030787935 -0.024654396 0.039693944 0.08745805 -0.15568203 0.17338985
-0.2712264 -0.27647755 -0.049218316 0.0014188241 0.03554051 0.037186652 -0.0858898 0.033079818
-0.2123762 0.11379114 -0.25874677 -0.30980775 -0.05144197 0.026751135 0.027812824 0.1157216
0.01783538 -0.019553695 -0.04646867 0.104136534 -0.14787978 -0.16789976 0.018433807 -0.018208643
0.02992472 0.16017818 0.07447346 -0.0022473314 -0.12595858 0.14215188 0.081797354 -0.10773611
-0.16760428 0.17230232 -0.110306256 0.0991499 0.025238892 0.014373375 0.02011813 0.019382577
0.05013817 -0.042221237 -0.13087429 0.039605387 -0.14136033 0.10743538 -0.00093857746 -0.19385603
-0.10371321 0.107604094 -0.021388467 -0.12965856 0.039954793 -0.017067036 0.06221562 -0.04139292
-0.12320327 -0.061990246 0.016371569 0.042318363 -0.097376615 -0.022547541 -0.0027133604 -0.055921286
0.10069335 -0.10954498 -0.06604827 -0.07852679 0.0065989643 0.04234592 -0.0088456245 -0.112722434
-0.13695385 -0.046365466 -0.0019104783 -0.10546624 -0.045200866 0.056429762 0.005882526 -0.13007282
-0.119919464 -0.057492156 0.14111207 -0.19947189 -0.03657643 0.10485942 -0.016450368 -0.09201082
0.062495008 -0.06749667 0.15202475 -0.008873035 -0.07091734 -0.28035644 0.16536205 -0.07030264
00000000: e09c fdbd c0ae b53d be43 d73d cfb9 a83c
00000010: 8f21 89be cdd8 193e b896 f5bc 2543 84bd
00000020: 6371 20bd 41ad efbd 62a5 1b3e be41 da3d
00000030: bab3 4ebd dd2b 77be d5e0 66be dfbc cabd
00000040: 01ad 9cbc 41cb 1bbe 91b1 41bd 5c88 03bd
00000050: 48d2 31be 9ade 9fbd 45ab 37bd efcd 4bbd
00000060: c634 0cbe d1e4 653e 5b07 11be 8973 1b3d
00000070: fa8a 4bbe 1266 e83d 0ecb 03be 6744 5ebd
00000080: cc73 493c 0c0c efbd d503 68bd 8548 18be
00000090: df97 b1bd 3f42 173e 7bd0 3abe f769 75bd
000000a0: 8cee bbbd 398f 493d 4406 0fbe 8aab 14bc
000000b0: e6b0 2ebe 2511 2b3c cf65 d03d 69b8 0ebd
000000c0: 42da cabd 6435 b93d 882e 3b3e 5f46 a1bd
000000d0: 3a0c d3bd 5cf4 f13d ad6d ce3d 7f9f 50be
000000e0: 8461 de3c c67f c03d 270e 423e 7af9 8b3d
000000f0: 2925 18be d9d9 873d 5a56 13be defc 8abd
00000100: 8580 023e 47b6 9bbe fe99 30bd e7bb 2dbe
00000110: a99c 383e b8bf cdbc a735 b9bd 7747 c5bc
00000120: d6a5 5b3c a940 6abd 9a36 1f3e cd1c fabc
00000130: 24d2 27bc cc68 22be 9ec7 ab3d 5ebd 253d
00000140: 38df 4a3e 180f d1bc e86f d93c 38c6 09be
00000150: 0579 ad3d c342 1fbc 9e78 243d 558c c3bd
00000160: 61e6 ff3c ca5c 713d ff42 b23d ceb5 6c3d
00000170: beef e93d 101e d23c 0530 993d cfae adbc
00000180: c40c 1bbd e953 44be 463b d8bc c153 663e
00000190: bf03 dd3c 3ba1 d6b9 4d3c 373e cbe1 13bc
000001a0: 6113 bc3d a37f 463b 2221 633d d39f d2bd
000001b0: e70c 8cbc a7d8 76bc e755 a53b ee98 1bbe
000001c0: cc56 293e b719 b53d 518b 933c 3820 b43d
000001d0: 33a9 983d 55fb 7ebd cc13 ccbd 2012 c33d
000001e0: fbfb 70be 5d7a 18be 5173 583e 59ac 093e
000001f0: 0270 7c3d 378b b53c 9f84 b83d 32be 753d
00000200: a812 f8bc f1cb 1c3e 5b4e c2be 229d 28be
00000210: 1ae0 8c3e e5d8 ab3d c575 95bc 296a 263e
00000220: b438 1f3e b10b aabc dfc5 803d 0b41 b23d
00000230: ee69 afbe 435e 36be 42c2 013e f67f d9bd
00000240: b338 b43c 1d2e 0d3e e792 613d ff69 d43c
00000250: b687 02be ab04 133e 1930 8dbe f769 58be
00000260: 2807 153c e08f 843d fb36 fcbc 04f8 c9bc
00000270: 1e96 223d 351d b33d 1c6b 1fbe 1c8d 313e
00000280: 30de 8abe 778e 8dbe 2599 49bd d6f7 b93a
00000290: ed92 113d 0851 183d fee6 afbd b47e 073d
000002a0: 2679 59be 540b e93d 757a 84be 1f9f 9ebe
000002b0: d1b4 52bd 3225 db3c b8d7 e33c 72ff ec3d
000002c0: 811b 923c 122f a0bc ef55 3ebd 8945 d53d
000002d0: cc6d 17be eaed 2bbe 7f02 973c 4b2a 95bc
000002e0: b024 f53c c005 243e 8b85 983d f747 13bb
000002f0: 49fb 00be 4390 113e 5f85 a73d c0a4 dcbd
00000300: 75a0 2bbe 0570 303e 3fe8 e1bd 1a0f cb3d
00000310: cbc1 ce3c 4e7e 6b3c c7ce a43c 36c8 9e3c
00000320: af5d 4d3d 2df0 2cbd e903 06be 4239 223d
00000330: c3c0 10be 1507 dc3d de0a 76ba 3282 46be
00000340: 9767 d4bd 895f dc3d de36 afbc 37c5 04be
00000350: a3a7 233d 2bd0 8bbc ced5 7e3d 9f8b 29bd
00000360: ff51 fcbd 7ce9 7dbd ab1d 863c 0556 2d3d
00000370: 646d c7bd 9fb5 b8bc a2d2 31bb b80d 65bd
00000380: 5138 ce3d 1e59 e0bd 5144 87bd a7d2 a0bd
00000390: 203c d83b ea72 2d3d 3ded 10bc 05db e6bd
000003a0: a13d 0cbe b7e9 3dbd 0469 faba affe d7bd
000003b0: 8b24 39bd e522 673d 34c2 c03b cf31 05be
000003c0: 5698 f5bd e57c 6bbd af7f 103e 5c42 4cbe
000003d0: 2bd1 15bd 89c0 d63d ecc2 86bc 2b70 bcbd
000003e0: c4fa 7f3d b23b 8abd 60ac 1b3e 3560 11bc
000003f0: 1c3d 91bd e18a 8fbe ab54 293e d5fa 8fbd

network_body.linear_encoder.seq_layers.2.bias f4 [256]
0.09478315 -0.07821377 0.038055707 0.014872832 -0.07804645 -0.08209994 -0.029988743 0.044390704
-0.06320075 0.026189206 -0.016346654 -0.09188943 -0.14658876 0.035190873 -0.094852634 -0.04136857
0.03068748 0.03918454 -0.022097176 -0.030097269 0.005669628 0.027957657 -0.09554211 -0.098746106
-0.09861549 0.00040206846 -0.017577976 -0.061217245 -0.15402356 -5.6935234e-05 -0.0336797 0.016649958
-0.04730832 -0.01586792 -0.055805415 0.0074071 -0.034573864 0.03099551 -0.11236682 -0.06294839
-0.07290658 0.036743686 -0.09602423 -0.07440559 -0.11471733 -0.063365325 -0.096443735 0.06482355
-0.06611502 0.02960932 -0.049804974 -0.112251095 -0.0430268 -0.05535428 -0.08690679 0.011794559
-0.11935004 -0.06413835 -0.0768761 0.033975344 0.021286966 0.0069661443 -0.050339907 -0.10406576
-0.15403005 -0.071867935 0.04508949 -0.015112164 0.07439683 -0.08358655 -0.029582001 -0.029976323
-0.02388373 -0.0855751 -0.025633711 -0.0155736385 -0.05264088 -0.019008858 -0.090390414 0.019332917
-0.023733279 0.07781626 -0.04596654 -0.0569597 -0.10159405 0.023885114 -0.050199382 0.0040820083
-0.004547583 -0.015910948 0.055092085 -0.09912977 -0.05116103 0.032777708 -0.07811652 -0.045566987
-0.021143574 0.017444624 -0.14579926 -0.040839523 0.04755567 -0.13497676 0.020002164 -0.05353164
-0.037076034 -0.04355282 0.080662094 0.02899665 -0.06614521 -0.053976838 -0.081253685 0.021912856
-0.09059391 -0.10090105 -0.044865325 -0.054989446 -0.084865145 -0.14741229 -0.113601275 -0.11787876
0.0020678062 -0.065276645 -0.11043521 0.006754898 -0.020622103 -0.08466351 -0.10065501 -0.037057124
-0.075902216 0.02159413 -0.04138275 -0.041802447 -0.011380168 -0.1058159 -0.052595843 0.020611037
-0.039393727 -0.1388189 -0.046083514 -0.046418235 -0.10300279 -0.018152699 0.013310025 -0.066791415
-0.1434826 0.029450435 -0.17287126 0.00077482656 -0.12555362 0.017809957 0.01958687 -0.07195121
0.019116236 -0.06531787 -0.08670806 0.010181323 -0.121244915 -0.0472498 -0.0124123385 -0.05870548
-0.046063047 0.05445971 -0.06589773 -0.02910238 -0.0047650547 -0.12396982 0.06186366 -0.082957245
-0.10924479 0.01569305 -0.015883422 -0.070546925 -0.0824629 -0.077451244 -0.084119275 -0.050763555
-0.0933121 -0.043953177 -0.083556555 -0.053931527 -0.032373603 -0.065942824 0.037646744 -0.030788485
0.014802994 -0.060246658 -0.012909897 -0.14884022 -0.0518699 -0.035558004 -0.016481832 -0.045972537
0.04725351 -0.09092304 -0.019424899 -0.0720882 0.027756535 0.08867247 -0.08751266 -0.032450598
0.03547667 -0.051464748 0.027030434 -0.05424506 -0.050831944 -0.017138988 -0.0049635363 -0.07416887
-0.11326587 -0.14782663 -0.08622802 -0.0417382 0.025640575 0.031400908 -0.08174825 -0.012183412
-0.05435721 -0.04053323 -0.16030647 -0.13845226 -0.07702483 0.010774804 -0.0465098 -0.08312354
-0.06127984 -0.06351052 -0.06076443 0.036816098 -0.0178714 -0.1025205 -0.031487066 -0.020851674
-0.0763136 -0.054972444 -0.08081019 -0.06957291 -0.058600053 -0.073406756 -0.025509663 -0.12926236
-0.020472439 -0.0012592872 -0.08882849 0.060736563 -0.13978271 -0.036540356 -0.002697212 -0.05416127
-0.035052873 -0.062005855 -0.06251504 -0.053263094 -0.017056528 0.056684226 0.008064444 -0.036525406
00000000: ab1d c23d 8b2e a0bd 4de0 1b3d 2ead 733c
00000010: d1d6 9fbd 0324 a8bd f4aa f5bc 07d3 353d
00000020: 656f 81bd bf8a d63c 6be9 85bc 8730 bcbd
00000030: 5d1b 16be 4e24 103d 1942 c2bd 1772 29bd
00000040: 4f64 fb3c f87f 203d 2305 b5bc 8c8e f6bc
00000050: 49c8 b93b 7507 e53c 95ab c3bd 663b cabd
00000060: ebf6 c9bd b7cc d239 b0ff 8fbc efbe 7abd
00000070: 5ab8 1dbe becd 6eb8 baf3 09bd 7e65 883c
00000080: 5ec6 41bd 71fd 81bc 3894 64bd 42b7 f23b
00000090: 539d 0dbd 4cea fd3c 9320 e6bd 16eb 80bd
000000a0: 0c50 95bd 8c80 163d 5aa8 c4bd f561 98bd
000000b0: ebf0 eabd aec5 81bd 4b84 c5bd 36c2 843d
000000c0: 5067 87bd 3f8f f23c 4d00 4cbd e7e3 e5bd
000000d0: df3c 30bd 2bbb 62bd 30fc b1bd f73d 413c
000000e0: cb6d f4bd f85a 83bd 3771 9dbd bb29 0b3d
000000f0: 0162 ae3c 4144 e43b 3831 4ebd 6e20 d5bd
00000100: 0eba 1dbe 7f2f 93bd c2af 383d 0399 77bc
00000110: 5d5d 983d 6d2f abbd f455 f2bc e890 f5bc
00000120: d0a7 c3bc ff41 afbd cafd d1bc 9328 7fbc
00000130: f79d 57bd 77b8 9bbc 9c1e b9bd 1160 9e3c
00000140: 4b6c c2bc 225e 9f3d 6947 3cbd 934e 69bd
00000150: 8b10 d0bd b7aa c33c de9d 4dbd 5ec2 853b
00000160: e403 95bb ad57 82bc 3da8 613d 8d04 cbbd
00000170: 3a8e 51bd eb41 063d 8efb 9fbd 73a4 3abd
00000180: 4a35 adbc 07e8 8e3c 674c 15be 5847 27bd
00000190: bcc9 423d 5937 0abe 94db a33c fe43 5bbd
000001a0: 0add 17bd 7164 32bd 2b32 a53d 628a ed3c
000001b0: 2477 87bd d116 5dbd 5568 a6bd 9782 b33c
000001c0: 4d89 b9bd 36a5 cebd b4c4 37bd 9d3c 61bd
000001d0: c7cd adbd 3ff3 16be c9a7 e8bd 6b6a f1bd
000001e0: 0884 073b c3af 85bd db2b e2bd 3158 dd3b
000001f0: afef a8bc 1064 adbd 3724 cebd 36c9 17bd
00000200: 9f72 9bbd 2ce6 b03c f580 29bd 0b39 2bbd
00000210: e273 3abc 02b6 d8bd bd6e 57bd 7ad8 a83c
00000220: 515b 21bd 8b26 0ebe 11c2 3cbd 0c21 3ebd
00000230: 20f3 d2bd f8b4 94bc 4b12 5a3c f0c9 88bd
00000240: 1aed 12be 0a42 f13c 2a05 31be bb1d 4b3a
00000250: 2191 00be 30e6 913c a574 a03c 285b 93bd
00000260: a799 9c3c 60c5 85bd ff93 b1bd 90cf 263c
00000270: 414f f8bd 0289 41bd 1f5d 4bbc 2875 70bd
00000280: 9bac 3cbd 2511 5f3d 64f5 86bd 1d68 eebc
00000290: 2d24 9cbb e4e3 fdbd c064 7d3d 7de5 a9bd
000002a0: bcbb dfbd b68e 803c f31d 82bc e87a 90bd
000002b0: 4fe2 a8bd c29e 9ebd ba46 acbd 72ed 4fbd
000002c0: 6a1a bfbd 3f08 34bd b31f abbd 4ee7 5cbd
000002d0: 2f9a 04bd 080d 87bd 7933 1a3d 2238 fcbc
000002e0: 4288 723c 33c5 76bd 0884 53bc 9269 18be
000002f0: 8875 54bd 45a5 11bd e804 87bc b34d 3cbd
00000300: e68c 413d dc35 babd f720 9fbc faa2 93bd
00000310: ac61 e33c e999 b53d d639 b3bd ebea 04bd
00000320: fc4f 113d b3cc 52bd ee6e dd3c 1130 5ebd
00000330: 2835 50bd 1067 8cbc 29a5 a2bb d9e5 97bd
00000340: f0f7 e7bd dd5f 17be 5198 b0bd adf5 2abd
00000350: 2f0c d23c 3d9e 003d a06b a7bd ef9c 47bc
00000360: aaa5 5ebd 2c06 26bd 6127 24be 6ec6 0dbe
00000370: 32bf 9dbd ce88 303c 0f81 3ebd ad3c aabd
00000380: 9200 7bbd ce11 82bd 1fe4 78bd 7acc 163d
00000390: 0b67 92bc 45f6 d1bd 95f8 00bd 21d1 aabc
000003a0: 4e4a 9cbd c92a 61bd d07f a5bd 3e7c 8ebd
000003b0: 9c06 70bd 4856 96bd a4f9 d0bc 5a5d 04be
000003c0: d1b5 a7bc ab0e a5ba b6eb b5bd e7c6 783d
000003d0: 3323 0fbe 57ab 15bd b5c3 30bb 35d8 5dbd
000003e0: 9a93 0fbd daf9 7dbd e307 80bd 672a 5abd
000003f0: 22ba 8bbc b82d 683d bb20 043c aa9b 15bd

network_body.linear_encoder.seq_layers.2.weight f4 [256, 256]
-0.119301334 0.007148359 -0.047078237 -0.11572494 -0.1383112 -0.059373394 -0.03857853 -0.01250133
0.09714247 -0.17624055 0.120999925 0.17223996 0.0034850102 0.1917548 0.03270536 -0.22003286
-0.122000836 -0.01667683 -0.049470726 0.18998238 -0.21517228 -0.0018484604 0.11855236 -0.07119687
-0.078749135 -0.0040977 -0.050468173 -0.012858587 -0.14894463 0.0502355 0.043791514 -0.2606175
0.02007011 0.20389307 0.031327926 0.09110541 0.08230272 -0.032720327 -0.108121604 0.07974127
-0.08223013 -0.18710202 -0.28713953 0.088447675 -0.15806837 0.091583475 0.002724234 -0.11727867
-0.12605952 -0.35310528 0.13183936 -0.060842503 0.059288457 -0.100862086 -0.18869202 -0.17411675
0.13310932 -0.016198115 -0.32189167 -0.1699087 0.0135610765 -0.038748976 0.036170475 -0.07279832
-0.2987568 -0.016984027 -0.13937774 -0.2677328 0.14757004 -0.07832807 -0.02103195 -0.05904482
0.07215595 -0.085564435 0.06366108 -0.15545376 -0.08259043 0.098830245 0.0917356 -0.060614057
0.04342231 -0.03956776 0.06703517 -0.22397768 -0.19829388 -0.12107093 -0.17715251 -0.08030868
-0.024939615 0.10214875 -0.014508142 -0.21279529 -0.017420003 -0.13292478 -0.13250299 -0.12455
-0.10746759 0.042322114 0.0034701694 -0.10231912 0.19766213 0.024053525 -0.0027619954 -0.0030100443
-0.29315093 -0.26943922 -0.42719904 -0.08615644 -0.16434352 -0.12176642 -0.2134028 -0.18677633
-0.062157504 -0.2536788 -0.031319637 0.0005209484 0.078468695 0.04920443 0.029769648 -0.12894315
-0.10802448 -0.24215898 0.12814432 0.046076607 -0.02969628 0.021388866 -0.18686807 -0.06651528
0.10102389 -0.04944564 -0.13317284 -0.11203766 -0.077909894 -0.14670876 0.012006426 -0.06371249
0.23907213 -0.19032083 -0.065101475 -0.10673979 0.15052284 0.012061372 -0.0866689 -0.03248123
0.07118574 0.13019186 -0.13484214 0.08855667 -0.35047287 -0.11581644 0.021358918 -0.2122983
-0.013712196 -0.17894393 -0.05119599 -0.20131266 0.16556714 -0.18843774 0.033308167 -0.03552138
-0.0061427755 -0.08528941 -0.23817661 0.058632977 0.003910283 -0.17070127 0.054901294 -0.0088585075
-0.028496817 -0.029167043 -0.08573315 -0.015686434 -0.014266986 -0.0056546773 -0.19973294 0.12691115
-0.09051192 -0.2065955 0.0048160213 -0.11458098 -0.30293617 -0.03887967 0.036605388 0.04409108
-0.2411908 0.0013437994 -0.20823856 -0.022759054 -0.03121024 -0.0750038 0.023845093 -0.22035322
-0.043694537 -0.18178013 -0.1427044 0.04191709 -0.010398044 0.140574 -0.026964737 -0.21532482
-0.23978202 0.018167792 0.03866474 -0.19094713 -0.061143786 -0.19384564 0.024266027 -0.18393168
-0.03357277 0.06148765 -0.06863532 0.12715688 -0.14116302 -0.14995019 0.06493991 -0.16006285
0.077594675 -0.090442166 -0.23526953 -0.35543072 0.048989844 -0.3115741 -0.02041955 -0.15573564
-0.17422713 -0.13166384 -0.17569712 -0.024846535 -0.05562869 -0.2762297 -0.22122651 -0.0036247273
-0.041373666 0.03513019 -0.02123881 0.023332197 0.16044568 -0.09516727 -0.050995305 -0.020409081
-0.33223 0.12028896 0.14898562 -0.15415438 0.12291491 0.08300018 -0.24675633 -0.16772814
-0.21355179 -0.17864817 -0.18883365 -0.09953884 -0.37641084 -0.17322382 -0.024144674 -0.0040000393
00000000: 4254 f4bd c83c ea3b 1cd5 40bd 3301 edbd
00000010: 74a1 0dbe 8431 73bd 8504 1ebd 61d2 4cbc
00000020: a2f2 c63d 6778 34be cfce f73d ac5f 303e
00000030: c564 643b 5f5b 443e 0ef6 053d 4b50 61be
00000040: 93db f9bd d99d 88bc d1a1 4abd be8a 423e
00000050: 1f56 5cbe 0a48 f2ba 94cb f23d aacf 91bd
00000060: 3a47 a1bd 0046 86bb b7b7 4ebd d3ac 52bc
00000070: f184 18be bdc3 4d3d bb5e 333d a86f 85be
00000080: 126a a43c 58c9 503e b651 003d 7995 ba3d
00000090: 548e a83d c005 06bd dc6e ddbd 644f a33d
000000a0: 4568 a8bd ac97 3fbe f403 93be 0e24 b53d
000000b0: addc 21be 1e90 bb3d 1089 323b cd2f f0bd
000000c0: bf15 01be 37ca b4be e600 073e fd35 79bd
000000d0: 74d8 723d c890 cebd 7b38 41be a94b 32be
000000e0: cf4d 083e e9b1 84bc fcce a4be 8cfc 2dbe
000000f0: 472f 5e3c 3fb7 1ebd 7e27 143d 4917 95bd
00000100: a7f6 98be 1622 8bbc 0ab9 0ebe 4614 89be
00000110: 9a1c 173e 786a a0bd 324b acbc fbd8 71bd
00000120: 80c6 933d 683c afbd be60 823d 452f 1fbe
00000130: 2c25 a9bd 8367 ca3d e0df bb3d 7246 78bd
00000140: 98db 313d ce11 22bd bc49 893d 685a 65be
00000150: 8d0d 4bbe 09f4 f7bd 7867 35be e178 a4bd
00000160: 2a4e ccbc 5d33 d13d 8fb3 6dbc 02e7 59be
00000170: 65b4 8ebc 6f1d 08be ddae 07be 1214 ffbd
00000180: f817 dcbd f459 2d3d c86b 633b b08c d1bd
00000190: f167 4a3e e60b c53c 9802 35bb 2a44 45bb
000001a0: e117 96be f0f3 89be d5b9 dabe ca72 b0bd
000001b0: ab49 28be ac60 f9bd 4386 5abe 4b42 3fbe
000001c0: de98 7ebd 30e2 81be 0549 00bd 4190 083a
000001d0: 32b4 a03d 968a 493d 7adf f33c ac09 04be
000001e0: f03b ddbd 86f8 77be 4438 033e d3ba 3c3d
000001f0: 9d45 f3bc b437 af3c 585a 3fbe 2a39 88bd
00000200: 9de5 ce3d 8387 4abd 765e 08be 0074 e5bd
00000210: 398f 9fbd d23a 16be 9ab6 443c b27b 82bd
00000220: 53cf 743e 77e3 42be ec53 85bd 649a dabd
00000230: a922 1a3e 109d 453c 777f b1bd 0a0b 05bd
00000240: d4c9 913d 0451 053e 0f14 0abe 335d b53d
00000250: 2e71 b3be 2b31 edbd e6f8 ae3c ba64 59be
00000260: 1ea9 60bc 143d 37be e3b2 51bd e824 4ebe
00000270: 6f8a 293e d3f5 40be 256e 083d de7e 11bd
00000280: 5649 c9bb 37ac aebd 92e4 73be 2229 703d
00000290: d521 803b 50cc 2ebe 2ee0 603d 4623 11bc
000002a0: 2872 e9bc b9ef eebc dd94 afbd d680 80bc
000002b0: 14c0 69bc df4a b9bb cb86 4cbe fff4 013e
000002c0: 505e b9bd c58d 53be b7cf 9d3b 6fa9 eabd
000002d0: 731a 9bbe 4a40 1fbd 88ef 153d d998 343d
000002e0: b9fa 76be 6d22 b03a 7d3c 55be 3271 babc
000002f0: 9eac ffbc 989b 99bd c956 c33c 46a4 61be
00000300: 0bf9 32bd 9224 3abe 1a21 12be 41b1 2b3d
00000310: 8f5c 2abc a1f2 0f3e 27e5 dcbc 1c7e 5cbe
00000320: 6b89 75be 9fd4 943c eb5e 1e3d a587 43be
00000330: e871 7abd 797f 46be 8cc9 c63c 9658 3cbe
00000340: 9a83 09bd 79da 7b3d ad90 8cbd 6a35 023e
00000350: 0a8d 10be 8b8c 19be 37ff 843d 84e7 23be
00000360: f5e9 9e3d be39 b9bd 7fea 70be 04fb b5be
00000370: 93a9 483d a486 9fbe e646 a7bc 2a79 1fbe
00000380: 9968 32be e3d2 06be f2e9 33be f68a cbbc
00000390: e9da 63bd fb6d 8dbe 3489 62be d58c 6dbb
000003a0: 6f77 29bd ade4 0f3d 03fd adbc 2a23 bf3c
000003b0: df4b 243e 0fe7 c2bd 74e0 50bd f230 a7bc
000003c0: 0d1a aabe 0f5a f63d b08f 183e a5da 1dbe
000003d0: d0ba fb3d 00fc a93d b1ad 7cbe edc0 2bbe
000003e0: 52ad 5abe 8cef 36be 9c5d 41be 05db cbbd
000003f0: ecb8 c0be 9661 31be 0dcb c5bc c312 83bb
