Project/Assets/MyProject/TrainModels/ChaserBrain.onnx (onnx, 413014 bytes, 6 tensors)

action_model._discrete_distribution.branches.0.bias f4 [7]
000000 d9 e0 36 bd 72 bb 00 3e e4 c4 85 bd 35 aa 11 3d
       -0.044648025 0.12571505 -0.065316945 0.035562713
000010 59 a8 84 bd 30 5f 49 bd 83 44 7a 3c
       -0.06477422 -0.049163043 0.0152751235

action_model._discrete_distribution.branches.0.weight f4 [7, 256]
000000 54 df eb 3d 99 40 b7 3c d0 70 53 bb 9c 6c 0e 3d
       0.11517206 0.02236967 -0.0032263286 0.034771547
000010 ca e1 be 3d 13 c2 3f 3c 8a 6a 91 bd 64 e7 57 bd
       0.093204096 0.011703986 -0.07100399 -0.052710906
000020 89 70 49 3d 91 a3 dd bd ff 62 b3 bc ba 3e 87 3b
       0.049179588 -0.108222134 -0.021897791 0.0041273506
000030 36 f0 c7 bb d5 b4 2c bc f2 45 e8 3d 11 62 a8 3c
       -0.0061016334 -0.010541161 0.11341466 0.020554574
000040 51 f2 54 3d 09 76 68 bc b4 90 95 bc 0d 84 ae bc
       0.051988903 -0.014188298 -0.018257476 -0.021303201
000050 73 51 c2 bc 38 31 3c bd 6c 78 15 3d 8b dd 23 3d
       -0.023720479 -0.045945376 0.036491796 0.0400062
000060 7d d2 4b 3d 5b 95 98 3c bc 5c aa 3d 9e 17 30 3d
       0.049761284 0.018625906 0.08318469 0.042991273
000070 cc fb 2c 3d 53 df b0 3c 0a c5 e7 bc 2f 9c ef bc
       0.04223232 0.021590864 -0.028292198 -0.029249279
000080 6a 40 8b 3d 48 af 3c bc 17 6d 04 bd e2 53 58 bb
       0.067993954 -0.0115164 -0.0323306 -0.0033008982
000090 3d 1d 50 3c 47 58 9b 3d d8 7f 07 3d e7 c9 a8 bd
       0.012702283 0.07585197 0.033080906 -0.08241635
0000a0 d0 b2 27 bc 8b c3 b3 bc e2 b4 d3 3d f2 0f 69 bd
       -0.010235503 -0.021943828 0.10337235 -0.056899972
0000b0 b7 45 3d 3d bd f7 3a bd 5b d8 16 bc e4 90 d5 bc
       0.046209063 -0.045646418 -0.009206857 -0.026070066
0000c0 c4 95 91 3c 56 e8 11 bc ac 5d 97 bc b4 92 39 3c
       0.01777161 -0.008905491 -0.018477283 0.011326481
0000d0 79 3a 45 3c 2d 6e c4 3b 7e 7d c7 39 44 70 c5 bc
       0.012037867 0.0059945793 0.00038049737 -0.024101384
0000e0 30 49 55 3d b8 30 67 bd 57 b4 c1 3d e6 55 12 3d
       0.05207175 -0.056442946 0.09458225 0.03572645
0000f0 b5 b4 0b bd 57 19 03 3d 68 30 30 bd fd 91 d7 3c
       -0.034107883 0.032006588 -0.043014914 0.02631473
000100 ce 07 b0 3c a4 ba a8 bc e5 b2 8d 3d eb a0 00 3d
       0.021488097 -0.02059681 0.06918887 0.031403463
000110 1d cc 71 3d 70 e8 73 bd 69 1c 3c 3c a1 1f 5d ba
       0.05903255 -0.05954784 0.011481383 -0.0008435194
000120 78 09 02 3d 8e 45 af bc c1 f5 fd 3c e7 78 89 bd
       0.03174731 -0.021395471 0.031000974 -0.067125134
000130 45 4f da bd 03 cb d4 bb f6 a9 15 bd ad b6 86 bc
       -0.10659651 -0.0064939274 -0.03653904 -0.016444528
000140 dd 1e e2 3b 4b 3f ba bd 41 b6 12 bc d8 38 38 bd
       0.006900652 -0.090941034 -0.0089545855 -0.044976085
000150 cb 98 ab bd d8 85 8e 3c 41 17 c5 3d de 1f 8e 3d
       -0.08378752 0.017397806 0.09623576 0.06939672
000160 da 18 a9 bd bf f0 71 3b ad 55 4f 3d 40 6a 46 bd
       -0.08256693 0.0036917177 0.050618816 -0.04844117
000170 ef 6f af bc f7 54 e0 bc f0 45 30 bb 6d 29 88 3d
       -0.021415679 -0.027384264 -0.0026897155 0.06648526
000180 d1 43 26 bd c0 84 2c 3c 5d 46 af 3d a5 ce da bb
       -0.04059202 0.010529697 0.085583426 -0.006677466
000190 c3 df ad 3d ff b1 ac bd 04 54 93 bd 1f 64 93 bd
       0.08489945 -0.084323876 -0.07193759 -0.07196831
0001a0 59 f0 82 bd ab bb 84 3d 6b fa 96 bc ac 1f a2 3d
       -0.06393499 0.06481107 -0.018429955 0.07916197
0001b0 59 73 f7 bc 61 53 9f bd 4e d2 53 bd 86 83 19 bd
       -0.03020637 -0.07779575 -0.051714234 -0.037478946
0001c0 4d c1 24 3c 88 48 42 bc 10 af 40 bd 1e bb 5c 3d
       0.010055852 -0.011858113 -0.047041953 0.053889386
0001d0 f4 e0 27 bd 7d 3a e3 ba 1a 9a e2 bc 22 e4 93 3c
       -0.040986016 -0.0017336156 -0.027661372 0.018053118
0001e0 cf c5 33 3b 5d b5 12 3d dd 03 18 bd 3e 41 d1 3b
       0.0027431136 0.035817493 -0.03711306 0.0063859513
0001f0 09 18 92 3b 8e 21 86 3b ac f6 ef 3d 2c 33 0a 3d
       0.0044584316 0.0040933555 0.11716971 0.033740208
000200 ef a6 b4 bd 02 98 1a 3c 62 1f c2 bd 35 26 7c bd
       -0.088209026 0.009435656 -0.09478642 -0.061559875
000210 bc 4b 13 bd 79 24 2c 3d c4 a4 51 3c 2d 58 06 bc
       -0.035960898 0.04202697 0.012795631 -0.008199734
000220 41 f9 90 3b e0 2d 23 bc b4 ca 40 3d 28 14 23 3c
       0.0044242446 -0.009959668 0.047068313 0.009953536
000230 46 8c 13 3d 2b 19 18 3b 81 47 d2 bc 5a 9b 04 3c
       0.036022447 0.002320836 -0.025668861 0.008093679
000240 6c e5 37 3d 36 ac ae 3c 5f 99 d9 bd 7a 5b a4 bd
       0.044896528 0.021322351 -0.10624956 -0.0802526
000250 ec b2 8f 3c 74 6a 2d bd af 01 0f bd 87 ad c9 bc
       0.017541371 -0.04233785 -0.034913715 -0.024618877
000260 5d 7c 0c bc a5 cf 17 3e ac 62 6f 3b 2e 93 35 bc
       -0.008574572 0.14825304 0.003652732 -0.011082454
000270 5e b9 27 bc 84 2b a5 3d 05 42 4d bc 62 2d a0 ba
       -0.010237066 0.080649406 -0.012527947 -0.0012220556
000280 ac ec 78 bd c5 ea 80 3c 3d d6 52 bd 57 f2 d5 3c
       -0.060772583 0.015736947 -0.051473845 0.026116533
000290 b8 3a b4 bd ce 60 a6 bc 2f 55 03 bd ec 52 32 bd
       -0.08800262 -0.020309832 -0.03206366 -0.04353611
0002a0 4d 8a 18 3d 7c e8 00 bc 9b e8 42 bb ea bc 47 bd
       0.03724127 -0.007867929 -0.0029740694 -0.048764147
0002b0 86 f4 7b 3c 4e ca 39 3c 83 42 50 bd d7 31 8c 3d
       0.015378123 0.011339737 -0.05084468 0.06845444
0002c0 8e 24 15 3e 6e 12 23 3d 4d c5 b5 bb fa ff 5a 3c
       0.14564726 0.039812498 -0.0055472017 0.013366694
0002d0 7a f8 ac 3a f6 c7 d8 bb 40 ed 8f bc 9b 57 1e bd
       0.001319661 -0.006615634 -0.017569184 -0.038657766
0002e0 4a de a0 3c d5 56 9b 3c 6e 48 cf 38 36 67 ea 3b
       0.019637246 0.018962303 9.88402e-05 0.007153417
0002f0 f9 0d 8d 3d ac 1c 24 bd 00 ad 1d 3d e7 d2 32 bd
       0.06887431 -0.040066406 0.038495064 -0.043658163
000300 86 39 20 bd 09 97 83 bd f3 b2 15 bd e1 4b b7 3c
       -0.03911736 -0.06425292 -0.036547612 0.02237505
000310 ca 9f 29 3c 04 a3 2f 3d 31 30 8d 3d b0 29 3d bd
       0.010353038 0.042880073 0.068939574 -0.046182334
000320 3a c3 b3 bc e8 14 5c 3c a0 d1 27 3d 0b d7 16 3c
       -0.021943677 0.013432719 0.0409714 0.009206544
000330 75 6f 50 3d e9 31 03 bd e7 b5 a1 bc ab f4 3e 3d
       0.050887544 -0.03203002 -0.019740058 0.046620052
000340 5c 2d a0 3c 03 a7 ad bc 78 46 76 3d 9b 30 5f bd
       0.019552879 -0.021197801 0.060125798 -0.054489713
000350 fe d9 40 bd 4d cd 04 bd 4e ed 0d bd fd f1 81 3d
       -0.047082894 -0.032422353 -0.03465014 0.06344984
000360 cb fd 83 bd 47 67 ba 3c 30 b8 de 3c 58 8c 46 bd
       -0.064448915 0.022754325 0.027187437 -0.048473686
000370 19 24 52 bb 3a 2b 09 bd d6 95 10 bd ea d4 7a bd
       -0.0032064973 -0.03348849 -0.035299145 -0.061238207
000380 f4 d2 6d 3d 66 74 e0 bc f3 71 38 bc 5a 47 e7 bc
       0.05806251 -0.027399253 -0.011257636 -0.028232265
000390 fb 2b 7e 3c f9 02 93 bd d6 b3 4d 3d 17 66 96 bd
       0.015513415 -0.07178301 0.050220333 -0.07343691
0003a0 c4 f1 83 ba 72 4b cf bb 8f ce c3 bb 29 37 f1 3b
       -0.0010066559 -0.0063261325 -0.0059755514 0.007361312
0003b0 58 3c 3a bc 7a c6 09 bd 34 06 25 bd 8b 57 42 bb
       -0.011366926 -0.033636548 -0.04028912 -0.002965423
0003c0 01 42 77 bb 14 9c e1 bc c5 99 1a 3d 54 aa ea 3c
       -0.003772855 -0.027540244 0.037744302 0.028645672
0003d0 c0 23 32 bd c2 d5 ae 3c eb 3b 4c 3d 6f b6 5c 3d
       -0.043491125 0.021342162 0.04986183 0.05388492
0003e0 01 ce 32 bd fe 45 64 3d 23 f3 89 3c 0f 18 2a bc
       -0.043653492 0.055730812 0.01683957 -0.010381713
0003f0 7b d3 92 bd 39 b9 e6 3c 31 37 30 bd 00 88 0b 3c
       -0.07169243 0.028164493 -0.043021385 0.008516312

network_body.linear_encoder.seq_layers.0.bias f4 [256]
000000 9c db c3 3c 56 88 8d 3c e7 cf 46 ba d0 29 0b be
       0.023908429 0.017276924 -0.00075840804 -0.13590169
000010 6d 30 c8 bc f0 48 e5 3c df 3f 23 3b d7 df 61 3c
       -0.024437154 0.02798888 0.0024909896 0.013786278
000020 2b 1c 93 3b 78 67 6c 3c 5c b0 e4 bd ec 28 d7 bc
       0.004489442 0.014428966 -0.111664504 -0.02626463
000030 79 91 74 3c bc 00 a4 3c 0b c9 83 bc eb 4f 1c 3d
       0.0149272615 0.020019881 -0.016087076 0.038162153
000040 e3 a3 38 bd 54 09 b6 3c b1 61 36 bd 49 ae 96 3d
       -0.04507817 0.022221245 -0.04452676 0.07357461
000050 7f f4 d8 3c 59 6f 12 bd 9c 3e 9d 3c 28 13 4c bd
       0.026483772 -0.03575072 0.019194894 -0.049822956
000060 d9 92 9d bc a4 9e 8e bd 89 e6 e9 b9 df c8 53 3c
       -0.019235061 -0.06963852 -0.00044612985 0.012926309
000070 fc a8 0f bc 49 00 21 3d e1 5a 89 bd 06 3f 18 bc
       -0.008768316 0.039306913 -0.06706787 -0.00929237
000080 dc 73 19 bd b5 04 72 bd 10 1d 04 3d c1 74 05 bc
       -0.037464008 -0.05908652 0.03225428 -0.008145512
000090 d4 a8 d4 bc 14 4d d1 bc 43 5d 1c bd ad 3c 1c bd
       -0.02595941 -0.025549449 -0.03817488 -0.038143802
0000a0 20 39 94 bc da 93 3f bb ae 65 4c bb df b4 d5 bc
       -0.018093646 -0.0029232414 -0.0031188536 -0.026087223
0000b0 11 58 9b bd 27 98 d6 bb 2c c9 06 3d 34 61 c1 bc
       -0.07585157 -0.0065488997 0.032906696 -0.02360592
0000c0 35 7b 38 bc 67 80 c9 bc 85 55 ea 3c 10 5e 8b bc
       -0.011259844 -0.02459736 0.028605232 -0.017012626
0000d0 d2 da 5c 3d 0e 14 aa 3d da ee 27 bd e5 3f d1 bc
       0.05391962 0.083046064 -0.04099927 -0.025543163
0000e0 4c 7f 65 bd 0a 35 a1 bd b0 04 64 3d 80 21 0b 3d
       -0.056029603 -0.078714445 0.055668533 0.033967495
0000f0 78 ae 0f bb d4 33 1e 3c 6d 44 9e bc f4 b5 99 bd
       -0.002192406 0.0096559115 -0.019319737 -0.07505408
000100 09 25 4c 3c a7 b0 47 bb d8 d1 79 3d d7 71 46 bd
       0.012460002 -0.0030470283 0.06099114 -0.04844841
000110 4d 08 0d bd 34 af 53 3c 68 90 b3 bc 48 eb 24 bd
       -0.034431744 0.01292019 -0.021919444 -0.040263444
000120 80 dd db bc 27 70 11 3c bb 15 ff 3b 31 4f 48 3d
       -0.026839018 0.008876837 0.007784573 0.048903648
000130 52 0c 07 3d 15 7b d4 3b 2f d5 3a 3d 72 d1 1d bd
       0.032970734 0.006484399 0.045613464 -0.03852982
000140 26 36 da bb 74 e4 3b 3b 0c 89 0c bd 12 5e 55 3c
       -0.006659287 0.0028670104 -0.034310386 0.013022916
000150 0a c9 34 bc ca 2d 62 bd b2 53 c6 ba fb cd 21 bd
       -0.01103426 -0.05521945 -0.0015131144 -0.03950308
000160 0b 10 e6 bc 7c dc aa 3c 2b 78 83 3c 3b 27 3f bd
       -0.028083822 0.020857088 0.016048511 -0.046668272
000170 8b 59 2e bd 75 0a 8f bd 41 a9 99 bd 1c 3d 9d bd
       -0.042565864 -0.069844164 -0.07502986 -0.07677671
000180 a2 e7 55 bd d3 7a 20 bc d7 7e df bc 6e 76 a1 bc
       -0.052222855 -0.009794909 -0.027282162 -0.019709792
000190 f9 e9 73 3c 13 20 77 bc 50 7a 34 bd 91 01 0e 3c
       0.014887326 -0.015083331 -0.04406196 0.008667366
0001a0 e1 84 bd 3c c1 1e 8a 3d c8 32 22 3d 73 7f 2a bd
       0.02313465 0.06744147 0.03959921 -0.04162545
0001b0 26 d3 f5 3c f1 8c 3e 3c 11 66 a9 3c 46 ea ae bc
       0.03000791 0.011630283 0.020678552 -0.021351945
0001c0 6b 66 be bb ac 8d 12 3c 8b 2e c4 bc 4e 62 f1 bc
       -0.005810549 0.00894491 -0.023947975 -0.02946582
0001d0 2e c4 75 bd 1c 31 90 3c 6a f1 29 bb ce 1d 1f 3c
       -0.060001545 0.017601542 -0.0025931248 0.009711696
0001e0 c2 de b8 ba 5e 94 12 bd 94 4c 2e 3a a1 49 90 3c
       -0.0014104473 -0.035786025 0.0006648984 0.017613234
0001f0 dd 23 61 bd ac b6 7d 3c b6 9e 06 bd 66 ab c0 3b
       -0.054965843 0.015485447 -0.032866202 0.0058798073
000200 34 85 20 3d 44 e8 4b 3c a1 c9 6c 3b 7d 22 3d bc
       0.039189532 0.012445513 0.0036130922 -0.011543867
000210 e5 d0 9b 3c 2f cb 1f bd 72 3f d8 3c 39 45 1f bd
       0.019020507 -0.03901213 0.02639744 -0.038884375
000220 d5 82 5a bd ea 3f 8f 3c 67 10 52 bd 0e ce 4e 3d
       -0.053347427 0.017486531 -0.051285174 0.050489478
000230 be 88 3d 3b fe 10 f4 3c 54 99 00 bd 65 72 91 bc
       0.0028920616 0.029793259 -0.031396225 -0.017754743
000240 03 50 ab bc 30 c6 82 bd 6d f3 89 bd ff a2 10 3d
       -0.020912176 -0.063854575 -0.06735883 0.035311695
000250 ac a4 02 bd 65 df e5 3c d1 3d dc 3c a3 25 14 3d
       -0.031895325 0.028060624 0.026884945 0.036168706
000260 e2 59 2e bd 72 32 4e bc 16 c0 f7 bc 89 92 e5 bc
       -0.042566188 -0.012585269 -0.03024296 -0.028023975
000270 27 27 07 3d 5e 99 89 3c c1 24 d5 bb 18 48 2a 3d
       0.032996323 0.016796764 -0.0065046255 0.04157266
000280 18 29 86 bc a0 f2 93 3b d2 a3 88 bd ec 35 18 3d
       -0.016377017 0.004515007 -0.06671871 0.0371608
000290 bf 01 33 bd 4e fd 04 3d 03 2b 0b ba cd 6e 10 3d
       -0.043702837 0.032468133 -0.00053088384 0.035261918
0002a0 fb df 7e 3c 70 9f ee 3c 0a 0b 91 3c 46 ad c5 3c
       0.015556331 0.02912876 0.01770546 0.024130475
0002b0 ae 91 8d bc 02 f0 51 bc 47 1a 7b 3d 1b 70 c2 ba
       -0.01728138 -0.01281357 0.061304357 -0.0014834435
0002c0 eb 64 15 bb 98 38 09 bc 19 f9 8b bd 28 c3 fb 3c
       -0.0022795747 -0.008375309 -0.06834621 0.030732706
0002d0 48 1e 0a bd 11 02 30 3c 0a cb 25 bc d6 f5 d4 3c
       -0.033720285 0.01074268 -0.010119209 0.02599613
0002e0 f5 63 35 3d 78 5e 5f 3c 78 70 cf 3c cf af ef 3b
       0.04428478 0.013633363 0.025322184 0.007314659
0002f0 5c 6a a2 3c ba 6e fe 3c 81 cc b9 bc 11 ef 06 3c
       0.019826107 0.031058658 -0.022680523 0.008235709
000300 8d 3a 3c bc e6 b4 2a bd dd ea d9 3c 33 c2 21 bb
       -0.011488569 -0.041676424 0.02660125 -0.0024682402
000310 a6 65 fc 3b 86 05 2a 3c 17 33 27 3c 98 71 fe 3c
       0.007702547 0.010377293 0.010205052 0.031060025
000320 0a c0 cf bd 95 00 38 3c 8b ef 0d bd 92 75 bb bc
       -0.101440504 0.0112306075 -0.034652274 -0.02288321
000330 7a 7e 58 3d 50 50 8d bc d5 13 37 3d 05 57 c2 b9
       0.052854992 -0.01725021 0.044696648 -0.00037067398
000340 60 ec 51 3d e6 30 18 3d 1f d7 2e 3d e3 a5 ad 3a
       0.051250815 0.03715601 0.042685624 0.0013248291
000350 4a 44 a8 3d 15 5b 27 3d 47 a2 20 bd b6 8f e0 3c
       0.0821615 0.040858347 -0.03921726 0.027412277
000360 a7 4d 5b bd 99 08 ab 3c 77 d1 94 3d 06 3f 04 3d
       -0.053540852 0.020878123 0.07266515 0.032286666
000370 a1 97 20 3c 24 52 73 3c 1f 16 eb 3b 30 1c a2 bc
       0.009801776 0.014851127 0.007174268 -0.019788831
000380 92 57 1d bd b0 d0 1a 3d c8 ad 41 3c 70 91 4d 3c
       -0.03841359 0.037796676 0.011821218 0.012546882
000390 63 be 16 bc 31 ef 19 bd 57 56 4c bc ac 20 d3 bc
       -0.009200665 -0.037581626 -0.012471757 -0.025772415
0003a0 a5 93 96 3c b8 91 7f bc e0 53 16 bd 4f fa 06 3b
       0.01838095 -0.015598707 -0.036701083 0.0020595973
0003b0 74 89 75 3d 13 36 ff 3a 25 fc d6 bb d7 95 87 bc
       0.05994554 0.0019471071 -0.0065608197 -0.016550941
0003c0 f5 e0 aa 3c 87 c1 68 3d 49 25 8d 3c 18 53 1a 3b
       0.020859221 0.056825187 0.017229693 0.0023548063
0003d0 f3 80 06 bc 6c d8 01 bd 20 f1 e4 3c 64 2e 0c 3d
       -0.008209455 -0.031700537 0.027947009 0.03422393
0003e0 60 85 e1 bd ac f2 0f 3d be bf 70 ba bd b6 43 3d
       -0.110117674 0.03514354 -0.0009183845 0.047781695
0003f0 df 26 c9 bc c9 74 36 3a 68 3a 76 bb d3 b6 f1 3c
       -0.024554668 0.00069601514 -0.0037571434 0.029506123

network_body.linear_encoder.seq_layers.0.weight f4 [256, 136]
000000 12 3f c6 3b 1f dc c1 bd 02 42 52 bd a7 74 1c 3e
       0.006049999 -0.09465813 -0.05133248 0.15278874
000010 09 97 60 bd a4 72 ed 3d 4e 6b 3e 3d c0 67 84 3c
       -0.05483154 0.115941316 0.046489052 0.016162753
000020 26 38 d3 bd ac 8a 95 3e cd f5 ae 3b ea 8e b0 bd
       -0.10313444 0.2920736 0.0053393603 -0.08621009
000030 cb 1f c5 bd 69 63 35 3e b6 ba f7 bd 91 25 46 bd
       -0.09625205 0.17713703 -0.12096159 -0.04837567
000040 09 ba 9b bd 39 74 b7 bd 88 e7 69 bd 56 eb 2f be
       -0.07603843 -0.089577146 -0.05710557 -0.17179617
000050 f8 99 02 be 05 6a 92 3d 70 90 2e bd 03 8f 41 bc
       -0.12754047 0.07149128 -0.042618215 -0.011813882
000060 66 23 86 bd bc 01 9a bd d9 77 ff bd 80 6f b5 3d
       -0.065497205 -0.07519862 -0.12474031 0.088591576
000070 b4 a2 02 3d b2 8d 7f 3d 42 37 e8 bc ff 09 a3 bd
       0.031893447 0.06239099 -0.028346661 -0.07960891
000080 ad bb 13 3e fc 2b 18 3e 27 70 ba 3c 71 e1 e9 bd
       0.14427061 0.14860529 0.022758557 -0.11419953
000090 12 d9 35 bd b3 03 26 3b ab 0a 39 3e 7f c5 3e 3d
       -0.044396468 0.0025331795 0.18070476 0.046575066
0000a0 65 0e bf bb dd b0 08 3c 14 18 76 bd 5a 15 d2 3d
       -0.0058305734 0.008342949 -0.060081556 0.10257979
0000b0 6d a1 b0 bd 06 68 17 3e 4f a9 81 3e 37 57 01 3c
       -0.086245395 0.14785776 0.25324485 0.007894329
0000c0 2f 41 51 3c c8 41 d5 3d 32 82 de 3d 5e ea a9 3d
       0.012771889 0.104129374 0.108646765 0.08296655
0000d0 1b be 80 bd da ad 16 3d 74 18 42 be ae 53 84 3d
       -0.0628626 0.03678689 -0.1895464 0.06461273
0000e0 7e f6 04 bc d3 ca 2b 3e da 89 8b be 91 0c 3f be
       -0.008115409 0.1677659 -0.2725361 -0.18657137
0000f0 95 95 5b 3d a9 4e a8 3d 6f bb 6b 3d be 67 f9 3d
       0.05360945 0.08218128 0.057551797 0.121779904
000100 b8 71 c0 bd a1 7a d4 bd 82 83 77 3d 99 09 a0 bd
       -0.0939669 -0.10374952 0.06042815 -0.078143306
000110 dc aa 13 be 92 1d 01 3e 61 94 ca bd 30 e0 1f 3c
       -0.14420646 0.12608936 -0.09891582 0.00975804
000120 be 27 18 bc 39 d7 9c 3c 2c 5f f8 3d c6 16 fd 3d
       -0.009286819 0.019145595 0.121275276 0.12357859
000130 a9 76 c6 3d e3 1e c2 3d 1b 4b d9 bd c6 dd ea bd
       0.096906014 0.094785474 -0.10610028 -0.11468081
000140 70 65 27 3e be b4 3a ba 4f 98 17 3e c9 df bd bd
       0.16347289 -0.00071222696 0.14804195 -0.09271199
000150 9c 35 02 3e e7 fe 9b 3d a5 eb 2f 3e 20 01 c0 bd
       0.12715763 0.07616978 0.17179735 -0.093752146
000160 4a bb 00 3e 4b d8 fd 3d 4c 2a 84 3d 40 4b 2f bd
       0.12571445 0.1239477 0.0645338 -0.042796373
000170 cd 7d 6a 3d f6 1f fa 3b d7 73 21 bc 37 46 1b bc
       0.05724888 0.0076332046 -0.0098542785 -0.00947719
000180 bc 2c 2a 3d e0 ae 09 3e bc 83 b0 3b e8 f6 49 bd
       0.04154657 0.13445616 0.0053867977 -0.049307734
000190 ca 44 ca 3d 91 fd f8 3c 77 db 34 3c 7e f5 0b be
       0.09876402 0.030394347 0.011038653 -0.13667867
0001a0 76 13 c2 bd 92 c4 07 be 8d 30 bc 3d 40 c0 b7 bd
       -0.09476368 -0.1325858 0.09188948 -0.08972216
0001b0 cc f5 7e 3e fb fb ee 3c ae 15 aa 3d c9 11 89 bd
       0.24898452 0.029172888 0.08304916 -0.066928454
0001c0 93 6a 68 bc 5e 35 ba bc fb 35 81 bc 76 ee fd bd
       -0.0141855655 -0.022730526 -0.01577281 -0.123989984
0001d0 b5 24 57 be 08 2a 37 3e b3 12 83 3d 5d fc af bc
       -0.21010096 0.17887127 0.06400051 -0.02148264
0001e0 7e 3b 5f 3e 2f ef 73 3e 82 2d 10 be c1 2d 03 be
       0.21800038 0.2382171 -0.1407986 -0.12810422
0001f0 99 a4 69 bd 5b e4 86 3d 20 f0 f0 bc c2 9f ba bd
       -0.05704174 0.06586524 -0.029411376 -0.09112503
000200 64 40 21 3d 69 bc a6 3c 6f 90 2f 3d 0a cb ba 3d
       0.03936805 0.020353513 0.042862352 0.09120758
000210 79 3b 3b 3d c2 e1 d3 bd 71 59 77 bd d7 b8 bf bc
       0.045711014 -0.10345794 -0.060388032 -0.023403568
000220 ea 86 ed 3c 1b 96 10 3e 29 24 a8 3e ca 51 05 be
       0.028994996 0.1411976 0.32840088 -0.13019481
000230 0c 5f 17 bd 8c 89 8c bc eb 5f 60 3e 9f 23 84 3e
       -0.03695588 -0.017155431 0.2191159 0.25808427
000240 50 38 81 3e 83 2b 4a be 18 e9 b2 3d 67 ca 81 3c
       0.25238276 -0.19743161 0.08735865 0.015843583
000250 d2 86 fb 3c a8 71 83 3d 4f 98 1e bc 3a 32 78 be
       0.030703936 0.064181626 -0.009679868 -0.2423791
000260 16 82 c4 bd d3 21 77 bd 1a d8 12 bc 78 29 92 3e
       -0.095951244 -0.06033499 -0.008962655 0.28547263
000270 5e da 3f 3e e0 7d 85 be 26 ac 2f 3e 3a 9d 9c bd
       0.18735644 -0.26072598 0.17155513 -0.07647176
000280 fc 0f 82 3d 92 0f 0d 3e c8 fb 6a 3e 82 29 b1 3c
       0.06350705 0.13775471 0.2294761 0.021626238
000290 1b 04 2b be 0d 59 9e 3d b0 2f 10 3e 8d c8 8a 3e
       -0.16700785 0.07731829 0.14080691 0.27106133
0002a0 78 bd c9 3d b3 9e 1b be e4 5c 9d 3c ce ff f2 3c
       0.098505914 -0.15197258 0.019209333 0.029662993
0002b0 17 13 34 3e 68 da 20 3e f2 2b 02 3e 8d 5b 7a bc
       0.17585407 0.15708315 0.12712076 -0.0152806165
0002c0 ef 72 f5 bd af 21 24 3d dd 59 38 bc da 63 ea 3d
       -0.119848125 0.040071186 -0.011251894 0.114448264
0002d0 68 6b bb 3d db bf 22 be f3 1f 0f 3e 7a b3 03 3e
       0.091513455 -0.158935 0.13977031 0.12861434
0002e0 45 15 89 3d 78 43 2a 3d b2 35 1f 3e ab 3f 49 be
       0.0669351 0.04156825 0.15547827 -0.19653194
0002f0 54 0e 40 3e dc f0 8c bd 79 30 f8 bd 26 5b 6f 3d
       0.18755466 -0.06881878 -0.121186204 0.058436535
000300 e7 b9 39 3d 3c 84 ca bd 64 7b 8e 3c 00 e8 3f b6
       0.045343306 -0.09888503 0.017392822 -2.859626e-06
000310 ef b9 a9 3d 09 12 76 3e 3c e8 fb 3c 3c 5c 89 be
       0.08287417 0.24030317 0.030750386 -0.26828182
000320 27 37 61 bd 20 5d 1c bc ad 3c f9 3d 64 21 89 3c
       -0.054984238 -0.009543687 0.12169776 0.016739555
000330 de ad 4a 3e 4d 3c ea bd 87 7c 1e 3d 52 c5 59 3b
       0.19792888 -0.11437283 0.038692977 0.0033229184
000340 9b 6b a5 3c 04 46 39 3e 16 fb 02 3e 04 ca 8d be
       0.020192912 0.18093115 0.12791094 -0.27693188
000350 97 c2 ce 3c 34 0e 6d 3d 71 7a 01 be 5a 46 04 be
       0.025239272 0.057874873 -0.12644364 -0.12917462
000360 8d 33 43 3e 00 f7 f9 3c 7d 43 f2 3d 47 a4 32 be
       0.19062634 0.030513287 0.118292786 -0.1744548
000370 6c 56 0c bd 4a 84 81 3e 86 01 88 3c f5 97 82 be
       -0.034262106 0.2529624 0.016602289 -0.2550656
000380 97 fc 5c 3d 99 6e 7d 3c 69 27 4f 3e fb 0a 09 3e
       0.053951826 0.015468263 0.20229878 0.13383095
000390 90 98 cd 3d cb c3 e1 bd 95 f8 a8 bd c2 4b 84 be
       0.100388646 -0.11023673 -0.08250538 -0.2583905
0003a0 66 68 a7 3d 80 9b 61 3e 80 98 12 3d 8b c9 c4 bd
       0.08174209 0.22031975 0.035789967 -0.09608754
0003b0 00 1b a2 3c 72 16 25 bd cc 39 cd 3d 7d 2f fb bd
       0.019788265 -0.04030461 0.100207895 -0.12264917
0003c0 c5 a7 85 3d 5b 8a bf bc 41 9d 98 bd 6f 72 9f bd
       0.0652614 -0.023381403 -0.07451869 -0.07785498
0003d0 c5 f6 0a be a7 3e ec 3d 8f 75 15 3e c2 49 5a be
       -0.13570698 0.115353875 0.14595626 -0.21317199
0003e0 0a 2d 70 3d 1f 21 1d 3e 05 e1 9f 3d aa cd f1 be
       0.058636703 0.15344666 0.07806591 -0.47227222
0003f0 90 11 85 3c a4 93 7c 3e 94 9f 08 bc 2b 31 20 bd
       0.016243726 0.24665695 -0.008338828 -0.03910939

network_body.linear_encoder.seq_layers.2.bias f4 [256]
000000 36 11 eb bd 08 7d 30 be 0a c0 82 3b b9 2b 09 3c
       -0.11477892 -0.17235196 0.003990178 0.008372241
000010 7e d3 07 ba 71 d5 cb 3c 8d 34 63 3d b7 78 8c 3b
       -0.0005181356 0.02488205 0.05547004 0.0042868513
000020 77 f3 2a bd 94 e7 ce bb 7e fe 05 3b d3 6e c2 3c
       -0.041736092 -0.0063142274 0.0020445879 0.023734486
000030 1a e2 9d bd 1d 79 01 3d cb 9a ac bd a6 55 0c bd
       -0.07709141 0.031609643 -0.08427962 -0.03426137
000040 c8 f5 e5 bd 37 14 9a bd 32 a5 aa bc 11 d1 30 3d
       -0.1122852 -0.07523387 -0.020830724 0.04316813
000050 9d 20 8a bd 6d b0 fb 3b b5 f1 19 bc 2e 5d b3 bb
       -0.06744502 0.0076809437 -0.009396006 -0.0054737544
000060 a2 e6 58 bd 10 dc 38 bc 1d a6 00 be f5 ec ee bd
       -0.052954324 -0.011282936 -0.12563367 -0.1166629
000070 f2 de 7d 3d 83 2e ec ba 0f 7e a9 3b ed 1c fb bc
       0.061980195 -0.0018019233 0.005172498 -0.030653441
000080 cd 5f d2 3c 42 c5 22 bd e0 5a d8 bc cf 6a 96 bd
       0.025680447 -0.0397389 -0.02641052 -0.07344591
000090 05 ee ce bd 7c 11 7f bc 33 86 33 bd c3 95 e2 3d
       -0.101039924 -0.015568133 -0.043829154 0.11063721
0000a0 31 c0 8c 3c 2f a5 04 bd 36 8b ea bd cb 85 30 3b
       0.017181488 -0.032384094 -0.11452334 0.0026935216
0000b0 9f 10 24 bd b6 f3 ac 3d 89 56 29 bd 95 cf 4f 3d
       -0.040054914 0.08444922 -0.041342292 0.050735075
0000c0 8d bc 27 bc 71 0c 74 bd 9b a1 93 bb eb 49 2b bc
       -0.010237825 -0.059582178 -0.004505349 -0.010454635
0000d0 e3 6c 15 bd 50 f1 82 3d 67 ed 65 bd fc 21 0c bc
       -0.036480796 0.06393683 -0.056134608 -0.008553024
0000e0 c9 85 21 ba 44 4c fc 3b 84 21 7c bd 37 ac 4b bd
       -0.0006161598 0.0076995213 -0.0615554 -0.049724784
0000f0 91 10 1a 3d c6 4a b8 bd 16 0c 8b 3d 0c 06 f4 3c
       0.037613455 -0.08998637 0.067894146 0.02978804
000100 16 43 9e bd 6d 68 1d bd 0a 40 dd bd 0c 93 0a bc
       -0.077276394 -0.038429666 -0.1080323 -0.00845791
000110 8b c8 71 bd 05 e1 58 3d ea 84 3b bd c9 2d 04 b9
       -0.059029143 0.05294897 -0.045781054 -0.00012605557
000120 79 7d 67 bd 7d dc 82 3d 01 60 c7 bd 06 0f 84 3d
       -0.056516144 0.06389711 -0.09735108 0.06448178
000130 51 76 0a 3a 69 98 d1 3c 46 41 42 bd dc 65 e3 3c
       0.0005281913 0.02558537 -0.04742553 0.027758531
000140 44 b6 16 bc 4b b3 aa 3d f8 b9 c3 3d 11 0a a8 bd
       -0.009198729 0.08334979 0.09556955 -0.08205045
000150 f5 67 bb 3d 0c 9b 0e 3b e6 32 b8 bd 5f e5 9a 3c
       0.091506876 0.0021759896 -0.08994083 0.0189082
000160 c8 f5 a9 3d 13 bc cf 3c a3 7a ce 3c bc 87 85 bd
       0.08298832 0.025358235 0.025204962 -0.0652003
000170 9d d1 cd bc 33 4b fe 3b 10 3e 2d bd 1f 33 85 bc
       -0.025124365 0.0077604293 -0.042295516 -0.016259728
000180 20 4a 01 bb 5d c0 5e bb 95 09 84 bd a5 7e a9 3c
       -0.001972802 -0.003398917 -0.0644714 0.020690272
000190 cc 14 89 bc 6a 61 62 3d 10 fc 9c bd 67 a6 52 bd
       -0.01673355 0.055268683 -0.076652646 -0.051428225
0001a0 46 85 08 3a ed d3 16 bd b2 3a 2f 3d a0 31 01 3d
       0.00052078476 -0.036823202 0.042780586 0.031541467
0001b0 b0 ae bd 3c 45 61 0d bd bf b1 dc bd 41 fe 81 3c
       0.023154587 -0.03451659 -0.1077609 0.015868308
0001c0 2e b1 8d 3d 27 b3 09 bd d4 7b 0f bd bf 9f 70 bd
       0.0691856 -0.03361812 -0.0350302 -0.058746096
0001d0 d3 a3 97 bd 68 65 96 3d 86 b8 d0 bc f0 ae 9a bd
       -0.07404294 0.073435605 -0.025478613 -0.07552898
0001e0 4b 21 ed bd 4b 37 d7 bc a9 43 08 3d 40 38 f2 3b
       -0.11578616 -0.026271483 0.03326765 0.0073919594
0001f0 8a 9d 0e 3c 21 6a 36 bd c7 c7 ab bd 73 04 4f bd
       0.008704552 -0.044534806 -0.08387714 -0.050541352
000200 c6 3e 81 3d 5b e1 1b bd 74 bc 2d bd 35 55 c4 3c
       0.06310801 -0.038056713 -0.04241605 0.023966411
000210 2e f9 0d 3d 37 1d 3e 3d d5 40 c3 bd 29 9f 00 3d
       0.034661464 0.04641458 -0.0953385 0.031401787
000220 54 fd 62 3c ba 6d a6 3a e3 82 fb 3b 6a 3f 06 bd
       0.013854343 0.0012697496 0.007675515 -0.03277532
000230 64 3c 71 3b 9f f0 c5 3d c2 48 e5 3c 03 41 10 be
       0.0036809677 0.096650355 0.027988795 -0.140873
000240 c2 11 68 bd fe e2 fc bc 61 c5 b6 3d ba cb 7b 3a
       -0.05665756 -0.030869957 0.08924366 0.0009605248
000250 c3 56 48 3d 2f 4e 4c bc 41 9c 20 bd 14 7f 6e bd
       0.048910867 -0.012469812 -0.039211515 -0.05822666
000260 40 13 34 bd 7c e7 b2 bd ff cd 58 bd 3c e1 79 bd
       -0.04396367 -0.087355584 -0.05293083 -0.061005816
000270 5d e3 9b bd af 9f 93 bd 20 d9 27 bc 72 3c 21 3d
       -0.076117255 -0.072081916 -0.010244638 0.039364286
000280 74 c6 98 3d a5 07 b4 bc 7a 7f 5f 3d 32 a4 63 bd
       0.07459727 -0.021976301 0.05456493 -0.05557651
000290 aa ef 94 3d 3e 04 11 bd 3b b8 39 bd d3 13 25 bd
       0.07272275 -0.035404436 -0.04534171 -0.04030211
0002a0 72 b9 0f bc 38 f5 ec bd d7 9e e0 bc 8d 68 27 bc
       -0.008772241 -0.11570209 -0.02741949 -0.010217798
0002b0 ff 4e b0 bd 61 a4 89 bd 1d 39 47 3d d8 72 cd bd
       -0.08608817 -0.06720806 0.04863845 -0.1003167
0002c0 f5 0b c0 bd e6 15 35 bd 98 87 99 3c c3 e0 12 bd
       -0.093772806 -0.044210337 0.018741414 -0.03585888
0002d0 65 41 d0 bd 0d 61 97 bd 75 fa e9 3d 54 50 12 3d
       -0.10168723 -0.07391558 0.11424724 0.035721138
0002e0 32 c7 e3 bb 70 de 28 bb d9 71 80 bd 6d c6 b5 bc
       -0.006951236 -0.0025767349 -0.06271715 -0.022189343
0002f0 0b 3b eb bd 2c 2b 30 3d fc e0 3a bd 93 d1 e2 3c
       -0.11485871 0.043009922 -0.045624718 0.027687823
000300 7f 99 42 3d f9 de 0b ba 2a 0e 1e bc 17 46 65 3c
       0.047509667 -0.0005335655 -0.009646932 0.0139937615
000310 e8 fc bb 3c f1 7d 40 3c 32 72 69 bc ba ef 08 3d
       0.022947744 0.011748777 -0.014248418 0.033431746
000320 27 f5 01 bd 9f 74 99 bd 98 4f 87 3b f9 ed fb bd
       -0.031727936 -0.07492947 0.0041293614 -0.12301249
000330 47 e9 87 bd 49 b3 c8 3c 26 f0 76 3c df 50 8a bb
       -0.06636291 0.024499552 0.015071904 -0.0042210664
000340 c4 39 80 3b 82 3a ba bc b7 88 9b bd f3 0c 2e bd
       0.003913136 -0.022732977 -0.07594436 -0.042492818
000350 73 77 d7 3c 48 d6 89 3c 75 b4 4c 3d c1 a5 9d bd
       0.026302075 0.01682581 0.049976785 -0.07697631
000360 15 d5 17 3d d7 05 26 3d 82 27 83 3c 0d 7e 85 bd
       0.037068445 0.040532913 0.01601005 -0.06518183
000370 22 e7 f1 bc c9 50 91 b9 cd 1b 24 bd 14 80 59 3c
       -0.029529158 -0.00027716745 -0.040065575 0.013275165
000380 86 d0 18 3d ea 88 74 3c c7 7d 33 3d d2 46 8a 3d
       0.03730824 0.014925221 0.043821122 0.06751789
000390 54 05 08 bd 97 bf 85 3d fa 70 72 bd 73 da 19 bd
       -0.033208206 0.065306835 -0.059189774 -0.037561845
0003a0 4d c2 06 bd c7 a9 17 bd 97 2c db bc f3 c0 87 bd
       -0.032900143 -0.037027147 -0.02675466 -0.06628599
0003b0 8a c7 ba bd 87 4b de bd 14 6e 21 bd 65 28 b6 3c
       -0.0912009 -0.108542494 -0.03941162 0.022236058
0003c0 5a a3 02 bd cd ee 24 bc f8 39 57 bd 31 68 1a 3c
       -0.031894065 -0.0100667 -0.052545518 0.009424255
0003d0 f0 60 1b 3d 0e 59 46 bd 50 3f db bd c0 31 0b 3c
       0.037934244 -0.048424773 -0.10705435 0.008495748
0003e0 8e e3 9a bd 90 bf ad bd 2a 48 99 3d e6 20 c4 bc
       -0.07562934 -0.08483803 0.07484467 -0.023941468
0003f0 ed 72 c5 3c a4 e8 91 bc e4 6d 57 3d e9 5c 66 bc
       0.024102652 -0.017811127 0.052595034 -0.014060237

network_body.linear_encoder.seq_layers.2.weight f4 [256, 256]
000000 b1 41 bc 3d 60 90 09 bd 94 f1 45 be fd 2c 21 3e
       0.09192217 -0.033584952 -0.19330436 0.15739818
000010 49 a1 3a 3d 21 34 03 3e 45 78 b2 ba 04 a6 24 bb
       0.04556397 0.12812854 -0.0013616165 -0.0025123367
000020 38 92 99 bd 1f 94 ff bd d8 d6 1f 3e 62 e3 1c 3e
       -0.07498592 -0.12479424 0.156093 0.15321115
000030 22 e8 25 3c a9 ae 9c 3d 11 15 24 3e 59 d5 13 3d
       0.010126146 0.07650501 0.16023661 0.036092136
000040 32 a4 f8 3b 15 23 a1 3c 28 49 41 3d 77 3d 27 be
       0.007587933 0.019670049 0.047188908 -0.1633204
000050 25 bd ff bd 82 6f 91 3d 30 fd 24 be 67 a2 8b 3d
       -0.12487248 0.071013466 -0.16112208 0.06818085
000060 1e 1d 52 bd a0 e8 a6 bd 42 7e d4 bb d2 58 74 bd
       -0.0512973 -0.081498384 -0.0064847777 -0.05965502
000070 61 d4 cd bd dd 74 61 3d 3f d1 06 3e 6d 44 19 bd
       -0.10050274 0.05504309 0.13165759 -0.03741877
000080 82 ef 08 bb 99 a4 34 3e 20 19 4f bd c3 6a 2c be
       -0.002089471 0.17640914 -0.05056107 -0.16837601
000090 44 96 35 bb a8 47 b0 bd 96 b5 92 bd 7d 05 b8 3d
       -0.0027707973 -0.08607417 -0.07163541 0.08985422
0000a0 3c 45 03 bb 1a bd 03 3e 5d ea 1c 3e 4a 61 46 3d
       -0.002003028 0.12865105 0.15323777 0.048432626
0000b0 53 da de 3d 16 a5 9c bc 14 e9 2a 3e d2 14 83 3d
       0.10881486 -0.019121688 0.16690475 0.064004555
0000c0 73 e4 c9 bd fa 92 9f bd 1d 4a 39 bc 63 18 5d 3d
       -0.09858026 -0.077917054 -0.011309174 0.053978335
0000d0 97 51 28 be ce 3b dc bd af 49 6b 3d 71 72 12 3c
       -0.16437374 -0.10753594 0.057443317 0.008938418
0000e0 7e 8a 47 bd 63 b5 bf 3d 64 ce f7 3c ec 8d 96 3c
       -0.04871606 0.09360769 0.030249782 0.01837822
0000f0 ba ca bd 3c dc a8 59 bd f0 f5 2c 3d 4d c6 60 3e
       0.023167957 -0.053139552 0.04222673 0.21950646
000100 6c 7d 84 bd f8 a7 19 3d d2 af 31 be ba e5 38 3e
       -0.06469235 0.037513703 -0.17352226 0.18056384
000110 94 4b d7 3d 57 0d 85 3d 57 a4 ba 3c 46 ea 4d 3e
       0.10512462 0.06496685 0.022783441 0.201089
000120 56 39 04 bd 2f a7 10 be e3 31 04 bd 42 e9 ce bd
       -0.032281242 -0.14126275 -0.03227414 -0.10103084
000130 78 25 88 bd 14 df 7e be 58 9f ee bd 76 54 c7 3d
       -0.066477716 -0.24889785 -0.11651486 0.097329065
000140 32 d8 bf bd b7 17 89 bd 07 2b 5c 3d 22 77 30 be
       -0.09367408 -0.06693976 0.05375197 -0.17232946
000150 6f 01 f4 bd 87 bc 4a 3e 00 32 93 3c 92 46 bb 3d
       -0.11914336 0.1979848 0.017968178 0.091443196
000160 1f b7 f5 3c 77 6a f9 bc 72 cd 82 be 48 3d 2d be
       0.029994546 -0.030446274 -0.25547367 -0.16917908
000170 83 40 1d be 65 6e 84 3d 5e ba 1f 3e 1d ff 8c 3e
       -0.1535664 0.064663686 0.15598437 0.27538386
000180 77 0e fa 3d a3 23 77 be 67 02 60 3c b4 91 a2 38
       0.1220979 -0.24134688 0.013672448 7.751901e-05
000190 a1 f9 91 3d 70 e1 1e 3d 35 13 50 3d f8 c9 18 bd
       0.07127691 0.038789213 0.050799567 -0.037301987
0001a0 c3 7e ae 3c fb 26 a7 3d 48 a2 28 3c 28 1c 13 3e
       0.02130068 0.08161732 0.010292597 0.1436621
0001b0 a0 3e 8a 3d 9b 22 09 bd 1c d9 8a 3d 07 e4 ca 3d
       0.06750226 -0.033480268 0.067796916 0.09906774
0001c0 0a bd da bb 36 34 9b 3d d3 ef 5f 3c 96 e6 4e be
       -0.0066753672 0.07578318 0.013668018 -0.20205149
0001d0 92 d1 df 3c 73 56 b4 bc 24 eb 5c bd 62 1f 60 be
       0.02732161 -0.022013878 -0.053935185 -0.21886972
0001e0 c5 b3 69 bd aa ad 64 be 8a 60 88 ba 7d 73 51 3d
       -0.057056207 -0.22331873 -0.0010404747 0.05113553
0001f0 a6 7b 0f be 35 ce af bd 42 3b f3 3d 6a e7 5c 3d
       -0.14012012 -0.08584253 0.11876537 0.05393163
000200 52 e4 51 3c 14 fe 73 3b db 8f 32 3e 58 73 0d 3c
       0.012810783 0.00372303 0.17437689 0.008633457
000210 a5 de 88 3c 6f 82 56 3e 97 8b cc 3c 91 3f 43 3d
       0.016707728 0.20948194 0.024968905 0.047668044
000220 7b fd f3 3d cb ff ba bd f0 69 94 3e 9b ef 1b be
       0.11913582 -0.0913082 0.28987074 -0.15228121
000230 a0 b6 8a bc 26 0f bd 3c 11 e3 2f 3e 17 55 db 3d
       -0.016932786 0.023078512 0.17176463 0.10709589
000240 8c 87 e1 3d 1e f3 9c 3d 8c e5 29 3e 74 ee 44 bd
       0.11012182 0.076635584 0.16591471 -0.04807897
000250 d3 ad fc 3d d3 eb 9b 3d 58 ae dd 3d a5 c4 79 3b
       0.12337842 0.07613339 0.10824269 0.0038111594
000260 f1 46 b4 3c 8d 90 10 3e d6 55 48 bc 2b a9 8e bd
       0.022006484 0.14117642 -0.012227496 -0.0696586
000270 65 47 54 bd c2 69 64 bd 75 94 ab bc 90 3b bd bd
       -0.0518259 -0.05576492 -0.020944813 -0.09239876
000280 55 8b f7 3d 6b 3c cd bc ce 55 78 3e 24 aa a6 3b
       0.12087122 -0.025053224 0.24251482 0.0050862003
000290 01 f4 ea 3d 0e 36 d2 bd 43 ca 0b bd ef 87 15 be
       0.11472321 -0.10264216 -0.03412844 -0.14602636
0002a0 6a 5d 23 be 7f 38 75 be 46 36 d4 3d 4e a7 8c bc
       -0.15953603 -0.23947333 0.10361914 -0.01716962
0002b0 d7 d2 c9 bd ac 6c 02 3d 8c d5 e5 bd da d9 65 bd
       -0.09854668 0.03184192 -0.112223715 -0.056115963
0002c0 1c dd 18 3e 9d 74 03 3a c2 58 94 3d a3 b5 ca 3b
       0.14928097 0.000501463 0.07243492 0.0061862036
0002d0 8c 21 d2 bd 0e 00 87 bc 66 5b d3 bc a4 2a 55 3c
       -0.10260305 -0.016479518 -0.025800418 0.013010655
0002e0 40 05 d0 bd 2a cb 91 bd 22 ff 8a 3d 26 2f e6 3c
       -0.10157251 -0.071188286 0.06786944 0.028098654
0002f0 67 8c ba bd 96 74 9b 3b 9c 68 97 3d ee 15 dd 3b
       -0.09108811 0.0047441227 0.073929995 0.006746999
000300 c9 fc 96 bd 80 15 93 bc 54 8b 8d 3d f2 dd 2e be
       -0.07372434 -0.017954588 0.0691134 -0.17076853
000310 43 a1 a6 bd 58 bd 63 3d 5f 6c 0a be ef 25 e4 bd
       -0.08136227 0.055600494 -0.13517903 -0.11140048
000320 7b bc 47 3e e5 9c bf bd 9d f1 8d 3c 9c f2 94 bd
       0.19505493 -0.09356097 0.017327124 -0.072728366
000330 04 bc 01 3e fe 92 6b 3e 85 97 b5 3c 91 e1 03 3e
       0.12669379 0.23005292 0.022166977 0.12879016
000340 e0 b2 59 be 71 04 08 3e 09 ad fd 3c 14 12 8e bd
       -0.21259642 0.13282944 0.030966299 -0.06937042
000350 5f 20 5c be 34 d1 1d be 89 fc 8e 3d cc 10 73 bd
       -0.21496724 -0.15411836 0.06981761 -0.05934219
000360 0c a9 1d 3e 40 15 26 3e 48 a1 39 3e fb 80 e4 bd
       0.15396518 0.16219044 0.1812793 -0.111574136
000370 e6 94 9a 3d b4 ee f1 bc 9b c1 94 3d 1a 22 6a 3d
       0.075479314 -0.029532768 0.0726349 0.057161428
000380 61 e1 db 3d 38 8e 02 be 09 e7 f7 3d 9c 02 fd bd
       0.10736347 -0.12749565 0.12104613 -0.12354013
000390 62 58 d5 3d bc b7 2a 3e 0a f5 02 bd 32 79 d7 3d
       0.10417248 0.16671652 -0.03197197 0.10521163
0003a0 b4 0f 48 bd 98 ef 96 3d 67 5c 87 3d f4 5f c8 bd
       -0.0488431 0.07369918 0.06609421 -0.097839266
0003b0 38 56 ff bd 19 f6 09 3d 52 f4 d2 bc c7 6a dc bc
       -0.12467617 0.033681963 -0.025751267 -0.026906384
0003c0 eb 56 64 bd 97 2b 06 be 5c 29 62 3d b1 03 e7 bd
       -0.055746954 -0.13102566 0.055215225 -0.11280001
0003d0 ec 09 64 bd 70 e4 d9 3b d8 c2 2f be da f9 6e 3d
       -0.055673525 0.0066495463 -0.1716417 0.058343746
0003e0 5a 90 0a bd 85 09 d4 3c f0 12 c5 bc 1e ba 91 bd
       -0.03382907 0.025883446 -0.024056882 -0.07115577
0003f0 a8 f3 56 3d 85 f2 59 bc 6e 1b 84 bc fb a3 f0 bd
       0.052478462 -0.01330245 -0.01612636 -0.11750027
