Project/Assets/MyProject/Train/Chaser/CVR 5/Models/ver 6/PoliceBrain.onnx (onnx, 701872 bytes, 6 tensors)

action_model._discrete_distribution.branches.0.bias f4 [7]
00000000: a833 d3bd 109e f13c 099b 0d3d b0e7 a7bc
00000010: a52d 0b3d 3f52 193d 34ad 49bd
-0.10312587 0.029494315 0.03457168 -0.02049622 0.033979077 0.03743195 -0.049237445

action_model._discrete_distribution.branches.0.weight f4 [7, 256]
00000000: c3a0 d9bd 7e77 adbd 991e d8bd 0ebb 9e3b
00000010: d112 c7bc 2f9b aab9 be57 d7bb 221a dc3c
00000020: f65c efbd e118 f8bc 619b b6bc 4a2a bfbd
00000030: 008f 553b 25a9 933d 0a92 d03c 6560 87bd
00000040: 14f8 ec3b 74d0 f13d fe8a eebc 015f 163d
00000050: f97e f6bb 24fa 9dbd af03 58be f677 3e3d
00000060: e23e f33c 0b48 4c3d 0d88 8abc b21f a7bd
00000070: c43c 07bd 5b37 5e3b 2da9 e1bc 82d7 d8bc
00000080: aba1 77bd 6df4 533d e9ba ec3d 0d02 913c
00000090: 7c35 5e3d f4d9 713a c69f 253e b117 4abc
000000a0: 8062 fbbc 2f69 a3bd b8d5 77bd 66cb 113d
000000b0: 16d7 1ebc 3933 81bc 4cfd eebd bbef 853b
000000c0: 13d1 a73c 6e21 f4bd 1375 4a3d bc5c 023d
000000d0: 382f 4a3d 8733 69bd 2e75 4c3d 700c 4d3d
000000e0: dd83 013d 5bed adbc cea3 b4bd b367 353d
000000f0: f225 9e3c 0ba6 3b3c f85a afbd 1a0d 0dbc
00000100: 3c3f eb3b 7d08 223c 7b2a 163d 6e30 27bd
00000110: 5e93 683d d87e 29bd 3fda 803a 9c40 f4bc
00000120: d48e 57bd 1107 b03c aa1c d13b 416c 8dbd
00000130: c5e2 03bd dd7c d83b 6df1 acbc 5a8f 283d
00000140: c1c0 0f3d 16dd 5bbc 7543 bfbb 248d f43c
00000150: ad12 8fbc 0040 25bd ea25 e9bb d704 bbbb
00000160: b221 14be b6b8 7ebd 504d 963d 43e6 7fbb
00000170: dba2 993d 5650 a03d 233c 873d b6db 203d
00000180: 481a e6bb 4849 abbd fd30 debd 3fa8 153d
00000190: 8dec 443d ede0 bdbb 06f0 6b3d 7846 04be
000001a0: fd04 58bd c361 093d 75fb 1a3c faec 16bc
000001b0: ab7c 5fbd 54cb bebd dc9c a13d 2958 e6bb
000001c0: eac2 92bb b758 9abd a4fa 5f3c 1038 9a3d
000001d0: c4b5 b03d d54c 9b3d fcbf 273d 558a 1dbc
000001e0: 3706 a8bd 09a1 043a 683c b13c 5fea 703c
000001f0: 6150 08bd 27d0 953c c640 03be c98a 803c
00000200: 3726 8d3b d2c4 9f3d b6cf bb3a e33f 8bba
00000210: 1b34 bb3c 1e22 cebc 9c74 833b d63c c3bc
00000220: 8449 3e3d 17d3 29be 67ae 39bd 42a9 7d3c
00000230: 7211 ba3d 5593 34bd f4b4 06bd f23f 29be
00000240: d8a5 143d 42cb 003d 0fa0 22bc c4d0 5dbc
00000250: 41e8 553c 7ffd 9a3b 5bc4 b63d 6dbb 11bc
00000260: 45ee 0cbd 1e9b 8abd ed7f 843d 7dbd a43d
00000270: 0cd4 2ebd a41a ec3d 302d d9bd 757e feba
00000280: 6559 c3bc 996e ec3b 894c de3c ef8e cd3c
00000290: 912c 2bbd 93da 34bd 69d3 06bd 0011 4abd
000002a0: bb2f c43d 23be 51bd cbbc 2b3d 7719 bebd
000002b0: 945a 9fbc b0dd 73bd 10dd 60bd 96d1 38bd
000002c0: 88cc ed3c 0ab3 26bd 827c 1fbc 6f23 673d
000002d0: 6e92 843d 1bb3 d7bc 7b1d 233b fe54 82bc
000002e0: 7f9c 1abd 695e 923c 3389 c3bb 3535 c5bd
000002f0: d499 633d d4ec c03c 8add 003d 5a5b 02bc
00000300: e9e6 ea3c a476 1739 c053 41bd 2b45 a1bd
00000310: d967 2a3d 443a b0bc 97a5 8b3d 0919 b23d
00000320: 0a85 653d 0933 ad3c d5ee 33be 9d47 28bd
00000330: af2e 9fbc 11fb a2bd c1c6 7ebc acde 22bd
00000340: 23b1 adbd 4e2c 813b a1ab 0b3d f435 013e
00000350: 2f20 8bbd 5931 14ba 2b8b 54bd 86c5 afbc
00000360: 3128 0abd 149c 9a3d 44f3 44bc ac88 21bc
00000370: 031f dd3d 66af 26bd b86e c7bc acb6 253d
00000380: a38a 3e3c bd96 543c 7dee 2b3c 35cf a3bd
00000390: 2613 2fbd e1e2 babc f39d 35bd 0798 013d
000003a0: bfab d1bd 6220 943d cbd6 a63c 4998 92bc
000003b0: 889e 68bd 8463 3dbd a004 163d bb0c 5dbc
000003c0: 94de 6abd 6bcb 163d 56b8 abbd 5b9c 81bc
000003d0: b470 7c3d 2628 7cbc 0b00 75bc 1346 dd3b
000003e0: b8b1 dbbd a68c ebbb 8c6a 743d eaba 2abd
000003f0: 71ca 06bd f47d 163d 94fe ddbc e417 c8bc
-0.10626366 -0.08470057 -0.10552711 0.004844076 -0.024300965 -0.00032540548 -0.006571739 0.02686793
-0.11687653 -0.0302853 -0.022290887 -0.09334238 0.0032586455 0.07209996 0.025460262 -0.06610183
0.0072317217 0.118073374 -0.029119011 0.036711697 -0.0075224605 -0.07713726 -0.21095155 0.046501122
0.02969307 0.049873393 -0.016910577 -0.08160342 -0.033016935 0.0033907506 -0.02754649 -0.02646995
-0.060456913 0.051746774 0.11559088 0.017701173 0.054250225 0.0009225898 0.1617423 -0.01233475
-0.030686617 -0.079790466 -0.060506552 0.035594366 -0.009694835 -0.015771495 -0.11669406 0.004087416
0.020485437 -0.11920439 0.049428057 0.03182672 0.049361438 -0.056933906 0.04991644 0.05006069
0.031619895 -0.021231344 -0.08820306 0.04428835 0.019305203 0.011453162 -0.08562273 -0.008609081
0.007179169 0.009889719 0.036661606 -0.04081767 0.056781165 -0.041380733 0.0009830667 -0.029815964
-0.052626446 0.021487745 0.006381591 -0.069054134 -0.032198686 0.0066066817 -0.021111215 0.041152336
0.035095934 -0.01341941 -0.005836899 0.029852457 -0.01746496 -0.04034424 -0.0071151154 -0.005707364
-0.14465979 -0.062187873 0.07338965 -0.0039047159 0.07501765 0.07827823 0.06603267 0.039272033
-0.007022176 -0.08363587 -0.108491875 0.036537405 0.048077155 -0.0057946355 0.05760195 -0.12917507
-0.052739132 0.0335405 0.009459366 -0.009211773 -0.054562252 -0.093161255 0.07891247 -0.0070295525
-0.004478802 -0.07536452 0.013670597 0.07530224 0.08628419 0.07583014 0.040954575 -0.0096155
-0.082043104 0.00050593965 0.02163525 0.014704316 -0.03327978 0.018287731 -0.12817678 0.015691178
0.004307534 0.07801212 0.001432887 -0.0010623898 0.022851994 -0.025162753 0.0040117037 -0.02383272
0.04645683 -0.1658443 -0.04533234 0.015482249 0.09085359 -0.04408582 -0.032887414 -0.165283
0.036290973 0.03144384 -0.009925856 -0.013538543 0.013055862 0.004729926 0.089241706 -0.008894783
-0.03440692 -0.067678675 0.064697124 0.080439545 -0.042682692 0.11528519 -0.10604322 -0.0019416349
-0.023846338 0.0072153327 0.027136104 0.02509257 -0.04179055 -0.04415376 -0.03291646 -0.04933262
0.09579416 -0.05120672 0.041928094 -0.09282201 -0.01945237 -0.05953759 -0.05489832 -0.04512175
0.029028192 -0.04069809 -0.009734275 0.056430276 0.06473242 -0.026330521 0.0024889398 -0.015909668
-0.037746903 0.017867284 -0.005967283 -0.09629289 0.055566624 0.023550428 0.031461276 -0.00795635
0.02867456 0.00014444679 -0.04719901 -0.07874521 0.041602943 -0.021512158 0.06818693 0.08696181
0.05603508 0.0211425 -0.17571576 -0.04108392 -0.01943144 -0.07958043 -0.015550316 -0.039763138
-0.08481052 0.003942049 0.034099225 0.12618238 -0.06793248 -0.00056531053 -0.051890533 -0.021456491
-0.033729736 0.07549301 -0.01202089 -0.009859245 0.10796931 -0.040694617 -0.024344787 0.040457413
0.011629733 0.012975392 0.010493872 -0.07998506 -0.04274287 -0.022813262 -0.044340085 0.031639125
-0.10237836 0.07232739 0.020366093 -0.01789488 -0.056791812 -0.046237484 0.036625504 -0.013491805
-0.057341173 0.03681509 -0.08384769 -0.015821626 0.06163092 -0.0153904315 -0.0149536235 0.0067527383
-0.107272565 -0.0071883975 0.059671924 -0.04168216 -0.032907907 0.036741212 -0.027098931 -0.024425454

network_body.linear_encoder.seq_layers.0.bias f4 [256]
00000000: b1af 47bc a938 a53c f612 e4bc 237d df3b
00000010: 9478 863a 4daf 25bd dbaa adbc 3669 3ebd
00000020: b134 c7bc e21a 6a3d d12a 19bd 8e54 07bd
00000030: 5e30 5d3c 35bf 873c 6bbf 8abd b0a9 b6bb
00000040: ac72 b03b d406 663b d741 963c 9c8e a7bb
00000050: 2a49 233c 85c3 783c 8f89 b5bc b952 9a3d
00000060: 4951 45bd d690 283d 7306 d03b 1bb4 aabc
00000070: 1bd0 0dbd 1701 1bbd 0a13 e8bc 238e b03c
00000080: cc6f 97bc 519b b4bc 2fb3 fa3b 382a f23c
00000090: 180f 3ebd 25a4 743c ff72 5cbc 2365 92bb
000000a0: 77f0 b53c 2122 96bc aa41 f8ba 6a9c 4abd
000000b0: 820a 3c3b 1ec3 2dbc 3e83 113d 109c eabb
000000c0: 21ca 5d3d 4c2b da3b 0d06 25bc 7c8f e8bc
000000d0: e86f d73b bae6 f33c abe3 903b 5ea9 a9bc
000000e0: b3d6 40ba 36e7 33bd 4053 74bc 0017 8e3d
000000f0: 80ea abbc 06ac be3c 9d99 2a3d d94f 93bd
00000100: 3796 47bd 49e6 e6bc e6dd 2dbb e1d4 a8bc
00000110: 89d8 523c 4e3e 033d 58ac 1f3c 4dbb a9bb
00000120: 0df7 863c 9d00 b3bc 4670 3dbc 3eb0 16bd
00000130: 2ccb 493c e160 ff3c e4c7 3dbc 6b1c 603c
00000140: 3acc 50bd 11de 3fbd 62f3 8dbd 577d ae3b
00000150: d5f1 eabc 6575 df3c b9c3 faba 71cd 2fbc
00000160: 1500 99bc 920c 973a dc17 23bc e7b9 e1bc
00000170: e2af b5bd 68d8 833c 2918 743b ecc0 7dbb
00000180: 4210 273d 6b26 27bd 2f5d 31bd 82c0 cc3c
00000190: a17a 31bd a878 043c 949c d13b 66fc 6f3c
000001a0: c316 1d3c de24 c8bb 566a bbbc 2299 61bd
000001b0: 95ff 3dbc 63e1 a33b afd2 72bd 7326 4d3d
000001c0: d0f1 933c 3e4e 69bc 315a 923c 8474 05bd
000001d0: e184 a53c 0fbc 073c c564 9d3c 26cc 063d
000001e0: b688 4a3c 1beb 05bc be96 28bd 8153 b2bc
000001f0: 6c51 8b3c 4075 3c3c 6eb0 0ebb 1e95 d9ba
00000200: bb84 ef3b 4d1c bc3c 6216 c13c 5f22 b23c
00000210: 68a1 6b3c c58e 41bd 157e aebc e26f d5bc
00000220: ea4e b3bb 1f49 623d 17fd 24bc 2231 4fbc
00000230: 3562 393c eedf 09bb 5124 863d 7753 c7ba
00000240: 5002 f3bc bc83 01be f97f 0e3c ca7b 463c
00000250: f67e b8bc 9f76 d23c cfae 9e3d 86c0 743b
00000260: e276 44bc 8cc7 5ebc 152c 33be 6caa c03c
00000270: 3907 673c 451b ab3d ceab 243c 1713 7d3d
00000280: 57bb c4bc 7d3e 54bc 500d 0b3d c285 4dbc
00000290: d702 b93c 2adf 243d 7a18 ffbb 49f0 9c3b
000002a0: ba8b 8f3c 08ee 123d 86f3 ebbc dfab 423c
000002b0: 4109 d93c 29b5 cbbc 7533 903c ccb4 6dbb
000002c0: 48af 353c f17e af3c c444 873d 98ee 9ebc
000002d0: 674f 76bc 5fbf 9c3b cfe6 3d3d 779e b93d
000002e0: 3258 a4bd f526 0ebe d981 f239 c3ab 6f3d
000002f0: c6ec 07bd fa93 953c ca04 533b b3f7 1abd
00000300: eda7 003c 7471 a6bd 02e3 12be abea 3d3d
00000310: 2fc8 023d 8ce7 d03c cd54 a7bc 3832 54bc
00000320: 6c87 1abb 1401 15bd 95a3 f4bb 5234 a83c
00000330: 2c11 173d 3941 003d 20b3 203d c358 87bd
00000340: fdac c93c d22c 603c 2942 06bd 2aa5 42bd
00000350: 5e14 08bd 5055 74bc 3bb4 eb3b e5bb b8bc
00000360: 027d eabc 8f46 383d f4a1 6b3d 162c 30bd
00000370: 949a abbc 8090 013d a97d 7abd 768c d5bc
00000380: 5500 e3bd 3a6d 6dbc 3a3d d5bc 8634 11bc
00000390: 6e8c 15bd 76c4 a4bc e9af 0abd 9e0f d93b
000003a0: f1d2 033b f0a3 d0bc 8560 ce3b 65aa 0dbb
000003b0: edde 09bd ad1f a73d b8c8 6dbc 1ea6 333d
000003c0: cf2e cd3c 6b54 083d eda0 1bbd 219e 5fbc
000003d0: eddd a43d 2ef4 13bb 2289 943c ea7c ec3c
000003e0: 0509 15bd fdbb 38be b527 0b3c 262e 353d
000003f0: 69f1 38bd 56ae ecbc 54f0 0cba 4f80 063d
-0.012187884 0.02016862 -0.027841073 0.0068203374 0.0010259324 -0.040450383 -0.021199634 -0.046487056
-0.024317117 0.057154544 -0.03739435 -0.033039622 0.013500301 0.016570667 -0.06774791 -0.0055744275
0.0053847637 0.0035099285 0.018341942 -0.005113436 0.009966174 0.015183334 -0.02216032 0.07535309
-0.048173223 0.04115375 0.006348425 -0.020837834 -0.034622293 -0.037842836 -0.028329391 0.021552151
-0.018485926 -0.022046717 0.007650755 0.029561147 -0.046401113 0.014931713 -0.013455152 -0.004467623
0.02220939 -0.01832682 -0.0018940468 -0.049465574 0.0028692787 -0.010605602 0.035525553 -0.0071597174
0.054147843 0.0066579934 -0.010072243 -0.028388731 0.0065746196 0.029773105 0.0044216714 -0.020710643
-0.00073562114 -0.04392167 -0.0149124265 0.06937981 -0.020985842 0.023275387 0.041650403 -0.07192964
-0.04872724 -0.02818598 -0.0026529967 -0.020609321 0.012869009 0.03204184 0.00974568 -0.0051797987
0.016475225 -0.021850878 -0.011562413 -0.03678917 0.012316506 0.031174125 -0.011583302 0.01367865
-0.050976016 -0.04684264 -0.06931187 0.0053250003 -0.028679768 0.027277658 -0.0019131816 -0.010730133
-0.018676797 0.0011524132 -0.009954419 -0.027554465 -0.088714376 0.016094401 0.0037245846 -0.0038719727
0.04078699 -0.040808123 -0.043301757 0.024994139 -0.04332984 0.008085407 0.0063968394 0.014647579
0.009587946 -0.0061079105 -0.022877853 -0.05507768 -0.01159658 0.0050012334 -0.059282955 0.050085496
0.018059641 -0.014239846 0.017865272 -0.03258182 0.020204963 0.008284583 0.01921309 0.032909535
0.012361696 -0.008173729 -0.041159384 -0.021768333 0.017006598 0.011502564 -0.002177264 -0.0016600227
0.007309524 0.022962714 0.023570243 0.021744905 0.014381744 -0.047255296 -0.021300355 -0.026054326
-0.005472054 0.055245515 -0.010070107 -0.0126459915 0.011314918 -0.0021038014 0.065498956 -0.001520737
-0.029664189 -0.12647909 0.008697503 0.012114475 -0.022521477 0.025691329 0.07748186 0.0037346198
-0.0119912345 -0.01359738 -0.17497285 0.023518763 0.014100843 0.083548106 0.010050727 0.061785784
-0.024015112 -0.0129543515 0.033948243 -0.012544097 0.022584362 0.04025189 -0.0077849003 0.0047893864
0.017522682 0.035871536 -0.028802644 0.011881798 0.02649367 -0.024866657 0.017602662 -0.0036271093
0.011089154 0.021422835 0.06604913 -0.01940088 -0.015033579 0.0047835554 0.046362694 0.09063428
-0.080246344 -0.13882048 0.0004625458 0.058513414 -0.03318479 0.018259037 0.00321989 -0.03783388
0.007852537 -0.08127108 -0.14344409 0.046366375 0.03192919 0.025501035 -0.020426178 -0.012951426
-0.0023579253 -0.03637798 -0.0074657896 0.02053276 0.03688161 0.0313122 0.039233327 -0.06608727
0.02461862 0.013682561 -0.03277794 -0.047520794 -0.03322255 -0.014912918 0.007193116 -0.022550533
-0.028624061 0.044989165 0.057527497 -0.043010794 -0.020947732 0.031631947 -0.061154995 -0.026067954
-0.11084048 -0.014491374 -0.026030172 -0.00886262 -0.036510877 -0.020113211 -0.033859167 0.006624176
0.0020114745 -0.025468796 0.006298127 -0.0021616456 -0.033659864 0.081603386 -0.014513187 0.043859594
0.025046734 0.033283632 -0.037995268 -0.013648541 0.080501415 -0.0022575962 0.018131796 0.028868157
-0.036385555 -0.18040462 0.008493354 0.044233464 -0.0451521 -0.028891724 -0.0005376388 0.03283721

network_body.linear_encoder.seq_layers.0.weight f4 [256, 418]
00000000: 39df 32be 8760 a93c 8860 84bd ef03 6f3d
00000010: 8a3b 33bd e8b6 2fbd ebf7 9c3d efd8 de3c
00000020: df72 8c3c 887c 8fbc 6663 64bd 3c01 9bbe
00000030: 25c0 04bb 82f1 b13d bdf4 a5bc 2010 18bd
00000040: 30d4 15be 7c5a 163c 74e9 f53b 3ae2 853d
00000050: 5f95 003b b948 5fbd a94d 893c 98e5 da3d
00000060: f06d a1bc 6749 543d 0983 5abe 49c6 56bd
00000070: 171c 2c3c 6bba d1bd 3f23 07bd e310 f7bd
00000080: ad31 103d efe8 9e3d d191 42bd 439d 633d
00000090: 2aa1 83be 5632 863d f407 debb 300c 6bbc
000000a0: 8e7e 97bd 4a85 903d 028c 49bd e4de 1d3d
000000b0: 6289 a3bd d730 663e 1430 82be 539e 8f3c
000000c0: dc7d b2bd 70f7 3abe def2 9d3d 41df 9e3c
000000d0: 1336 04bd 34a4 14bd 2c1b 5e3c 5bac af3c
000000e0: 73fe 12be 7d5f 0b3c 7630 78bd 6059 b9bd
000000f0: 87ef ec3d 92a6 aebd 863b 093c 3c7c 06bd
00000100: 6174 50bd 1979 1a3d ad0a 0fbe d6ff dbbc
00000110: 901b c5bd 140e 25bd 7e57 273e 285f 25be
00000120: 1e3e e7bd 185f 9dbc 3804 7bbd 5e25 9739
00000130: 18cf 4fbd d8cc 7cbd d4ee cb3d 892a 613c
00000140: 15fc 903d b706 1ebc c368 35bd 71b9 34bd
00000150: 811a 893d 2898 9c3d 5918 68be bec2 203c
00000160: 2b84 423c 65c5 f8bc 5e2e 113c 03f6 de3b
00000170: 0c0e f93c f664 eb3d a6fd 7bbc 7dbc 863d
00000180: 14c2 33be 90e3 ecbc a27f b0bd 930c 16bd
00000190: 5b08 2c3e 1304 cb3d 1920 9bbb a4bb b33c
000001a0: 3de0 463d df8a 8f3d 2641 4abe 5be5 16bd
000001b0: 022a a3bc 4f44 2fbd 30bd f93d 5968 323e
000001c0: 3d39 133d 7da1 563d 8a8c 533d 41f8 9d3c
000001d0: c3c9 9dbd 9a5e 5a3d e343 3c3d 3509 0cbd
000001e0: 3152 103e e17c 233e ab38 77ba bea2 abbd
000001f0: db0e ef3c 9fc9 533d 17e9 84be c6df 73bc
00000200: 60c1 f6bb 8a84 203d 3e66 583e 1c1c e33d
00000210: 17f2 dabc 69ab b6bc c32e c83d d331 10be
00000220: aa61 79be 2c27 88bd 9460 b0bd fc1d 063c
00000230: 926e 163e 6878 0f3e 51dd 7a3b a9c5 463d
00000240: 4f8c 3f3e 50e5 eabd 53bb 97be 596b ddbc
00000250: 4306 bf3c 8b67 94bd 83d4 0c3e 278c 423d
00000260: 49f7 1d3d 62e4 ac3d d871 1c3e 3f2d 30be
00000270: 8ee5 35be 303b 993d 0d60 f2bd f0ab 583d
00000280: 153a e73d 499a 273d efcd 3bbb 67f4 573d
00000290: 762e 683d 9468 1bbe c33c 5dbe f943 4b3d
000002a0: 497a b9bd 536c d33c 6ee9 90bb cec4 d73d
000002b0: 6943 253a dc5b 253e c1f9 2e3d c0d6 acbc
000002c0: d79d c1be 7478 773d b031 d4bd 82c9 6cbc
000002d0: 277d 42bd a520 fb3d f7d0 b4bc 70bb c93d
000002e0: 53d5 4c3d 3d5c 4abc 5c0f 26be 013a 813c
000002f0: b121 9bbd 624d bc38 3258 2cbd 6627 4a3e
00000300: 386f 173d 2736 d3bd 5efa 3e3d 9633 9cbc
00000310: 7f7a 1ebe ed32 5fbd 350e 87bd 1765 66bd
00000320: b54e fdbb 28b9 973d 8972 1b3c e8f5 b0bc
00000330: c14e 183e c9df 323d 6731 41be 1033 a8bd
00000340: 772a 913c ff09 0e3e def4 943d 2392 1c3e
00000350: 7692 18bd 726f 883d 0b7b 823b 6f19 14bd
00000360: 1e8a 3bbe 810c 2ebd 59f4 97bd 8980 11bc
00000370: 4d3a 013d 32ad 693e f39d e33c 856c 9d3d
00000380: a87c 323d 9761 87bd 3f79 fcbd c4c6 debd
00000390: c288 04be 7196 563c 25c6 03bd c2af 473e
000003a0: b929 a63d 7248 cb3b 041b 543d 1b9a 893b
000003b0: 4149 173d c06a 6a3d 442b 81be b08a a3bc
000003c0: 6aaf de3d 24c7 523e 025f b83c 76d6 e4bd
000003d0: ed71 05bc c6b7 163e 5792 a43d 441c a8bc
000003e0: e462 54be dade 593d 29ca ed3d ecab 9a3e
000003f0: 6bd9 213a 4233 6c3d 6568 69bd b39c 183d
-0.17467965 0.02067591 -0.064637244 0.05835336 -0.043757953 -0.042899042 0.07664474 0.027203051
0.017144619 -0.017515436 -0.055758856 -0.3027438 -0.0020256129 0.08688642 -0.020258302 -0.037124753
-0.14631724 0.009176847 0.0075046364 0.0653729 0.0019620282 -0.054512713 0.016760664 0.10688323
-0.019705743 0.051827814 -0.21339048 -0.052435193 0.010504744 -0.102406345 -0.032992598 -0.12063768
0.035203625 0.07759272 -0.047502343 0.0555699 -0.25708896 0.065525696 -0.0067758504 -0.014346167
-0.07397185 0.07056673 -0.049205787 0.038542643 -0.07985188 0.22479568 -0.25427306 0.01753155
-0.08715412 -0.18258452 0.07712339 0.019393565 -0.03227813 -0.03628941 0.013556283 0.02144449
-0.14354877 0.008506653 -0.06059309 -0.0905025 0.11569124 -0.085278645 0.008376008 -0.032833323
-0.050892238 0.037713144 -0.13968916 -0.02685539 -0.09624398 -0.04029663 0.1634197 -0.1614958
-0.11291145 -0.019210383 -0.06128332 0.00028828805 -0.05073461 -0.06171879 0.09957662 0.013743051
0.07079331 -0.009645156 -0.04428936 -0.044122163 0.06694508 0.07646209 -0.22665538 0.009812055
0.011872332 -0.030367563 0.008861152 0.006804229 0.030402206 0.11493866 -0.015380299 0.0657892
-0.17554504 -0.028917104 -0.08618094 -0.036633085 0.16800062 0.099128865 -0.004734051 0.02194006
0.048553694 0.070089094 -0.19751415 -0.036839824 -0.019917492 -0.042789754 0.12194288 0.17422618
0.03594326 0.0524001 0.0516477 0.019283416 -0.077044986 0.053312875 0.04596318 -0.034188468
0.14093854 0.15965606 -0.00094307464 -0.0838065 0.029181888 0.051705953 -0.25959083 -0.014884895
-0.0075303763 0.0391889 0.21132752 0.11089346 -0.026726766 -0.022298532 0.09774544 -0.14081506
-0.24353662 -0.066480964 -0.08612171 0.00818586 0.14690617 0.14010775 0.0038278888 0.048528347
0.18705867 -0.11469519 -0.29635105 -0.027028726 0.023318416 -0.07246312 0.13752942 0.04749694
0.038565908 0.08441998 0.15277803 -0.1720476 -0.1776335 0.07481992 -0.118347265 0.052898347
0.11290375 0.040918622 -0.0028656682 0.052723315 0.056684934 -0.15176612 -0.2160521 0.04962537
-0.09056527 0.025808489 -0.0044223582 0.105355844 0.00063042954 0.16148323 0.042718653 -0.021098495
-0.37815735 0.060417607 -0.1036104 -0.01445234 -0.047482636 0.12262086 -0.022072298 0.09850204
0.05000813 -0.012351093 -0.16216797 0.015774729 -0.075747855 8.978952e-05 -0.042076297 0.19741592
0.0369713 -0.10313063 0.046625488 -0.019067567 -0.15476416 -0.054491926 -0.06594507 -0.05624875
-0.00773033 0.074083626 0.0094877565 -0.021601632 0.14873792 0.04367045 -0.18866502 -0.082128644
0.017720444 0.13871 0.07273267 0.15290122 -0.03724905 0.066618815 0.003981953 -0.036157068
-0.18314406 -0.042492393 -0.074196525 -0.008880743 0.03154974 0.22819975 0.027785277 0.07686714
0.043575913 -0.06610411 -0.12327813 -0.10877755 -0.12942794 0.013097391 -0.032171387 0.1950064
0.08113427 0.0062037045 0.051783577 0.004199279 0.036935095 0.05723071 -0.25228322 -0.019963592
0.10873301 0.20583779 0.02250624 -0.11173718 -0.008144838 0.14718542 0.080357246 -0.02052129
-0.20740849 0.053191043 0.116108246 0.3020929 0.00061740604 0.05766607 -0.056984324 0.037258815

network_body.linear_encoder.seq_layers.2.bias f4 [256]
00000000: 0e12 0d3d 2708 94bb 44e2 993c a8ed a63c
00000010: 4bed 383d 8909 2a3d f67e 02bd e3a0 35bc
00000020: cd2d f7bc 5f0f 09bd 6099 77bd b0ff a33c
00000030: 6efb 473c af96 adbc a0a4 10bd 6066 c6bb
00000040: 7e9a 72bc 6643 2e3c 01dc 3b3c ed67 a3bc
00000050: c6da 90bc d534 08bc 2c8f 9b3d 2ca3 61bd
00000060: 4206 84bd 72f5 03be a96e 7d3b e72a 173d
00000070: 7583 133c f832 2cbc 63e5 8cbb ef09 673d
00000080: 82c3 653d 84af ab3d e9ee e2bd 62ec 8ebd
00000090: 36b8 90bd b37a 41bd f448 39be cc19 6a3d
000000a0: 7a66 243c b672 e23c 0b25 75bc 362e cdbd
000000b0: bd59 8fbc e567 e8bc 5fb4 6fbd c48f 55bd
000000c0: f107 db3c b850 84bb b8f0 d9bd ead9 0bbd
000000d0: 465e 66bd 1379 f13c 38b1 52bd 7327 41bd
000000e0: dd12 1dbb de1c 8d3c e72d 0f3d c894 e8bc
000000f0: 39e0 6bbd aa28 8ebd 3f2e 043c 194b 1fbd
00000100: 135d e5bc c802 65bc 2201 3fbd 254b 183c
00000110: 4d25 163c a1fd 7bbc 07d6 73bd 4d84 6d3c
00000120: 7bcb 3bbd 513d d0bd e053 15bd 2ffb bb3c
00000130: c7ef bf3c 3d3b cdbd b7b1 f1bb 1c94 dabc
00000140: bc91 8b3c 3d26 e0bc 6df8 fa3c 6da0 ecbd
00000150: a7b4 9d3d dab6 aabc e0ad 37bb b466 8dbd
00000160: 516a 8ebc 57c8 9a3d 17dc 9bbd a704 dcbc
00000170: 260c 09be 863c 32bd c8cc 18be ab6f 15bd
00000180: 9cba b3bc 25a5 58bc 45a7 c03c 569d 07bd
00000190: 5f6b 8f3c 197d 84bd cc0b efbd 6928 ccbc
000001a0: 81e1 f13c d411 04be 4a2f ccbc c754 be3c
000001b0: 3869 003c 64c4 2a3d df6a 80bd eb3e 92bc
000001c0: 4be1 e0bc 5b8b 403d 9074 323d 40ba bebc
000001d0: 13f9 1dbd eef4 c0bc c935 1cbd a5ff 22bd
000001e0: 8f37 023d 5321 ee3c 806b 85bc 8294 9bbb
000001f0: 4a36 773c 625e bebd 469b 283b 66a9 873c
00000200: 8fae 2bbe 0737 66bd 847e 72bd 2120 d4bd
00000210: c31e 82bd a2d1 3abc 6376 0bbd 040a 6d3d
00000220: fb88 0c3c bdf2 f93c e831 e0bb 9e8a e1bd
00000230: a75e 573d c87f b23d 3564 8fbc 2027 c93c
00000240: 5a07 fa3c 6060 31bd 820a 763b 832b bbbc
00000250: 77ca 13bd c604 50bd 121f 2cbd c657 9dbc
00000260: a921 1a3c 0eab 71bd 7037 80bd f318 17bd
00000270: 3157 e83b 538d eebc b54d 86bc b1cf b1bc
00000280: 6967 8abd 3d0f 8c3c fa3a 5abd 4aef 493c
00000290: 49f9 d7bc 8240 853b 8e2d 80bb 56a0 6fbd
000002a0: 4d68 c9bd 2b04 40bd 8b94 a3bb d762 3f3d
000002b0: 080f 24bd a0f3 893b 4e00 3c3d c2a2 bfbc
000002c0: c060 2f3d fdba 3c3d 9ab1 453d fc9a 03bd
000002d0: fe8c 3a3d 9980 59bd 9b1f babd fb72 89bd
000002e0: d035 f43c 87ae 983d 7522 59bd fbe3 16bd
000002f0: 448d 1bbd cd0e 81bd 0c8c 46bc 634f 73bc
00000300: 15c9 3c3b d51f 0d3c 3b33 683c d229 9cbb
00000310: c0e9 1fbd b4d2 9cbb f325 56bb 06fb cf3c
00000320: 074f 8ebd 19de 8bbc f68d a83d a88e 853d
00000330: ec28 5e3d f27c 73bd 785e 543c 6d2c 4bbd
00000340: dd55 41bd 2519 7abd 2ceb 1fbc b152 14be
00000350: 5353 403d 46e7 383c 0775 16bd 4ed2 17bd
00000360: 8743 4fbd 188c 32bd c9fd a03c be1c 7a3b
00000370: 614c edbc 1720 9f3a d9e2 0dbd e5ea 99bc
00000380: 0452 f1bd 3196 d4bc 99fa 6ebb 6793 453c
00000390: 76be 88bd 1099 dabc 55e4 a9bb c644 11bd
000003a0: 7573 763d 1546 a53d 5b76 2d3b c040 9cbc
000003b0: 959f 293d 835e 6bbc 60ca bebd 40ba e03b
000003c0: ed3d 083a 028d 1a3d 6cd9 39bc bfdb e8bd
000003d0: b510 973c 5a3d 6d3c 086b 163c 9d03 1bbc
000003e0: a207 953b 5d24 70bd 9e1e 09be 9275 203d
000003f0: ae8a 37bd df49 c0bd 4284 80bc 4cad 86ba
0.034441046 -0.0045175734 0.01878465 0.020376995 0.045148175 0.041513 -0.03185936 -0.011085722
-0.030173207 -0.033461925 -0.060449004 0.020019382 0.012205942 -0.021190016 -0.03531325 -0.0060546845
-0.014807342 0.010636186 0.011466027 -0.019947017 -0.017682444 -0.008313377 0.07595667 -0.055087253
-0.06446506 -0.12886599 0.0038670695 0.03690615 0.00900351 -0.010510199 -0.004299806 0.056405958
0.056094654 0.08383086 -0.11080725 -0.0697868 -0.070663854 -0.047236156 -0.18094236 0.057153508
0.010034198 0.027642589 -0.014962445 -0.1001858 -0.017498845 -0.028369853 -0.058521625 -0.05213906
0.026737185 -0.0040379427 -0.106416166 -0.034143366 -0.05624225 0.029476678 -0.05143854 -0.047156762
-0.0023967542 0.017225679 0.034955885 -0.028391257 -0.057586882 -0.0694135 0.008067667 -0.038889978
-0.027998483 -0.013977714 -0.04663194 0.00929526 0.009164167 -0.015380294 -0.059530284 0.014496875
-0.04584835 -0.10167945 -0.036456943 0.022946922 0.023429764 -0.100210644 -0.0073759216 -0.026681952
0.017037265 -0.027361983 0.030636037 -0.11554036 0.07700472 -0.020839144 -0.0028027222 -0.06904355
-0.01738468 0.07557743 -0.07610338 -0.026857687 -0.1338354 -0.04351475 -0.14921868 -0.036483448
-0.021939568 -0.013222967 0.02351726 -0.03310903 0.017507253 -0.06469173 -0.11672172 -0.024921613
0.029526474 -0.12897426 -0.024924893 0.023233784 0.007837586 0.0416912 -0.06270384 -0.017852267
-0.027451178 0.0470079 0.043568194 -0.02328217 -0.038567614 -0.023554292 -0.03813723 -0.039794583
0.031791266 0.029068625 -0.016286612 -0.004747928 0.015088627 -0.09295346 0.0025727316 0.016560268
-0.16765808 -0.056204822 -0.059202686 -0.103576906 -0.063535236 -0.011402519 -0.03404845 0.05787088
0.008577581 0.030511254 -0.006841887 -0.11012767 0.052580502 0.087157786 -0.017503837 0.024554789
0.030521084 -0.0433048 0.0037542884 -0.022847896 -0.036081757 -0.050785802 -0.04202182 -0.019206893
0.009407439 -0.05900102 -0.06260574 -0.036889028 0.007090472 -0.029120123 -0.016394475 -0.02170548
-0.06758005 0.01709711 -0.0532789 0.012325117 -0.026363986 0.004066528 -0.0039116805 -0.058502518
-0.09834347 -0.046878975 -0.004992073 0.04672512 -0.040053397 0.0042099506 0.045898728 -0.023393039
0.042816877 0.046076763 0.048265077 -0.032130226 0.045544617 -0.053101156 -0.090880595 -0.06711384
0.029810816 0.074551634 -0.053011376 -0.036838513 -0.03797652 -0.06301651 -0.012118351 -0.01485047
0.0028806378 0.008613546 0.014172371 -0.0047657276 -0.03904128 -0.00478586 -0.0032676428 0.025388252
-0.06948667 -0.017073678 0.08230202 0.0652135 0.054238245 -0.05944533 0.012961976 -0.049602915
-0.047201026 -0.061059136 -0.009760659 -0.1448467 0.046954464 0.011285609 -0.0367327 -0.037065797
-0.05060151 -0.043590635 0.019652264 0.0038164104 -0.028967084 0.0012140301 -0.034640167 -0.018788764
-0.11783221 -0.025950523 -0.0036465286 0.012059069 -0.066769525 -0.026684314 -0.00518469 -0.035465978
0.060168702 0.08070008 0.002646825 -0.019073844 0.041411955 -0.014365795 -0.09315944 0.00685814
0.0005197216 0.03773213 -0.011343341 -0.11370038 0.018440584 0.014479959 0.009180792 -0.009461311
0.004548029 -0.05862843 -0.13390586 0.039174624 -0.04480999 -0.0938909 -0.015688065 -0.0010275035

network_body.linear_encoder.seq_layers.2.weight f4 [256, 256]
00000000: 2e1f 36bd 7164 25bd 01b3 41bd 84b4 253e
00000010: 225e 84bd c609 eb3d 0681 e1b9 a88a e03d
00000020: 8a09 c43c 49af fdbd d09d 64bd a566 3dbd
00000030: 154e 123e 16c9 1d3e cc22 4bbe 9e0d e23c
00000040: 8c06 e1bd 4034 b8bd 2f35 9b3d 3078 4dbd
00000050: cc6c 0d3e cf08 9a3d 1ab6 f8bb ed83 c53d
00000060: 1ecb f3bd 6eb3 b6bc 368e 93bc 185c 53be
00000070: 7acf f33d 5e76 0abd 1c2a 9abd 671f 2cbd
00000080: 9b56 e2bd 452c d43d 1566 983d 161c 263d
00000090: 319d 9d3b 6df4 81bb c9bc a2bd bbe8 823d
000000a0: 25cd 353e d38f 2c3d b6e0 6b3d c644 d9bd
000000b0: 064e cd3c 6ca2 f33c 1f51 e8bd 1b07 2c3d
000000c0: b4a5 3d3e 2ae1 36be 95a0 ce3d 96bb 5cbd
000000d0: ce62 26bc 6e3f 203d c8d7 db3c 0c9c 3abd
000000e0: 3c01 eb3d 11a1 c9bd 41f3 d1bd d5f2 5b3e
000000f0: d047 393e 5c1e 933d 28fe 65bd 5f87 6f3d
00000100: 4b75 b33d 6cd1 fdbd e000 6fbe da25 153e
00000110: 602c 053e 9dde 803c a6ff 9abb 0491 6abe
00000120: 9897 023d 271f 4dbd d5f2 d2bd 3a10 0e3d
00000130: 67d8 6b3d 1fcd 593d b8ac fcbd 13be b63d
00000140: d33c 2bbe 15a5 94bd 01e7 b2bd d18a 42bd
00000150: 208c 9a3d fdbf b1bc 2d15 4abd b209 ef3b
00000160: 2be4 c2bd 4974 41be bd3e f13d 12f2 eebd
00000170: 96b2 cabd 25a8 9e3d 7327 093e e9dd d13c
00000180: c287 3bbd f9a4 533d 2dbf 3bbc b19b c73d
00000190: a33d 833b 58b4 b43d 955c 153e 82f9 dfbd
000001a0: 9669 6b3c 62ab 923d 7d90 90bd 998a fc3d
000001b0: 86f6 853a e4e9 413d 65a0 6fbc d64d 4f3e
000001c0: 9b09 0b3d 9769 52bc f3dc 873d 749c 14bd
000001d0: 918d 22be 72a7 263d 9daf 803c 8b57 f2bb
000001e0: 0459 be3c ce58 e9bc 0275 b13d 5452 833c
000001f0: 86ec 553d 0755 4abc d9a4 41be 3195 2bbe
00000200: 2328 57be 4616 adbd e86b 3a3e aaae c83d
00000210: 758c 2a3e a2a6 bcbc c9f2 eebd e2ce 51be
00000220: 1e14 a03d 0145 30be 505e be3d 2e98 a5be
00000230: cfc0 703d e313 0fbe 6dcb efbc 4bb2 bf3d
00000240: b993 c93b ee61 cc3c a89b 96bc 2c77 45be
00000250: b7e5 03bd 6d60 bcbd a75e 563e a1d4 8b3d
00000260: 32d6 86bd 13b6 b13b 5d07 e83b 9b25 d0bc
00000270: b724 acbc 7ec9 56be c71f 27be 2955 5d3c
00000280: b239 09bd c580 7fbd c3dd 143e e51d 03be
00000290: 5c70 4f3d 034a 8c3e 3438 5e3c acd0 b2bd
000002a0: b7a7 94bd 5b81 e73d 02c5 2abc d30c 733d
000002b0: e203 343b 59c3 41bc 56e0 d83d 6033 343d
000002c0: 3ba1 94ba 8638 3fbe 6e11 c23d daac 4dbd
000002d0: 428f 4b3d c0dc 743d e811 a6bd 7406 143d
000002e0: ac4f 19be f221 583d 93ec a23d 99f0 98bd
000002f0: a548 733e 58a1 1b3e d968 ee3d a1e2 11be
00000300: 43a4 883c 5456 bfbb 5512 05be bf2d ef3d
00000310: 81e4 2b3c c092 c1bc 594f 293e cfab 9fbc
00000320: fa17 b53d b2d7 c73b 0c9a 823c ffcf 963d
00000330: 1cd3 e4bc 4c2e 27be 41a4 c6bc 7d04 d33d
00000340: c1b5 083e e781 223c 4a8e 943d 4486 7abe
00000350: 9682 323d 4596 19bd 6f70 e8bd be48 d339
00000360: 8500 24be d327 efbd 87f4 b73c 6a07 0bbe
00000370: a141 07be 80fe d23d fa75 683d bcd1 6c3c
00000380: 8c0c edbd 5e83 c43d e1b2 883d 643b 023d
00000390: c3ab 483d 8953 10be c24a 9bbd d699 dfbd
000003a0: 0970 a3bc 45c4 80bc bdd6 d03d 1ba7 15be
000003b0: a8bd 2a3e bb39 953c 6df7 a53d a010 433d
000003c0: 8ad4 3a3d 66dd dd3b dc8f a83d f8a6 473c
000003d0: c2eb e7bd 82f6 0fba 0046 d4bd b461 d93d
000003e0: 5d4f eb3c ec29 84bd ceef 60bd 32e2 063d
000003f0: f586 29bc 8f1e c63d b4dd 05bd 528d 1ebc
-0.04446333 -0.04037899 -0.047289852 0.16182142 -0.06463267 0.114764735 -0.00043011474 0.109639466
0.02393033 -0.123869486 -0.055814564 -0.046240468 0.14287598 0.1540874 -0.19837493 0.027594384
-0.10987577 -0.08994341 0.07578503 -0.050163448 0.13811034 0.07521211 -0.0075900676 0.096443035
-0.11903976 -0.022302356 -0.018012147 -0.206406 0.119048074 -0.03380429 -0.07527563 -0.042022135
-0.11051675 0.10360006 0.074413456 0.04055413 0.0048099984 -0.0039659054 -0.07946164 0.06392046
0.17754038 0.04212935 0.057587348 -0.106088206 0.025061619 0.029740535 -0.113435976 0.041998964
0.18520242 -0.17859331 0.10089222 -0.053889833 -0.010155393 0.03912299 0.026836291 -0.045558974
0.11474845 -0.09845174 -0.10251475 0.21479352 0.180938 0.07183525 -0.056150585 0.05847871
0.08762606 -0.1239346 -0.23340178 0.1456522 0.13005209 0.01573115 -0.0047301827 -0.22906882
0.031882852 -0.050078537 -0.10300223 0.034683444 0.057579424 0.053174134 -0.12337631 0.089229725
-0.16722421 -0.072580494 -0.08735467 -0.047495667 0.07546258 -0.021697992 -0.0493366 0.007294857
-0.09516176 -0.18892016 0.117795445 -0.11667265 -0.09897344 0.07746915 0.13393955 0.02561851
-0.045783766 0.051671002 -0.011459154 0.09746493 0.0040051504 0.0882346 0.14586098 -0.10936262
0.014368435 0.07161595 -0.07058809 0.12331123 0.0010220564 0.047342196 -0.014625643 0.20244536
0.033944707 -0.012842557 0.066339396 -0.036282018 -0.15874316 0.040687032 0.015708739 -0.00739569
0.023235805 -0.028484728 0.086648956 0.016030468 0.05222752 -0.012349374 -0.1891054 -0.16756131
-0.21011405 -0.08451514 0.18205225 0.097989395 0.16655143 -0.023028675 -0.11667401 -0.20489076
0.07816337 -0.17213823 0.092953324 -0.32342666 0.058777627 -0.1397243 -0.029271806 0.093601786
0.006151643 0.02494904 -0.01838477 -0.19283742 -0.032201495 -0.09198079 0.20934545 0.06827665
-0.06583823 0.0054233163 0.007080956 -0.025408557 -0.0210136 -0.209753 -0.16320716 0.013509073
-0.03350229 -0.062378664 0.1453772 -0.12804373 0.050644264 0.27400216 0.013563205 -0.08731207
-0.072585516 0.113039695 -0.010422947 0.059338402 0.0027468135 -0.01182636 0.10589664 0.043994308
-0.0011339554 -0.18673906 0.09475981 -0.050213672 0.04969717 0.059780836 -0.08108884 0.036138967
-0.14971799 0.052766748 0.07955279 -0.07467765 0.2375818 0.15198267 0.11641092 -0.14246608
0.016679889 -0.0058391485 -0.12995274 0.11678647 0.010491491 -0.023629546 0.16534175 -0.019491104
0.08842464 0.006098711 0.015942596 0.07363891 -0.027932696 -0.16326255 -0.024248244 0.103035904
0.13350584 0.009918666 0.07253702 -0.24465281 0.043581568 -0.037496824 -0.1134957 0.00040299253
-0.16015823 -0.11677518 0.022455467 -0.13577047 -0.13208629 0.10302448 0.056753136 0.014454301
-0.11574659 0.09595369 0.066747434 0.03179492 0.04899193 -0.14094366 -0.07582618 -0.10918014
-0.019950883 -0.015718589 0.10197208 -0.14614527 0.1667391 0.018216005 0.08103833 0.047623277
0.04561285 0.0067707775 0.08230564 0.012185805 -0.11324264 -0.00054917496 -0.10364914 0.106143385
0.028724367 -0.064533085 -0.054916196 0.03293056 -0.010347118 0.09673797 -0.032682136 -0.009677248
