Project/Assets/MyProject/Chaser/CVR 4/Models/ver 6/PoliceBrain.onnx (onnx, 655880 bytes, 6 tensors)

action_model._discrete_distribution.branches.0.bias f4 [7]
000000 ef 37 20 3d ae 31 90 bd e2 b4 f9 bc cb 46 86 3d
       0.039115842 -0.07040726 -0.03048176 0.065564714
000010 16 e6 b2 3c 41 f9 21 bd 71 ef 82 bb
       0.02183823 -0.039544348 -0.003995829

action_model._discrete_distribution.branches.0.weight f4 [7, 256]
000000 f3 d0 76 bd db 86 dd 3c 4b 71 36 bd da 6b 06 3d
       -0.060257863 0.027041843 -0.04454164 0.0328177
000010 f5 c2 01 3d d6 17 ac bd 34 e0 03 3b b7 2a cd 3c
       0.031680066 -0.08402984 0.002012265 0.025044782
000020 1e 23 81 bc 63 a4 03 bd bf 9e 61 3d 3d 89 18 3d
       -0.015763815 -0.032139193 0.055083033 0.037240256
000030 e1 d2 5d 3b 9d 55 35 bb 14 73 1a bc 70 51 17 3d
       0.0033847617 -0.0027669438 -0.009426851 0.0369429
000040 b5 19 a5 bd 02 ea 2f bd 93 86 3d 3c aa 2d 2a 3d
       -0.08061544 -0.042947777 0.0115677295 0.041547455
000050 15 58 6d bd 7e 7a 17 bd f5 f4 e1 3c 8c 10 ed 3c
       -0.05794533 -0.036982052 0.027582625 0.028938554
000060 89 72 82 3c 2b 44 c5 bc 9a fb 47 bd 1f 66 ad bd
       0.015923755 -0.024080357 -0.04882393 -0.08466744
000070 d6 a5 aa bd e2 12 1e be 09 56 88 bc 01 50 e3 3c
       -0.08332412 -0.1543689 -0.016642587 0.02774811
000080 cb 20 02 3d d9 9d 33 bc 3e 25 07 bd 31 37 2a bc
       0.031769555 -0.010962927 -0.0329945 -0.010389135
000090 b2 fb 3c 3d 0b c0 6d 3d 39 8e 85 bd 28 a6 80 bd
       0.046138473 0.058044475 -0.065212674 -0.06281692
0000a0 6d c3 f2 3a 69 3f 20 bd 5b b1 82 3d b7 11 2c 3d
       0.0018521376 -0.039122973 0.06381484 0.04200908
0000b0 82 18 e3 bd c1 10 38 3d c7 50 7c 3d 74 17 02 be
       -0.11088659 0.044937853 0.061600473 -0.12704259
0000c0 cb 1e a4 bc 55 3c 2d 3d 3f b8 02 3d f9 67 aa 3c
       -0.020034214 0.042293865 0.031913992 0.020801531
0000d0 96 95 ac 3c a1 b4 b7 bc 10 8e 26 3d 1d 45 29 bd
       0.021067422 -0.022424998 0.040662825 -0.041325677
0000e0 85 d9 44 3b cd 35 39 bd d0 c6 76 bd 3d b8 96 bc
       0.0030036878 -0.045217324 -0.060248196 -0.018398399
0000f0 d1 46 bc bd 68 d3 79 3d ea 0b 07 3d b1 bc 1f ba
       -0.09193195 0.06099263 0.032970347 -0.0006093486
000100 02 cd bc bd f9 2f 15 bd 2d 61 f1 bc aa 64 5c bd
       -0.0921879 -0.036422703 -0.029465282 -0.05380694
000110 64 c9 4b 3d ca c6 2c 3c e9 a2 e5 bb 37 55 b4 bc
       0.049752608 0.010545442 -0.007007946 -0.02201329
000120 30 72 f1 bc 37 51 25 3c 4e 75 6d 3d de bb 9a 3d
       -0.029473394 0.010090164 0.0579732 0.07555364
000130 ec 2a ab 3c f1 6a 40 3d 0c f7 8c bb 0f 4c d4 bc
       0.02089449 0.046976987 -0.004301911 -0.025915174
000140 15 e2 75 bd 07 9c e1 3c d7 8a 3b bd 9c d7 83 3d
       -0.06003006 0.02754022 -0.045786705 0.064376086
000150 b3 2d 18 bd dc 23 82 bd 0e a8 52 3d bd 0a 8d 3d
       -0.037152957 -0.06354496 0.0514298 0.06886814
000160 e8 74 5a bd 65 4d 44 bd 8d 2e 0c bd e1 09 32 bd
       -0.053334147 -0.04792537 -0.03422408 -0.043466453
000170 66 cb 84 3c 05 d4 0d bd ef 8d 9a bc 52 a8 51 3d
       0.01621027 -0.034626026 -0.018866507 0.051185913
000180 2e 4d 52 3d b9 d1 69 3d 80 a7 f6 bd 1b 6a 8b bd
       0.051343136 0.057084773 -0.12043667 -0.068073474
000190 27 f9 05 bd 68 cc 0a 3d 6e a8 b5 bc df 3c 71 bd
       -0.032708313 0.033886343 -0.02217504 -0.05889594
0001a0 50 3a 0b 3c df 4a 08 bd 0a 2c e8 3c 50 72 e9 bd
       0.0084977895 -0.033274528 0.028341312 -0.113987565
0001b0 e5 a2 07 bd 99 df c1 bc b3 e9 9b bc 29 98 1f 3d
       -0.033114333 -0.02366619 -0.019032335 0.03896347
0001c0 f9 03 a6 bd 17 45 04 3d a7 a6 81 bd e4 3e f5 bb
       -0.081062265 0.03229245 -0.063306145 -0.007484304
0001d0 84 93 4c bd 61 ea df bd 79 a5 7d bd fc 7a b8 bd
       -0.04994537 -0.10933376 -0.061925385 -0.090078324
0001e0 d4 f2 79 bc 81 bf 65 bc 82 4c 01 be 9c a4 0b bd
       -0.015255649 -0.014022709 -0.12626842 -0.03409253
0001f0 94 a5 cd 3a 4a 73 2c 3d e9 6d 76 bc aa 69 cd 3b
       0.0015689605 0.042102136 -0.015040853 0.0062686997
000200 38 14 85 bc 20 30 09 3d 8e a2 b8 bc 4f 2c a5 bc
       -0.016244993 0.03349316 -0.02253845 -0.02016273
000210 2b c4 a9 bc c7 6a ae bd 92 e7 be bc 1c 09 2d bd
       -0.020723423 -0.0851646 -0.02330378 -0.042245016
000220 5c 32 7e bc e4 b6 bb bc aa 88 c7 3c ed db 88 bd
       -0.015514936 -0.022914357 0.024357159 -0.066825725
000230 5d 72 be bb 68 ba cc bc b5 6e f3 bc 25 63 1a bd
       -0.005811973 -0.02499123 -0.029715875 -0.037692208
000240 c1 e2 45 3c 62 d9 65 3d 47 7b ef bc af 8e a8 bc
       0.012077988 0.056115516 -0.029233588 -0.02057585
000250 71 f9 ab 3b 76 af 86 3c 46 97 05 be 14 b3 9b bc
       0.0052482416 0.016441088 -0.13045987 -0.01900629
000260 46 a3 09 be 39 a4 12 bd 0d bd 65 bc 13 64 c3 bc
       -0.1344119 -0.035801146 -0.014022124 -0.02385143
000270 6b 9f 1c 3d b2 86 8b 3d a3 e3 3b 3d f1 14 aa bb
       0.03823797 0.068128005 0.04587139 -0.0051904847
000280 b0 f2 2b 3c 8a c9 2d bd f4 b9 da bd c1 c4 08 3c
       0.010494873 -0.04242853 -0.10679999 0.008347691
000290 ad cf 83 3d 2e 42 5f 3c ef 17 a1 bc 3e 7b 05 bd
       0.064360954 0.013626618 -0.019664733 -0.032588236
0002a0 1f 1c 81 bc 12 ff a9 3c dd 03 87 bd b1 6e 28 bd
       -0.01576048 0.02075151 -0.06592534 -0.04112119
0002b0 fd ea 7a bd 22 25 0f bd 6b 7d f7 3c 78 1d 4a bd
       -0.06125926 -0.034947522 0.030211171 -0.04934451
0002c0 4f 3f 05 bd df 82 ff bc c9 da 7a bd e2 b0 f6 bc
       -0.03253108 -0.031190334 -0.061243806 -0.030113641
0002d0 87 89 cc bd 87 39 9b bd 55 fe 5a bb 5f 25 3d bd
       -0.09987169 -0.07579332 -0.0033415754 -0.046178218
0002e0 12 1c ab bd 31 1e 62 3d df 81 54 39 61 88 a3 3c
       -0.08354963 0.055204574 0.00020266276 0.019962491
0002f0 73 2e 16 39 5f 20 0e bd 06 c2 1d bd 17 e2 3c 3c
       0.00014322418 -0.03469884 -0.038515113 0.011528513
000300 00 39 16 be 3c 4d 4c bd aa 3b 80 bd 37 0c 9b 3d
       -0.14670181 -0.049878344 -0.0626138 0.07570689
000310 66 fc 84 3d 0a 46 eb bc c1 ff 99 3d ee b5 93 bc
       0.06493454 -0.02871992 0.07519484 -0.018031087
000320 85 00 9d bd fe 17 fb 3c 9f 2b 88 bc 1f 2e 8d bd
       -0.07666115 0.030651089 -0.016622363 -0.068935625
000330 da 63 58 3d 96 d1 88 3d 40 93 b6 bd 1b 48 fb ba
       0.0528296 0.066806 -0.089148045 -0.0019171269
000340 b7 ab 57 3d a4 5b ad bc 29 dc 0c 3d a8 06 25 bc
       0.052653994 -0.021161862 0.03438965 -0.010072388
000350 3c 87 88 bd c3 19 bb bb 3c 21 1d 3d 32 cf 17 3d
       -0.06666419 -0.005709858 0.038361773 0.03706283
000360 42 27 f9 b9 c3 0b 2b 3d c1 c0 df 3c c5 a8 06 3c
       -0.0004752223 0.041759264 0.027313592 0.008218949
000370 f5 75 7c 3d 40 e5 80 bd 9b aa a7 bd 3a d7 16 3d
       0.06163593 -0.06293726 -0.08186837 0.03682635
000380 01 17 92 bd 41 2b 75 3d 32 37 e9 bc 01 2b a6 bd
       -0.07133294 0.059855703 -0.028468702 -0.08113671
000390 d2 05 ad bc bf a4 6a bd d7 4d fb bc cc ea 95 3c
       -0.02112094 -0.05728602 -0.030676765 0.018300436
0003a0 7a e5 7d bc f5 90 65 bd c7 53 d6 39 30 ef e3 3b
       -0.015496606 -0.056046445 0.0004087968 0.0069560036
0003b0 63 ba 42 bd 35 29 4c bd 72 57 b1 3b ff 6b 3a bc
       -0.047541033 -0.049843986 0.0054120356 -0.011378287
0003c0 26 95 ef bc 8a ec 34 3d 85 83 94 bd 61 94 05 bd
       -0.029245924 0.044170894 -0.07251648 -0.03261221
0003d0 d2 f4 93 3d 56 3d 7e bd 5b 4f 45 3d 68 9c 7c 3c
       0.0722443 -0.062070213 0.048171382 0.0154181495
0003e0 67 df 97 3d bb 40 32 3d 11 ec d4 3c 13 c3 b1 bb
       0.074156575 0.043518763 0.025991471 -0.005424866
0003f0 46 79 fc ba 95 c5 d8 bc cb d7 6b bc d8 03 62 3d
       -0.0019262217 -0.026461402 -0.014394711 0.055179447

network_body.linear_encoder.seq_layers.0.bias f4 [256]
000000 39 cb d7 ba 7c bf c3 bc de 10 fb 3c a5 aa 0a bc
       -0.0016463763 -0.023895018 0.030647691 -0.008463536
000010 05 74 86 bc 7d 57 85 ba 9b da 37 3c eb 94 d2 bb
       -0.016412744 -0.0010173168 0.011221553 -0.006426444
000020 be 1e 85 3c 0d 8a 80 3b ab a5 83 bc de 5f 8f bc
       0.01625001 0.003922707 -0.016070208 -0.017501768
000030 8a 5b b8 3c 51 7e e1 3b be 62 77 3c 41 47 04 3d
       0.022504587 0.006881513 0.015099226 0.032294516
000040 a9 a2 4b 3c 20 14 82 3b c6 7f b7 3c ed 31 c7 bc
       0.012428918 0.0039696842 0.022399794 -0.024315799
000050 cd 6d f3 3c 5c c8 9d 3c a6 b0 25 3c 94 c4 3c 3c
       0.029715443 0.019260578 0.010112917 0.011521477
000060 fb 51 c4 3a 43 16 35 3c d3 f4 6d 3c 96 49 79 bc
       0.0014978045 0.011052671 0.014523703 -0.015215298
000070 c3 58 2c 3a ff a8 86 3c e1 db f3 bc f8 2c 5f 3c
       0.0006574506 0.016438005 -0.029767932 0.013621561
000080 1b a0 06 3d 7a 3e 31 bc 44 a5 a0 3c da 67 27 3c
       0.032867532 -0.010818118 0.019610055 0.010217631
000090 84 f3 a1 3c 20 26 e1 bb b8 1c b3 bb 6b 7c 21 3c
       0.019769438 -0.006871 -0.00546607 0.009856324
0000a0 1d 64 91 3c dd d6 0d bc 1b b2 c9 b9 b6 75 b4 bc
       0.017747933 -0.008657184 -0.00038470406 -0.022028785
0000b0 c5 5e 1e bc df a6 bf bc b9 b1 15 3d 29 25 5d 3a
       -0.0096661495 -0.023395 0.036546443 0.0008436018
0000c0 fd 3b 12 3c 56 61 43 3c 3c d0 c1 3c c5 5a 1c bc
       0.008925435 0.011925062 0.023658864 -0.0095431255
0000d0 48 62 ac bc 90 05 e2 3c f3 47 78 39 01 ea 7b 3b
       -0.021042958 0.027590543 0.00023677926 0.0038439038
0000e0 68 d5 93 bd 9f 7c 95 bc e5 ad d5 3c fd e1 45 3c
       -0.072184384 -0.0182479 0.026083896 0.012077806
0000f0 79 c3 0f bb 02 b2 2e 3c b6 04 77 bc 0e 3e 05 bd
       -0.002193658 0.010662558 -0.015076807 -0.032529883
000100 0f 4c b1 3c 08 16 a6 3c 01 f1 44 bb f4 4d 25 3d
       0.021642713 0.020274177 -0.0030050876 0.040357545
000110 73 df 2e bc 96 b3 a3 3c e6 c6 5a 3c 24 ce 87 3a
       -0.010673392 0.019983094 0.013353085 0.0010361117
000120 d5 a5 62 3b 23 17 f6 bb ef 72 77 bc 57 cf 13 3c
       0.0034583707 -0.0075100823 -0.015103086 0.009021602
000130 c1 e5 8a bb a1 a7 c8 3b 93 4f f1 bc 4b 79 2d 3b
       -0.0042388146 0.0061234985 -0.02945689 0.0026470001
000140 23 f0 25 3c 79 52 ba 3b 6c 6f 91 3c 82 d8 7c bd
       0.010128054 0.005686101 0.017753325 -0.061729915
000150 ee 02 da bb 5a e3 1d 3c 78 0a 9b 3c ee 16 89 3c
       -0.0066531813 0.009636724 0.01892589 0.016734567
000160 7a 26 68 bb 74 1b 79 3c 0c 5d 8b 3c 78 47 51 3c
       -0.0035423324 0.015204299 0.017012142 0.012773387
000170 16 14 8c 3c 68 09 13 bb 4b 93 89 3c 9b 6c 8f 3a
       0.017099421 -0.0022436026 0.016793868 0.0010942401
000180 42 bf 8e bb 9c 1c 8a 3c fd c2 16 3b 92 40 27 3a
       -0.004356296 0.016859345 0.0023004406 0.0006380166
000190 04 c0 ac ba fc 7c c8 3b d8 5d a8 3b 44 c2 32 3b
       -0.0013179784 0.006118415 0.00513814 0.0027276436
0001a0 0f 18 41 3c 3f b4 a5 bc 51 c2 a3 3b 80 d7 26 3c
       0.011785521 -0.02022755 0.0049975296 0.010183215
0001b0 59 33 7c 3c 54 03 45 3c 4c 7c 38 b9 df 84 29 3b
       0.015393102 0.012024719 -0.00017593912 0.002586655
0001c0 bf 09 bc 39 bc 33 03 bc ca f1 a7 3c 8d 48 50 3c
       0.00035865416 -0.00800794 0.020501036 0.01271261
0001d0 31 4b d6 3c d4 13 aa 3b 55 d7 2e bc 7e a7 84 3b
       0.026158901 0.005190352 -0.010671456 0.004048287
0001e0 53 12 ca 3a 3c 51 b0 3a 9c 75 0a 3c a3 a7 e1 bc
       0.0015416838 0.0013451944 0.008450892 -0.027545756
0001f0 c8 83 85 bd b2 7e bf 3b bc 07 62 3b 22 b7 9a bc
       -0.06519276 0.0058439607 0.0034489473 -0.018886153
000200 f5 54 a4 3c 22 46 f3 3c 25 bf 47 3c ba 9c 13 bb
       0.020060042 0.029696528 0.0121915685 -0.0022523836
000210 c2 2a b6 3c c5 17 53 3b aa 38 76 3c 6e 87 f0 3a
       0.022237185 0.0032210213 0.015028158 0.0018350908
000220 e5 cb 5b bc 66 9c 0f 3c e5 17 b1 3b bc 9c da bb
       -0.013415311 0.008765316 0.00540446 -0.006671516
000230 b1 6d 82 3c 39 49 04 bc 1b 3d c4 3b 75 e1 83 3c
       0.015921446 -0.008074098 0.0059887297 0.016098717
000240 63 6d 0a 3d ff b0 92 3c c6 da b9 3b 3b 0e 78 bb
       0.033795726 0.017906664 0.005671832 -0.003785028
000250 7b df b8 3c d5 b7 74 bc f4 e8 07 ba f7 b6 ce bb
       0.022567501 -0.014936407 -0.0005184554 -0.006308432
000260 8a 44 53 3c 3a 4a d4 ba 9f 1e 66 bd ae 77 c4 3c
       0.012894759 -0.0016196438 -0.056181546 0.023982849
000270 33 c0 2e 3c 59 aa 0a 3b 7b 48 32 3c d7 f4 f6 3c
       0.010665941 0.0021158664 0.0108815385 0.030146046
000280 ac cc ca 3c 58 6a 83 3c 58 92 47 bc 86 eb 4b 3c
       0.024755798 0.01604192 -0.012180887 0.01244629
000290 f7 03 2a 3d 99 9a 84 3c d3 6c 86 ba 91 6b ac bc
       0.041507687 0.016187 -0.0010255821 -0.021047385
0002a0 e9 0d 1f 3a 39 27 7d 3c f8 d2 3e 3c 0e 91 6e 3c
       0.00060674414 0.015451246 0.011646979 0.014560951
0002b0 b9 0f 08 bc 09 5a 74 3c c4 d0 4a bb 38 1d 9d bb
       -0.00830453 0.014914044 -0.0030947188 -0.004794743
0002c0 f1 6e 4a bc de ad e7 3c 80 0f 14 3c 50 5f 71 3c
       -0.012355552 0.028281149 0.009036899 0.014732197
0002d0 75 2a 73 3b 5e c9 e4 bb dc 33 81 bc 22 ac 3e bc
       0.0037104164 -0.0069820127 -0.015771799 -0.011637719
0002e0 4f 19 89 bb 60 ba c0 bc 97 b7 7e bb da 17 6f bc
       -0.004183925 -0.02352637 -0.0038866752 -0.014593089
0002f0 3e a9 85 3c d8 9a c9 3c 5d 78 cd bc 82 21 df 3b
       0.016316053 0.024609968 -0.025081808 0.0068094144
000300 aa 65 07 3c 21 b1 96 3c 4e 18 71 3c ba 4a 05 3d
       0.008263985 0.018395009 0.014715267 0.032541968
000310 80 c7 c4 3a 27 40 83 3c dc fa 77 3c 26 af 51 bd
       0.0015013069 0.016021801 0.015135493 -0.051192425
000320 ac 63 df 3b 8a 6b c4 3c 31 f8 91 3b a2 50 f3 bb
       0.0068173017 0.02397706 0.0044546355 -0.0074253837
000330 d6 46 51 bc 29 e1 51 3c a5 81 84 3c 3e 44 97 bb
       -0.012773236 0.01281003 0.0161751 -0.0046162894
000340 0b 69 c2 3c a7 4a 41 bb 07 09 1d 3c aa a1 88 bd
       0.023731729 -0.002949396 0.009584672 -0.0667146
000350 cf 7a 42 3c 9d f2 36 bc ff 16 6f 3c 72 27 78 bc
       0.0118701 -0.011166242 0.014592885 -0.015146123
000360 06 69 a7 3c 0e 6e e4 3c 2e 20 c8 3b d3 79 1c 3c
       0.020435821 0.02788451 0.0061073517 0.0095505295
000370 28 51 59 3a c0 ab af 3a 21 7e c2 3b 24 35 45 3c
       0.0008289986 0.0013402626 0.005935446 0.0120365955
000380 4c bd ad 3c 6a cc cd 3b 67 44 a4 3b 7d e5 b1 3a
       0.021208428 0.0062804716 0.005013037 0.0013572421
000390 81 ea 61 3c 44 85 d7 bc 1f 39 15 3c 4f 65 95 3c
       0.01378882 -0.026308663 0.009107857 0.018236784
0003a0 f0 6c 06 3c 03 37 df 3c b2 bc 95 3c e3 86 9d 3a
       0.008204684 0.027247911 0.018278453 0.0012018349
0003b0 bb 0b cf bb c2 f3 3b 3b 32 97 f0 3b 9c 8e 26 bd
       -0.006318537 0.0028679227 0.0073422426 -0.040663347
0003c0 09 6c af 3a b6 21 3f 3c ae 7e af bc fa 65 81 3c
       0.0013383637 0.011665752 -0.02142271 0.015795697
0003d0 32 e4 6d 3c 7f 09 00 3c e3 98 54 3c aa 4b 16 3c
       0.014519738 0.007814764 0.012975904 0.009173313
0003e0 39 27 33 bd 67 61 7e 3c be c5 56 bc af be 03 3b
       -0.043738578 0.015526152 -0.013108669 0.002010267
0003f0 3b 66 f1 3a 79 e0 c0 3c 8e 46 6d 3c 48 e7 3a 3c
       0.0018417308 0.023544537 0.014482154 0.011407681

network_body.linear_encoder.seq_layers.0.weight f4 [256, 373]
000000 30 7c 75 3d 6a 9c b3 bc 98 75 bb bd 83 a8 f9 3d
       0.059932888 -0.02192517 -0.091532886 0.12190344
000010 e2 35 8d 3d 0f 6e 31 bd fc a3 67 bd c6 48 0e 3e
       0.06895043 -0.04331785 -0.056552872 0.13894948
000020 96 75 6e 3d a6 0e f3 3b bb 10 8a 3d 02 c9 45 be
       0.058217607 0.0074175177 0.06741472 -0.1931496
000030 4a 54 f3 3b 7a 8b bb bd 30 56 ad 3c ab 7f aa bd
       0.0074258195 -0.091574624 0.021159261 -0.08325132
000040 a1 24 4b bd 5a dc ef bb 04 9d 8b bc c3 dc 5e 3d
       -0.04959548 -0.007319969 -0.017042644 0.054409754
000050 27 33 91 3d 3c 94 04 bd 28 a3 9a bc df 24 5b 3e
       0.07089835 -0.03236793 -0.018876627 0.21400784
000060 5d 96 9e bd 62 d5 26 bb 62 ae ab 3c a6 f3 dd 3d
       -0.07743523 -0.0025456776 0.020957176 0.10837488
000070 a8 5e a6 3d 82 b7 87 bd 16 46 ab bd 87 b3 33 3d
       0.08123523 -0.06626798 -0.08362977 0.043872382
000080 57 84 7d 3d 92 ad 98 bc e1 cc 8a 3c 13 70 00 3d
       0.061893787 -0.018637452 0.016943397 0.031356882
000090 59 7b ce 3c 7a 8c e5 3a b5 71 d6 bd 73 62 af 3d
       0.025205301 0.0017513179 -0.10470907 0.085636996
0000a0 41 b8 a4 3d 1c b4 55 3d 25 29 15 3d e6 9b c3 bc
       0.08042956 0.05217372 0.03641619 -0.02387805
0000b0 a9 3d 1c 3d c2 bd 6f bd 01 89 07 be a9 ba 85 3e
       0.03814474 -0.058530577 -0.13235857 0.26118973
0000c0 25 57 59 3b 35 e7 28 bc e2 92 a7 3d e6 e7 c2 bd
       0.0033163514 -0.01030903 0.081823125 -0.09516887
0000d0 9f 61 2c be ce af e2 ba 3f e1 00 be 94 e5 eb 3e
       -0.16834114 -0.0017294826 -0.12585925 0.46073592
0000e0 c3 f3 0f 3e 64 ec a4 bb 0f 52 2f 3d 61 73 de 3e
       0.14057831 -0.005033063 0.042802867 0.43447402
0000f0 8d e7 8f 3d 9e 11 fb 3c b4 a2 75 3c c2 99 cd bd
       0.07026587 0.030648049 0.014992405 -0.100390926
000100 62 d9 57 3d 4c b3 d8 bd a3 79 e2 3d 8f ef b7 bd
       0.052697547 -0.10581073 0.110583566 -0.08981239
000110 ad 17 3f bd 80 10 a6 3b b8 54 b8 bc 1b 0d db 3c
       -0.04665344 0.005067885 -0.022501335 0.026739648
000120 6e 2e 2b 3d 3e a1 e3 bd 91 27 46 bd b0 9f fe 3d
       0.041792326 -0.11114739 -0.048377577 0.12432802
000130 92 5c 10 be ed 59 7b bd 36 6b 43 bd 0c bd fe 3d
       -0.14097813 -0.061365057 -0.047709666 0.124384016
000140 b8 1d 2a bc 4d 17 a2 3c 13 ab 02 3e f0 73 04 be
       -0.010383062 0.019786501 0.12760572 -0.12934852
000150 cc 15 ed ba b0 57 a4 3d a0 40 70 3c 35 bb 0a be
       -0.0018088161 0.080245376 0.014663845 -0.13547976
000160 02 95 a5 bd ed f0 1d bc 57 b4 3d 3d 76 72 92 3d
       -0.080850616 -0.009639961 0.046314564 0.07150738
000170 6c a5 f7 bb 4c 41 bf 3c d9 22 05 be 2c 7e b9 3c
       -0.0075575616 0.023346566 -0.13001575 0.022643171
000180 8e ae 0b 3d 74 6c 92 3d 7a 71 08 3d 68 d3 16 bc
       0.034102015 0.07149592 0.033311345 -0.009205677
000190 2b 00 c9 3d 0f e3 27 be e1 f2 6c 3e 4e 5d cb bd
       0.09814485 -0.1639521 0.23139526 -0.09929906
0001a0 ef a1 be bc 3b 51 da 3d a3 72 42 bd 68 47 37 3e
       -0.023270575 0.10660025 -0.047472607 0.17898333
0001b0 27 7c 81 bd 34 98 1f 3d f3 e6 0e bd c7 36 76 bd
       -0.06322508 0.03896351 -0.03488822 -0.060110833
0001c0 f4 2d 2c 3e f4 e8 18 be f8 ad 04 3d 9b 05 9b bd
       0.16814405 -0.14932615 0.032392472 -0.075694285
0001d0 98 e8 af bb c7 c5 4a 3d 83 12 c2 bc 43 83 00 bd
       -0.0053683035 0.04950502 -0.023690468 -0.03137518
0001e0 5c ba d6 bc c8 53 1a bc d0 ce 3a bd 6e 18 c7 bd
       -0.02621191 -0.009419389 -0.045607388 -0.097214565
0001f0 7b 60 d7 bc 04 26 5a 3d f4 81 8f bd cd f7 5d 3b
       -0.026291123 0.05325891 -0.070072085 0.0033869625
000200 f4 66 af bd ba 43 be 3d 09 a6 6b bd 5f 7e bd bc
       -0.085645586 0.092902616 -0.05753139 -0.023131547
000210 cb 18 fb 3d 05 6f 07 be c7 86 85 3c 41 de 2d bc
       0.12260588 -0.13225944 0.016299618 -0.0106120715
000220 9f 11 81 bd 75 0d 99 3d fd 37 81 bd d7 7b ad bb
       -0.06302189 0.0747327 -0.06309507 -0.005294304
000230 73 f8 e1 3d f0 64 2a 3d c5 26 63 3c 5c df 2b be
       0.11033716 0.041600168 0.013864224 -0.16784424
000240 11 6f 15 3d 86 f1 78 bd a2 80 a6 3c 42 e4 8b 3d
       0.036482874 -0.06077721 0.020325009 0.06830646
000250 d7 21 28 3d da d3 7c bd 89 6e 4f 3c 8d 2a c5 bd
       0.041047897 -0.061725475 0.012660631 -0.096272565
000260 b2 04 06 3e 82 e9 2d 3c cc 34 b0 bd 2e 2a da 3d
       0.13087729 0.010614755 -0.0860382 0.106525764
000270 a9 98 3f 3d e8 ae 27 3e 41 b8 85 3d ff e2 f9 3d
       0.046776447 0.16375315 0.06529284 0.12201499
000280 9f 81 3d 3e b5 2b 68 3d cc 52 e2 3d 6d a3 68 bc
       0.18506478 0.056682307 0.110509485 -0.01419912
000290 12 6d ab bc 9f 3d 68 3c 0f a2 c6 3d 06 88 76 bd
       -0.020926032 0.014174848 0.09698879 -0.060188316
0002a0 9b e3 cd 3d 17 7e 2b bd f3 86 21 3e c2 ac ca 3c
       0.10053178 -0.041868296 0.15774135 0.02474058
0002b0 9a e9 84 3d 45 6f 88 3d 39 98 d2 bd b9 99 64 3d
       0.064898685 0.06661848 -0.102829404 0.055810664
0002c0 02 b5 17 3c a9 77 62 bd 11 ae 9a 3d 2d 3c ec 3d
       0.009259464 -0.055289898 0.07552732 0.11534915
0002d0 ec 6a 4b 3d f5 0e c6 3c 43 cc 9d 3d 8e 22 66 bb
       0.049662516 0.024177054 0.077049755 -0.003511581
0002e0 8d 62 17 bc b9 69 86 bc 3f 9b 36 3b 07 41 ff bc
       -0.009239805 -0.016407834 0.002786353 -0.031158937
0002f0 2e 6c 99 3d d4 62 03 3d b9 c5 24 bc d5 3a ab bd
       0.07491337 0.03207667 -0.010056906 -0.08360831
000300 44 ec 93 3c d5 90 69 bc 65 19 da 3b 60 61 90 bc
       0.018056996 -0.014255722 0.0066558593 -0.017624557
000310 5f 78 da 3c 12 40 aa 3d d2 95 aa 3d 69 fa 13 3b
       0.026668726 0.08313002 0.08329357 0.0022579676
000320 32 b7 8f bd 31 5e e5 3c 6d c3 6a 3c 2c 22 27 bb
       -0.070173636 0.027999016 0.01432882 -0.0025502546
000330 f9 ce a0 bd 3f 1c fc 3d 03 26 fd 3d 94 dc ed 3c
       -0.07851977 0.12310075 0.12360766 0.029035844
000340 9e ec c1 3d b1 29 32 bb 83 23 0f be 0b e5 62 bd
       0.09468959 -0.0027185495 -0.1397839 -0.055394214
000350 90 7a 06 be 57 3a 26 be 57 1b c4 3c b6 8c 93 3d
       -0.13132691 -0.16233192 0.023938818 0.07204573
000360 03 4c 5e 3d 2b 45 6d bc c7 d3 c3 be f5 ec 33 bc
       0.05427171 -0.014481823 -0.3824751 -0.010981788
000370 db 57 b8 3b 7b 8b 0b bd 7c 86 91 3c a5 99 64 be
       0.0056257076 -0.034068566 0.017764322 -0.22324236
000380 69 78 1e 3d 9c 9a 22 3e f9 3b 99 bd 79 0d 1a 3e
       0.03868905 0.15879291 -0.07482142 0.15044202
000390 d7 e0 1f be c8 ed b5 3d e0 a1 08 bd fb 4f 09 bd
       -0.15613113 0.08883244 -0.0333575 -0.03352354
0003a0 f9 cb 44 bd e2 9b 92 be d1 8f 86 3d a2 db 74 3c
       -0.048046086 -0.28634554 0.065703996 0.014944943
0003b0 2a 94 dd bc c5 e5 a4 3d ef 67 8d be aa a6 8c 3d
       -0.02704819 0.080516376 -0.27618358 0.06867726
0003c0 35 a1 58 3d e5 3d 6f bd 4a 77 11 3d cf 24 7b be
       0.052888114 -0.058408637 0.035514154 -0.2452576
0003d0 54 ba 8e 3d 8a f4 d9 3c 23 84 78 bd 4c 52 08 3e
       0.06969133 0.026605863 -0.06067289 0.13312644
0003e0 62 c1 a9 be 76 38 8d 3d f8 35 16 be 68 79 a6 bd
       -0.33155352 0.06895535 -0.14669025 -0.08128625
0003f0 41 c3 27 bb fc c8 19 be 70 c8 5a 3c 5f 39 58 3d
       -0.0025598558 -0.15018076 0.013353452 0.05278909

network_body.linear_encoder.seq_layers.2.bias f4 [256]
000000 a5 49 a9 3b 82 36 46 bd 24 fa 88 3c e6 78 9f bc
       0.00516625 -0.048391826 0.016720839 -0.019466829
000010 37 a2 db bc 8c 35 85 bc 96 90 b8 bb 78 de e3 3c
       -0.026810749 -0.016260885 -0.0056324704 0.027816042
000020 54 3b 81 3c 49 72 2b 3d 64 88 da 3c fb 05 02 3c
       0.01577536 0.041857038 0.026676364 0.007935996
000030 9d a0 7d bc 75 b8 2c bd 8c 6e 54 3c ed ac e4 bb
       -0.015480188 -0.0421681 0.01296581 -0.006978622
000040 e2 0a 52 bd d1 62 2b 3c a0 01 b1 3a ce 04 4f bd
       -0.05127991 0.010460571 0.0013504513 -0.05054169
000050 a5 6a a4 bd 69 67 c1 3c 72 34 f2 bb bf df 7b 3c
       -0.08028153 0.02360888 -0.007391506 0.015373169
000060 59 a8 82 3b 29 7d 30 bc 56 df 3c bd 41 8b 6c bd
       0.0039873538 -0.010772028 -0.046111427 -0.05774999
000070 12 de d5 bc e0 f3 be bc ee 52 e0 3c 4b 7d 1b 3d
       -0.026106868 -0.023309648 0.027383294 0.037961286
000080 a0 6c 08 bd 10 db 07 bc 98 69 da bb a4 53 e6 3c
       -0.033306718 -0.008291975 -0.00666542 0.028116055
000090 22 eb 64 bc c2 13 d7 bb 9b b7 63 bc 31 8c 80 bc
       -0.013972076 -0.0065636346 -0.013898755 -0.015691848
0000a0 eb 66 d9 3c 1e d8 88 bc 3f e9 59 3d a7 fb a1 3c
       0.026538333 -0.016704615 0.053200956 0.019773318
0000b0 80 de 5e bb 31 38 20 3c 83 f8 86 bc 65 64 a2 bc
       -0.0034007132 0.009779022 -0.016475921 -0.019823262
0000c0 9f af 28 bd bd 98 af bc a5 07 cc 3a 6c 19 43 3c
       -0.04118311 -0.021435136 0.0015566243 0.0119079165
0000d0 01 84 59 bb 53 2a 47 bc b4 7b f4 ba 21 85 1e 3a
       -0.0033190253 -0.012156087 -0.0018652589 0.00060470594
0000e0 7f 5c 28 3c c2 60 ac bd a0 ca 34 bc 72 16 bb bc
       0.010275959 -0.084168926 -0.011034638 -0.022837851
0000f0 c7 b6 92 bc 77 19 02 3d b9 c4 14 3d 23 1f 9f bc
       -0.01790942 0.031762566 0.03632042 -0.019424027
000100 6d ea c5 bc 81 13 84 bd eb f9 31 3c 5d 08 92 3c
       -0.024159634 -0.064490326 0.010862808 0.017826254
000110 73 12 62 3d e6 69 29 bd bd 3d a2 3b 5a 09 43 3d
       0.055193376 -0.04136076 0.0049512074 0.04761634
000120 b3 32 94 3c b3 d0 47 bc dc f6 e4 bc 6c 32 9d 3c
       0.018090582 -0.012195754 -0.027949743 0.019189082
000130 a5 b5 bf bc 1c b2 5d 3d 15 b5 99 3c 11 3a a6 bc
       -0.023402045 0.054124936 0.018763104 -0.02029136
000140 ef af 59 bc 38 b0 d1 3b 3d 3c ef bc 1f a1 5e 3c
       -0.013286575 0.0063991807 -0.029203529 0.013588219
000150 d2 95 9c 3c c4 7c 06 bd 71 02 16 3d d1 c2 b6 bb
       0.019114409 -0.03283383 0.036623422 -0.005577423
000160 53 4f b3 3b 8a 19 37 bd 98 a4 5a bd 49 ac 9b 3c
       0.0054721027 -0.04470209 -0.053379625 0.01900305
000170 47 d0 17 bd 93 50 4b bd ad fc 9f bc 59 7e 0d 3d
       -0.037063863 -0.04963739 -0.019529665 0.034544323
000180 73 6c 68 bb a1 9f 49 3d 8f bd 44 bc 0e c4 a9 bd
       -0.0035465031 0.0492245 -0.012008085 -0.082893476
000190 bc bc 0b bc ea b4 d7 bc 72 7c 0b 3d ad 09 49 bc
       -0.0085288845 -0.026331384 0.034054227 -0.012270373
0001a0 22 cd d0 bc a6 cf 8a bd aa c6 f5 bc 60 3a af bc
       -0.02548844 -0.06777887 -0.030001957 -0.02139014
0001b0 7f ad e1 bd 42 fb fe bc 64 3c 21 bd c3 4d 45 3d
       -0.1101942 -0.031125668 -0.039364234 0.048169862
0001c0 80 0b ce bc c3 27 ce 3c e1 80 b1 ba 77 bc 2c 3d
       -0.025151968 0.025165444 -0.0013542437 0.04217192
0001d0 68 78 e9 37 eb 0b ff bb d1 fb 3e 3d da b8 a6 bd
       2.7831833e-05 -0.007783403 0.04662687 -0.081407264
0001e0 80 a9 3f bc 8f 95 79 3c f0 77 82 bc 47 40 b9 bd
       -0.011698127 0.015233411 -0.015926331 -0.09045463
0001f0 f7 9b 12 bc 9a 3a fb 3c 01 18 7f bc 32 f5 b2 bc
       -0.008948318 0.030667592 -0.015569688 -0.021845434
000200 e2 b2 e9 bc 3f 75 82 bb d0 a6 81 bb 87 77 ee 3a
       -0.02852768 -0.003981262 -0.003956653 0.0018193581
000210 39 1c 89 3c 5a 7f e8 3c 81 18 9b bb e9 26 1a 3b
       0.01673709 0.028381038 -0.0047331457 0.0023521727
000220 bd ba 24 bd 33 a9 3a 3c 84 95 ac bd 0b ef 3d bd
       -0.04021715 0.011392879 -0.08426955 -0.046370547
000230 c2 85 8e 3c c1 45 c3 bc 73 e3 41 bc 22 f2 25 bd
       0.017397765 -0.023836972 -0.011834013 -0.04051412
000240 1e 18 91 bb ee 32 20 bd 20 d8 62 3c d0 3d 5e bd
       -0.004427924 -0.03911107 0.0138454735 -0.054258168
000250 c9 97 f1 3c 4f 34 47 ba 81 ce 14 bd 09 e0 a9 bc
       0.029491322 -0.0007599042 -0.03632975 -0.020736711
000260 cd d1 81 3c 9e 00 66 bd 46 42 29 3d a5 01 4b bc
       0.015847111 -0.056152932 0.04132297 -0.012390529
000270 32 bb 3e bd 77 17 56 bd 62 a4 46 bd d4 04 e9 bb
       -0.046565242 -0.05226847 -0.04849661 -0.0071111713
000280 c6 26 bb bc 3a 64 a4 bd 4b 11 43 bd 7f 7d 99 bb
       -0.022845637 -0.08026929 -0.047623914 -0.0046841498
000290 1c 52 ce bc f7 79 0f bd 09 8b b3 3c 14 0a 95 3c
       -0.025185637 -0.035028424 0.021916883 0.018193282
0002a0 16 14 22 bd 0c 8f 0d bd 6f 90 c5 bd 79 d0 34 bc
       -0.039569937 -0.03456025 -0.09646689 -0.011036032
0002b0 c4 77 88 bc 94 4b 43 3d a0 bd 2d 3d 8f 43 87 b9
       -0.016658671 0.0476795 0.04241717 -0.00025799542
0002c0 59 1d 48 bd 43 32 03 3b d7 6b f8 ba 8b 37 08 bc
       -0.048856113 0.0020018972 -0.0018953037 -0.008314024
0002d0 54 f8 ba bc f2 58 16 bd 55 59 d3 3b 1a 9a 51 bc
       -0.02282349 -0.03670592 0.006449858 -0.012793088
0002e0 b7 d7 e5 bc 7b 2e d4 3b f3 d5 1b 3c ff 51 17 bd
       -0.028056962 0.0064752675 0.009511459 -0.036943432
0002f0 d3 0d 24 bd 62 6d 40 bc a2 65 7a bd 3c a2 66 bc
       -0.040052246 -0.011744829 -0.06113208 -0.014076766
000300 13 7f 3f 3b f8 ed 25 3c 7f c4 d7 3c 1f 7c 03 3d
       0.002922003 0.010127537 0.026338814 0.032100793
000310 b7 13 5c bc d8 5a 12 bd 5d 58 ba 3b 68 43 18 bc
       -0.013432435 -0.035731167 0.0056868033 -0.009293415
000320 e2 53 4e bd 06 70 e3 3c 68 39 5a 3c 74 bf 47 3c
       -0.050372966 0.027763378 0.013319351 0.012191642
000330 21 39 05 3c 30 7a 30 bd 48 c2 10 bd c7 f0 94 bd
       0.008131296 -0.043085277 -0.03534153 -0.07272487
000340 61 07 15 3d 57 96 a7 3c e9 34 cd bc 96 db a5 bc
       0.03638399 0.02045743 -0.025049644 -0.020246308
000350 34 0e 7a 3c d4 09 7b 3b 80 d7 85 bc 90 69 23 3c
       0.015262175 0.0038305419 -0.01633811 0.0099738985
000360 f4 e3 05 bc 38 cd e4 39 46 13 c0 3c 92 70 5a 3c
       -0.008172024 0.0004364045 0.02344669 0.013332503
000370 55 d5 df 3c 81 48 b9 bd 34 fb c4 ba be 1f f1 bc
       0.027323404 -0.09047032 -0.0015028478 -0.029434081
000380 0e 3f 82 bd d5 1b 85 3d 47 54 d4 3b b6 50 5f bd
       -0.06359683 0.06499449 0.006479773 -0.05452033
000390 f9 1e 8b 3b a7 9e 02 bd ab 7c 4f 3c c5 87 0a bd
       0.0042456356 -0.031889584 0.0126640005 -0.033820886
0003a0 60 14 bf bd 8b a7 20 bd 04 30 3c bc e5 63 7b bd
       -0.09330058 -0.03922228 -0.011486057 -0.061374564
0003b0 53 b8 02 bc 48 75 00 bd 3d c4 ec 3b 48 f8 05 bc
       -0.007978517 -0.031361848 0.007225542 -0.008176871
0003c0 f6 b0 88 3c 11 0a b1 bb 1d be 21 bd 74 79 a6 bc
       0.016685944 -0.0054028113 -0.039487947 -0.020321585
0003d0 db 90 2f bd dd ae 41 bd 63 57 2a 3d 78 64 0e bc
       -0.042862754 -0.047285903 0.041587245 -0.008690946
0003e0 f3 6a f6 3c fd ef 8b 3c 79 66 e9 bb c6 58 91 3a
       0.030080294 0.017082209 -0.0071228114 0.0011089079
0003f0 98 0e 91 3c b2 97 f8 bc e1 8f bd bc 97 98 20 3d
       0.017707154 -0.030345771 -0.023139896 0.03920802

network_body.linear_encoder.seq_layers.2.weight f4 [256, 256]
000000 99 69 b5 bc 57 70 8f bd b3 27 e6 3c 53 ed 4f 3c
       -0.02214508 -0.07003849 0.028095102 0.01269086
000010 70 7e 72 3d 72 18 f4 bd d9 50 33 3e cf a0 b3 bd
       0.05920261 -0.11918725 0.1751131 -0.08770906
000020 01 87 50 bb 17 67 80 3d dd ea 57 3d 0b b5 92 be
       -0.003181875 0.06269663 0.052714217 -0.2865375
000030 b6 42 b0 3d 6c b4 3c bc 77 ef 11 3e b5 4b 89 bc
       0.08606474 -0.011517625 0.14251505 -0.016759733
000040 75 40 99 bd bb 8b ed bd 37 90 aa 3d 7f ec e2 3b
       -0.07482997 -0.11598917 0.08328288 0.006925165
000050 e6 44 67 3d d9 91 b8 3d ba ff 4d bc 5f 9a c3 3b
       0.05646219 0.09012193 -0.012573177 0.00596933
000060 50 be 35 be 5d ac f8 bd 07 ea 12 be 00 4b cc bd
       -0.1774838 -0.12142251 -0.14347087 -0.099752426
000070 a9 5c 95 bd 87 81 c7 3d d0 68 38 be e9 d1 36 bd
       -0.07293064 0.09741502 -0.18008733 -0.04463378
000080 54 a2 15 3d 2c a1 40 bc 14 60 36 bd 8f c0 a7 3d
       0.03653176 -0.011757176 -0.04452522 0.081910245
000090 55 ef ac 3d 47 49 17 be 60 45 86 3d f0 f1 33 be
       0.084440865 -0.14774047 0.06556201 -0.1757276
0000a0 c7 11 ab 3c 6b 46 af bd 57 33 57 3d 2f 03 15 3d
       0.0208825 -0.08558353 0.052539196 0.03637999
0000b0 37 a6 65 3c 24 28 bc 3c a3 2b 89 3c f2 c2 26 3d
       0.0140166795 0.02296836 0.01674444 0.040713258
0000c0 65 12 fc 3d ba a9 c4 bd 38 98 4e 3c 29 80 23 3d
       0.12308196 -0.09602685 0.012609534 0.039917145
0000d0 65 2e 1f bd 73 19 2e bd 55 fa 9a bd 5c e5 57 bd
       -0.038862605 -0.04250474 -0.07567278 -0.05270897
0000e0 ba 02 b1 bd 3f ba c6 bc 70 78 23 3d 7e 93 15 be
       -0.08643098 -0.024258731 0.03990978 -0.14607045
0000f0 56 3f 41 3d 30 f7 b1 3d dd 55 c6 3d 64 02 df 3c
       0.047179542 0.086897254 0.09684346 0.02722282
000100 69 64 ee bd 82 c8 37 ba 1f 7f 01 3e 7e 1a e9 bd
       -0.116402455 -0.0007010774 0.12646149 -0.11382006
000110 25 f1 bf bd 20 ef 88 bd 12 77 e8 3c c3 4b 0c 3d
       -0.093721665 -0.066862345 0.02837709 0.03425194
000120 6d c1 45 3d 3a d5 08 bd 5f 3d 9a 3d 78 a0 cd 3d
       0.04828017 -0.033406474 0.07531237 0.100403726
000130 64 16 18 3e 54 a5 e7 3d b7 b9 8a bd ad f5 21 bc
       0.14852291 0.11310831 -0.067737035 -0.009885234
000140 28 d5 c8 bc e9 d2 27 be cc 1a 9a bd 76 af a0 bd
       -0.024515703 -0.1638905 -0.07524642 -0.078459665
000150 b9 7d 02 3e 0f 22 ca 3d a5 c0 2b bd a0 81 73 bc
       0.12743272 0.098697774 -0.041931767 -0.014862448
000160 e7 d7 a2 3c bc 86 52 3b 8b f7 4b 3e 31 5b 0f 3e
       0.01987834 0.0032123765 0.19918649 0.1399963
000170 ab 2f ee 3c f1 f4 d9 bd d9 22 05 be 19 df 30 3d
       0.029075464 -0.10642422 -0.13001575 0.043181513
000180 ea 11 16 be 90 b1 04 be 6f b6 a4 3d 40 51 04 be
       -0.14655271 -0.1295836 0.08042609 -0.1292162
000190 c3 99 da bd 62 9d 47 3d 69 85 5f 3d 98 b1 9c 3d
       -0.10673859 0.048734076 0.05457059 0.07651061
0001a0 73 6b 9a 3c e6 7a 8e bd 3d 04 19 be 81 f9 d1 3d
       0.018850064 -0.06957035 -0.14943023 0.10252667
0001b0 b3 a7 85 bc 59 15 99 3d e3 ee 83 bd 73 73 3c be
       -0.016315317 0.07474775 -0.064420484 -0.18403415
0001c0 db f3 33 bd cc fe 3a 3b 0a 0b d6 3d 37 bc 53 3d
       -0.04393373 0.0028533218 0.10451324 0.051693168
0001d0 e1 11 2f 3e 54 f9 ba bd 5c 45 1b be a5 4e 86 bd
       0.17096664 -0.09129587 -0.15163177 -0.06557969
0001e0 c1 f9 b1 bd 18 36 5f bd 9b a8 4f be a7 46 96 bb
       -0.08690215 -0.054494947 -0.20279162 -0.004586059
0001f0 9a 25 2a be 43 db ec 3d 62 4b 33 bd 45 d4 45 3d
       -0.16615906 0.11565258 -0.043773063 0.04829814
000200 b1 08 90 bc 1a aa 00 3e 08 0f ce 3c 29 52 42 be
       -0.01758227 0.12564889 0.025153652 -0.18976654
000210 53 e8 c4 bc 60 4b 54 bd bf 54 5b 3d e8 95 26 be
       -0.024036562 -0.051829696 0.053547617 -0.16268122
000220 5a 0a 94 3d cf 5e 52 3d 82 d2 7f bd e2 7b 6b 3b
       0.07228537 0.051359948 -0.062456615 0.0035931994
000230 24 5c b3 bc 3d 1a d7 3d 3e e0 d7 3c 3d 6c 67 3c
       -0.021894522 0.105030514 0.026352044 0.014124927
000240 83 ea b8 3c 54 36 f2 bc 2f 8c e9 bd 71 ac 8a bd
       0.022572761 -0.029566921 -0.11403691 -0.06771172
000250 d8 73 d0 bd b0 85 7e bd c2 36 67 3d aa a0 02 bd
       -0.101783454 -0.062139213 0.056448705 -0.031891502
000260 55 57 01 3d 0a 05 13 3d 6e 88 45 bc 12 93 f4 bb
       0.031577427 0.035893477 -0.012056453 -0.007463821
000270 cf 8b 9e 3d 39 66 19 3c 83 de 95 bd cc af 5a 3c
       0.0774151 0.009362751 -0.07317831 0.013347577
000280 a5 0b 1c be 44 91 94 bd 7a c6 bb bd b5 2b 27 3c
       -0.15238817 -0.0725427 -0.09168716 0.010203292
000290 bd bc 33 3d 94 e8 50 bd 25 67 0a be 34 b9 d0 3c
       0.043881167 -0.051003054 -0.13515909 0.025478937
0002a0 6b c7 85 3d 17 ca 87 bd f3 5f a1 bc a3 21 bf 3c
       0.065321766 -0.066303425 -0.019699072 0.023331469
0002b0 56 d5 1b bd 2d 36 cb 3d 8a 86 cb bc 2d c1 c9 bd
       -0.03804525 0.099224426 -0.024844427 -0.098512985
0002c0 56 f8 83 bc 29 39 97 3d 61 64 a0 3d 96 de 20 bd
       -0.016109627 0.07383949 0.07831646 -0.039274774
0002d0 d1 3f 64 3b 45 0f 24 bd f8 2e ae bb 4e f6 be 3d
       0.0034828077 -0.040053625 -0.0053156577 0.09324323
0002e0 cc 54 7e 3d 82 e9 21 be 97 33 a9 bc 07 dc ca bd
       0.062092587 -0.15811732 -0.020654483 -0.09905248
0002f0 16 ce df 3d 4d 06 be bd ab a0 08 be fb 24 37 3b
       0.1092798 -0.092785455 -0.1334254 0.0027945626
000300 60 ec 91 bd 01 6a f1 3d 28 8f 30 3e 5e d8 bd 3d
       -0.07125163 0.11787797 0.1724211 0.092697844
000310 43 d0 0f be d2 42 d3 bb 66 90 97 3d 5e d5 ae bd
       -0.1404429 -0.0064471746 0.07400589 -0.0853679
000320 4e 05 54 bd ef c2 21 3d 17 da fc bb 22 61 70 3d
       -0.05176287 0.039492544 -0.007716428 0.058686383
000330 92 47 45 bd 25 bc c7 bd cd a6 04 bc fa 70 ed bd
       -0.048163958 -0.097526826 -0.008096409 -0.11593814
000340 95 79 bc bc 69 54 88 3c 38 9f 20 3d 5c 6f 5c 3d
       -0.023007194 0.016641812 0.039214343 0.053817138
000350 0c 2b 28 bd bb dd c2 3c 56 cd 34 bd a0 96 8a bd
       -0.041056678 0.02378737 -0.044141136 -0.06767011
000360 eb 70 33 3d a1 e1 34 3e 35 b3 0f bc 5e c0 21 bd
       0.04380886 0.17664196 -0.008770754 -0.039490096
000370 1c 61 aa bd 3b cf e5 3c 29 a7 62 3d c2 92 83 bc
       -0.083193034 0.028052917 0.055335198 -0.01606119
000380 c0 8e b4 3d 45 8e a2 3d cf e1 51 3d d7 98 9b bc
       0.0881629 0.07937292 0.05124074 -0.018993778
000390 d0 dc 16 3e 0f 4d 6b 3c 65 df 82 bd d9 58 46 3e
       0.14732671 0.014361634 -0.063902654 0.1936983
0003a0 e3 9f 29 bd 71 68 63 bc ea 02 8c 3d f1 9b 16 be
       -0.041412245 -0.013879881 0.06836493 -0.14707924
0003b0 ce b5 68 bd ee 24 d0 3d 67 68 2f 3c be 24 0a bd
       -0.056814007 0.10163294 0.010706044 -0.033726446
0003c0 3e 4b c2 3b bd 92 05 3d e3 a4 7f bd 39 cc 78 bd
       0.0059293797 0.032610644 -0.062413108 -0.060741637
0003d0 32 b4 fc 3c 21 5f bd bd f8 0e 40 be 90 cb 27 3c
       0.030847643 -0.0924666 -0.1875571 0.010241404
0003e0 9d 96 c8 3c be 4b 90 bb ce bb b4 ba 97 9c 14 bd
       0.02448588 -0.0044035604 -0.001378888 -0.03628215
0003f0 5e 2d 6e bd 51 2b 84 bb 3f d6 2e 3d ad e8 59 3d
       -0.058148734 -0.004033484 0.04268479 0.053200413
