Project/Assets/MyProject/Train/Chaser/CVR 5/Models/ver 1/ThiefBrain.onnx (onnx, 496048 bytes, 6 tensors)

action_model._discrete_distribution.branches.0.bias f4 [7]
0	0x3ccff308	0.025384441
1	0x3d03c838	0.032173365
2	0x3ca7db0b	0.02049019
3	0x3bedcf56	0.0072573824
4	0xbccee8a6	-0.02525742
5	0x3bfbe119	0.007686746
6	0xbcbdc72b	-0.02316626

action_model._discrete_distribution.branches.0.weight f4 [7, 256]
0	0xbd178c43	-0.036999
1	0x3c4eb2d8	0.012615882
2	0xbd00c687	-0.03143933
3	0xbd2021ef	-0.03909486
4	0x3d1bd1ad	0.03804176
5	0xbda30044	-0.07959035
6	0xbdb550c6	-0.08853297
7	0xbc85b048	-0.016319409
8	0xbb0db9c0	-0.0021625608
9	0xbd317a43	-0.04332949
10	0x3cbd652f	0.023119537
11	0x3da1fcfe	0.079095826
12	0xbd7ae83d	-0.061256636
13	0xbc5ece23	-0.0135989515
14	0xbd8bcf8d	-0.068266965
15	0x3d49e6f0	0.049292505
16	0x3bd316c5	0.0064419233
17	0x3cf8dcd2	0.030378733
18	0xbd6937d4	-0.056938007
19	0xbdaf5059	-0.08560247
20	0xbce8430e	-0.028352287
21	0xbe0410d5	-0.12897046
22	0x3cd0ec0e	0.025503185
23	0x3ceb3c59	0.0287153
24	0x3c207990	0.009794608
25	0xbd827656	-0.06370227
26	0x3d917023	0.071014665
27	0xbd55db3b	-0.052211028
28	0xbc6f0158	-0.014587723
29	0xbde8f8ba	-0.11375566
30	0x3d4d72cd	0.05015831
31	0x3d17f203	0.037096035
32	0xbc8b9f76	-0.01704381
33	0x3d3cf831	0.04613513
34	0xbcf291b0	-0.029610485
35	0xbc413088	-0.011791356
36	0x3cc95f7f	0.024581669
37	0x3d365cdb	0.044522148
38	0xbd81d924	-0.063402444
39	0xbce5f3e1	-0.028070392
40	0xbd0e9fb2	-0.034820266
41	0x3d8bc18b	0.06824025
42	0xbc9ae7f8	-0.01890944
43	0xbd343d5f	-0.04400384
44	0x3da7f262	0.08200528
45	0xbcf83b13	-0.030301606
46	0x3de85d97	0.11345976
47	0xbcb87cda	-0.022520471
48	0xbca7f26a	-0.020501334
49	0xbd3e000f	-0.046386775
50	0xbdcdb937	-0.100450926
51	0x3caff537	0.021479232
52	0xbdb770dd	-0.08957074
53	0xbcfd0c05	-0.03088952
54	0x3ca3298f	0.019917278
55	0xbb45b9fb	-0.0030170667
56	0xbd08f44a	-0.033436097
57	0xbc1f1a4e	-0.009710861
58	0x3c63a5c9	0.013894507
59	0x3b53df9b	0.0032329324
60	0x3d21ee66	0.039533995
61	0xbc817e13	-0.015807187
62	0xbd851e17	-0.0649988
63	0x3cc34bd6	0.023839872
64	0xba8c5279	-0.0010705731
65	0xbdf83534	-0.12119523
66	0x3d80b514	0.06284538
67	0xbc800c72	-0.015630934
68	0xbc6fd56a	-0.014638284
69	0xbd5f2fcc	-0.054488942
70	0xbd90196e	-0.070361
71	0x3cd4d8db	0.025982311
72	0xbd802dcb	-0.06258734
73	0xbbd6d811	-0.006556519
74	0x3b4d12e9	0.003129179
75	0xbdfeded1	-0.124448426
76	0xbd2153f4	-0.039386705
77	0xbc0b7c56	-0.008513531
78	0xbdc8de91	-0.09808076
79	0x3c4d09cc	0.012514543
80	0x3d4db6d1	0.050223175
81	0x3dd3554d	0.10319004
82	0xbce5d74d	-0.028056765
83	0xbb9ffea6	-0.0048826514
84	0x3daa41e4	0.08313349
85	0x3c8e16d2	0.017344866
86	0xbbca3da1	-0.0061718975
87	0xbd2885d3	-0.04114325
88	0xbb96698a	-0.004590218
89	0xbc81d511	-0.015848668
90	0x3d8f9da9	0.07012493
91	0x3d1541cd	0.036439706
92	0x3d1d07af	0.038337406
93	0x3b1b03c6	0.0023653372
94	0x3c24c46b	0.010056595
95	0xbd6afa63	-0.057367694
96	0xbc9d2d38	-0.019186601
97	0x3b9e1336	0.0048240675
98	0xbbf9deff	-0.00762546
99	0x3d55932d	0.05214231
100	0x3cd979ea	0.026547391
101	0xbc6bb53b	-0.01438647
102	0x3d50feeb	0.05102436
103	0xbdbeda7e	-0.09319018
104	0xbd8b582b	-0.06803926
105	0xbcec369d	-0.028834635
106	0xbd150dc0	-0.036390066
107	0xbd882f18	-0.066496074
108	0x3c3ea3ea	0.01163576
109	0xbdaa4dc0	-0.08315611
110	0xbd8d7877	-0.069077425
111	0x3d02c86f	0.03192943
112	0x3cba6b8e	0.022756364
113	0x3c925706	0.017863762
114	0xbdbf1db5	-0.09331838
115	0xbca504db	-0.020143917
116	0x3ce4345d	0.027857
117	0x3b12ab3c	0.0022379896
118	0xbd26d813	-0.04073341
119	0xbd156edf	-0.036482688
120	0x3c9fe9f8	0.019520745
121	0x3da4d61e	0.08048652
122	0x3c99127a	0.018685568
123	0xbe0075bc	-0.12544912
124	0x3dec68a3	0.11543395
125	0xbce6ae60	-0.02815932
126	0xbd58a25b	-0.05288921
127	0xbd188b7f	-0.03724241
128	0x3ac6fcff	0.00151816
129	0xbb8caf55	-0.004293362
130	0xbd87e197	-0.06634825
131	0xbb75e664	-0.0037521357
132	0xbd7f0a9d	-0.06226598
133	0xbda71c50	-0.08159697
134	0x3d9e59e6	0.077319905
135	0xbd7dc06b	-0.061951082
136	0xbc086486	-0.008324748
137	0x3cc87e1b	0.024474194
138	0x3d2e2483	0.04251529
139	0xbd9483af	-0.07251679
140	0x3d27868d	0.040899802
141	0xbd8d411a	-0.06897183
142	0xbd6d7f93	-0.057982992
143	0x3c2e83f6	0.010651579
144	0x3cc20212	0.023682628
145	0xbd5b820f	-0.05359083
146	0x3dd1fe44	0.102535754
147	0x3d1b3466	0.037891768
148	0xbd255104	-0.040360466
149	0xbd8feef6	-0.07028
150	0xbda75af8	-0.08171648
151	0xbd1a7c01	-0.037715916
152	0x3ce891c8	0.028389826
153	0xbbaf44db	-0.0053487844
154	0xbd5cfd13	-0.053952288
155	0xbd5d6afa	-0.0540571
156	0x3c08e24c	0.008354735
157	0x3b68bbcb	0.0035512324
158	0xbc20e003	-0.009819034
159	0xbd0ebe36	-0.034849368
160	0xbc73dba2	-0.0148839075
161	0x3d0e3d41	0.034726385
162	0x3dcf8d6a	0.101343945
163	0xbd0fed10	-0.03513819
164	0xbca72587	-0.020403637
165	0xbc645cf5	-0.013938178
166	0xbd83d046	-0.064362094
167	0xbd7c2974	-0.06156297
168	0xbdd2b863	-0.10289075
169	0x3d623bff	0.055232998
170	0x3c39bd0d	0.011336577
171	0xbd5c1458	-0.05373034
172	0xbd683202	-0.056688316
173	0xbc68cf2f	-0.014209553
174	0x3d5ae5cc	0.053441808
175	0xbd33cc0e	-0.043895774
176	0x3db472ab	0.08810934
177	0xbd19b6be	-0.037527792
178	0xbccbbac8	-0.024869338
179	0xbcc36740	-0.023852944
180	0xbdc798bb	-0.09745928
181	0xbd8abcef	-0.067743175
182	0xbc39fcbb	-0.01135176
183	0xbc795079	-0.01521694
184	0x3c643a7a	0.0139299575
185	0x3c6aebd5	0.014338453
186	0xbd6ade55	-0.05734094
187	0xbcc185e5	-0.023623416
188	0xbc88deab	-0.016707739
189	0x3d27ac3c	0.04093574
190	0xbbf9e5e8	-0.007626284
191	0xbd270be1	-0.040782813
192	0xbd4aa211	-0.049470965
193	0xbac98600	-0.0015375018
194	0xbd26cd88	-0.040723354
195	0xbdc129a2	-0.09431769
196	0xbce7ef09	-0.028312223
197	0xbd0c6410	-0.034275115
198	0x3cf9100a	0.030403156
199	0x3dddf3c5	0.10837511
200	0x3d62fc70	0.055416524
201	0x3d08a514	0.033360556
202	0xbd1474a6	-0.036244057
203	0xbcb87a85	-0.02251936
204	0xbbadc694	-0.0053032134
205	0x3d83ac33	0.06429329
206	0xbc9af5b0	-0.018915981
207	0xbdd97462	-0.106179014
208	0x3cc3bcfe	0.02389383
209	0xbdfc9a25	-0.12334088
210	0xbc74aeda	-0.014934266
211	0xbda992d1	-0.08279956
212	0xbdc6177a	-0.096724465
213	0xbb74bb74	-0.0037343176
214	0x3dacb696	0.08433263
215	0x3de99be3	0.11406686
216	0xbb89033b	-0.0041812933
217	0x3d26d301	0.040728573
218	0xbdd732fd	-0.10507772
219	0xbd85d0f1	-0.06533993
220	0xbcc80b32	-0.0244194
221	0x3e034f7b	0.12823288
222	0xbcd9db03	-0.02659369
223	0x387a8c06	5.973505e-05
224	0xb86807c7	-5.5320354e-05
225	0x3d4f7e30	0.05065745
226	0xbd6b62b0	-0.057467163
227	0xbdac7c4f	-0.084221475
228	0x3d68b0a7	0.056809094
229	0x3c1dc5a6	0.009629643
230	0xbdacd980	-0.08439922
231	0xbcb4c92d	-0.022068584
232	0xbd1afbe7	-0.03783789
233	0x3c9ec060	0.01937884
234	0xbc7f5bc6	-0.015585845
235	0xbc9f0532	-0.019411657
236	0xbca80673	-0.020510888
237	0xbd234070	-0.039856374
238	0xbdf8afcc	-0.121429056
239	0x3c5d8632	0.013520764
240	0xbd58cfe4	-0.052932635
241	0xbb874bd8	-0.0041289143
242	0x3c0a072f	0.008424564
243	0x3d414ab3	0.04719038
244	0x3d828617	0.06373232
245	0x3c2b61cc	0.010460328
246	0xbb76f345	-0.003768162
247	0x3d478053	0.048706364
248	0xbc9fc720	-0.01950413
249	0x3cbf6396	0.023362916
250	0x3ccc1acc	0.024915121
251	0xbba699e0	-0.0050842613
252	0xb91ef038	-0.00015157543
253	0xbd297689	-0.04137281
254	0xbc9982ef	-0.018739192
255	0x3d194939	0.037423346

network_body.linear_encoder.seq_layers.0.bias f4 [256]
0	0x3c66a419	0.01407721
1	0x3d46b440	0.048511744
2	0xbc8941e4	-0.016755052
3	0xbae58f32	-0.0017513989
4	0xbb811d9a	-0.0039402964
5	0xbc0d2773	-0.008615362
6	0x3d39b6a1	0.045340184
7	0xbc93340a	-0.01796915
8	0x3b469f6a	0.003030742
9	0xbc244e9e	-0.010028509
10	0x3cdae413	0.026720082
11	0xbc26b6b3	-0.010175395
12	0xbc06208e	-0.008186473
13	0xbca93616	-0.020655673
14	0x3d563cae	0.052303962
15	0x3cb3e92b	0.02196177
16	0x3cbb3956	0.022854488
17	0x3c8669fd	0.016407961
18	0xbcbb9535	-0.022898296
19	0x3c6bd48b	0.014393936
20	0x3c35d6e0	0.0110985935
21	0x3c9d1ec2	0.019179706
22	0x3d4c0743	0.049811613
23	0xbcb18443	-0.021669513
24	0xbc3d345e	-0.01154813
25	0x3c9f03dc	0.01941102
26	0x3d464461	0.048405055
27	0xbd16a0b7	-0.036774363
28	0x3c8ad4fd	0.016947264
29	0xbd62cc80	-0.055370808
30	0xbca523de	-0.020158704
31	0x3d7d958a	0.06191019
32	0xbd130526	-0.03589358
33	0x3db1ed53	0.08687844
34	0x3b416298	0.002950823
35	0xbc8cfda6	-0.017210793
36	0xbd43c14a	-0.047791757
37	0x3c8f1efa	0.017470825
38	0xbbf00f57	-0.0073260474
39	0x3cecc6f0	0.028903455
40	0x3ccfd8cf	0.025371937
41	0xbc3086f0	-0.010774359
42	0xbd3e6d84	-0.04649116
43	0xbbc04e8f	-0.00586874
44	0xbb4df663	-0.0031427376
45	0xbc8d83f0	-0.017274827
46	0x3bc58b46	0.0060285656
47	0x3d9b09b0	0.07570207
48	0xbde33648	-0.11094338
49	0xbcc06733	-0.02348671
50	0xbbc17f39	-0.0059050587
51	0xbd848396	-0.064704105
52	0x3d158b8d	0.03651004
53	0x3791c708	1.7378028e-05
54	0xbad340de	-0.0016117354
55	0xbce6cae1	-0.028172912
56	0x3d6b950a	0.05751518
57	0x3abfe747	0.001464107
58	0x3dac9f8c	0.08428869
59	0xbd299fcd	-0.041412164
60	0x3cdf88c1	0.027286889
61	0x3aa9e682	0.0012962373
62	0x3bf7ac5e	0.0075583896
63	0x3d6216e0	0.055197597
64	0xbaea679c	-0.0017883661
65	0x3ce973f2	0.02849767
66	0x3ccb93fe	0.024850842
67	0x3d8cbd3a	0.068720296
68	0xbd3d933a	-0.046282984
69	0xbd13570a	-0.03597168
70	0xbd550d8f	-0.052014884
71	0x3d0aacd6	0.033856235
72	0xbc8141f7	-0.015778525
73	0xbcf5d5bb	-0.030009141
74	0xbd42c4fc	-0.04755114
75	0x3d310f01	0.0432272
76	0xbd062821	-0.032753114
77	0x3ba1be77	0.0049360353
78	0x3c786fb1	0.015163348
79	0xbcb37bb9	-0.021909581
80	0x3d2a0f38	0.04151842
81	0xbd200cc3	-0.03907467
82	0x3d6d1ef7	0.05789086
83	0xbd0a56aa	-0.033774056
84	0xb9f31c59	-0.00046369692
85	0xbcdcc151	-0.02694765
86	0x3d8a9f9e	0.06768726
87	0x3d1c828a	0.03821043
88	0xbd99f900	-0.07518196
89	0x3d9da0c4	0.07696679
90	0x3cfb090b	0.03064396
91	0xbcc59c47	-0.02412237
92	0x3d50c8bb	0.05097268
93	0x3c06ee5a	0.008235538
94	0x3d105247	0.035234716
95	0xbd4ce78e	-0.050025515
96	0xbca85647	-0.020548953
97	0x3c92b18a	0.017906923
98	0x3c39ca3f	0.011339723
99	0x3d28e6b4	0.04123564
100	0x392df9aa	0.00016591573
101	0xba5f4d76	-0.00085183175
102	0xbd0b4c2f	-0.0340082
103	0x3d31c95e	0.04340493
104	0xbd5010b6	-0.050797187
105	0xbd6bb26b	-0.0575432
106	0x3bbdb409	0.005789284
107	0xbcd521cd	-0.026017094
108	0x3d1e43ee	0.038639
109	0x3bcf82f0	0.0063327476
110	0x3c894794	0.016757764
111	0x3bbf4458	0.0058370046
112	0x3d0579a7	0.03258672
113	0x3bea1de4	0.0071446765
114	0x3b465634	0.0030263783
115	0x3d5ed912	0.054406233
116	0xbcc3d51a	-0.023905326
117	0xbb45ca05	-0.0030180227
118	0xbbb2d94f	-0.005458034
119	0x3d758c86	0.059948467
120	0x3c69ed46	0.014277762
121	0x3cf521bc	0.029923312
122	0x3c131b9f	0.008978753
123	0x3d6abc43	0.057308447
124	0x3c608ed0	0.013705924
125	0x3d8c7804	0.06858829
126	0x3d30b887	0.04314473
127	0x3c32a330	0.010903165
128	0xbd5f913b	-0.054581862
129	0x3d54f913	0.05199535
130	0x3c94a9d9	0.018147396
131	0xbd4eb5bf	-0.050466295
132	0x3d1e17b2	0.038596816
133	0x3d0aacc0	0.033856153
134	0x3d486577	0.04892489
135	0xbc805056	-0.015663307
136	0xbb31aa29	-0.002710948
137	0x3ab2fc55	0.0013655523
138	0x3ccbe621	0.024890007
139	0x3d7f1af6	0.06228157
140	0xbc3a8c64	-0.011386011
141	0x3d0e02d9	0.034670684
142	0x3cc767d5	0.024341503
143	0x3d98b2e7	0.07455998
144	0x3cf3eed7	0.029776974
145	0xba7d49df	-0.0009662192
146	0x3c5569d1	0.013025717
147	0x3d1d42c2	0.038393743
148	0xbc55993d	-0.013037023
149	0x3c119239	0.00888496
150	0xba533fec	-0.00080585363
151	0xbc21a2a0	-0.009865433
152	0xbd203e3c	-0.03912185
153	0xbc82efd3	-0.015983498
154	0x3c2379f2	0.0099778045
155	0xba8dec27	-0.0010827825
156	0x3d487c5d	0.048946727
157	0xbcb108f4	-0.021610714
158	0x3d083c20	0.033260465
159	0xbc8958f2	-0.016766045
160	0x3d8b7a1a	0.068103984
161	0x3d093318	0.033495992
162	0xbcacb5be	-0.021082755
163	0xbc8a5435	-0.016885856
164	0xbd0ad70e	-0.0338965
165	0x3d2fc43d	0.042911757
166	0xbd3c7728	-0.046012074
167	0xba2a8ec5	-0.00065062597
168	0x3c5a272b	0.013315002
169	0x3c5f1e70	0.013618097
170	0xbce7be5d	-0.028289014
171	0xbcba86d9	-0.022769378
172	0x3c7de045	0.015495365
173	0x3c04bafb	0.00810122
174	0x3d3b7e58	0.045774788
175	0xbcc86836	-0.024463754
176	0xbc964bac	-0.01834663
177	0xbcf776d3	-0.030208027
178	0x3d65efb8	0.056136817
179	0x3d45833f	0.04822087
180	0xbb085ca8	-0.002080718
181	0xbc1aa724	-0.0094392635
182	0xba352df6	-0.0006911451
183	0x3cb9666b	0.022631845
184	0xbd688b3d	-0.056773413
185	0x3d50aa5a	0.05094371
186	0x3c9357c1	0.01798618
187	0xbd313190	-0.043260157
188	0x3d4a87e4	0.049446
189	0x3d50debc	0.050993666
190	0x3d178262	0.036989577
191	0xbd817173	-0.06320467
192	0x3bfbef04	0.007688405
193	0xbc41f43f	-0.011838018
194	0x3dc48915	0.09596459
195	0x3c6ff800	0.01464653
196	0xbcb695ac	-0.022288166
197	0xbcf918b4	-0.030407287
198	0xbbf3b31a	-0.007437122
199	0xbdc9968c	-0.09843168
200	0x3c0e15f2	0.008672224
201	0x3d42c12c	0.047547504
202	0xbd34cbba	-0.0441396
203	0x3cf6f5a2	0.030146424
204	0x3d604f37	0.054763045
205	0x3d2dd393	0.0424381
206	0x3c6720b8	0.014106922
207	0x3c42a142	0.011879267
208	0xbbb3634f	-0.005474485
209	0xbcb62112	-0.022232566
210	0xbd25b91b	-0.040459733
211	0x3cb006f5	0.021487692
212	0xbca05014	-0.019569434
213	0xbb79ff28	-0.003814647
214	0x3d6f2870	0.058388174
215	0x3b4a66a6	0.0030883937
216	0xbc8bdf3b	-0.017074218
217	0xbc24cf0c	-0.010059129
218	0xbc0f50a6	-0.008747255
219	0xbd95a154	-0.073061615
220	0x3bbb6746	0.0057190983
221	0xbc3bc121	-0.01145962
222	0x3da3f149	0.08005006
223	0x3b12384d	0.002231139
224	0x3d43672f	0.047705825
225	0x3d06c7d1	0.032905404
226	0xbd022c80	-0.03178072
227	0xbd206115	-0.039155085
228	0x3dc6c69b	0.0970585
229	0x3daf8c46	0.08571677
230	0x3be9acfe	0.007131218
231	0xbcbbe9c5	-0.022938618
232	0x3bc7a3f9	0.006092545
233	0x3c8ef0fe	0.017448898
234	0x3d5b967e	0.053610317
235	0xbc25fba9	-0.010130801
236	0xbcc90aad	-0.024541223
237	0xbcf41d20	-0.029799044
238	0x3c88b34d	0.01668706
239	0x3ca0b47d	0.019617314
240	0xbdb31f32	-0.087461844
241	0x3d125da6	0.03573384
242	0x3c2a9388	0.010411151
243	0x3c355fe1	0.011070223
244	0xbd245d8b	-0.040128272
245	0xbcbf65e3	-0.023364013
246	0xbc94b5b1	-0.018153043
247	0xbd204071	-0.039123956
248	0x3d2af437	0.041736808
249	0x3c8fab40	0.017537713
250	0xbd70d9d9	-0.058801506
251	0x3d609028	0.054824978
252	0xbbc845d2	-0.006111839
253	0x3ce2f01f	0.02770239
254	0x3d70c359	0.058780048
255	0xbd649ddf	-0.05581462

network_body.linear_encoder.seq_layers.0.weight f4 [256, 217]
0	0x3e2b98ed	0.16757555
1	0xbdcef4e7	-0.10105305
2	0xbe70c3c9	-0.23512186
3	0xbdd8bc05	-0.10582737
4	0xbdadcd45	-0.08486418
5	0x3d7e3923	0.06206621
6	0x3cd5ec02	0.026113514
7	0xbd1315c0	-0.035909414
8	0x3e05d0c8	0.13067925
9	0xbe08ad4a	-0.13347355
10	0xbe2d0dbe	-0.16899773
11	0xbd910d05	-0.070825614
12	0x3c757764	0.014982078
13	0x3da7f976	0.08201878
14	0x3c9a25b5	0.018816808
15	0x3dda3e49	0.10656411
16	0xbd72c4d4	-0.05926974
17	0xbbbbf79f	-0.005736306
18	0xbcf5be72	-0.029998038
19	0x3dab1698	0.08353919
20	0xbdc26d54	-0.09493509
21	0xbc960c72	-0.018316481
22	0x3ca2195e	0.019787487
23	0x3deb33e7	0.11484509
24	0xbe41fc23	-0.18943839
25	0x3e1890aa	0.14898935
26	0x3e32c201	0.17456819
27	0xbd743f28	-0.059630543
28	0xbda3cb7d	-0.07997797
29	0x3d9b0bc6	0.07570605
30	0x3db01775	0.08598224
31	0x3da2bdd5	0.07946364
32	0xbd1d6319	-0.038424585
33	0x3dc3c7af	0.09559571
34	0x3ca5acbe	0.020223971
35	0xbd81a1dc	-0.063297
36	0x3dd13bc0	0.102164745
37	0xbc210216	-0.0098271575
38	0x3acaac80	0.0015462786
39	0x3e4e0405	0.20118721
40	0xbc73990c	-0.014868032
41	0x3d0b279c	0.03397332
42	0xbd3eabf2	-0.0465507
43	0xbd434749	-0.047675405
44	0xbca00e13	-0.019537961
45	0xbe9583ad	-0.29202023
46	0xbb96b4a0	-0.004599169
47	0x3da5d10e	0.08096515
48	0xbcfdf8bf	-0.0310024
49	0xbe6436e4	-0.22286564
50	0x3d8a1a06	0.06743245
51	0x3d933b32	0.07189025
52	0xbe494588	-0.1965543
53	0xbbba1c8c	-0.0056796726
54	0xbd4743ce	-0.048648648
55	0xbd6c8e22	-0.057752736
56	0xbd99975b	-0.07499572
57	0xbd8c9e24	-0.068661004
58	0xbd85c2ec	-0.06531319
59	0xbd8c8080	-0.06860447
60	0x3cd7a639	0.026324378
61	0x3d358599	0.04431686
62	0xbe10e6bd	-0.1415052
63	0xbdd56e1b	-0.104213916
64	0x3db2bebc	0.08727786
65	0xbdebcf77	-0.1151418
66	0xbdb9cbee	-0.090720996
67	0xbd5e5da4	-0.05428852
68	0x3aef5bae	0.0018261576
69	0xbd15748e	-0.03648811
70	0xbd0d3caa	-0.034481682
71	0x3d84cdc8	0.06484562
72	0x3d811ab7	0.063039236
73	0x3d2f2be3	0.042766463
74	0x3d85e887	0.06538492
75	0xbdfb1d89	-0.12261493
76	0xbe2022bc	-0.1563825
77	0xbd3f517d	-0.046708573
78	0x3e6b1acf	0.22959445
79	0xbda92ed9	-0.082608886
80	0xbd671cb4	-0.056423858
81	0x3d140a98	0.036142915
82	0xbd7b1a53	-0.0613044
83	0xbb22b488	-0.0024826843
84	0x3d9e4540	0.07728052
85	0xbe0750ca	-0.13214412
86	0xbe0a4cd8	-0.13505876
87	0xbe876db6	-0.2645089
88	0xbc76480c	-0.015031826
89	0x3cb4e6f7	0.022082789
90	0x3e6cbb74	0.23118383
91	0x3dac515f	0.08413958
92	0xbda67e7b	-0.08129593
93	0x3ca61b9b	0.020276835
94	0xbe2d0f9e	-0.16900489
95	0xbd74c0a5	-0.059754033
96	0x3daa5bee	0.083183154
97	0xbe2f03f1	-0.17091347
98	0x3de58594	0.11207119
99	0x3da26bb1	0.07930697
100	0x3d00eb85	0.03147461
101	0x3d8f1cee	0.0698794
102	0x3cce775a	0.025203396
103	0xbe205124	-0.15655953
104	0x3dde3ee5	0.1085184
105	0x3d210c82	0.03931857
106	0xbdb88217	-0.09009188
107	0xbe98338d	-0.2972683
108	0x3c2b0aba	0.010439569
109	0xbd52fcd3	-0.051510643
110	0x3da2162a	0.07914384
111	0x3cb94b38	0.022618875
112	0xbd409b53	-0.04702313
113	0xbe46e9a9	-0.19425072
114	0x3d5905c7	0.052984025
115	0x3d2bc650	0.041937172
116	0xbe08201c	-0.13293499
117	0xbd40a525	-0.047032494
118	0xbd7035f8	-0.05864522
119	0xbd202c1e	-0.039104573
120	0x3cc309d0	0.02380839
121	0x3dc2a530	0.09504163
122	0xbd225b19	-0.03963766
123	0xbe197898	-0.14987409
124	0xbd7b1e1d	-0.061308015
125	0x3c9cca90	0.019139558
126	0xbe43f738	-0.19137275
127	0xbe4918c2	-0.1963835
128	0x3df5a907	0.1199513
129	0x3d335a02	0.04378701
130	0xbe35c0a4	-0.17749268
131	0x3cf9989e	0.030468281
132	0xbdc9dd2c	-0.09856638
133	0xbdfcbcab	-0.12340673
134	0x3dd47811	0.10374463
135	0x3e2d67b7	0.16934095
136	0x3c5008a5	0.0126973735
137	0x3c51ba60	0.012800783
138	0x3e051581	0.12996484
139	0x3e21f776	0.15817055
140	0x36d960bf	6.4783667e-06
141	0x3c1e7bd2	0.009673076
142	0xbcdd02ac	-0.026978813
143	0xbdada560	-0.084788084
144	0xbd8f53a0	-0.06998372
145	0x3db99b4e	0.09062825
146	0x3c0cee2e	0.008601708
147	0xbda5f9aa	-0.0810426
148	0x3e6e32a7	0.2326151
149	0x3b5c27e0	0.0033593103
150	0xbe2dc828	-0.16970885
151	0xbe1e1ad6	-0.15439925
152	0xbdcbbd74	-0.09948245
153	0xbe3f94b5	-0.18709071
154	0xbd465ab6	-0.048426352
155	0x3d9506b4	0.07276669
156	0xbd8bb8bf	-0.06822347
157	0xbdec99d5	-0.11552779
158	0x3da8c463	0.08240583
159	0x3d89ff75	0.06738178
160	0xbcc56a19	-0.024098443
161	0xbd7f45fa	-0.062322594
162	0xbd960557	-0.07325237
163	0xbe24dc3a	-0.16099635
164	0x3d958964	0.07301596
165	0x3c8b9d66	0.017042827
166	0xbd99bf77	-0.07507222
167	0xbd57bb3b	-0.05266879
168	0x3de723d6	0.11286132
169	0x3d088cf8	0.033337563
170	0xbd57c2b2	-0.05267591
171	0xbcf402dc	-0.02978652
172	0xbdde3cea	-0.10851462
173	0xbc712ded	-0.014720422
174	0xbd63f54d	-0.05565386
175	0x3d5e77ec	0.054313585
176	0xbd985813	-0.07438674
177	0x3d0cfb0b	0.0344191
178	0x3d9b8e54	0.07595506
179	0x3ced63d3	0.028978264
180	0x3bd67b7e	0.006545483
181	0x3d329913	0.043603014
182	0x3d45dfc7	0.048309114
183	0xbc4936f2	-0.012281166
184	0xbd5c276e	-0.05374854
185	0x3e3f26d2	0.18667153
186	0x3e2bd416	0.16780123
187	0x3d33fea6	0.043944024
188	0x3dd01944	0.10161069
189	0xbd8f725a	-0.07004233
190	0xbbc2fe5d	-0.0059507326
191	0x3cc0f59d	0.023554618
192	0x3dc8a9b7	0.097979955
193	0xbd93abe2	-0.072105184
194	0xbdd3201a	-0.10308857
195	0x3e0fe5e4	0.1405254
196	0xbcbd4a4c	-0.023106717
197	0xbcbaa24c	-0.022782467
198	0x3e010f7e	0.12603566
199	0xbde7a53f	-0.11310815
200	0x3ddd4f13	0.10806098
201	0x3ddd646d	0.1081017
202	0x3df782e7	0.120855145
203	0xbcb49c5c	-0.022047214
204	0xbcff17e1	-0.031139316
205	0xbd6bcd23	-0.05756868
206	0x3df06602	0.117382064
207	0xbd217df3	-0.039426755
208	0xbda43178	-0.08017248
209	0x3cdf0bb9	0.02722727
210	0xbdb4204a	-0.08795221
211	0xbda1eba9	-0.07906277
212	0xbd7445c5	-0.05963685
213	0xbdbc30c7	-0.09188991
214	0x3dceff4c	0.10107288
215	0x3c9bf8a4	0.01903946
216	0xba0db0a2	-0.00054050435
217	0x3dc2f8c7	0.09520107
218	0xbc188503	-0.009309056
219	0x3dd5ea42	0.10445072
220	0x3d9d285f	0.07673716
221	0x3d93419e	0.0719025
222	0xbcbd31a3	-0.023094958
223	0x3e11023d	0.1416101
224	0x3df33cd2	0.11876835
225	0x3d6f82af	0.05847424
226	0x3d9d7a43	0.07689335
227	0x3dad503e	0.084625706
228	0x3d52ce9c	0.05146657
229	0xbc8d006c	-0.017212115
230	0x3e4bfcfd	0.19920726
231	0x3df801fb	0.12109753
232	0x3e2f0b88	0.17094243
233	0xbd0a73cd	-0.033801842
234	0xbda7a957	-0.08186596
235	0xbd838bf1	-0.06423176
236	0x3d086a5b	0.033304553
237	0x3c190dfd	0.009341714
238	0x3ede0c80	0.43368912
239	0xbd2c6ce5	-0.042096037
240	0xbd49799e	-0.04918825
241	0xbe1f8543	-0.15578179
242	0x3cb66435	0.02226458
243	0xbdc8caba	-0.09804292
244	0xbd3a2336	-0.045443736
245	0xbdd62f60	-0.10458255
246	0x3c932015	0.017959634
247	0xbe053990	-0.1301024
248	0xbd8efccc	-0.06981811
249	0xbe05235b	-0.13001768
250	0xbcbf1fd0	-0.0233306
251	0xbe0ab73c	-0.13546461
252	0x3ca1c5dc	0.019747667
253	0xbde5ca33	-0.11220207
254	0x3e8f1aca	0.27950126
255	0x3d780ffe	0.060562126

network_body.linear_encoder.seq_layers.2.bias f4 [256]
0	0xbdad5124	-0.08462742
1	0x3c575c9c	0.013144638
2	0xbd18aa49	-0.03727177
3	0xbc9c61c8	-0.019089594
4	0xbd020c55	-0.031750042
5	0x3bd739a7	0.006568152
6	0x3c6775fe	0.014127253
7	0xbda3326e	-0.07968603
8	0xbce4a812	-0.027912173
9	0xbd9bc3ba	-0.07605691
10	0xbc8e52e4	-0.01737351
11	0xbcd90b86	-0.026494753
12	0xbddd8735	-0.10816804
13	0xbddeac64	-0.10872725
14	0xbc94c979	-0.018162476
15	0xbd30dc37	-0.043178763
16	0xbc9a943e	-0.018869516
17	0xbcffc27b	-0.031220665
18	0xbd3985ce	-0.04529362
19	0x3b015de0	0.0019739792
20	0xbc7aacb1	-0.015299962
21	0x3c7ef7c6	0.0155620035
22	0xbc664c06	-0.014056211
23	0xbd17930d	-0.037005473
24	0xbd1193e8	-0.035541445
25	0xbc18faf6	-0.0093371775
26	0x3ba3a3e5	0.004993903
27	0xbd1828d8	-0.037148327
28	0xbc919c1d	-0.017774636
29	0xbaee05a9	-0.0018159646
30	0xbc9c8e65	-0.019110868
31	0xbccb83ed	-0.02484318
32	0xbd4445dc	-0.047918186
33	0x3bd8194f	0.006594814
34	0xbe3b854e	-0.1831257
35	0xbccf64a8	-0.025316551
36	0xbc9322ee	-0.017960992
37	0xbcb09e5b	-0.021559885
38	0xbbfc8d9d	-0.0077073113
39	0xbd968fae	-0.073516235
40	0xbd92292b	-0.071367584
41	0x3ce621bf	0.028092263
42	0xbd0f646c	-0.03500788
43	0xbb88a8ef	-0.004170529
44	0xbd86bbef	-0.06578814
45	0xbd087182	-0.033311374
46	0x3b919f54	0.004444042
47	0xbc06164e	-0.008184029
48	0xbd26aa99	-0.04069004
49	0x3ae69428	0.0017591761
50	0x3ccb79b8	0.024838313
51	0xbd21192b	-0.039330643
52	0xbc3d2ea5	-0.011546765
53	0xbb52f126	-0.0032187193
54	0xbcd4464d	-0.025912428
55	0xbdaa7eeb	-0.08324989
56	0xbdab04ce	-0.08350526
57	0xbd92946c	-0.071572155
58	0xbca6d0fd	-0.020363325
59	0xbc41ad1e	-0.0118210595
60	0xbc82619a	-0.01591568
61	0xbcc87281	-0.024468662
62	0xbcd8069c	-0.02637034
63	0xbd23a1d0	-0.03994924
64	0x3bd461eb	0.0064813993
65	0xbc3ba3a5	-0.01145259
66	0xbd05f6e9	-0.032706175
67	0xbd09334f	-0.033496197
68	0xbd6acfa4	-0.057326928
69	0x3c95b5c7	0.018275155
70	0x3c51fa18	0.012815975
71	0xbc500e8b	-0.01269878
72	0x3c977c79	0.01849197
73	0xbd0bcd3f	-0.034131285
74	0xbcfe37e9	-0.03103252
75	0x3d17dbc5	0.037074823
76	0xbdfb0291	-0.12256349
77	0x39e9eb3b	0.00044616484
78	0xbd8b917c	-0.06814858
79	0xbdaf591e	-0.0856192
80	0xbd806210	-0.06268704
81	0xbcfd3a05	-0.030911455
82	0x3d73a1c0	0.05948043
83	0x3ce74152	0.02822939
84	0xbd969d63	-0.07354238
85	0xbdb38d1b	-0.08767148
86	0xbd2d9bba	-0.04238484
87	0x3c23f94c	0.0100081675
88	0x3c750317	0.01495435
89	0xbd232106	-0.039826415
90	0xbd821f9b	-0.063536845
91	0x3ce44633	0.027865505
92	0xbc063e66	-0.008193588
93	0x3bdef04f	0.0068035494
94	0xbddf2cd0	-0.10897219
95	0xbbe6dadb	-0.0070451326
96	0xbd572338	-0.05252382
97	0xbcf1d1d1	-0.029518994
98	0x3cace50f	0.021105317
99	0xbce3665d	-0.027758772
100	0xbd21bc1e	-0.039486043
101	0xbcb81162	-0.022469226
102	0x3cd4b32b	0.02596434
103	0x3ca1840d	0.019716287
104	0x3d246e25	0.040144105
105	0xbd9bff0c	-0.07617006
106	0xbd3dbdf1	-0.04632372
107	0x3bcd6571	0.0062681963
108	0xbc2ae046	-0.0104294475
109	0xbce1bdf3	-0.027556395
110	0xbd079fda	-0.03311143
111	0x3c6959eb	0.0142426295
112	0x3d462814	0.048378065
113	0xbc3cc401	-0.01152134
114	0xbd3fecb9	-0.046856616
115	0xbcaefdc1	-0.021361234
116	0xbcfac992	-0.030613694
117	0xbd37bdb3	-0.044858646
118	0xbd142e8f	-0.036177214
119	0x3c9bcc0a	0.019018192
120	0xbd83a436	-0.06427805
121	0xbd064adf	-0.032786246
122	0x3c6792af	0.014134093
123	0xbc8e5baa	-0.017377693
124	0xbcb98bd0	-0.022649676
125	0xbd809217	-0.062778644
126	0xbc8b2d3d	-0.016989345
127	0xbc1581c9	-0.0091251815
128	0xbd2a3115	-0.041550715
129	0xbbf5ba98	-0.0074990503
130	0x3bb4f357	0.0055221724
131	0xbd1cd065	-0.038284678
132	0x3c892fa2	0.016746346
133	0x35e5fc1f	1.7135206e-06
134	0xbd86793f	-0.065660946
135	0xbd229229	-0.03969017
136	0xbddae2c8	-0.10687786
137	0xbd2701e4	-0.040773287
138	0x3d00d6a1	0.031454686
139	0xbda297e7	-0.07939129
140	0xbd430a35	-0.047617156
141	0xbd8c6bfc	-0.06856534
142	0xbc80ab56	-0.0157067
143	0xbcca9165	-0.024727533
144	0x3c4d190b	0.012518178
145	0xbd6bc10f	-0.057557162
146	0xbcabe0c1	-0.020981194
147	0xbc80f55d	-0.015741998
148	0xbd34e816	-0.044166647
149	0xbd473a9a	-0.04863987
150	0xbaeb48d3	-0.001795078
151	0x3d2d5536	0.04231759
152	0x3c0a2605	0.008431916
153	0xbd8a33c4	-0.06748155
154	0xbd766409	-0.060153995
155	0xbb34ec81	-0.0027606788
156	0xbd48e888	-0.049049884
157	0xba246cd9	-0.0006272323
158	0xbd248781	-0.04016829
159	0xbd6e4dfa	-0.058179833
160	0xbc65ce0f	-0.014026179
161	0xbd792da8	-0.060834557
162	0x3b869018	0.004106533
163	0x3ae20df0	0.0017246585
164	0xbdbc7b76	-0.09203236
165	0xbd5b27b5	-0.053504664
166	0xbd9a52df	-0.07535338
167	0xbdddf5cc	-0.10837898
168	0x3d4ec99e	0.050485246
169	0xba10a109	-0.000551716
170	0xba8eab75	-0.0010884838
171	0x3d31c734	0.043402866
172	0xbd6e972d	-0.05824964
173	0xbcc4b31b	-0.024011185
174	0xbc9dcfa4	-0.01926405
175	0xbc8b7ba7	-0.017026735
176	0x3c1859b9	0.009298735
177	0x3cfb3064	0.030662723
178	0xbcb3c5eb	-0.02194496
179	0xbdaa3037	-0.083099775
180	0xbc3fa858	-0.011697851
181	0xbdafbed7	-0.08581322
182	0xbdd6403a	-0.10461469
183	0xbde5e9f2	-0.11226262
184	0xbc85eba6	-0.016347717
185	0xbd207f98	-0.039184183
186	0x3c8acb0b	0.016942522
187	0xbd3dc057	-0.046326008
188	0xbd4c5ff9	-0.049896214
189	0xbd214ea9	-0.039381657
190	0xbd4c4300	-0.049868584
191	0xbd549fe8	-0.05191031
192	0x3caebf5b	0.02133148
193	0xbb1085e9	-0.0022052473
194	0xbdaa4262	-0.08313443
195	0x3cad6fb0	0.02117142
196	0x3ce8b696	0.028407376
197	0x3c54b806	0.012983328
198	0xbba20c9c	-0.004945351
199	0xbc1a20a8	-0.0094072
200	0x3c33d79b	0.010976697
201	0xbb6fe228	-0.0036603305
202	0xbd929556	-0.0715739
203	0x3cab6012	0.020919833
204	0x3c8fd6d7	0.017558498
205	0x3d862354	0.06549707
206	0xbcfc4c04	-0.030797966
207	0xbb3f28bd	-0.002916857
208	0xbcc4de51	-0.02403179
209	0xbc5cee5e	-0.013484566
210	0x397b1901	0.0002394654
211	0xbb4fc4d9	-0.0031703024
212	0xbd840f6d	-0.06448255
213	0xbd800b40	-0.06252146
214	0xbc6a9eb9	-0.014320069
215	0xbc7376c6	-0.014859861
216	0x3ccd1c24	0.025037833
217	0xbc818731	-0.015811535
218	0x3d20406d	0.03912394
219	0xbcaa29b3	-0.020771837
220	0x3ca65918	0.020306155
221	0xbc6716c8	-0.014104553
222	0xbe035492	-0.1282523
223	0xbd3497e2	-0.04409016
224	0xbc8fe01a	-0.017562915
225	0xbd6981ce	-0.057008557
226	0xbd4fd59a	-0.050740816
227	0xbc871472	-0.016489241
228	0x3a7f55cf	0.00097402645
229	0x3d5f6a74	0.05454488
230	0xbdbd05ce	-0.09229623
231	0xbd2a2bda	-0.041545726
232	0xbd09dbc5	-0.033656854
233	0xbde78211	-0.11304105
234	0xbd0ff081	-0.03514147
235	0xbcce72a0	-0.025201142
236	0xbb7ec7d2	-0.0038876426
237	0x3ca2c054	0.0198671
238	0x3ccbe17e	0.024887796
239	0xbda0fbd8	-0.078605354
240	0xbcb14826	-0.021640848
241	0xbd958b09	-0.073019095
242	0xbbdeb7c3	-0.0067968084
243	0xbd49e43b	-0.049289923
244	0xbc145596	-0.009053608
245	0xbd4eb47d	-0.050465096
246	0xbceba377	-0.02876447
247	0x3cc40677	0.023928864
248	0xbe05ea85	-0.13077743
249	0xbde94f3f	-0.11392068
250	0x3c830f20	0.015998423
251	0x3bafece5	0.005368816
252	0xbd624c56	-0.05524858
253	0xbd822374	-0.063544184
254	0xbd4bd8f7	-0.04976746
255	0xbc0b1ead	-0.0084912

network_body.linear_encoder.seq_layers.2.weight f4 [256, 256]
0	0xbcffc652	-0.031222496
1	0xbd6f6229	-0.058443222
2	0x3cd317ab	0.025768122
3	0xbdfaf24e	-0.12253247
4	0x3cecf005	0.028923044
5	0xbdd58b4f	-0.10426962
6	0xbd892c82	-0.06697942
7	0xbb99efd5	-0.0046977797
8	0xbe11a226	-0.14222011
9	0x3dacb49e	0.084328875
10	0x3d9ad77a	0.0756063
11	0x3d2a8891	0.041634146
12	0xbd9dffc6	-0.077148005
13	0x3e1f1ff4	0.15539533
14	0xbd98fb73	-0.07469835
15	0x3d70cd37	0.058789458
16	0xbe1ea77a	-0.15493575
17	0x3e16fe53	0.14745454
18	0xbd51cbcc	-0.051219746
19	0xbd52d754	-0.051474884
20	0x3d9d06d5	0.07667319
21	0x3dbcf02e	0.09225498
22	0xbd978771	-0.0739888
23	0x3ca71a2d	0.020398224
24	0x3e21b11a	0.15790215
25	0x3cf53c59	0.029936003
26	0xbc508786	-0.012727624
27	0xbd7addb3	-0.061246585
28	0x3cbe70df	0.02324718
29	0x3d45b45e	0.048267715
30	0x3cd94a67	0.026524736
31	0xbdca7cbe	-0.09887074
32	0x3c8612f0	0.016366452
33	0xbd335e40	-0.043791056
34	0x3aee668d	0.0018188521
35	0x3dc259b0	0.09489763
36	0x3e197dcc	0.14989394
37	0xbce108c9	-0.02747001
38	0x3dd1f354	0.10251489
39	0xbd563b0e	-0.052302413
40	0xbd707ad5	-0.05871089
41	0xbe3f1b92	-0.18662861
42	0x3cafeadf	0.0214743
43	0xbe137ebf	-0.14403819
44	0xbe02d3a2	-0.12776044
45	0x3a0f5333	0.0005467415
46	0xbc035518	-0.008015893
47	0x3cebbea8	0.028777435
48	0x3de2cfea	0.11074813
49	0x3d0bc2a9	0.03412119
50	0x3c6ea533	0.014565754
51	0xbe4acfc0	-0.19805813
52	0xbde76429	-0.11298401
53	0xbdb40249	-0.08789498
54	0xbdef8912	-0.11696066
55	0xbe5598bc	-0.20859045
56	0xbde22246	-0.110416934
57	0x3dd4ae12	0.10384764
58	0xbe4bad14	-0.19890243
59	0x3d9b500a	0.075836256
60	0xbded95d7	-0.11600845
61	0xbe79acac	-0.24382275
62	0xbdafbfff	-0.08581542
63	0xbd124ddf	-0.035718795
64	0xbd8bae4b	-0.06820353
65	0xbe52384b	-0.20529287
66	0xbd5017a5	-0.0508038
67	0xbd0774ac	-0.03307025
68	0x3d00af61	0.031417254
69	0x3dc86964	0.09785727
70	0x3b3d8f51	0.0028924535
71	0x3e87c928	0.26520658
72	0xbca3af9c	-0.019981198
73	0x3d5f253a	0.05447886
74	0xbd3eb63c	-0.04656051
75	0x3d536b19	0.05161581
76	0x3cb3e318	0.021958873
77	0xbe426bea	-0.18986478
78	0xbe3173b0	-0.17329288
79	0xbe329701	-0.17440416
80	0xbd56d015	-0.052444536
81	0xbdb7cf65	-0.08975104
82	0x3cc50d71	0.02405426
83	0x3e0e31ec	0.13886231
84	0x3e0a8f6f	0.13531278
85	0xbc7babb9	-0.015360766
86	0xbb54bff0	-0.0032463036
87	0x3d564e12	0.052320547
88	0x3e245c1e	0.16050765
89	0x3cb5d84a	0.022197861
90	0xbcba27bd	-0.022724027
91	0xbc2ac258	-0.010422312
92	0xbe10d761	-0.1414466
93	0xbe0fd3ae	-0.14045593
94	0x3b4d639f	0.0031339896
95	0x3e1b975b	0.15194456
96	0xbced56c7	-0.028972043
97	0x3e41ae82	0.18914226
98	0xbde5d923	-0.11223056
99	0x3d13e2d4	0.036104992
100	0xbe199e6e	-0.15001842
101	0x3e4135a9	0.18868126
102	0xbbfa0072	-0.0076294476
103	0xbcc04fce	-0.023475554
104	0x3dc221ad	0.094790794
105	0x3d7b4af3	0.061350774
106	0xbb4b8937	-0.0031057128
107	0xbe5b0166	-0.21387252
108	0xbda5811f	-0.080812685
109	0xbd98152a	-0.07425912
110	0xbe4365ee	-0.19081852
111	0xbd3a96c1	-0.045553926
112	0x3e3bb60e	0.18331167
113	0xbcc59cd9	-0.024122642
114	0x3dc61836	0.096725866
115	0xbe2e182f	-0.17001413
116	0x3cb29407	0.0217991
117	0x3e69314f	0.22772716
118	0xbdbb45d8	-0.09144181
119	0x3ba49e34	0.005023742
120	0xbe04b6b0	-0.12960315
121	0xbe34c83e	-0.17654511
122	0xbbbd95d4	-0.005785683
123	0xbda7aba1	-0.081870325
124	0xbe063968	-0.13107836
125	0xbd7688cc	-0.060189053
126	0xbe29cf6a	-0.16583028
127	0xbd87c6e3	-0.066297315
128	0x3d56c515	0.052434046
129	0x3cc01086	0.023445379
130	0xba5d89a7	-0.0008450993
131	0x3d7d8f53	0.061904263
132	0xbd7031a2	-0.058641084
133	0x3d641d92	0.055692263
134	0x3c8dcfa3	0.017310923
135	0x3dd3fa23	0.10350444
136	0xbde370bb	-0.11105486
137	0xbda28308	-0.079351485
138	0xbd995db9	-0.07488579
139	0x3d597fb1	0.05310029
140	0x3bc2b395	0.005941818
141	0xbc1ad101	-0.0094492445
142	0x3d3b4cdf	0.045727607
143	0xbd1c8c6a	-0.038219847
144	0x3df36188	0.11883837
145	0xbd5897b1	-0.05287904
146	0x3d6a16d4	0.057150677
147	0x3c991600	0.018687248
148	0xbbd08b12	-0.0063642347
149	0xbccd2bc6	-0.025045287
150	0x3e352088	0.17688191
151	0x3dabf6bc	0.0839667
152	0xbd9325cb	-0.07184943
153	0xbe23eca9	-0.16008247
154	0x3d990bcd	0.07472954
155	0xbdc9918f	-0.09842216
156	0xbbd5efe7	-0.0065288427
157	0xbde9c9b1	-0.11415423
158	0xbd3ec2d2	-0.046572514
159	0xbe013a7d	-0.12619968
160	0xbcae9fb0	-0.02131638
161	0x3d0dfcd8	0.03466496
162	0xbcf67606	-0.030085575
163	0x3b39d042	0.002835289
164	0xbd915473	-0.070961855
165	0xbdecf207	-0.115696006
166	0x3d1b4ed8	0.037916988
167	0xbcac15bc	-0.021006458
168	0x3b3808ec	0.002808149
169	0x3d0c2068	0.034210593
170	0xbddc5454	-0.10758272
171	0x3c8b43ac	0.017000042
172	0xbe1469b9	-0.14493455
173	0x3e178aef	0.14799093
174	0xbe3338a0	-0.1750207
175	0x3e45d7c3	0.19320588
176	0xbc919edd	-0.017775947
177	0x3dd605dd	0.10450337
178	0xbda89a46	-0.0823255
179	0xbe05d826	-0.13070735
180	0x3d8a591c	0.067552775
181	0xbdc42b80	-0.095786095
182	0x3d0c340f	0.034229334
183	0xbde296dc	-0.110639304
184	0x3dbe5bdf	0.09294867
185	0xbba4edcb	-0.00503323
186	0xbe406a65	-0.18790586
187	0x3e11d9ee	0.1424329
188	0xbe2c56a9	-0.16829933
189	0x3c5f3a09	0.0136246765
190	0xbda67a20	-0.08128762
191	0x3d7b6ff8	0.06138608
192	0xbe8f87c5	-0.2803327
193	0xbe7cf246	-0.24701795
194	0xbcde9912	-0.027172599
195	0x3d2f6628	0.042822033
196	0xbe4caba7	-0.19987355
197	0xbdefd382	-0.11710264
198	0x3c950dfd	0.018195147
199	0xbd42f5ac	-0.047597572
200	0x3d0ec530	0.03485602
201	0xbd4a936a	-0.04945699
202	0xbd11619e	-0.035493486
203	0xbd9b6825	-0.07588223
204	0xbc806677	-0.015673859
205	0x3d04ec87	0.032452133
206	0xbc029c14	-0.007971782
207	0xbd115b09	-0.03548721
208	0xbdcd332e	-0.100195274
209	0x3e23bc5b	0.1598982
210	0x3d16adde	0.036786906
211	0xbd8fb4f5	-0.07016937
212	0x3d78f6e0	0.060782313
213	0xbe3975be	-0.18111321
214	0xbe975022	-0.29553324
215	0xbd99455c	-0.074839324
216	0x3ae93f6e	0.0017795393
217	0x3d281b43	0.041041624
218	0xbd4907f2	-0.049079843
219	0x3d87ec6e	0.06636892
220	0xbe10c195	-0.14136346
221	0xbd3d5078	-0.04621932
222	0xbd708420	-0.058719754
223	0xbd9b4a2a	-0.07582505
224	0x3d434d7e	0.047681324
225	0x3d15db32	0.036585994
226	0xbde59689	-0.11210353
227	0xbd73c52c	-0.05951421
228	0xbe2a8730	-0.16653132
229	0xbdeceba0	-0.115683794
230	0xbbe1b6b6	-0.006888236
231	0x3c98da19	0.018658685
232	0x3d1a9347	0.03773811
233	0x3dcedc9b	0.10100671
234	0x3d70a22b	0.058748405
235	0xbc8320b8	-0.016006812
236	0xbba7e2af	-0.0051234583
237	0x3cae73ad	0.021295393
238	0xbc8c3fcc	-0.017120264
239	0xbd1026ac	-0.03519313
240	0xbaa25fb6	-0.0012388143
241	0x3dedca34	0.11610833
242	0xbd67ee97	-0.05662402
243	0x3e18b70e	0.1491358
244	0x3dd8d5e9	0.10587675
245	0x3e10f889	0.14157309
246	0xbd771c04	-0.060329452
247	0xbde475db	-0.11155292
248	0xbe9a2d94	-0.30112898
249	0x3dae9641	0.085247524
250	0x3d412ef6	0.047163926
251	0xbe2ed6c2	-0.17074111
252	0x3e00a250	0.12561917
253	0x3d9086a3	0.0705693
254	0xbd988a7c	-0.07448289
255	0xbda3a2f5	-0.07990066
