Project/Assets/MyProject/Chaser/CVR 4/Models/ver 1/PoliceBrain.onnx (onnx, 532910 bytes, 6 tensors)

action_model._discrete_distribution.branches.0.bias f4 [7]
0.038516168 -0.028612448 -0.007754514 0.021551372 0.0056153135 -0.00993139 0.024074284
00000000: 21c3 1d3d a764 eabc 9419 febb 818c b03c
00000010: aa00 b83b 45b7 22bc 6f37 c53c

action_model._discrete_distribution.branches.0.weight f4 [7, 256]
-0.021877801 0.0077880407 0.048094023 0.00027138914 -0.027044334 0.09678168 -0.0729845 0.009029312
-0.03504069 -0.021630427 0.00065956375 0.0032197167 0.035604138 0.047812235 0.030903837 0.029570641
0.06802118 -0.02014825 -0.018592242 0.0051457924 -0.032715045 -0.012664326 -0.026031202 0.038489427
-0.04321948 -0.032324262 0.004796454 0.0071593677 -0.018843044 -0.030845946 0.02518248 0.013726132
0.05988533 -0.0048323846 0.036154352 0.065184 0.07856362 0.023195382 -0.016056214 0.02392159
-0.01100247 0.064596094 0.034060046 -0.024401752 0.0009713879 -0.018082375 0.028216848 0.044021823
0.018891247 0.023720227 -0.0204927 0.026753169 -0.03262684 -0.024858242 0.009942229 0.05575607
-0.05031392 0.058424342 0.005368467 -0.052611284 0.047378387 0.02182821 -0.03996679 0.03440364
0.019558188 0.005780127 0.0026038333 0.024517342 -0.015438832 0.011026104 0.024776494 -0.00045405552
-0.038793724 0.010668343 -0.032590814 -0.01565731 0.009801811 -0.015959414 0.0060741827 0.026128652
0.025277501 0.049192894 0.03471683 0.015215222 0.06367497 0.053216353 0.018529609 0.0048951814
0.019634338 0.004391178 0.019053215 -0.017884795 0.04634096 0.026700279 0.057783574 0.0015220192
-0.029543135 0.029592853 0.010893393 0.05648554 -0.06953488 0.019918382 0.0052615274 -0.0069222073
0.061319802 -0.008913937 0.05142738 -0.011067062 0.09483248 -0.0015613957 0.044929534 0.06654472
0.039732896 -0.05605963 0.012053553 -0.02452331 0.049555533 0.055815388 -0.0013488707 0.043314204
0.0060411296 0.013115994 0.019862426 0.030633505 0.03458499 0.0059194462 -0.013932219 0.0012426483
0.019975169 -0.0062352065 0.06751101 -0.03286124 -0.011377191 -0.043385267 0.0029507673 -0.0125318635
0.031249061 0.051226094 0.031307112 -0.0035998197 -0.022045953 0.084584795 0.06348507 0.008255265
0.02913315 0.106175184 0.024128465 -0.023339447 0.024212338 -0.018460799 -0.043308765 0.019618802
0.028787702 -0.021756442 0.02149314 -0.03565999 0.025040006 0.038961742 -0.07227791 0.01511848
0.04688326 0.017790565 0.013485536 0.01323054 -0.014062095 0.0062891915 0.013322956 0.02365294
-0.062988386 0.05400922 -0.01652628 0.0019809601 0.019812936 -0.02757943 0.08141705 0.030226521
0.027400864 0.013183501 0.0087701995 -0.044318702 0.029897127 0.037046738 0.0161004 -0.014124228
0.063189074 0.017304296 0.0041166237 -0.0057056076 0.10221556 0.062243707 -0.01169421 -0.010837522
-0.000902819 0.027359378 0.034168243 0.06708207 0.055323645 0.02880138 0.0049119866 0.049905032
0.052017372 0.01737696 -0.06150093 0.04549583 0.07470695 0.06957838 -0.01422459 -0.015093512
0.080339015 0.01251057 0.06178027 0.045464363 0.019969884 -0.010681991 0.011132313 -0.0480993
0.050095692 -0.032846905 0.007511631 0.015542672 0.0068064285 -0.0028727627 0.01926518 0.08051124
0.031754866 -0.050435264 0.027847974 0.005616036 -0.016463552 0.030003801 0.009263866 -0.011322509
-0.001160659 0.06864931 0.020402096 0.0054093115 0.01737179 -0.017993545 0.025633862 0.010501209
0.004473769 0.031039879 -0.0033653793 0.008149332 0.074696004 0.08162055 0.00074285 -0.016694685
0.00023589059 0.001919046 -0.060674623 0.0009702463 -0.01070387 0.029923163 -0.006694608 0.021877117
00000000: 1339 b3bc d232 ff3b 3dfe 443d 3c49 8e39
00000010: 148c ddbc 7935 c63d e678 95bd aeef 133c
00000020: d486 0fbd 4b32 b1bc 93e6 2c3a e201 533b
00000030: a5d5 113d c3d6 433d 0b2a fd3c 213e f23c
00000040: b04e 8b3d f10d a5bc c24e 98bc 099e a83b
00000050: 3600 06bd 087e 4fbc 633f d5bc 17a7 1d3d
00000060: e906 31bd 7266 04bd 932b 9d3b 2199 ea3b
00000070: ba5c 9abc a3b0 fcbc 7d4b ce3c 92e3 603c
00000080: 524a 753d fb58 9ebb 9616 143d 307f 853d
00000090: f7e5 a03d 3e04 be3c 5288 83bc 36f7 c33c
000000a0: b443 34bc f54a 843d 8c82 0b3d 2fe6 c7bc
000000b0: bda4 7e3a 7d21 94bc 0527 e73c 3a50 343d
000000c0: d1c1 9a3c ec50 c23c 4fe0 a7bc 7629 db3c
000000d0: b9a3 05bd 83a3 cbbc bbe4 223c 7a60 643d
000000e0: f815 4ebd 5d4e 6f3d f7e9 af3b ee7e 57bd
000000f0: d70f 423d 13d1 b23c 37b4 23bd d5ea 0c3d
00000100: 7e38 a03c 3867 bd3b 13a5 2a3b 98d8 c83c
00000110: 28f3 7cbc d5a6 343c 13f8 ca3c 4d0e eeb9
00000120: 2be6 1ebd 46ca 2e3c f27d 05bd c243 80bc
00000130: c697 203c 51bd 82bc f009 c73b c10b d63c
00000140: c312 cf3c 7d7e 493d 3c33 0e3d 4449 793c
00000150: 0668 823d 64f9 593d 68cb 973c c267 a03b
00000160: 31d8 a03c dfe3 8f3b 7d15 9c3c 2283 92bc
00000170: 05d0 3d3d 8bba da3c 78ae 6c3d 7d7e c73a
00000180: 7204 f2bc b66c f23c 347a 323c 625d 673d
00000190: 4e68 8ebd e02b a33c e468 ac3b afd3 e2bb
000001a0: 792a 7b3d c30b 12bc 84a5 523d 9f52 35bc
000001b0: 8837 c23d bfa7 ccba 0808 383d 9948 883d
000001c0: f6be 223d c89e 65bd 447c 453c 1ce5 c8bc
000001d0: befa 4a3d ad9e 643d 97cc b0ba 3c6a 313d
000001e0: abf4 c53b 77e4 563c 87b6 a23c 1ef3 fa3c
000001f0: fea8 0d3d eaf7 c13b f643 64bc 5ce0 a23a
00000200: f7a2 a33c b450 ccbb 3643 8a3d 8299 06bd
00000210: 6667 3abc c0b4 31bd a961 413b 7252 4dbc
00000220: 08fe ff3c 74d2 513d e33b 003d f4ea 6bbb
00000230: b799 b4bc cb3a ad3d 7604 823d 1741 073c
00000240: a5a8 ee3c 6072 d93d 0fa9 c53c 5e32 bfbc
00000250: f458 c63c 1a3b 97bc 8864 31bd 9cb7 a03c
00000260: 30d4 eb3c 913a b2bc 6212 b03c 3610 12bd
00000270: b320 cd3c 5996 1f3d 7106 94bd 80b3 773c
00000280: a908 403d 85bd 913c 70f2 5c3c e8c4 583c
00000290: b464 66bc 9015 ce3b 8748 5a3c cfc3 c13c
000002a0: 0e00 81bd c638 5d3d 1f62 87bc ffd2 013b
000002b0: bd4e a23c 42ee e1bc fbbd a63d 9c9d f73c
000002c0: c777 e03c 9cff 573c e2b0 0f3c 8787 35bd
000002d0: d2ea f43c 52be 173d fce4 833c 4e69 67bc
000002e0: 4669 813d bdc1 8d3c bee4 863b 1bf6 babb
000002f0: 6456 d13d 42f3 7e3d 1299 3fbc dd8f 31bc
00000300: 28ab 6cba c620 e03c 00f4 0b3d 5362 893d
00000310: 0c9b 623d dff0 eb3c bbf4 a03b 3869 4c3d
00000320: 2b10 553d 205a 8e3c 66e8 7bbd d659 3a3d
00000330: f5ff 983d 1c7f 8e3d 410e 69bc c74a 77bc
00000340: c888 a43d 22f9 4c3c 4f0d 7d3d d738 3a3d
00000350: e297 a33c 8503 2fbc 4e64 363c c603 45bd
00000360: 2431 4d3d 7a8a 06bd 2124 f63b b1a6 7e3c
00000370: 7608 df3b f644 3cbb 03d2 9d3c 14e3 a43d
00000380: 6411 023d 3595 4ebd 6f21 e43c b906 b83b
00000390: 92de 86bc 88ca f53c 78c7 173c 0b82 39bc
000003a0: 4121 98ba 0298 8c3d 4c22 a73c 9840 b13b
000003b0: 494f 8e3c 3367 93bc 1bfe d13c 430d 2c3c
000003c0: b298 923b 5847 fe3c b28d 5cbb c784 053c
000003d0: 38fa 983d ad28 a73d d2bb 423a 4bc3 88bc
000003e0: 6659 7739 8088 fb3a f485 78bd 2158 7e3a
000003f0: 495f 2fbc 6c21 f53c 715e dbbb a437 b33c

network_body.linear_encoder.seq_layers.0.bias f4 [256]
0.00055126834 -0.02813192 0.007880972 0.0147672435 -0.003974842 0.0053399303 0.018236136 0.025798557
-0.024853019 0.024654089 0.02848638 -0.017892929 0.0004366017 -0.0013515747 -0.011424411 -0.032208133
0.022161469 -0.007465954 -0.027916934 -0.008617005 0.0052012946 -0.0032678805 -0.010247596 0.0066758376
-0.007945171 0.01235787 0.044077937 -0.017139934 -0.008668602 0.034178033 -0.004367388 0.03267864
0.045008127 -0.08451321 0.054841716 0.019943537 -0.0052273013 -0.0020204678 -0.010282967 -0.008786034
-0.0104519 -0.01925819 0.011877333 0.0077217887 -0.010848287 -0.04962444 -0.0061777025 -0.03322388
0.034237754 -0.0055988436 -0.036315475 -0.018031228 0.013117094 -0.002001539 0.007132143 -0.007047351
0.03998188 -0.034429066 -0.0019546386 -0.0017382692 -0.01791794 -0.005020974 0.012129216 -0.0073251193
0.02288501 0.03719046 0.00760462 0.007221255 -0.018565958 0.0063774055 -0.030572973 0.025646735
-0.0022743724 -0.021753775 -0.0096432 -0.018734958 -0.025871335 0.0075406544 -0.00082962675 -0.0051888544
0.001317537 -0.012273177 -0.008296775 0.007410598 0.012454168 -0.01714938 -0.015282171 -0.03265187
0.0007266655 -0.012927945 0.008226952 0.029339064 0.011475352 0.010253462 -0.02706132 -0.009212405
0.025007837 0.011633836 -0.0100791585 0.0030153838 0.024179522 0.016319914 -0.026910665 -0.023980528
0.028282952 0.009661287 -0.02842182 0.0006440015 0.028260415 0.010222966 -0.0015381939 0.042208634
0.05301325 -0.032026947 0.004528454 0.020909041 2.9335419e-05 -0.0012912969 0.030683303 0.0049993107
-0.026010172 -0.026842577 0.045653228 2.94278e-05 0.05152958 -0.02426375 -0.017753787 0.009434813
0.015189998 -0.025949836 -0.023531474 0.03185415 -0.0081445705 0.020704105 0.0015488741 -0.0010585021
0.0033368063 0.002570048 0.029364334 -0.037096918 -0.043605886 0.031524364 -0.0045292783 0.004365636
-0.005294047 0.06595713 0.03884804 0.028542785 -0.0032148166 0.006642085 -0.023785753 -0.011623602
-0.004087388 -0.0138880825 -0.0017870022 0.016291387 0.0063596675 0.039196026 -0.00034755855 0.0126989
-0.0053927987 -0.0073921564 0.011564473 -0.020907434 -0.010376809 -0.0029376994 0.02651629 -0.022866426
0.03285396 0.0039481735 0.031935774 0.038175836 0.029177396 0.021042759 -0.00609511 -0.017610224
0.051032368 -0.024242187 0.023037994 0.022853542 -0.0026639057 0.0630631 0.04028216 0.0025525065
0.038289927 0.012231953 0.04498251 0.001912741 0.0052588065 0.021705588 0.0066285282 -0.0412939
-0.021882974 0.002875922 0.0006306557 -0.038049027 0.02089228 -0.022645155 -0.0008877553 0.021683868
-0.026154319 -0.024904503 0.015294555 -0.018877609 0.0021893468 0.033154517 0.015264472 -0.0027836147
-0.003370682 -0.033798713 0.010935064 0.009968703 -0.03405134 -0.03212659 0.018513767 0.0032370402
0.015543673 -0.029050684 -0.030779773 0.015143847 -0.017669933 -0.023175023 0.0034371987 -0.0019191096
0.004199214 0.013518609 -0.010479068 0.013867915 0.040597495 0.029998146 -0.023136526 0.035042822
-0.014111741 0.016014433 -0.0027576413 0.013074151 0.0039830003 -0.025481312 0.02478937 -0.03426939
-0.00045548342 -0.0572033 0.04361185 0.006537902 0.0068824124 0.01813338 0.0152910175 -0.024516834
0.026842032 0.07124354 0.021534188 -0.012321813 0.03743433 0.020834502 -0.016528187 0.017137965
00000000: fe82 103a ea74 e6bc 311f 013c 4ff2 713c
00000010: 643f 82bb 95fa ae3b f363 953c 7f57 d33c
00000020: 8f98 cbbc 5ff7 c93c 455c e93c 3194 92bc
00000030: b0e7 e439 5227 b1ba 742d 3bbc adec 03bd
00000040: f88b b53c f6a4 f4bb 0eb2 e4bc 572e 0dbc
00000050: 9f6f aa3b f029 56bb 88e5 27bc fcc0 da3b
00000060: 762c 02bc aa78 4a3c 118b 343d 0c69 8cbc
00000070: c106 0ebc 44fe 0b3d 4e1c 8fbb 0ada 053d
00000080: 715a 383d 4315 adbd b5a1 603d a160 a33c
00000090: c849 abbb d369 04bb e479 28bc 4cf3 0fbc
000000a0: 723e 2bbc 5ac3 9dbc 2599 423c 0f07 fd3b
000000b0: 03bd 31bc ff42 4bbd 536e cabb c315 08bd
000000c0: e33c 0c3d 8176 b7bb 89bf 14bd 3ab6 93bc
000000d0: 14e9 563c 412c 03bb c0b4 e93b 77ed e6bb
000000e0: 0ac4 233d 7e05 0dbd 6519 00bb a3d6 e3ba
000000f0: a5c8 92bc fc86 a4bb 9fb9 463c 8e07 f0bb
00000100: 5879 bb3c 0655 183d 2d30 f93b 47a0 ec3b
00000110: a317 98bc 8ef9 d03b 2c74 fabc 1a19 d23c
00000120: a30d 15bb f934 b2bc 83fe 1dbc 0e7a 99bc
00000130: 1ff0 d3bc 9817 f73b 4f7b 59ba 4407 aabb
00000140: 35b1 ac3a 6f15 49bc 32ef 07bc 9ad4 f23b
00000150: 910c 4c3c db7c 8cbc 1262 7abc f8bd 05bd
00000160: b27d 3e3a bbcf 53bc 56ca 063c 7a58 f03c
00000170: 1d03 3c3c 23fe 273c b4af ddbc a1ef 16bc
00000180: 3cdd cc3c d89b 3e3c 0e23 25bc bf9d 453b
00000190: 2214 c63c 57b1 853c c173 dcbc d072 c4bc
000001a0: a6b1 e73c 604a 1e3c e0d4 e8bc 36d2 283a
000001b0: 6382 e73c 3a7e 273c 399d c9ba f6e2 2c3d
000001c0: 6c24 593d b02e 03bd 6d63 943b 7049 ab3c
000001d0: 5515 f637 bc40 a9ba 8d5b fb3c 42d1 a33b
000001e0: 4913 d5bc f7e4 dbbc e1fe 3a3d b8db f637
000001f0: ae10 533d c6c4 c6bc 6470 91bc 7994 1a3c
00000200: 78df 783c c094 d4bc 14c5 c0bc 7f79 023d
00000210: ce70 05bc a89b a93c 9703 cb3a 70bd 8aba
00000220: 52ae 5a3b 406e 283b 798d f03c f0f2 17bd
00000230: 169c 32bd b11f 013d 576a 94bb 9c0d 8f3b
00000240: af79 adbb 8814 873d 1f1f 1f3d 8fd2 e93c
00000250: acaf 52bb d9a5 d93b 57da c2bc ec70 3ebc
00000260: 7fef 85bb d78a 63bc d839 eaba 8475 853c
00000270: c264 d03b 038c 203d 8538 b6b9 0c0f 503c
00000280: 13b6 b0bb e739 f2bb ea78 3d3c 1146 abbc
00000290: 7e03 2abc 6b86 40bb b138 d93c 5f52 bbbc
000002a0: e091 063d ae5f 813b 16cf 023d 445e 1c3d
000002b0: 6f05 ef3c dd61 ac3c 7db9 c7bb 5143 90bc
000002c0: 5107 513d 8d97 c6bc 2dba bc3c 5a37 bb3c
000002d0: ec94 2ebb 3a27 813d e8fe 243d f447 273b
000002e0: e6d5 1c3d 8868 483c 953f 383d f0b4 fa3a
000002f0: 1152 ac3b ebcf b13c 2034 d93b cb23 29bd
00000300: ec43 b3bc f779 3c3b 9652 253a 4cd9 1bbd
00000310: 4926 ab3c 5582 b9bc 40b8 68ba 5ea2 b13c
00000320: 9541 d6bc 8704 ccbc 0396 7a3c 37a5 9abc
00000330: 257b 0f3b 08cd 073d d617 7a3c 4e6d 36bb
00000340: a9e6 5cbb 8570 0abd fc28 333c c553 233c
00000350: 6b79 0bbd 2c97 03bd 2faa 973c 8624 543b
00000360: e4aa 7e3c b3fb edbc dd25 fcbc e61d 783c
00000370: 89c0 90bc 8cd9 bdbc a042 613b a28a fbba
00000380: 8f99 893b 287d 5d3c 66b0 2bbc 4036 633c
00000390: 8f49 263d acbe f53c d088 bdbc 1089 0f3d
000003a0: ef34 67bc b330 833c 8bb9 34bb f734 563c
000003b0: d483 823b 2fbe d0bc 1413 cb3c 0f5e 0cbd
000003c0: f3cd eeb9 024e 6abd 57a2 323d e63b d63b
000003d0: dc85 e13b 748c 943c 2d87 7a3c 87d7 c8bc
000003e0: d2e3 db3c 22e8 913d 7768 b03c 6ee1 49bc
000003f0: bd54 193d 1ead aa3c 1f66 87bc eb64 8c3c

network_body.linear_encoder.seq_layers.0.weight f4 [256, 253]
-0.03404533 0.058428854 0.026042977 0.032405138 0.026422914 -0.035333075 0.004393949 0.008974271
0.10293508 0.08655489 0.096809104 0.027327549 -0.19002691 -0.08863274 0.17294714 0.07012434
0.082554065 0.15417135 -0.00844109 0.016222546 0.012936785 0.14218016 0.01907287 -0.020093214
-0.06996531 -0.007143117 0.10612617 0.07993562 -0.07652024 -0.031242771 0.0933945 -0.013409119
-0.06700106 -0.10043005 -0.020213969 -0.028756468 -0.0073896293 0.10769082 0.038720094 0.08769508
-0.1418421 0.008552316 -0.029284518 -0.0015759383 0.004029901 0.125859 -0.13294135 0.06480453
-0.01884163 0.20071717 -0.043672036 -0.07031569 -0.13232401 0.108812414 -0.09006749 -0.0065575787
0.059723333 0.049310517 0.02214525 -0.081050284 -0.10169265 0.17816807 -0.10616188 -0.08372333
-0.02726735 0.14746673 0.033565596 0.11875616 -0.17838989 -0.008360364 -0.15532263 -0.074052475
-0.14692491 0.1642749 -0.025089579 0.099065915 -0.024467908 -0.028731251 -0.09230012 -0.002516918
-0.09842531 0.068683684 -0.040299214 0.029629014 0.0063757435 -0.09583404 -0.2206173 0.0014851507
-0.035224736 0.011562731 0.045931462 0.008151992 -0.13653062 0.003185267 -0.046723314 -0.0827262
-0.02515667 0.24083549 -0.027454138 -0.0286993 0.073035456 -0.04965135 -0.09415103 -0.030431563
0.0010662175 0.18042669 -0.14114729 0.0570501 -0.1534641 -0.04493831 -0.020402467 0.13401353
-0.117038734 0.045126095 -0.10938781 0.14403823 -0.14983834 -0.075844966 0.025970211 0.027174044
0.025966777 0.17604972 -0.036299095 0.034544516 0.03263431 0.05444418 -0.16298062 0.18903655
0.03567533 0.033565406 0.08176641 0.22730784 0.008056768 -0.09146198 -0.034342133 0.11039849
0.035155036 0.046420462 -0.009569615 -0.042905457 -0.06383062 0.0742709 -0.069150664 0.115750395
0.061389048 -0.03132606 0.08031791 -0.008893294 -0.017529022 -0.019410362 0.07729028 0.08126965
0.03997468 0.0610721 0.008942027 -0.15326175 -0.08155722 -0.04857764 0.10422883 0.20821756
0.12157939 0.052102853 0.08376932 -0.03093665 -0.08057571 -0.096434794 0.007504599 0.11491957
0.05700738 -0.039988376 -0.041026752 0.007583442 -0.10831352 -0.1655424 -0.024153635 0.2203617
0.006036533 0.0421242 -0.05304968 -0.10511245 -0.10014472 -0.09802533 -0.07822721 0.13411048
0.068490736 -0.0018434682 0.0022529105 -0.21100423 -0.048274674 -0.18758902 -0.026143186 0.22254054
0.029787462 0.054295693 0.015437795 -0.054906342 -0.083718814 -0.06511963 -0.01577483 0.025871802
0.18013702 -0.0340477 0.061985645 -0.014500685 -0.010621682 -0.2913504 -0.043302663 0.13883576
0.09678986 0.10460262 0.031223554 0.060773868 -0.0066965125 -0.18703727 -0.04576719 0.10663342
0.0643778 0.117356315 0.11314801 0.111542925 -0.028125267 -0.024581198 0.11647358 0.014020762
-0.06548267 0.07391333 0.18417734 -0.0070963944 -0.07154371 -0.17382066 -0.054472033 -0.02412786
0.012150601 0.31804693 0.20427068 -0.010748625 -0.1263764 -0.026368 -0.13542584 -0.03858176
-0.0068591377 0.16357861 0.11791007 -0.07460779 -0.066999145 -0.1926531 -0.22654416 -0.044630617
-0.0197474 0.09144811 0.26108804 -0.16953374 -0.14866748 0.019517694 0.05234122 -0.060120117
00000000: 1e73 0bbd 1853 6f3d 1558 d53c 40bb 043d
00000010: de74 d83c 6ab9 10bd 1efb 8f3b d208 133c
00000020: a1cf d23d b143 b13d da43 c63d 06de df3c
00000030: 6a96 42be 1585 b5bd 0e19 313e 5a9d 8f3d
00000040: 1b12 a93d 18df 1d3e 7f4c 0abc 25e5 843c
00000050: cff4 533c ad97 113e b53e 9c3c 869a a4bc
00000060: f949 8fbd cf10 eabb ad58 d93d 49b5 a33d
00000070: a5b6 9cbd d7f0 ffbc 9e45 bf3d ecb1 5bbc
00000080: da37 89bd 45ae cdbd c497 a5bc af92 ebbc
00000090: b424 f2bb 018d dc3d f698 1e3d 7a99 b33d
000000a0: 0e3f 11be 031f 0c3c 16e6 efbc b78f ceba
000000b0: 430d 843b 2fe1 003e c721 08be 3db8 843d
000000c0: c359 9abc cd88 4d3e 73e1 32bd ac01 90bd
000000d0: f27f 07be 0bd9 de3d 4e75 b8bd f5e0 d6bb
000000e0: 74a0 743d d3f9 493d f569 b53c b1fd a5bd
000000f0: 3c44 d0bd b171 363e 666b d9bd 2377 abbd
00000100: c75f dfbc 8501 173e 147c 093d 6e36 f33d
00000110: d7ab 36be e8f9 08bc e50c 1fbe d3a8 97bd
00000120: 7c73 16be ae37 283e a988 cdbc 12e3 ca3d
00000130: ec70 c8bc cd5d ebbc d807 bdbd e0f2 24bb
00000140: 3593 c9bd 08aa 8c3d ca10 25bd 8cb8 f23c
00000150: 9deb d03b a344 c4bd 80e9 61be 63a9 c23a
00000160: d047 10bd 9c71 3d3c a122 3c3d ef8f 053c
00000170: afce 0bbe eabf 503b f260 3fbd 5b6c a9bd
00000180: 5c15 cebc 949d 763e 80e7 e0bc cb1a ebbc
00000190: 9d93 953d 375f 4bbd 41d2 c0bd 9d4b f9bc
000001a0: 53c0 8b3a c6c1 383e ea88 10be 5ead 693d
000001b0: b125 1dbe 3c11 38bd 1323 a7bc d83a 093e
000001c0: 01b2 efbd 24d6 383d b706 e0bd c27e 133e
000001d0: 396f 19be 9b54 9bbd 7bbf d43c 1a9c de3c
000001e0: 47b8 d43c 6146 343e 5cae 14bd 8d7e 0d3d
000001f0: 8eab 053d dc00 5f3d 64e4 26be cc92 413e
00000200: 4b20 123d e17b 093d 2675 a73d 63c3 683e
00000210: 8900 043c 6b50 bbbd 56aa 0cbd 9b18 e23d
00000220: bafe 0f3d 6223 3e3d e0c9 1cbc a2bd 2fbd
00000230: a1b9 82bd 571b 983d dd9e 8dbd 8b0e ed3d
00000240: 1573 7b3d c14f 00bd b77d a43d 2eb5 11bc
00000250: 0699 8fbc 7b02 9fbc 5e4a 9e3d b470 a63d
00000260: 7dbc 233d bd26 7a3d 9481 123c a6f0 1cbe
00000270: 7907 a7bd 59f9 46bd ed75 d53d fc36 553e
00000280: 9dfe f83d cd69 553d 408f ab3d db6e fdbc
00000290: e104 a5bd 9b7f c5bd 24e9 f53b f45a eb3d
000002a0: 9280 693d daca 23bd ab0b 28bd 867e f83b
000002b0: 7bd3 ddbd f283 29be d8dd c5bc 7fa6 613e
000002c0: 1cce c53b 6d8a 2c3d 9f4a 59bd 3245 d7bd
000002d0: ad18 cdbd 81c1 c8bd 9635 a0bd 4254 093e
000002e0: df44 8c3d 87a0 f1ba 91a5 133b 7e11 58be
000002f0: aabb 45bd 5617 40be 3c2a d6bc abe1 633e
00000300: d604 f43c 2965 5e3d ceee 7c3c 79e5 60bd
00000310: c574 abbd 715d 85bd 373a 81bc 1af1 d33c
00000320: d775 383e 9a75 0bbd a9e4 7d3d 4894 6dbc
00000330: 9006 2ebc e12b 95be 225e 31bd f62a 0e3e
00000340: c339 c63d e639 d63d 8ac8 ff3c 05ee 783d
00000350: 6b6e dbbb b386 3fbe 6176 3bbd 9f62 da3d
00000360: 82d8 833d 8258 f03d 25ba e73d 9e70 e43d
00000370: f666 e6bc 825e c9bc b389 ee3d 57b7 653c
00000380: c71b 86bd df5f 973d fc98 3c3e df88 e8bb
00000390: 8285 92bd 0bfe 31be 111e 5fbd caa7 c5bc
000003a0: 5013 473c 0cd7 a23e 552c 513e 001b 30bc
000003b0: d168 01be b401 d8bc 12ad 0abe e807 1ebd
000003c0: 9ec2 e0bb 2781 273e d67a f13d f8cb 98bd
000003d0: d936 89bd db46 45be 31fb 67be 98ce 36bd
000003e0: 4dc5 a1bc 2649 bb3d 55ad 853e 419a 2dbe
000003f0: 4a3c 18be 92e3 9f3c bf63 563d 8340 76bd

network_body.linear_encoder.seq_layers.2.bias f4 [256]
0.0053802263 -0.014649416 -0.05614235 0.0024431213 -0.03075723 0.022017207 -0.0028716326 -0.022043603
-0.009500068 -0.06708691 -0.0118973935 -0.06851345 -0.014950697 -0.013297427 0.0009393274 0.0014357028
-0.01435351 -0.056988474 -0.00884644 -0.040388387 -0.014777652 -0.009037002 -0.035963878 -0.02605506
-0.022621777 -0.012576964 0.008612944 -0.0333828 -0.054059684 -0.023668034 -0.032692462 -0.040137175
-0.006571792 -0.001481968 -0.020925105 -0.03269173 0.011814394 -0.011258429 -0.050028805 -0.07917798
-0.010365416 -0.029134788 -0.024956096 0.012411187 -0.042516857 -0.04128289 -0.01824288 -0.028198345
-0.06772215 -0.03224242 0.009959647 0.016806245 -0.01441339 -0.015061496 -0.046305273 -0.05860162
-0.10362661 -0.040871534 -0.024591496 0.012736681 0.0045218323 -0.07748112 -0.033016175 -0.032048658
-0.05698321 -0.031404216 -0.027217144 -0.030045891 0.018589823 -0.047452204 -0.052530345 -0.046448737
-0.003117477 -0.035372604 0.012085232 -0.03290441 -0.039510798 -0.026621355 -0.03077473 -0.008234324
-0.035419606 -0.033002187 -0.0025069825 -0.08671733 -0.0069001727 -0.029353326 -0.04366033 -0.024685722
-0.01602001 -0.070855126 -0.12134392 0.030675534 -0.04005838 -0.024220238 0.01718832 -0.085335076
-0.010961048 -0.048276544 -0.046320744 -0.0013459047 0.032273322 0.022220032 -0.02934983 -0.05855684
0.008292529 -0.026413875 -0.052286353 -0.016995503 -0.042737074 -0.068284735 -0.07583119 -0.04324224
-0.038072795 -0.07481893 0.0039018304 0.007882011 -0.017033933 -0.049575716 -0.014798248 -0.041427486
-0.013526252 -0.031815514 -0.023337154 -0.059479956 -0.0458083 -0.054643717 -0.0064765224 -0.05226909
-0.024221996 -0.029547133 -0.0012809075 -0.031657208 -0.089625105 0.018823843 -0.018417247 -0.013734644
-0.027634334 -0.016262555 -0.002252259 0.016711809 -0.02840036 -0.011104988 -0.0225889 0.0061143907
-0.032899234 -0.040937 -0.043716002 -0.06299274 -0.023336954 -0.003146534 -0.006156691 -0.09130742
-0.054880887 -0.01719409 -0.055338062 -0.049588766 -0.005681688 -0.01772502 0.044037506 -0.055189278
-0.042731322 0.006436685 -0.035465617 -0.036755152 -0.034675155 -0.05523932 -0.0701507 -0.03141801
-0.014074275 -0.0321286 -0.018770168 -0.014653557 -0.054030694 -0.007650018 -0.05939096 -0.05411921
0.045567658 -0.043272126 0.017158197 -0.017697988 0.0017381432 -0.03844087 -0.0044813794 -0.028272433
-0.019900845 -0.042461365 -0.04760937 -0.04997853 0.017166564 -0.00194027 0.0030396788 -0.018187081
-0.06206252 -0.014212754 -0.04139513 0.025596397 -0.06475387 0.01157659 -0.049044102 0.008070935
-0.04299431 0.0054666037 -0.028028175 -0.03185097 0.035586692 -0.017418735 -0.039732426 -0.0034959344
-0.02022307 -0.043275688 -0.0065539423 -0.03318991 -0.013273102 -0.058996953 -0.0746747 0.01728488
-0.04952546 -0.0728972 -0.041966658 -0.050463576 -0.06254404 -0.05089352 -0.042432446 -0.03744756
-0.06013378 -0.0125305345 -0.03740022 -0.011715142 0.0045796153 0.0034012378 -0.013027412 -0.072578825
0.013509585 -0.0004491336 -0.058871478 -0.07232228 -0.034262132 -0.10648456 -0.017082328 -0.06763706
-0.03351239 -0.022105487 -0.013453537 -0.045202095 -0.008193553 -0.009657812 -0.025324104 0.034026194
-0.035087757 0.0285873 -0.0039698593 -0.017272677 -0.035202682 -0.038239982 -0.0077915816 0.015140602
00000000: 9c4c b03b 1b04 70bc 85f5 65bd c61c 203b
00000010: 96f6 fbbc 6e5d b43c 0032 3cbb c994 b4bc
00000020: 2ca6 1bbc dd64 89bd 49ed 42bc c850 8cbd
00000030: c5f3 74bc 74dd 59bc 323d 763a 312e bc3a
00000040: fc2a 6bbc bf6c 69bd a9f0 10bc 4b6e 25bd
00000050: f71d 72bc ef0f 14bc dc4e 13bd 6c71 d5bc
00000060: 4e51 b9bc 9c0f 4ebc 4e1d 0d3c 67bc 08bd
00000070: b06d 5dbd 77e3 c1bc 88e8 05bd e166 24bd
00000080: 3058 d7bb 983e c2ba 206b abbc c3e7 05bd
00000090: 2991 413c 4675 38bc 01eb 4cbd 1128 a2bd
000000a0: b5d3 29bc 14ac eebc ba70 ccbc 4b58 4b3c
000000b0: 2826 2ebd 3f18 29bd 1872 95bc 3700 e7bc
000000c0: e9b1 8abd a110 04bd ca2d 233c 40ad 893c
000000d0: 2426 6cbc 7ec4 76bc 99aa 3dbd 4108 70bd
000000e0: 303a d4bd e968 27bd 1b74 c9bc 83ad 503c
000000f0: e12b 943b 6cae 9ebd f83b 07bd 7445 03bd
00000100: 3a67 69bd b5a1 00bd 7df6 debc cd22 f6bc
00000110: af49 983c 3e5d 42bd 0f2a 57bd 0841 3ebd
00000120: 964e 4cbb dde2 10bd 2301 463c c6c6 06bd
00000130: 13d6 21bd 0715 dabc 491b fcbc 42e9 06bc
00000140: 2614 11bd 4d2d 07bd 304c 24bb db98 b1bd
00000150: d81a e2bb 6376 f0bc 2dd5 32bd b639 cabc
00000160: 653c 83bc 7e1c 91bd 2983 f8bd 424b fb3c
00000170: 4214 24bd 8569 c6bc 85ce 8c3c 28c4 aebd
00000180: f895 33bc a0bd 45bd d2ba 3dbd 1169 b0ba
00000190: 0831 043d c906 b63c 0e6f f0bc 4cd9 6fbd
000001a0: 63dd 073c e961 d8bc 372a 56bd 273a 8bbc
000001b0: 120d 2fbd ded8 8bbd 624d 9bbd c61e 31bd
000001c0: 38f2 1bbd ab3a 99bd dab5 7f3b 8d23 013c
000001d0: bf8a 8bbc e80f 4bbd 5a74 72bc deaf 29bd
000001e0: 369d 5dbc fc50 02bd 8f2d bfbc 41a1 73bd
000001f0: 7ca1 3bbd 17d2 5fbd 0239 d4bb 1d18 56bd
00000200: 356d c6bc d40c f2bc 20e4 a7ba fdaa 01bd
00000210: 5e8d b7bd 7634 9a3c c4df 96bc 4607 61bc
00000220: 6661 e2bc 0d39 85bc a39a 13bb 34e7 883c
00000230: dfa7 e8bc b2f1 35bc 5b0c b9bc 3a5b c83b
00000240: 59c1 06bd 8ead 27bd 8d0f 33bd 5602 81bd
00000250: 242d bfbc 1536 4ebb 11be c9bb 62ff babd
00000260: c8ca 60bd 9fda 8cbc 2aaa 62bd 971d 4bbd
00000270: 742d babb 1034 91bc ac60 343d 270e 62bd
00000280: 0a07 2fbd d4ea d23b 6544 11bd 928c 16bd
00000290: 8907 0ebd a042 62bd 2cab 8fbd 2cb0 00bd
000002a0: ca97 66bc 4799 03bd e5c3 99bc 7915 70bc
000002b0: 4a4f 5dbd 01ad fabb ef43 73bd 1bac 5dbd
000002c0: 27a5 3a3d 1d3e 31bd 598f 8c3c 5ffb 90bc
000002d0: 68d2 e33a 2c74 1dbd 89d8 92bb 979b e7bc
000002e0: 1907 a3bc f8eb 2dbd 0b02 43bd 49b6 4cbd
000002f0: e5a0 8c3c a850 feba 5935 473b 13fd 94bc
00000300: 4535 7ebd 9cdc 68bc f18d 29bd 89af d13c
00000310: ad9d 84bd bdab 3d3c 78e2 48bd f43b 043c
00000320: cd1a 30bd 3221 b33b 589b e5bc 2a76 02bd
00000330: 5ac3 113d bcb1 8ebc 78be 22bd 0c1c 65bb
00000340: daaa a5bc d941 31bd 74c2 d6bb 25f2 07bd
00000350: 6d77 59bc caa6 71bd 0def 98bd 0599 8d3c
00000360: 35db 4abd 214b 95bd 3be5 2bbd e5b2 4ebd
00000370: 1717 80bd b975 50bd a5cd 2dbd 9d62 19bd
00000380: d74e 76bd df4c 4dbc f930 19bd def0 3fbc
00000390: 9910 963b 4de7 5e3b ed70 55bc 35a4 94bd
000003a0: 4e57 5d3c b179 ebb9 3823 71bd b41d 94bd
000003b0: 7356 0cbd 9414 dabd 3df0 8bbc 4d85 8abd
000003c0: 4a44 09bd 9116 b5bc 396c 5cbc d525 39bd
000003d0: 413e 06bc cd3b 1ebc 7f74 cfbc 0d5f 0b3d
000003e0: 2eb8 0fbd ea2f ea3c 9815 82bb 6e7f 8dbc
000003f0: b030 10bd 87a1 1cbd 8650 ffbb 4a10 783c

network_body.linear_encoder.seq_layers.2.weight f4 [256, 256]
0.19418244 -0.16087724 -0.02461277 -0.04548868 0.13721749 0.061281156 -0.049168684 0.12744993
0.06568898 -0.011665738 -0.0060624736 0.06497717 -0.11234382 -0.10037406 0.03843126 -0.070005186
0.04958326 -0.12562548 0.1439746 0.054161895 -0.06094094 -0.020607317 0.100012936 0.10023828
0.14870203 0.039025545 -0.07505539 -0.07298905 -0.069389015 -0.023345996 -0.022371473 -0.0050977003
0.10080211 0.13610274 -0.019423062 -0.0794782 0.07456817 -0.08167583 0.05846642 0.052036334
-0.17988153 0.033191834 0.09003587 0.14273223 0.04197679 0.013126749 0.12863724 -0.1100025
-0.07800424 0.13096456 0.07179425 0.115768366 0.07326221 -0.023539796 0.031595252 -0.022554338
0.04854479 -0.026722033 0.10773988 0.015863346 0.048445415 0.027753389 -0.062258907 -0.009297093
0.1215168 -0.05338491 0.06700395 -0.035531595 -0.16180332 -0.0944399 0.017435465 -0.028100906
-0.20351076 0.022486666 0.10461635 0.05682032 -0.03537164 0.019210154 -0.034700457 -0.03314249
0.015765019 0.070934765 -0.15178479 -0.09076069 0.12182498 0.003399163 -0.034832884 0.17871349
-0.08571667 0.1530096 -0.07610999 0.05206618 0.102127515 -0.115063675 0.112311475 -0.04600641
0.121170096 -0.040856764 -0.009713338 -0.06797658 -0.013225096 -0.098565795 0.08064072 -0.060527842
0.061404563 -0.050690033 -0.02335113 -0.0799513 0.124137364 0.0031503963 -0.06786973 0.1600338
-0.08409933 -0.018188044 -0.011838502 -0.031139769 -0.03983493 -0.002646223 0.051877487 0.07959511
-0.06402723 -0.08571022 -0.08992504 -0.083963685 0.10707434 -0.07258241 0.060111467 -0.06729881
0.022066733 -0.07139156 -0.10483867 -0.07575601 0.1750663 0.18332057 0.03763485 0.043475132
0.10450244 0.15463817 -0.17497903 -0.09102843 -0.044680648 0.030354053 0.06016758 0.074840665
-0.10261104 -0.008297394 -0.09194061 -0.08936086 0.013597485 0.01914623 -0.08517007 0.16743131
-0.0062347795 -0.02718078 0.0071106087 0.1837183 0.10294808 0.09375756 0.10474212 -0.06692878
0.1254786 0.06502509 -0.01637828 -0.037199244 0.00696892 0.1208857 -0.06842642 -0.07830607
-0.07543758 -0.09499547 0.021593288 -5.14104e-05 -0.097788915 0.083861805 0.1419694 0.05202835
0.047796942 -0.048586097 0.16510335 -0.028693838 -0.005606283 -0.082963735 0.017313931 0.048356216
-0.15808785 0.122158036 0.06893996 -0.0070421975 0.08607125 0.018074067 0.02852397 -0.19312993
0.04866066 -0.029672397 -0.1391776 -0.10529444 0.010323331 0.022569876 -0.057241526 -0.018949568
-0.024634311 -0.13557978 0.17248197 0.17764482 -0.018420553 0.07761645 -0.062484834 -0.1042222
0.07825358 0.037403006 0.026204659 -0.03324371 -0.03843101 -0.035835724 0.12152568 -0.03193642
-0.05835072 0.014274698 -0.03223307 0.20201187 0.04245068 -0.101335466 0.046905193 -0.008787267
0.05502329 -0.02561623 0.12311221 0.008554925 0.11194415 0.008793362 -0.014955286 0.01814053
0.13642552 0.08386251 -0.06912505 0.14489067 0.094744734 0.012444282 0.08732037 0.038657486
0.0888311 -0.031334035 -0.12285284 -0.07422786 -0.023673305 -0.13076958 -0.0008755583 0.0075694737
-0.011318047 -0.00020294258 0.06455167 0.16186032 -0.090927415 0.06532506 -0.02403206 -0.068657644
00000000: c3d7 463e 01bd 24be b8a0 c9bc 5752 3abd
00000010: be82 0c3e f301 7b3d 1a65 49bd 3c82 023e
00000020: f287 863d a721 3fbc b7a7 c6bb c012 853d
00000030: 8414 e6bd ea90 cdbd 196a 1d3d e15e 8fbd
00000040: d117 4b3d f7a3 00be 146e 133e ddd8 5d3d
00000050: 359d 79bd add0 a8bc 95d3 cc3d ba49 cd3d
00000060: 5845 183e 40d9 1f3d a4b6 99bd 487b 95bd
00000070: d41b 8ebd 1a40 bfbc 6144 b7bc 9c0a a7bb
00000080: 5671 ce3d 845e 0b3e 1d1d 9fbc 77c5 a2bd
00000090: 32b7 983d a845 a7bd 7c7a 6f3d 0d24 553d
000000a0: dd32 38be 29f4 073d ba64 b83d 6628 123e
000000b0: dbef 2b3d 9311 573c 7bb9 033e fe48 e1bd
000000c0: b0c0 9fbd 931b 063e dd08 933d f717 ed3d
000000d0: 7f0a 963d 88d6 c0bc 066a 013d e0c3 b8bc
000000e0: e7d6 463d 2ae8 dabc baa6 dc3d d9f3 813c
000000f0: b36e 463d 135b e33c 3203 7fbd d652 18bc
00000100: cddd f83d 23aa 5abd 5e39 893d 9489 11bd
00000110: c5af 25be b569 c1bd d2d4 8e3c df33 e6bc
00000120: 2065 50be f535 b83c 1941 d63d 6dbc 683d
00000130: dae1 10bd 9d5e 9d3c 1122 0ebd 6bc0 07bd
00000140: a425 813c 3f46 913d 796d 1bbe bee0 b9bd
00000150: 607f f93d 7ec4 5e3b edac 0ebd ab00 373e
00000160: 398c afbd 8cae 1c3e 8edf 9bbd 5943 553d
00000170: 3b28 d13d 81a6 ebbd 8f03 e63d 3871 3cbd
00000180: 0728 f83d 6c59 27bd b124 1fbc 4e37 8bbd
00000190: 13ae 58bc dddc c9bd f626 a53d 0bec 77bd
000001a0: 5a83 7b3d 5aa0 4fbd de4a bfbc 82bd a3bd
000001b0: bb3b fe3d e176 4e3b 49ff 8abd e7df 233e
000001c0: 453c acbd 18ff 94bc 47f6 41bc d418 ffbc
000001d0: f429 23bd 416c 2dbb 7d7d 543d c302 a33d
000001e0: b520 83bd d788 afbd 9f2a b8bd 27f5 abbd
000001f0: cb49 db3d 16a6 94bd 7137 763d f5d3 89bd
00000200: 4bc5 b43c bd35 92bd a8b5 d6bd f825 9bbd
00000210: 9544 333e 63b8 3b3e 0027 1a3d fb12 323d
00000220: 6005 d63d 7859 1e3e b42d 33be 1d6d babd
00000230: 0e03 37bd 10a9 f83c 4872 763d 1046 993d
00000240: bd25 d2bd cbf1 07bc 5c4b bcbd d402 b7bd
00000250: fcc7 5e3c 8ed8 9c3c a56d aebd 1d73 2b3e
00000260: 1f4d ccbb 3aaa debc 1c00 e93b a620 3c3e
00000270: 71d6 d23d f703 c03d 0983 d63d f511 89bd
00000280: 767d 003e e02b 853d be2b 86bc 3c5e 18bd
00000290: 8a5b e43b ec92 f73d 2723 8cbd ef5e a0bd
000002a0: 057f 9abd fc8c c2bd 68e4 b03c 7fa1 57b8
000002b0: 8e45 c8bd bdbf ab3d 6d60 113e ae1b 553d
000002c0: bac6 433d 3702 47bd da10 293e 570f ebbc
000002d0: e9b4 b7bb e4e8 a9bd f2d5 8d3c 2b11 463d
000002e0: c8e1 21be fe2d fa3d 6530 8d3d 3cc2 e6bb
000002f0: 2046 b03d 1110 943c 1aab e93c dac3 45be
00000300: 6650 473d 8713 f3bc 9384 0ebe 9da4 d7bd
00000310: 3023 293c 76e4 b83c 1776 6abd 203c 9bbc
00000320: e5cd c9bc 6dd5 0abe 1d9f 303e 86e8 353e
00000330: b3e6 96bc 60f5 9e3d 19f0 7fbd 7372 d5bd
00000340: 6a43 a03d e533 193d 27ab d63c 8e2a 08bd
00000350: d669 1dbd 7bc8 12bd 75e2 f83d c3cf 02bd
00000360: 2a01 6fbd 6ce0 693c d306 04bd 33dc 4e3e
00000370: c4e0 2d3d f888 cfbd a91f 403d 78f8 0fbc
00000380: 1a60 613d 21d9 d1bc 4122 fc3d f529 0c3c
00000390: f942 e53d 0912 103c 0407 75bc 739b 943c
000003a0: 22b3 0b3e 1cc0 ab3d 6f91 8dbd 385e 143e
000003b0: 8709 c23d 1ae3 4b3c 06d5 b23d 5057 1e3d
000003c0: 14ed b53d 1e58 00bd 459a fbbd c704 98bd
000003d0: 85ee c1bc 76e8 05be b985 65ba 5909 f83b
000003e0: 546f 39bc fccc 54b9 aa33 843d b6be 253e
000003f0: 2738 babd 25c9 853d e2de c4bc 619c 8cbd
