Project/Assets/MyProject/Chaser/Chaser Vs. Runner 2/brain/RunnerBrain.onnx (onnx, 440754 bytes, 6 tensors)

action_model._discrete_distribution.branches.0.bias f4 [7]
00000000: 00fb 163d 2c17 03bd 0ab1 18bd 028b 793c
00000010: a796 c13c 274b 60bc 33d9 523c
0.036860466 -0.03200452 -0.037278213 0.015230896 0.023631407 -0.013689793 0.012869167

action_model._discrete_distribution.branches.0.weight f4 [7, 256]
00000000: d88b f43b c403 a5bc 3a39 9cbc 5197 7ebc
00000010: a001 bebb 7267 063c 5da9 d5bc f8d4 48bc
00000020: d85b c63c 58de 1cb8 43c3 3e3a 4c51 813c
00000030: bfc8 43bc 6ca5 04bc eeae 7a3c 4ba4 363b
00000040: 42e3 15bc 7029 0ebc 0783 f8ba d7a3 173c
00000050: 25cc 0abc 84e9 b4bc 8296 83bc 6133 923c
00000060: e0c2 293c 139f 923b 9fe5 87bb bbc2 4b3c
00000070: 6738 8b3b d915 94bc 2005 fdbb e74c 20bd
00000080: 1fc5 9ebc 3fc8 10bd 8779 0bbc 8b7b ac3c
00000090: c25d 73bd 3690 20bc 6544 223b 85a1 77bc
000000a0: cb83 8abc aab2 c23c 4a43 b7bc 1f94 2bbc
000000b0: 6c12 38bc 8580 7b3c f7b3 e33b cd1b 9ebb
000000c0: 3d61 683c 07ae 78bd 22cc 1abb cc8a aabc
000000d0: e705 b73c 0504 043a 1c92 3f3c bfaf 26bd
000000e0: 4214 4f3c be5f 83bb 067f ca3c a452 5dbb
000000f0: f780 7fbc 84a7 34bc c628 d6ba f3d4 29bb
00000100: c910 66bc d147 a3bc ee88 ac3c 0fe5 e4bb
00000110: 0c04 febc 0e9e 3abb b3ef bc3c 5374 77bc
00000120: 6a01 833c a926 b8bb d388 b7bc 8366 97bc
00000130: 6e23 86bb c9c6 39bc 4b19 f838 fdbb bf3c
00000140: bbb5 92bb 95a5 68bc e7af f5bb a1ce b9bb
00000150: 6453 5b3b caa1 13bd 7765 333c b891 ab39
00000160: 3db8 74bc 88b6 423c 5f96 12bd efe0 293c
00000170: ba07 95bc b21e d2bc 52c3 85bc 0087 253c
00000180: b10a 533c 40f9 153c a363 c93b 7ad0 d23c
00000190: 35c9 9dbc a830 58bc de15 e0bb 0c50 a53c
000001a0: 9a0c 083d 3c67 06bd 0a4d c8b9 f317 37bc
000001b0: e072 bbbc d272 b539 d7bc 63bb 2d2f a03b
000001c0: 7674 21bc 2b2e 58bc bd5c e53b 190f 1dbc
000001d0: 4ead 00bd 2ffd 8e3b 86be e93c 1a68 233c
000001e0: 77c0 3f3c af80 98bc 2f73 9abc 6670 fd3b
000001f0: 359d bcbc 2e6e 1fbb c385 dc3a 91d6 15bd
00000200: 5fcc 8fba dc70 1ebd 5916 debc d1df aabc
00000210: d46a 81bb 047c 90bb 5d37 1a3c 52c1 c2bb
00000220: c482 c4bb ddb0 cf3b 8352 c6bb fbfd d9bc
00000230: 5035 ab3b 3e1a c6bc 48ed a9bb 5545 f9bc
00000240: 8aba 16bd 2c8b 74bc 7092 9fbc 64eb 81bc
00000250: 4fb0 013d 9d1d a03b 14c8 333c 5490 1fba
00000260: 5271 dc3b 6228 383b dfdb 71bb 04c6 513c
00000270: 0728 d1bb 9e3d 4f3c d795 ef38 bcbb b0bc
00000280: d418 ffb8 a93a 24bc e07f ad3b 9fd6 adbb
00000290: 2d05 60bc 1a44 503b 9e88 783c 80e6 97bc
000002a0: 68d2 2fbd 17c0 4bbc b585 15bc b89b 3bbd
000002b0: ec08 b33c 5fe5 ec3b 2e31 c9bc c0cf 3abc
000002c0: 4b49 f03b 6f94 67bb af2b 4ebc 1437 06bd
000002d0: 6f6f be3b 69a9 1dbd 0472 453c 0d0f f5bc
000002e0: 0f58 30bb 88e3 33bc e9c5 98bc 7c97 6bba
000002f0: 201d 99bb 29c3 e43c abba e7bb 46ff 8e3c
00000300: 45ea 22bc eed6 463c b404 cc3c 8f24 f8bb
00000310: b01e 0f3c 4018 ed3b bdbd bf3b 5a90 25bc
00000320: c203 9c3c 51c8 31bb 1afe ccbc 2dd3 1ebd
00000330: df6d cfbc 17fb 443c e1a0 20bc 3182 34bc
00000340: 22d7 993b 5ca6 f0ba f65b 823c 83cf d5bc
00000350: 7cd7 183c 60dc 683c 33cd cd3c dcae 75bd
00000360: 0938 e03b 1551 84bb 9980 0a3c b52c 343a
00000370: 06b6 85bc 9246 a23c 85d5 e3bc 1cd8 733b
00000380: 40df 54bc 0a77 ccbc d308 28bb 278b a6bb
00000390: 10a5 3dbd 9b33 523c cf86 103c 0944 b9bb
000003a0: 7d17 09bd 83fc e1bc 1783 cebb 1f84 babc
000003b0: 22ab 1738 27c1 01bc 2c72 97bb 4d7e 54bc
000003c0: add0 5cbd abf9 033c f95b 2e3c 8a2a 323c
000003d0: d25a fa3c f4ca 903b 0a02 96bb 244c 483d
000003e0: 24eb 313c b4f9 55bc 7716 1f3c f0ab 803c
000003f0: 08ff 98bc b62b b73c 2dc7 1fbb c0f8 e7bc
0.0074629597 -0.020143397 -0.019070257 -0.015539006 -0.0057985336 0.008203374 -0.026081735 -0.012257807
0.024213716 -3.7400372e-05 0.0007277021 0.015785836 -0.011949717 -0.00809608 0.015300496 0.0027868922
-0.009148421 -0.008676872 -0.0018959948 0.009255371 -0.008471523 -0.022084005 -0.016062979 0.017846765
0.010361403 0.0044745295 -0.004147246 0.012436564 0.004248667 -0.018076824 -0.007721558 -0.03913584
-0.019381104 -0.03534722 -0.008512861 0.021055004 -0.059415586 -0.009800008 0.0024760005 -0.015114193
-0.016908547 0.023766834 -0.022370953 -0.010472327 -0.011234861 0.015350466 0.0069489437 -0.0048250915
0.01418334 -0.06071284 -0.0023620208 -0.020818137 0.022341682 0.00050359993 0.01169255 -0.04069495
0.012639107 -0.004009216 0.024718773 -0.0033771181 -0.015594712 -0.011026267 -0.0016339056 -0.002591428
-0.014042088 -0.019931706 0.021061387 -0.0069853137 -0.03100779 -0.0028475556 0.023063516 -0.015103417
0.015991885 -0.005619843 -0.02240411 -0.018481499 -0.004093579 -0.011338898 0.00011830273 0.02340507
-0.0044772304 -0.014199634 -0.007497776 -0.005670384 0.0033466453 -0.036042966 0.010949484 0.0003272423
-0.014936504 0.011884339 -0.035787936 0.01036857 -0.01819216 -0.025649402 -0.016328488 0.010102987
0.012880967 0.009153664 0.006145911 0.025734175 -0.019260982 -0.013195194 -0.0068385443 0.02017977
0.033215143 -0.032813296 -0.0003820437 -0.0111751435 -0.022881925 0.00034608558 -0.0034750008 0.0048884363
-0.009854427 -0.013194601 0.0069995807 -0.009586119 -0.031415276 0.004363678 0.028533231 0.00997355
0.011703602 -0.018616049 -0.018853752 0.007734346 -0.02302418 -0.0024327147 0.0016824532 -0.03658158
-0.0010970942 -0.03868185 -0.027110266 -0.020858677 -0.0039495025 -0.004409315 0.009412614 -0.0059434557
-0.005997034 0.0063382224 -0.0060523166 -0.026610365 0.005224861 -0.024182435 -0.005185757 -0.030428568
-0.03679899 -0.014925759 -0.019479007 -0.015859313 0.03166228 0.0048863427 0.010972995 -0.0006086875
0.006727376 0.0028100242 -0.0036904735 0.012803558 -0.0063829455 0.012648968 0.00011424318 -0.021573894
-0.00012163972 -0.010023751 0.005294785 -0.005305126 -0.013673109 0.0031778873 0.015169291 -0.018542528
-0.04292527 -0.0124359345 -0.0091261165 -0.0458028 0.02185484 0.0072294916 -0.024559584 -0.0114020705
0.007332956 -0.0035336276 -0.012583657 -0.03276737 0.0058116238 -0.03849164 0.012051109 -0.029914403
-0.0026907956 -0.010979541 -0.018649058 -0.00089871115 -0.0046726614 0.02792509 -0.007071813 0.017455708
-0.0099435495 0.012136204 0.024904586 -0.0075727175 0.008735344 0.007235557 0.005851476 -0.010105217
0.01904476 -0.0027127455 -0.025023509 -0.03877561 -0.025320945 0.012022755 -0.0098039815 -0.011017368
0.0046948353 -0.0018360126 0.015912991 -0.026099926 0.009328719 0.014212698 0.02512226 -0.059981212
0.0068426174 -0.004037986 0.008453512 0.0006873117 -0.016322147 0.019809041 -0.027811775 0.0037207669
-0.01299268 -0.024959106 -0.0025640025 -0.005082506 -0.046299994 0.0128296865 0.008821203 -0.0056538624
-0.033469666 -0.027586227 -0.006302248 -0.022768078 3.6160585e-05 -0.007919586 -0.0046217646 -0.012969566
-0.053909946 0.008055131 0.010642045 0.0108744 0.030560885 0.004418725 -0.00457788 0.04890074
0.010859285 -0.013060022 0.009709946 0.015706986 -0.018676296 0.02235971 -0.0024380193 -0.028316855

network_body.linear_encoder.seq_layers.0.bias f4 [256]
00000000: d0c5 8b3b 9d0c a53c 938f 313c 3338 553b
00000010: 05bc c93a df54 243c e3d5 79bc 84be 7e3b
00000020: e07b 983b 2325 5a3b 79ed 9b3c 8605 1f3d
00000030: fd90 183a 1eb4 a73c 8561 263b 960c 413c
00000040: 242a dc3b 6469 113d 48e5 bbbc baae 123c
00000050: 4f89 cc3b 172e 323c 9ff4 093c ab49 a839
00000060: 4f10 c23b ddc8 df3c 7a52 55bb 0218 06bc
00000070: 6a0d 0cbc 384d a63b 992c 033c e865 fd3b
00000080: 95fa f639 f01d ec3b 1462 5dbc 61f0 b83a
00000090: 98da 853c 9abe d23c a899 41bb c7d3 6b3c
000000a0: 6ae2 813c e405 3c3c 5348 40bc 0704 8c3a
000000b0: bc74 6d3c b595 123c e676 503c 41d1 8ebd
000000c0: e138 f63c d2e7 9f3c 9df6 7c3c fe1d e33b
000000d0: f9e6 b83c 7943 ec3c 8548 e2bb 5454 32bb
000000e0: c199 b03b 0adc 4c3d 3a35 9b3b 5fc0 c83c
000000f0: 7fe1 a53b 1b37 583b 38cc 84bc bb81 ed3c
00000100: 2aed 43bc 9410 5f3c d544 8b3c c91d 143d
00000110: 16d4 b6bc 73ee d3bc 21a7 99bc 5c95 753c
00000120: 5de9 ac3b 09d1 56bb 95f1 91bc 60fe 88bc
00000130: 9cb2 983b 73df adbc 7da8 7fbb a881 213d
00000140: d2c9 2e3c ca42 dfbb 5a29 d1bb dd09 403c
00000150: 3e6b 39bb 28be 833c 06f9 ae3b 555d 093d
00000160: 3b4f efbb 4c80 85bc 5224 4c3b 07ff 02bd
00000170: c148 c33c de2b 873c 34e4 b8bb b8c0 0a3c
00000180: befb cbbb 0e3a 3d3c edc8 0a3c a835 213c
00000190: 369f c23b 3633 e4bb 558f 793c 9faf 003c
000001a0: bc97 f9bc d50b b13c 1c56 833c a4d1 083c
000001b0: b433 b53b ac2d 1aba 0f3c 033d 0cf1 59bd
000001c0: 9074 b13b e2bc 1a3b 5e75 de3b 2ac9 23bc
000001d0: a11c 8b3c e403 0cbc c34e aebc fffa a03c
000001e0: 9989 01bc 5003 ff3b f531 ed3b 8b3e 283b
000001f0: ff60 ca3c 5577 4bbb 158a 67bc 250d 72bc
00000200: 16f2 0a3c 7e50 71bb e1cf f4bb c44b fc3c
00000210: 9208 3cb9 909a 87bc b475 813b 71cf 563c
00000220: 33be 7e3c 44f1 7fbb 50c5 6fbc 6512 7ebc
00000230: b612 79bc 3342 eb3c 8344 903c 0693 093c
00000240: dad9 96bc 8828 39bc 7362 c93c 42a9 5839
00000250: fd8e e6ba 568e 473c 2a95 7bbb fdc5 063c
00000260: 2916 9c3c 07be 803b 27f3 88bb 7a72 d73c
00000270: df55 87bc 71fd 07bc 9402 b83c 5969 30bc
00000280: 10ec 85bc de3e 8b3b ed31 d93c 4341 37bc
00000290: e68e 89bc a6c2 9c3c 2e57 533c 4928 4fbb
000002a0: 2c6e ac3c faa9 ebbb 51a1 edbc 6ece 73bc
000002b0: 0eee 3f39 b56d 7c3c c1dc 763c cb21 033c
000002c0: b16d ab3b 8d96 393d c993 6c3c e8fc 6a3b
000002d0: 0f7a c23a 620e ab3b ab53 fdba 3682 403c
000002e0: ce0a 0f3c 5e09 a33c 3a0c 393b 9c5f 24bb
000002f0: 4751 423b b597 933c d824 a43c 7bb7 d53c
00000300: 3e8f 853c 1878 08bc 0410 4b3c 8a39 51bc
00000310: a2a1 a4bc cc86 b13c 7fdd ba3c 43ef 1cbc
00000320: 699e bcbc e309 01bd 959c 653b 2946 c8bb
00000330: 753a 11bc 9b19 f13b 3e0d 24bc e95a bfbb
00000340: c04a 9b3c e1b8 623c 87ed 34ba 3cd5 a03c
00000350: 826a c73b 73e0 a1bc 2e9d a0bb ff7c 6fbc
00000360: 9e54 883c 46c0 353c bd43 533c 9457 f2bc
00000370: d5e8 8139 1c53 03bb 7ba3 c6bc 729b 3b3b
00000380: 1950 bb3b 70e2 e8ba b3c6 29bc bd0b a2bc
00000390: b2b7 9e3c c13f 35bc 686f 3c3c 051c a2bc
000003a0: 1591 d0bb 3cb0 063c 23a1 42bb 39c1 693c
000003b0: 1a6e 25bc fa74 21bc f9e4 17bd ad7f fc3c
000003c0: ef4e 80bc 7b97 943c cd8f e8bb c774 2e3d
000003d0: d97f 45b9 f7ef 8b3b 2145 87bc 2ba3 e9bb
000003e0: ec1e b43b 8fd4 45bb e9a3 573c e44d fe3b
000003f0: 09a3 80bb f8ae 34bc 01ff 8ebb a5f0 253b
0.0042655244 0.020147616 0.010837453 0.0032534718 0.0015391117 0.0100300005 -0.0152487485 0.003887088
0.004653439 0.0033286295 0.019034134 0.038823627 0.0005819945 0.020471629 0.0025387716 0.011782786
0.0067188907 0.0355009 -0.022936478 0.008952791 0.0062419544 0.0108752465 0.008420139 0.00032098344
0.0059223543 0.027317459 -0.003255038 -0.008184435 -0.00854812 0.005075123 0.008006238 0.0077330954
0.00047107475 0.0072057173 -0.013512153 0.0014109724 0.016339585 0.025725652 -0.002954105 0.014393753
0.015855033 0.011476014 -0.011735993 0.0010682353 0.014493164 0.008946826 0.01272366 -0.06973506
0.030056419 0.01951972 0.015439657 0.0069310656 0.022571074 0.028840767 -0.0069056177 -0.0027210908
0.0053894226 0.050014533 0.0047365697 0.024505792 0.0050622816 0.003299183 -0.01621066 0.028992524
-0.0119584 0.013614792 0.017000595 0.036161218 -0.022317927 -0.025870537 -0.018756451 0.014989223
0.0052768425 -0.0032778403 -0.01781539 -0.016722858 0.004659964 -0.021224713 -0.003901034 0.03943029
0.010668235 -0.006813382 -0.0063831033 0.011721102 -0.002829268 0.016081885 0.0053397445 0.033536274
-0.007303146 -0.016296528 0.0031149578 -0.031981494 0.023838403 0.01650041 -0.0056424383 0.008468799
-0.0062250784 0.011549486 0.008470756 0.009839453 0.0059393896 -0.0069641126 0.015231927 0.007854371
-0.03046786 0.021612087 0.016032271 0.0083507635 0.005529845 -0.00058814394 0.0320397 -0.053208396
0.0054155067 0.0023611118 0.0067888936 -0.009996692 0.016981425 -0.0085458495 -0.02127779 0.019650934
-0.007906341 0.0077823773 0.0072386214 0.0025672044 0.024704454 -0.003104647 -0.014132042 -0.014773642
0.008480569 -0.0036821659 -0.00747107 0.030797847 -0.0001793227 -0.016553193 0.003950799 0.013110981
0.015548277 -0.0039053718 -0.014634445 -0.015507315 -0.015202215 0.02871809 0.017610794 0.0083968695
-0.018414427 -0.011301167 0.024583077 0.00020662419 -0.0017590221 0.012179932 -0.003838847 0.008225915
0.019053536 0.003928903 -0.0041793766 0.026299704 -0.016520439 -0.008300171 0.022462167 -0.010767304
-0.016347915 0.0042494377 0.026513064 -0.011184993 -0.016791772 0.019135784 0.012899203 -0.0031609705
0.021048628 -0.0071918936 -0.029007586 -0.01488076 0.00018303862 0.015407016 0.01506728 0.008003662
0.005231582 0.045309592 0.014439532 0.003585631 0.0014837402 0.0052202204 -0.0019327303 0.011749795
0.008730603 0.019901928 0.0028236047 -0.0025081402 0.0029650496 0.018016675 0.0200371 0.026088467
0.016303655 -0.008329414 0.012393955 -0.012770066 -0.020096604 0.021670721 0.022810696 -0.009578529
-0.023024755 -0.03150357 0.0035035957 -0.0061118794 -0.008864035 0.0073577887 -0.010012923 -0.0058396948
0.018956542 0.013838024 -0.00069018494 0.019632928 0.006085695 -0.019760346 -0.00490155 -0.014617204
0.016641911 0.011093205 0.012894568 -0.029582776 0.0002477827 -0.002003855 -0.024247875 0.0028626588
0.0057163355 -0.0017767679 -0.010362315 -0.019780988 0.019374702 -0.011062563 0.011501171 -0.019788751
-0.0063649514 0.0082207285 -0.0029698096 0.014267259 -0.010097051 -0.00985455 -0.0370836 0.0308226
-0.015662638 0.018138638 -0.0070972205 0.042591836 -0.00018835011 0.0042705494 -0.016512455 -0.007130047
0.0054968502 -0.003018651 0.013161638 0.00776075 -0.0039256853 -0.011028044 -0.004363895 0.0025320437

network_body.linear_encoder.seq_layers.0.weight f4 [256, 163]
00000000: 6bd9 063d cdd5 fabc ec0e 243d e80e bdbc
00000010: ab65 98bd a284 4ebd 4916 f5bc 0343 88bd
00000020: 2d7f b7bc 654b 473d 10a0 aa3d 0ea6 b2bc
00000030: 59c5 81b6 4d26 d7bd a124 86bb a3ae 2cbd
00000040: 78a8 bd3d f77e edbd 746f 1c3c 688f 86bd
00000050: 29e7 333d a5db 63be 03cf 27bd aba1 3c3e
00000060: d8dc 1f3e 99de 03be 3bc0 3f3e 116d 35be
00000070: 7f8b e53d 3a52 adbd a0f2 e63d 4b19 24bd
00000080: 63da 2abe 4871 833d db06 b83d ff89 06be
00000090: 7b2a b43d 3ec6 5cbe b2a4 aabd 3637 03be
000000a0: 8b7f 813d 0568 d73b 5b3c eb3c 2b7f 4abd
000000b0: b62c 86bd 4d6c 123e deee 563d 0164 c7bc
000000c0: 244b 203e 2cdd 1c3b 85d5 673d 17ac 2ebe
000000d0: 1508 d83d c25a 0abc 4ab9 eabd b0ee 9fbb
000000e0: 8132 4fbd a47c 083e e03b 15bd eb11 7bbd
000000f0: ea51 133d 4d2c 2fbc 77f5 58bd a7ef 53be
00000100: ce98 883d 4520 5bbe 79d7 b13d 3066 0d3e
00000110: 7072 f73d 8ed5 903d 8416 48bc 611d b33d
00000120: ab25 0bbd 3fa8 6abc 4907 293d 2103 2dbe
00000130: d2cc 8fbd b4bb 63bb 9714 113e eb88 d63c
00000140: 7b49 94be 500a 233e 11ec 083e e252 82bd
00000150: 1317 ae3d de72 58bb cc0d 4f3e fc04 9bbd
00000160: 3d21 dcbd 4126 173e bbeb 8e3c 792c 633d
00000170: ff8b 713c 3da4 9d3e ccd0 59bd 819a e7bc
00000180: f9a0 ea3d e6ca 00be a101 d13d 76bb 72bd
00000190: 9ab6 c43c c6d1 aabb 3582 9ebb 538c a93a
000001a0: a1e0 41bd 7e1c cbbc 38d3 a43d 2abd 2ebe
000001b0: 388e 093d 1621 4e3d 774b 853d c559 753d
000001c0: 7a41 1f3d 39d4 64bd 7934 d2bd c79b be3d
000001d0: 02b0 bebd 01ac 7e3e b680 e5bc a8bd a33d
000001e0: 1c2a 2b3e 81ce f9bd 8c97 ab3d 4497 bcbb
000001f0: bfd0 933d b74a 32bd 8132 80bd 3b53 47bd
00000200: bec3 cf3d c4ab 813e daf9 64bc 6c4f 48bc
00000210: ef19 efbc c631 edbb 46c5 cdbb 96de d13d
00000220: fb0c 7abd d48a a63c 86a1 763e bcad 83bd
00000230: 4db4 1dbd 7141 993d a441 063d f093 443d
00000240: dc21 243d 0a98 4dbc 8f29 293d 7648 ec3b
00000250: d2fa 00be 3f32 1bbe 64e1 ec3c a897 323d
00000260: d4ad bc3c 269f 93bc 86c6 bebd a160 5f3e
00000270: 0119 80bd 1639 24be f126 55bd 32ae 113d
00000280: 2317 f53d facb 2dbd b9c0 a73d fd8d e7bb
00000290: 2d6e 353a e2e9 bb3b 1fa5 803d e011 79bd
000002a0: 680a cb3b cb28 f03d 7209 433d b060 993d
000002b0: d448 413e 31ae 8f3d 2d1e 163d 5e28 b23d
000002c0: 2bc7 5dbd 1b44 15bd f1aa 6f3d bc29 da3c
000002d0: 5ccc a3bd 5c25 05bc 3138 c4bd 5d77 773d
000002e0: 7460 853d be89 123d bb98 56bd 1738 493d
000002f0: 2144 cd3c 8914 013e 526e a8bc 18d3 08bd
00000300: fb40 8e3d ca05 38bd c23d 36be e91f ebbd
00000310: fcaa 63bc e545 bcbd 07fd 3f3d a87b bebd
00000320: beac 843d 936b 843d fcc3 fb3c 8371 213d
00000330: 45de 353d e378 183d d33b 2dbe 8651 113c
00000340: 7102 213e 769a 48bb 13a3 84bd ecdc febc
00000350: d695 b1bc 9643 8abd dd56 913d efa7 293c
00000360: 844e 1abe 3239 b9bd 16d0 53be 6788 9e3c
00000370: 81f2 bf3d 68d4 653a 4a70 383c aa52 9c3d
00000380: 938f e0bd 32ad a83c 9a22 7dbc de39 933c
00000390: 3da2 f4bd 9c68 813d a01a a53d 4da5 afbd
000003a0: 9235 0e3e 81ce 2dbe 53eb 0a3e d3d1 d4bd
000003b0: bb5c 253d 6d49 85bd acd4 9a3d 8f42 813e
000003c0: afa5 bdbd a7d1 efbc dbdc dfbc 6146 343e
000003d0: 146d 893d d5d1 023c 74c7 42bd 40a1 0b3c
000003e0: 40bf babd a250 b3bd 5587 523d 054f 85bd
000003f0: fc7e 123e a67b 043e 13f8 d73d 0db2 0b3d
0.03292219 -0.030619526 0.040053293 -0.023078397 -0.074412666 -0.050419457 -0.029917853 -0.066534065
-0.02239951 0.048655886 0.08331311 -0.021807697 -3.867474e-06 -0.10505352 -0.004093722 -0.042158734
0.092606485 -0.11596482 0.009548057 -0.06570321 0.043921623 -0.22251756 -0.040968906 0.18421046
0.15611589 -0.12877883 0.18725674 -0.17717387 0.112082474 -0.08462949 0.11276746 -0.040063184
-0.1668487 0.06418091 0.089856826 -0.13138579 0.08797165 -0.21559998 -0.083321944 -0.1281403
0.06323155 0.0065736794 0.028715303 -0.049437683 -0.06551497 0.14299126 0.052473895 -0.024339678
0.15653664 0.002393554 0.056600112 -0.17057835 0.105484165 -0.00844449 -0.11461122 -0.0048807487
-0.050585274 0.13328797 -0.036434054 -0.061296385 0.03596679 -0.0106917145 -0.05296847 -0.20696889
0.0666977 -0.21399029 0.08683676 0.13808513 0.12082374 0.07071982 -0.012212399 0.08745838
-0.03397147 -0.01432234 0.041266713 -0.16895725 -0.07021488 -0.003474933 0.1416801 0.026188334
-0.2896231 0.15921903 0.13371302 -0.06363465 0.08500495 -0.003302745 0.20220107 -0.0756931
-0.10748527 0.14760686 0.01744639 0.055462334 0.01474285 0.30789366 -0.05317764 -0.028271915
0.11456484 -0.125774 0.10205389 -0.059260808 0.024012852 -0.005212995 -0.004837299 0.0012935497
-0.047333363 -0.02479386 0.08048099 -0.17064348 0.033582896 0.050324522 0.065085344 0.059900064
0.038880803 -0.055866454 -0.102639146 0.09307056 -0.093109146 0.24870302 -0.028015476 0.079951584
0.16715282 -0.121975906 0.08378515 -0.005755337 0.072175495 -0.043528285 -0.06259633 -0.04866336
0.10144757 0.2532636 -0.013975585 -0.012225967 -0.02918717 -0.0072385995 -0.0062796203 0.10247533
-0.061047535 0.02032987 0.24085054 -0.064296216 -0.038502026 0.07483185 0.032777444 0.047992647
0.040071353 -0.012548456 0.0412994 0.0072107865 -0.1259568 -0.15155886 0.028916068 0.043601662
0.023032106 -0.018020224 -0.09315209 0.21814205 -0.06254769 -0.16037402 -0.05203909 0.035566516
0.119673036 -0.042430855 0.08191056 -0.007066487 0.00069210195 0.005734668 0.06281494 -0.060808063
0.006196309 0.11726531 0.04761643 0.07489145 0.18875438 0.07015646 0.03664987 0.08699106
-0.05414502 -0.036441904 0.05851263 0.026631229 -0.07997963 -0.008126583 -0.0958103 0.060416568
0.065125376 0.035775892 -0.05239175 0.049125757 0.0250569 0.1260549 -0.020560417 -0.03340444
0.06945988 -0.044927396 -0.17796996 -0.11480696 -0.013895746 -0.09193019 0.046872165 -0.09300929
0.064782605 0.06465831 0.030733101 0.039414894 0.044401426 0.03722466 -0.16917352 0.008869534
0.15723588 -0.0030609644 -0.064764164 -0.031111203 -0.021677893 -0.06751172 0.07096646 0.01035498
-0.15069014 -0.09044112 -0.20684847 0.019352151 0.09372426 0.0008767308 0.011257241 0.076329544
-0.109648846 0.020590398 -0.015450144 0.01797193 -0.11945007 0.06318781 0.08061719 -0.085764505
0.13887623 -0.16973306 0.13566332 -0.10391583 0.040371638 -0.065081455 0.07560095 0.25246093
-0.09260117 -0.029274775 -0.027326992 0.17604972 0.06710258 0.007984598 -0.047553495 0.008522332
-0.09118509 -0.08755614 0.051398594 -0.065092124 0.14306253 0.12937793 0.10545363 0.03410535

network_body.linear_encoder.seq_layers.2.bias f4 [256]
00000000: 9ddb 7fbc 7bad 8cbc 6288 d0bb 566e 9c3a
00000010: 2f3c fe3c 365f 9e3b d7c3 c5bc 3e04 64bc
00000020: aedc 3e3b 899f 00bb 76ba 30bc 8950 beba
00000030: 1b2a d4bc 182b 98bc d158 c53c fb4d 223c
00000040: 1806 4fbc dc04 493c de37 32bc a868 98bc
00000050: de4f 7d3c 92aa 11bc e7bd d0bc 3330 b13c
00000060: c9e5 52bc c57b 60bc a5c8 a03b 77e1 fabb
00000070: 6a30 153c 11fb dc3b db66 8cbb f9cf 14bb
00000080: 2b49 a3bc 0ac1 6bbc 6b45 b23b d2a5 2e3c
00000090: 07b9 833b dbae d6b9 05b2 a03c eb92 b73c
000000a0: 5531 ed3c 7187 bd39 6120 37bc 5a33 4dbc
000000b0: d497 e93c b7f4 fbbc 7782 ca3c b759 263b
000000c0: d9f2 12bc e4e3 053c 0cbd 11bc 3431 393b
000000d0: 0988 47bc c7dc 94bc 5ade 533c 9ebf 0cbd
000000e0: 15df a53c ba4e 173d 5b0d 99bb 9a36 5f3c
000000f0: 9f37 8c3c 8af1 7b3c d8ad fdbb f3dd 99bb
00000100: be5d fa3c e56d a1bb b13b 83bc d229 98bc
00000110: 2daf 663c 0ebb 943c b2de 103c ee3f 3b3c
00000120: 308e a33c f42f 77bc 16db 98ba b47f e5bc
00000130: 67ab 11bc 1bca ceba 80b3 303c 358b fcbb
00000140: ec80 08bc ec14 7bbc ed50 febc a012 5abc
00000150: 7971 9c3c 1f1b 90bc 0ffc ccbc 5a76 24bc
00000160: 9e43 5fba edd9 283c dda8 6d3c ad97 af3c
00000170: 85f2 ffbc 6c50 a3bc 67ef 00bd 6f4f 87bc
00000180: 152d 1b3a a511 0f3d 7f0b 8fbc 4b5d fd3b
00000190: 5f9b cdbb cbfe 9dbc cbab 063c 4dcd c83b
000001a0: ea89 dcbb 92bc bfbb a6cf 1e3c fa47 22bd
000001b0: 52ec f1bb bc8e 73bc 644c b2bc 3baa a1bb
000001c0: 951f 73bc 1847 c7bc e122 393b 3f9d 7aba
000001d0: 43f3 e1bc d109 d0bc f260 8c3b 5225 bc3c
000001e0: a7f9 3839 e725 c03c a33c 233d 24c6 18bc
000001f0: fe97 f33c 885d 91bc 0555 293d 3223 153d
00000200: 9f8f 52bc 5428 13bb cc79 f8bc fe24 36bb
00000210: ff5c c83c 468c 083c 93ac 103b f6cd 01bd
00000220: c1e8 08bb df64 d53c 9efb e33b c6f6 563a
00000230: 9c9b 863c fb36 16bd 1f9a 403b ab2e 98bc
00000240: fca0 e9bc 1d13 f33a 1eaa 07ba 0b65 173d
00000250: 2f45 9d3c e858 a03c a368 b33b 5769 da3c
00000260: d6f8 b63a 07fc 063d 05a9 99bc b035 273c
00000270: ec3c 91bc 6553 0f3c ffb4 7dbc af46 0e3d
00000280: 1244 843c 5cbf 2b3c 52a1 0cb9 122d ab3c
00000290: 998b c83c 90f0 3cbc c524 9dbc d2f5 e0bb
000002a0: e098 0f3c 757b 1439 3670 0d3c 0695 ea3c
000002b0: 05f7 d3bb 93ed ed3b 5cc0 243c 32ef cfbb
000002c0: b7d7 5c3b be31 2db9 6af3 56bb 3623 843c
000002d0: c52b 90bc 49da 613c 0ae4 7abb 55ba f83c
000002e0: 7f77 f1bb 161d 0c3d a688 88bb e285 203c
000002f0: 4069 02bd 005d 663c 7780 093d 0cf8 ed3b
00000300: 6b26 1ebd 517a d7ba 02fa 253c 99d3 40bc
00000310: 4ef1 133d 7ae6 f5bc 466d f33a cd5d e2bc
00000320: 3b40 93bb 0199 c8bc 10f3 d7ba eb91 0c3c
00000330: f011 22bd 50b7 82b8 917c 1c3d 07d9 a7bc
00000340: e621 893b 19f3 f4bb 21c3 26bc 6190 a23c
00000350: 3a79 dcbc 5764 27bc 5b33 d63a 23da 06bd
00000360: 1394 0ebc e90b 323c 1b04 573c b22b dfbb
00000370: 53ed 00bc 90ab 74bb 6352 38bc 0ef2 2ebc
00000380: c39d 2d3d 342d bbbc 1616 02bc 0158 b2bc
00000390: 903a 00bd c894 703c e609 553b c90b c537
000003a0: 932e 94bc 6fe0 30bd fe50 803c 3af3 37bc
000003b0: 8961 a93c 969c 4b3c 5419 efbc 170b d23b
000003c0: 08c5 9a3b 8f85 4c3c 662f c63c 0160 c93c
000003d0: 4fc3 a1bb 3f7d c63b 09f5 a73a dfab 8a3c
000003e0: e3f6 913c f959 d0bc 766f 01bc 73e8 92bc
000003f0: e113 95bc 2af6 273c 82b4 ccbb e41b 4dbd
-0.015616325 -0.017172566 -0.0063639143 0.0011934738 0.031034557 0.0048331274 -0.024141235 -0.013917027
0.0029123235 -0.001962634 -0.010786643 -0.0014519851 -0.025898984 -0.018575236 0.024090203 0.009906287
-0.01263573 0.012269225 -0.010877578 -0.018604591 0.015460936 -0.008890765 -0.025481177 0.021629428
-0.012872168 -0.013701384 0.004906731 -0.007656272 0.009105781 0.0067437966 -0.0042847223 -0.002270697
-0.01993235 -0.014389286 0.005440404 0.010659652 0.0040198597 -0.00040947538 0.019616136 0.022408923
0.028954187 0.000361498 -0.011177153 -0.01252445 0.02851478 -0.030756338 0.024720414 0.0025383064
-0.008969032 0.008172009 -0.00889517 0.0028258087 -0.012178429 -0.018171681 0.012931431 -0.034362428
0.020247975 0.036940314 -0.0046707815 0.013623858 0.017116366 0.015377412 -0.007741671 -0.004695648
0.030562278 -0.0049264305 -0.016019674 -0.018574629 0.014079851 0.0181556 0.008842157 0.011428816
0.019965261 -0.0150871165 -0.0011661972 -0.028014995 -0.008890963 -0.0015776785 0.010784984 -0.0077070245
-0.008331519 -0.015324812 -0.031044448 -0.013310105 0.019097077 -0.017591057 -0.025022535 -0.010037983
-0.00085168506 0.010305864 0.014505592 0.02143463 -0.031243572 -0.01993581 -0.031478312 -0.01651737
0.00059194985 0.034928937 -0.017461536 0.0077320687 -0.006274625 -0.019286534 0.00821967 0.0061279894
-0.006730308 -0.0058513368 0.009693062 -0.039619423 -0.007382908 -0.0148655735 -0.021764942 -0.004933623
-0.014839073 -0.024325892 0.002824955 -0.00095601747 -0.027581817 -0.025395306 0.0042840177 0.022967014
0.0001764061 0.023455573 0.03985275 -0.009324584 0.029735561 -0.017744794 0.041340847 0.036410518
-0.012851625 -0.0022454457 -0.030331515 -0.0027793045 0.024458406 0.008334225 0.0022075519 -0.03169056
-0.0020890685 0.026049076 0.0069574853 0.0008200224 0.016431622 -0.036673527 0.0029388738 -0.01857694
-0.028519146 0.0018545125 -0.0005175191 0.036961596 0.019198028 0.019573644 0.00547512 0.026661558
0.0013959657 0.032955196 -0.018757353 0.010205671 -0.017729245 0.00874791 -0.015485047 0.034735378
0.01614574 0.010482635 -0.00013411537 0.020895515 0.024480628 -0.011531964 -0.019182572 -0.0068652416
0.008764476 0.00014160371 0.00863271 0.028635513 -0.006468656 0.007260987 0.010055628 -0.006345653
0.0033697912 -0.00016517096 -0.0032798895 0.016130071 -0.017598996 0.013784953 -0.0038282895 0.030362288
-0.0073689814 0.034207426 -0.0041666804 0.009797545 -0.031838655 0.014060259 0.03356978 0.0072622355
-0.038610857 -0.0016439651 0.010130407 -0.011769199 0.036118798 -0.030017126 0.0018571995 -0.027632618
-0.004493741 -0.02448702 -0.0016475637 0.008579711 -0.039567888 -6.233028e-05 0.038204733 -0.020489229
0.004184949 -0.0074752686 -0.010178358 0.019844236 -0.026913274 -0.010216794 0.001634221 -0.032922875
-0.008702296 0.010867097 0.013123537 -0.006810629 -0.0078690825 -0.0037333705 -0.011250111 -0.0106778275
0.04238678 -0.022848703 -0.007939836 -0.02177048 -0.03130585 0.01468391 0.003250712 2.3489718e-05
-0.018088615 -0.043182787 0.01566362 -0.011227423 0.020676391 0.01242747 -0.029186882 0.0064100134
0.004723195 0.012483015 0.024192523 0.024581911 -0.0049366127 0.006057411 0.0012814115 0.016927658
0.01781792 -0.025433527 -0.0079001095 -0.017933106 -0.018197956 0.010251561 -0.006247104 -0.050075427

network_body.linear_encoder.seq_layers.2.weight f4 [256, 256]
00000000: 3630 db3c 9160 d4bc 974d 5d3d f857 733c
00000010: c117 923d bf01 0f3d d539 45bd 46f7 43bd
00000020: 7abb 1bbc 2247 00bd 1fe5 003b 21a4 4abd
00000030: 5815 2fbd 599c 63bd 35f5 cb3c affd 84bd
00000040: a23b 88bd fd53 973c 1466 0abd 8b7c dd3c
00000050: eab6 003b 92cd f7bb 3bf2 323d 2f7e 05bd
00000060: 4059 603d 7b74 913c 3c90 8ebd 907e 66bd
00000070: 4d91 0cbc 65e1 20be 3d0a a6bc 746b 2d3d
00000080: 2c43 883c 7415 c3bd a60a 74bd 1e7e c43c
00000090: 4558 16bd b83d 74bc dec9 993d 43f8 703d
000000a0: 8acd 08bd 524f c33c 56d0 0b3d 9d0d 363e
000000b0: e500 a13c 889b 1dbe 3e2d 8d3d 0ace 65bd
000000c0: 6ffc a03d d5f2 eebd e124 1d3d c665 1fbd
000000d0: 36e1 523d be12 b33d d8c8 863d 72c4 bc3d
000000e0: 1a27 903d 5577 5fbd 3736 983c dff9 0a3e
000000f0: 8137 26bd 19b4 40bd 5228 6c3b 250d 65bd
00000100: 000c 81bd 2abe 6ebd b0b6 8abd 9646 aabc
00000110: dd2e 163d a270 bd3b 348c b1bd 75aa 4d3d
00000120: 16dd 04bd c509 67bd e9d3 db3d 6bba 223d
00000130: b200 523c 7080 243d 20f7 38bd 72b5 8bbd
00000140: e346 ad3c 15f1 d03c 43b2 4a3d 0487 7a3d
00000150: d445 71bd f11e 8c3d 2c5c 40bd 0c6f ccbd
00000160: 6f43 e1bd 84d1 e2b9 d4bb 533d 2e11 853d
00000170: f9bf b03d 198c 12bd d71b a1bc 2ea4 edbb
00000180: 1cac dbbc d898 503d 00e9 413d ed22 2fbd
00000190: b57c e63c 3e41 bc3d 5176 c4bd 16c2 abbb
000001a0: f8f4 dfbd 41f7 96bb d2c7 9bbd e4a8 30bd
000001b0: 231a 9ebd 8502 80bc b74a 633c b353 cdbd
000001c0: 0408 3fbd 5641 883d d2dd 5b3d 94f6 c8bd
000001d0: 0584 65bd a726 1d3d 8923 4fbd 0cf3 9abd
000001e0: 7032 3abd 0e76 ff3c 9c22 24bd 538f 3b3d
000001f0: f91a 333c f2cf 04bd b26c 823d b62a e5bd
00000200: 40d8 80bd 8617 3f3d e460 cb3d ee02 f63c
00000210: 7f32 953c 42c6 3abd 9b15 68bd 30b9 30bc
00000220: a987 413d e234 c5bc baee 533d 1fb0 d3bd
00000230: 63ce 03bd c1e6 16be a0ee 543c 0a9f cabd
00000240: 8fe3 efbd 18d5 5cbc 41c5 9dbd 9887 313c
00000250: aad3 073e e84f a73c 562a ae3d 755a 7abc
00000260: f630 a73d b496 1c3c 38af fd3c 6a6a febc
00000270: 4cf9 efbb d418 c3bd ff66 733d 48ff 2e3d
00000280: 4941 27bd fe14 d83d 53aa bc3d 80c2 793d
00000290: 24af e2bd 54bd 2b3e 0c50 c7bd 775c 863c
000002a0: 511a 34bd 9910 80bc cb13 3fbe dbc4 963d
000002b0: 8085 9b3d 451f e1bc f869 953d 78b9 493d
000002c0: edcd 893b 8332 d43d 4f53 9c3d cd8b b0bd
000002d0: 81fc eabc 572c acbc 498d 36bc 7f7e 96bd
000002e0: 6e96 21bc 336c 10be 2978 ddbd f4a3 2ebd
000002f0: e2d5 743d 93b4 e8bd 7a61 143d 636c bbbc
00000300: a56e c4bd 9174 943c d808 f4bc 05c8 303d
00000310: 4907 1e3d 70b8 143c ecab 24bd a887 4dbd
00000320: ee16 1a3d fe82 c73d d536 09be 1905 b2bb
00000330: 6b47 f1bc a722 bfbd ea0c 873d 2e65 e2bd
00000340: 9814 3b3d da6d b93d ab6e e0bd e462 3bbd
00000350: 9d6d d83b e417 84bb a607 ce3d 8198 a53c
00000360: 03ce cfbd 8c86 af3c 2628 0b3d 63b7 d43d
00000370: ad5c f7bc b4f4 11bd ca2e 653c d8df 43bd
00000380: e3e4 f6bc f304 3fbd 2e6f 3bbd 6dbd 04bc
00000390: bbc4 0ebd a576 f7bc 49e5 13bd a4e9 8cbd
000003a0: 5cc4 fcbd bd66 2bbe 1061 f63d 3af0 833d
000003b0: 612f 3c3d 413d 47bd 1413 a33c 32ed a83d
000003c0: 8aa4 48bd a4e0 11bd 88b0 49bd aa7f 02bd
000003d0: 7555 9a3d c2f9 a5bd e6c0 0abd e94c b13d
000003e0: f99f 6dbd 7126 08be 210b a73d 5907 68bd
000003f0: 02e8 b9bd ee98 2c3d d4aa b23d 19e1 19bd
0.026756387 -0.025924953 0.054029074 0.014852516 0.07133437 0.034913775 -0.048150856 -0.04784324
-0.009505147 -0.031317838 0.0019667817 -0.04947293 -0.042744964 -0.055569027 0.024897197 -0.06493699
-0.06651999 0.018472666 -0.033788756 0.027036926 0.0019640275 -0.0075623477 0.04368804 -0.03259104
0.054772615 0.017755738 -0.06961104 -0.056273043 -0.008579564 -0.15710981 -0.020268554 0.042338803
0.016633593 -0.09525576 -0.059580468 0.023985919 -0.036705274 -0.014907293 0.07509206 0.05883051
-0.033399142 0.023841534 0.03413423 0.1777863 0.019653747 -0.15391362 0.06893395 -0.056104697
0.07860648 -0.1166741 0.03836525 -0.038915418 0.05148431 0.08743809 0.06581277 0.092171565
0.07038708 -0.054557163 0.01858054 0.13571881 -0.040580276 -0.047046755 0.0036034775 -0.05592074
-0.06301117 -0.058286823 -0.06773126 -0.020785611 0.036665786 0.005781249 -0.0866932 0.05021139
-0.032437406 -0.0564058 0.10733778 0.039728563 0.012817549 0.04016155 -0.04515755 -0.06821717
0.021151965 0.025505582 0.04948641 0.061163917 -0.058904484 0.06841839 -0.046962902 -0.09982118
-0.1099919 -0.0004326218 0.0516928 0.064974174 0.08630366 -0.03577814 -0.019666595 -0.0072522378
-0.026815467 0.050927013 0.047341347 -0.042757917 0.028135637 0.091921315 -0.095928796 -0.0052416427
-0.10935396 -0.0046071117 -0.07606472 -0.043129817 -0.07719829 -0.015626201 0.013872794 -0.1002573
-0.046638504 0.06653087 0.05367834 -0.09812656 -0.056034107 0.03836694 -0.050571 -0.07565889
-0.045458257 0.031184223 -0.04007207 0.04579098 0.010931724 -0.032424875 0.06368388 -0.11189787
-0.062912464 0.046653293 0.0993059 0.030030694 0.018212555 -0.04559923 -0.05666123 -0.01078634
0.047248516 -0.024073068 0.05174134 -0.10336327 -0.032179248 -0.14736463 0.012996346 -0.098936155
-0.11713325 -0.01347854 -0.07703639 0.010835551 0.13264337 0.020423844 0.08504169 -0.015280356
0.081636354 0.009557415 0.03096734 -0.031056602 -0.0073234197 -0.0952622 0.059424397 0.042723924
-0.040833745 0.10550879 0.09212174 0.060976505 -0.11068562 0.16771442 -0.097320646 0.016401513
-0.04397041 -0.015632914 -0.18659894 0.07361766 0.075938225 -0.02748073 0.072956026 0.049249142
0.0042054565 0.10361197 0.07633077 -0.08620415 -0.028684856 -0.021017237 -0.011142083 -0.07348346
-0.009862525 -0.14103775 -0.10813934 -0.042636827 0.059774287 -0.11362567 0.036225773 -0.022878831
-0.09591416 0.01812199 -0.029789373 0.043159503 0.038581166 0.009077176 -0.04020302 -0.0501782
0.037619524 0.09741782 -0.13399823 -0.0054327366 -0.029453 -0.09332781 0.0659426 -0.11054455
0.045673937 0.09054156 -0.10958608 -0.045748606 0.006604864 -0.0040311683 0.100600526 0.020214321
-0.101467155 0.021426462 0.033973835 0.10386541 -0.030195558 -0.035633758 0.013988206 -0.047820896
-0.030138439 -0.04663558 -0.045760326 -0.008101803 -0.034855586 -0.030207941 -0.036107335 -0.06880501
-0.1234214 -0.1673841 0.12030232 0.06442304 0.04594362 -0.0486424 0.019906558 0.082483664
-0.04898504 -0.035614625 -0.04924062 -0.03186003 0.07535831 -0.08104278 -0.03387537 0.086572476
-0.05801389 -0.13295914 0.081564195 -0.056647632 -0.09077455 0.042138033 0.08723989 -0.037568185
