Project/Assets/MyProject/Train/Train_Moon/TrainModel/DetectDoor/DetectDoorBrain.onnx (onnx, 726448 bytes, 6 tensors)

action_model._discrete_distribution.branches.0.bias f4 [7]
-0.011656239 0.026995497 0.029863155 0.012335498 -0.071319036 0.024583647 -0.01617172
00000000: cff9 3ebc a925 dd3c 93a3 f43c d41a 4a3c
00000010: b70f 92bd a563 c93c 8e7a 84bc

action_model._discrete_distribution.branches.0.weight f4 [7, 256]
-0.01595881 -0.027045388 0.024516316 0.0215993 -0.05717422 0.0047668307 -0.0028308495 -0.0038305249
-0.05110968 0.023806978 -0.0073678927 -0.00042633023 0.02285804 0.06509133 -0.01231397 -0.016157938
0.01121791 -0.01490911 -0.0025543247 0.028667204 0.008836895 0.0137969535 -0.026753437 0.0065629254
0.01700345 -0.0073821493 0.023983426 -0.013600096 0.008899235 0.007334529 0.031064266 -0.009421954
0.016486507 -0.014707823 0.0075439536 0.014533009 -0.016463736 0.05137518 0.0019504309 0.022117028
-0.0007801651 -0.008669261 -0.005891398 0.018563446 0.01864803 -0.0024298455 -0.008250681 0.0017679618
-0.0013658315 0.041972756 0.0096400725 0.035460174 0.013158746 -0.007968255 -0.01437644 -0.012733963
-0.014822277 0.018334134 -0.009419798 -0.013795198 0.016427418 0.015124495 -0.029187646 -0.041387375
-0.0026699596 -0.007598769 -0.020601712 0.05156634 0.0031962623 0.00016428206 0.014602809 -0.010178354
-0.014112017 0.029951334 0.017643185 0.0034343628 0.031566653 -0.0015316294 0.01837721 -0.01111823
0.023073994 0.010987088 0.0050947736 0.0063612475 0.008032769 -0.006572598 0.009625983 0.023717206
0.0068626073 0.06913671 -0.04092735 -0.004188256 0.0068204976 -0.010934608 0.008817333 -0.021066178
0.0065047126 0.051199168 -0.014703708 0.054416835 0.034666292 0.01647187 -0.030637698 0.008139705
-0.006835561 0.005701451 -0.015543732 -0.017920393 0.013092961 0.05878383 -0.010131624 0.029678298
-0.013054859 0.015264602 0.0083011035 0.008007794 0.027868666 0.0066223484 0.045837995 0.015240614
-0.046791688 -0.031348437 -0.0376027 -0.022530332 0.020934077 0.02543449 -0.009432113 -0.033024408
0.022510648 0.008838501 -0.015448892 0.0058617103 -0.05318899 -0.0015115833 0.044409934 0.020502768
-0.009323711 -0.051130455 -0.025425239 -0.003940329 -0.009288061 0.043416902 -0.0030572237 0.0054943096
-0.057651963 0.007225735 -0.020102214 0.003333967 0.02027536 0.05475936 -0.007290244 -0.05795311
-0.05561959 0.0062550097 0.025292734 -0.003850625 0.020799797 0.027851002 0.009804225 0.00977307
-0.00797373 0.038454693 0.023124827 -0.014931764 0.0021430857 0.008866277 0.035469048 0.0037350692
-0.0029163437 -0.014992432 0.012157589 0.008871407 -0.027959075 -0.05651989 -0.0008848567 -0.020371703
0.017146798 0.010699642 0.0126759615 -0.011043281 -0.010730652 0.0026646706 -0.0030890007 -5.4662407e-05
-0.02408153 0.034165565 0.035359297 0.0675938 -0.037112854 0.006712305 0.011578545 0.03611245
0.008676221 -0.02844887 -0.0014587492 0.020799467 0.009509064 -0.025872512 0.00015924152 -0.019629013
0.0018485268 -0.0022766574 -0.01700949 0.08923335 0.031804714 -0.07489008 -0.013567006 -0.02708159
-0.03507326 -0.020507986 -0.011729747 -0.012590539 -0.03367511 0.03283689 -0.023651145 -0.061146826
0.0150629375 -0.008794206 -0.055336297 0.012052522 0.027900046 -0.003717959 -0.042940743 0.013958379
-0.013755203 -0.020015946 0.01642703 0.0031116134 0.0076323147 -0.013494187 0.027351374 0.022452844
-0.00803158 -0.006991815 0.004562089 -0.012486726 0.01566786 0.030931773 -0.0026864547 0.028596029
0.026858192 0.006537776 -0.019888991 -0.006775541 -0.013109493 0.0055907443 -0.00234698 0.011200613
0.036804054 -0.0058783516 0.0017988227 0.011178532 -0.028817931 -0.0055382904 0.009415475 0.03956382
00000000: 0dbc 82bc 4a8e ddbc 71d6 c83c 04f1 b03c
00000010: 842f 6abd 1333 9c3b c685 39bb 8b09 7bbb
00000020: 6258 51bd da06 c33c 5d6e f1bb 1385 dfb9
00000030: c940 bb3c 9a4e 853d 89c0 49bc a75d 84bc
00000040: 53cb 373c 5745 74bc 7566 27bb 7cd7 ea3c
00000050: a0c8 103c 9e0c 623c 062a dbbc cf0d d73b
00000060: d24a 8b3c f5e5 f1bb e478 c43c f0d2 5ebc
00000070: 19ce 113c 7d56 f03b 7d7a fe3c 8a5e 1abc
00000080: b60e 873c 15f9 70bc 4533 f73b dc1b 6e3c
00000090: f5de 86bc c86e 523d 9aa5 ff3a c52e b53c
000000a0: fe83 4cba 8409 0ebc a10c c1bb 5e12 983c
000000b0: c1c3 983c 0b3e 1fbb dd2d 07bc f4ba e73a
000000c0: b305 b3ba a0eb 2b3d 65f1 1d3c b03e 113d
000000d0: c897 573c 498d 02bc 298b 6bbc 1da2 50bc
000000e0: 23d9 72bc 7731 963c 7f55 1abc 4105 62bc
000000f0: cb92 863c bbcc 773c ee1a efbc cf85 29bd
00000100: 7dfa 2ebb 18ff f8bb ecc4 a8bc 3a37 533d
00000110: 6278 513b 2143 2c39 9f40 6f3c 1cc3 26bc
00000120: 1736 67bc 805c f53c 7188 903c 0c13 613b
00000130: 094c 013d f4c0 c8ba cd8b 963c 3d29 36bc
00000140: ac05 bd3c 3003 343c 0ff2 a63b 0372 d03b
00000150: e09b 033c f35e d7bb 4db6 1d3c 964a c23c
00000160: b9df e03b 8c97 8d3d 70a3 27bd a33d 89bb
00000170: 7b7e df3b 1227 33bc 9376 103c fa92 acbc
00000180: 7c25 d53b 38b6 513d d2e7 70bc 30e4 5e3d
00000190: 3efe 0d3d 04f0 863c e9fb fabc 665c 053c
000001a0: d7fc dfbb 3dd3 ba3b 23ab 7ebc cacd 92bc
000001b0: dc83 563c 50c7 703d 1cff 25bc e71f f33c
000001c0: 0ce4 55bc 6218 7a3c 5a01 083c 1f33 033c
000001d0: d44c e43c 4900 d93b 9fc0 3b3d c5b3 793c
000001e0: a4a8 3fbd 3867 00bd 4a05 1abd 8891 b8bc
000001f0: f17d ab3c fe5b d03c 2689 1abc 9a44 07bd
00000200: 4068 b83c 5ccf 103c 591d 7dbc 9713 c03b
00000210: b3dc 59bd 5220 c6ba 31e7 353d 6cf5 a73c
00000220: 7ac2 18bc 2b6e 51bd 9748 d0bc e01d 81bb
00000230: f42c 18bc ecd5 313d b45b 48bb 9c09 b43b
00000240: 7724 6cbd dcc5 ec3b 66ad a4bc af7e 5a3b
00000250: 8318 a63c 5a4b 603d 00e3 eebb 3e60 6dbd
00000260: 5ed1 63bd d3f6 cc3b b532 cf3c c45a 7cbb
00000270: 5664 aa3c c927 e43c e6a1 203c 3a1f 203c
00000280: 3fa4 02bc ab82 1d3d 4770 bd3c 5ca4 74bc
00000290: 0373 0c3b dc43 113c fe47 113d 10c8 743b
000002a0: 2120 3fbb d1a2 75bc a030 473c 6159 113c
000002b0: 6e0a e5bc 6681 67bd baf5 67ba 8fe2 a6bc
000002c0: 7177 8c3c 8d4d 2f3c d6ae 4f3c e1ee 34bc
000002d0: 9ecf 2fbc c1a1 2e3b d570 4abb 5045 65b8
000002e0: a146 c5bc 31f1 0b3d e9d4 103d 9e6e 8a3d
000002f0: a603 18bd e5f2 db3b f0b3 3d3c a6ea 133d
00000300: b526 0e3c 9b0d e9bc 8033 bfba a563 aa3c
00000310: e8cb 1b3c 97f2 d3bc 12fa 2639 06cd a0bc
00000320: 444a f23a f933 15bb 7c57 8bbc f9bf b63d
00000330: a945 023d f85f 99bd 2648 5ebc 36da ddbc
00000340: fba8 0fbd 5d00 a8bc 202e 40bc 8c48 4ebc
00000350: eaee 09bd fa7f 063d 0cc0 c1bc 1875 7abd
00000360: 8aca 763c 9315 10bc 50a8 62bd f177 453c
00000370: a38e e43c 00a9 73bb a2e2 2fbd afb1 643c
00000380: 815d 61bc 7bf8 a3bc fb91 863c 36ec 4b3b
00000390: 7f18 fa3b b916 5dbc fd0f e03c 07ef b73c
000003a0: e396 03bc 981b e5bb 947d 953b 2095 4cbc
000003b0: e259 803c a164 fd3c 3b0f 30bb 3842 ea3c
000003c0: b605 dc3c d73a d63b 3dee a2bc 5c05 debb
000003d0: 33c9 56bc 9032 b73b cacf 19bb c782 373c
000003e0: d9bf 163d 309f c0bb 79c6 eb3a 2926 373c
000003f0: 9513 ecbc 8c7a b5bb 5d43 1a3c ac0d 223d

network_body.linear_encoder.seq_layers.0.bias f4 [256]
0.01988588 -0.036640566 -0.0066195093 0.009930761 0.014859695 0.0064130053 0.005310374 -0.07800447
-0.020952102 -0.009022481 -0.053707745 0.019675458 0.033961706 0.011909567 -0.0074042976 0.0009262045
0.0018699344 -0.033505812 0.07361297 -0.008915211 0.009232911 0.0063045397 0.02571392 0.0075157126
-0.011337956 -0.004296795 0.007478883 -0.022598183 0.014332856 -0.020201253 0.019260908 -0.023207227
-0.026388897 0.062189378 -0.02267247 -0.07622164 0.028179921 0.036250956 -0.02654519 0.023784792
0.05373414 -0.013814654 -0.0027573847 -0.0699511 -0.08827111 -0.007427031 0.030014664 -0.026215699
0.048532844 0.014626134 0.016925536 -0.019277696 -0.025113951 -0.04086134 0.025052296 0.089415744
-0.037667103 0.010341847 -0.008167313 -0.006936402 -0.040679898 -0.09312992 0.048233386 0.012518407
-0.032349337 0.038983047 0.0031097664 0.04104311 -0.028582735 0.034875426 0.037347935 -0.054559957
0.026886374 0.003121836 -0.011875736 0.00013741612 0.041361827 -0.021112138 0.034101367 0.052995812
-0.027581591 -0.02516105 0.033388607 -0.0228124 -0.06410039 0.06103707 -0.06278513 -0.010369277
0.012675964 0.038068574 0.017854186 0.024215942 -0.05145715 0.0070624356 -0.027870677 -0.0026501955
-0.0033609634 0.014383837 0.01375314 -0.03382342 -0.039155573 -0.0017236139 0.0154645145 -0.062151685
0.0064460984 -0.05304649 -0.057980705 0.008359357 0.006950642 -0.034282174 -0.020028891 -0.053540383
-0.011860913 0.024380172 -0.046843037 -0.0084812585 0.06293131 0.013842931 0.030638942 0.008245742
0.0057109874 0.0059914747 0.001886633 -0.04994835 -0.0030197266 0.025344597 0.023940975 -0.06124841
0.009707357 0.015159902 0.010384396 0.010361041 0.013316323 -0.012330698 -0.05159293 -0.0366985
-0.020692749 -0.008471678 -0.012069836 0.0141074965 -0.04429212 0.046108633 0.026194144 0.020850785
-0.04626863 0.054026194 -0.012341837 -0.0026217871 0.02408834 -0.04906054 -0.010263321 -0.03232438
-0.011228592 0.010941025 -0.017619569 0.00938194 0.050324168 -0.023747532 -0.006636861 -0.06768308
-0.05945984 -0.023752095 -0.04713709 0.0012838638 -0.010080511 0.10043893 0.009754227 -0.03186676
0.03035262 0.021335883 0.020845458 -0.071796246 0.023887604 0.029764967 0.023430709 -0.03347862
0.026448261 0.048540868 0.021612354 -0.0495347 -0.073412195 0.04321735 -0.005058205 -0.07250281
0.026476372 0.005942456 -0.055057146 -0.020740515 0.026750298 -0.07140733 -0.053728208 -0.0407299
0.022136353 -0.047909677 0.0521322 -0.043095294 -0.047262236 0.022469575 -0.047924396 0.010139695
-0.058622714 0.024831032 0.026368171 0.045048237 -0.0019607923 0.0039264993 -0.014435002 -0.04229803
0.043247983 -0.05180363 -0.04964205 0.025325768 -0.06269379 0.010384432 -0.0594773 0.057872772
-0.020800684 0.022422869 -0.011878951 0.022848958 -0.036412742 0.033914182 0.0072459155 0.03355713
0.0015214857 -0.008349918 0.024619626 -0.0071207574 0.024270179 -0.03589973 -0.041628785 0.011518146
0.022183388 0.04273889 -0.011537779 0.0085010445 -0.018579328 0.048345346 0.026790123 0.0037747072
-0.059636325 0.013420934 0.05093222 -0.032346614 0.0057386206 -0.011089202 0.03210027 -0.0346748
0.03274423 -0.027792765 0.053376395 0.032358233 -0.018494692 -2.5330048e-05 0.013514403 0.017347546
00000000: b7e7 a23c 6b14 16bd 78e8 d8bb a1b4 223c
00000010: 1476 733c 3024 d23b a502 ae3b cfc0 9fbd
00000020: bea3 abbc 07d3 13bc a7fc 5bbd 6d2e a13c
00000030: 6e1b 0b3d 5820 433c c09f f2bb 88cc 723a
00000040: 9618 f53a 643d 09bd 66c2 963d 1b11 12bc
00000050: a345 173c 5096 ce3b 00a6 d23c 5e46 f63b
00000060: d6c2 39bc 21cc 8cbb 6b11 f53b d31f b9bc
00000070: 5bd4 6a3c 197d a5bc 0dc9 9d3c 151d bebc
00000080: 872d d8bc 4aba 7e3d 9ebb b9bc 171a 9cbd
00000090: 94d9 e63c e27b 143d 4c75 d9bc 53d8 c23c
000000a0: 5418 5c3d dc56 62bc 3db5 34bb 8642 8fbd
000000b0: 7cc7 b4bd 745e f3bb 50e1 f53c 4ec2 d6bc
000000c0: 60ca 463d 74a2 6f3c 6ca7 8a3c 42ec 9dbc
000000d0: c6bb cdbc 385e 27bd 793a cd3c 9a1f b73d
000000e0: d248 1abd da70 293c 32d0 05bc c24a e3bb
000000f0: f79f 26bd e6ba bebd 5f90 453d 011a 4d3c
00000100: bd80 04bd b0ac 1f3d 39cd 4b3b d21c 283d
00000110: 5726 eabc 89d9 0e3d 26fa 183d 437a 5fbd
00000120: d040 dc3c b897 4c3b 7292 42bc 5c17 1039
00000130: 056b 293d 5df3 acbc e0ad 0b3d 2312 593d
00000140: caf2 e1bc 8c1e cebc 7ec2 083d 12e1 babc
00000150: 1147 83bd 0202 7a3d 7e95 80bd e6e3 29bc
00000160: d9ae 4f3c cbed 1b3d f142 923c 8360 c63c
00000170: bcc4 52bd 016c e73b 0c51 e4bc e7ae 2dbb
00000180: 9c43 5cbb 2faa 6b3c da54 613c 6d8a 0abd
00000190: 9861 20bd e3ea e1ba e05e 7d3c c492 7ebd
000001a0: cb39 d33b 4747 59bd 2d7d 6dbd aff5 083c
000001b0: 36c2 e33b 776b 0cbd a113 a4bc 294d 5bbd
000001c0: 4654 42bc edb8 c73c 7cde 3fbd faf4 0abc
000001d0: 21e2 803d 76cd 623c 85fe fa3c 2619 073c
000001e0: 3c23 bb3b 2254 c43b e648 f73a a496 4cbd
000001f0: 9be6 45bb 799f cf3c dd1f c43c 9ddf 7abd
00000200: 9b0b 1f3c 3d61 783c 5023 2a3c 5bc1 293c
00000210: b52c 5a3c b206 4abc 1c53 53bd 2b51 16bd
00000220: d783 a9bc cbcc 0abc 90c0 45bc 2123 673c
00000230: a76b 35bd 68dc 3c3d 1a95 d63c 44cf aa3c
00000240: 2d84 3dbd 924a 5d3d 6b35 4abc 4ad2 2bbb
00000250: e954 c53c b4f3 48bd 7d27 28bc 9266 04bd
00000260: 21f8 37bc fc41 333c ea56 90bc b5b6 193c
00000270: b720 4e3d 2f8a c2bc 067a d9bb 6d9d 8abd
00000280: 298c 73bd c193 c2bc d212 41bd 5247 a83a
00000290: ba28 25bc edb2 cd3d 31d0 1f3c b886 02bd
000002a0: 0fa6 f83c 97c8 ae3c 18c4 aa3c e909 93bd
000002b0: f0af c33c a9d5 f33c c2f1 bf3c e120 09bd
000002c0: 06aa d83c cad2 463d 640c b13c e6e4 4abd
000002d0: 2259 96bd ad04 313d 4dbf a5bb 5a7c 94bd
000002e0: fae4 d83c efb8 c23b 9a83 61bd 03e8 a9bc
000002f0: 7123 db3c 023e 92bd 1c12 5cbd 65d4 26bd
00000300: 4c57 b53c f03c 44bd 9388 553d b184 30bd
00000310: 0c96 41bd 1d12 b83c 5f4c 44bd f720 263c
00000320: 5f1e 70bd 736a cb3c 1002 d83c 8084 383d
00000330: a380 00bb dda9 803b c980 6cbc b340 2dbd
00000340: cc24 313d 0b30 54bd 7655 4bbd fc77 cf3c
00000350: 9a65 80bd 7723 2a3c 789e 73bd 000c 6d3d
00000360: 3266 aabc 2ab0 b73c ef9f 42bc bd2d bb3c
00000370: 8725 15bd 99e9 0a3d 256f ed3b 3373 093d
00000380: 976c c73a 18ce 08bc 19af c93c 3e55 e9bb
00000390: 41d2 c63c 980b 13bd f282 2abd 9bb6 3c3c
000003a0: f0b9 b53c f90e 2f3d f408 3dbc f747 0b3c
000003b0: ad33 98bc c505 463d f676 db3c 1461 773b
000003c0: 3845 74bd 7ae3 5b3c 4e9e 503d e27d 04bd
000003d0: 0a0b bc3b 7caf 35bc 937b 033d 2a07 0ebd
000003e0: d01e 063d a7ad e3bc 35a1 5a3d 118a 043d
000003f0: 2e82 97bc dd7b d4b7 846b 5d3c 711c 8e3c

network_body.linear_encoder.seq_layers.0.weight f4 [256, 442]
0.01064702 -0.049298156 -0.054401983 -0.027710028 0.068059646 0.044616524 0.0189177 -0.05919611
0.14117518 -0.02448971 -0.039583825 -0.022611825 0.041776843 -0.042604633 0.035136644 0.031231133
-0.049360905 0.054663938 -0.118607625 0.010758062 -0.02917801 -0.04634323 -0.007205452 0.0020731546
-0.010703057 -0.031363253 -0.06255097 -0.08290681 -0.027681915 0.054255817 0.09981897 0.0395223
0.04077285 -0.021364259 -0.08470856 0.0018439213 0.009429028 0.027632527 -0.03847705 0.05237753
-0.10102572 0.009535093 0.0020737043 0.085888095 0.023523785 0.025223313 -0.066751145 0.0047488473
-0.10647257 0.05206401 0.1175179 0.054497883 -0.0236037 0.050958104 -0.05249717 0.06553042
0.03684631 0.03973832 0.0449911 -0.001743327 -0.11368547 0.06310162 -0.12442461 -0.001749406
0.03426564 -0.034123816 0.01848964 0.025777882 -0.007442411 0.06818347 -0.16789107 0.100512534
0.007162727 0.0054501607 -0.011288854 -0.045913856 -0.035588462 -0.032958236 0.025585402 0.06966039
0.019000445 0.10402722 -0.015273061 0.06253889 -0.022592865 0.016171705 0.12754463 0.027220065
0.025881182 -0.03845959 -0.056971025 0.075202614 -0.0307585 0.0640554 -0.00179529 -0.036645044
-0.092356235 0.06699715 0.013103834 -0.1420213 0.027063424 -0.016674304 -0.13106874 0.030311173
-0.14988457 0.011214531 0.028158624 0.06212499 0.016359238 -0.061826758 -0.015072734 0.12222744
0.03523533 0.024838483 -0.0032035597 0.007237869 -0.01067544 -0.006666078 -0.08838218 0.011531949
0.07873746 -0.08086701 -0.04411529 0.006446808 -0.088311255 0.0109424945 0.02485665 0.0469872
0.037254214 -0.03498914 -0.022059163 -0.026313074 -0.027458081 0.032428253 0.060243502 0.087445125
-0.030916937 0.05950695 -0.08399857 0.10451342 -0.032787032 -0.109643 -0.03135359 0.016141547
-0.096932605 0.016305523 -0.08457204 0.015533715 0.01972563 -0.022765506 -0.014136205 -0.035927504
-0.06810314 0.022266908 0.045972206 -0.052566245 0.045906365 0.015354927 -0.088934906 -0.037324484
-0.061972894 -0.035162847 0.043426085 0.040726416 -0.07010898 0.05200879 0.015942931 0.07565922
-0.035766903 -0.113120586 -0.07631414 0.017146118 -0.046242766 0.036264904 -0.07488918 -0.004546633
0.02795507 0.085320875 0.016747443 0.0711241 0.0066281953 0.1413191 -0.022075104 -0.023841858
-0.049417812 -0.04537252 -0.10467642 0.10176918 0.036945052 -0.02125634 0.031130176 0.029593581
-0.06215883 -0.01724053 -0.08983413 0.0814988 -0.0015991518 -0.00023458652 -0.03997478 0.0111566745
-0.1426004 0.06687543 0.08134939 0.017039346 0.01692553 0.007930915 -0.027190804 -0.0031881426
0.016005538 0.08099707 0.03478635 -0.043785088 -0.12567683 0.03211599 -0.12765865 0.09675545
-0.007987977 0.029073143 0.030412013 0.02391796 0.004865732 -0.005034199 -0.0014903555 0.029837226
0.022087289 -0.051818993 -0.21664208 0.016677128 -0.1268261 0.107378215 -0.058360044 0.019154662
0.026190149 0.00809832 0.09095976 0.009492893 -0.055504244 0.10388063 -0.06428086 -0.079440236
-0.045641057 0.055536892 -0.16035154 0.11928195 -0.023385832 -0.039676193 0.022940759 0.0021075679
-0.029253589 -0.0025880565 -0.025221804 -0.028419316 0.011980356 -0.1134959 -0.14208539 -0.038225196
00000000: d770 2e3c ddec 49bd 9dd4 5ebd 2400 e3bc
00000010: db62 8b3d d1bf 363d 4bf9 9a3c 9f77 72bd
00000020: 3a90 103e a59e c8bc a622 22bd 6f3c b9bc
00000030: 321e 2b3d 3282 2ebd 71eb 0f3d 6fd8 ff3c
00000040: a92e 4abd 4be7 5f3d 8ee8 f2bd 9542 303c
00000050: b906 efbc 66d2 3dbd b61b ecbb c3dd 073b
00000060: e05b 2fbc c176 00bd b91a 80bd 0ccb a9bd
00000070: 2fc5 e2bc 593b 5e3d e36d cc3d 23e2 213d
00000080: 6f01 273d 1904 afbc ae7b adbd bbaf f13a
00000090: 367c 1a3c 9c5d e23c 1c9a 1dbd d289 563d
000000a0: 93e6 cebd 1439 1c3c fce6 073b 19e6 af3d
000000b0: f4b4 c03c 1fa1 ce3c d3b4 88bd 389c 9b3b
000000c0: 4a0e dabd 1241 553d 3aad f03d 2c39 5f3d
000000d0: 8c5c c1bc 72b9 503d 4607 57bd d034 863d
000000e0: 28ec 163d a6c4 223d 9648 383d 5980 e4ba
000000f0: edd3 e8bd 6c3b 813d 54d2 febd 534c e5ba
00000100: 215a 0c3d 6ac5 0bbd 9677 973c 232c d33c
00000110: 78df f3bb c6a3 8b3d a3eb 2bbe 84d9 cd3d
00000120: 4fb5 ea3b 4397 b23b e3f4 38bc 2b10 3cbd
00000130: 35c5 11bd 37ff 06bd 7a98 d13c 1baa 8e3d
00000140: d2a6 9b3c 390c d53d dc3b 7abc 6414 803d
00000150: ac14 b9bc 867a 843c 0f9b 023e 9dfc de3c
00000160: c604 d43c ce87 1dbd 735a 69bd d403 9a3d
00000170: 40f9 fbbc 7a2f 833d f04f ebba 1d19 16bd
00000180: 4425 bdbd cd35 893d 77b1 563c 086e 11be
00000190: 1db4 dd3c 8d98 88bc e236 06be 234f f83c
000001a0: 577b 19be 27bd 373c eaac e63c c676 7e3d
000001b0: cf03 863c 0e3e 7dbd a1f3 76bc 6152 fa3d
000001c0: ec52 103d 137a cb3c d0f2 51bb a52b ed3b
000001d0: 0ae8 2ebc 1e6f dabb b701 b5bd 80f0 3c3c
000001e0: 1b41 a13d 9a9d a5bd 3cb2 34bd bf3f d33b
000001f0: 88dc b4bd 2648 333c 2ca0 cb3c a675 403d
00000200: e097 183d c650 0fbd 6bb5 b4bc 848e d7bc
00000210: c5ef e0bc 7dd3 043d e4c1 763d 6e16 b33d
00000220: 8445 fdbc 8fbd 733d 7107 acbd 220b d63d
00000230: b24b 06bd 828c e0bd 9f6c 00bd 473b 843c
00000240: 9a84 c6bd 2993 853c 1b34 adbd 1f81 7e3c
00000250: a597 a13c ba7e babc 8b9b 67bc b828 13bd
00000260: a979 8bbd 1769 b63c 5a4d 3c3d b44f 57bd
00000270: 5008 3c3d 3b93 7b3c 8123 b6bd 8fe1 18bd
00000280: 4ad7 7dbd eb06 10bd 8ddf 313d bed0 263d
00000290: 4c95 8fbd 2b07 553d c09a 823c 39f3 9a3d
000002a0: 5180 12bd c4ab e7bd 964a 9cbd 0476 8c3c
000002b0: 0e69 3dbd 828a 143d 805f 99bd ecfb 94bb
000002c0: 0802 e53c b6bc ae3d ef31 893c 83a9 913d
000002d0: 5531 d93b f4b5 103e d9d6 b4bc 0050 c3bc
000002e0: 556a 4abd 89d8 39bd 9760 d6bd 5c6c d03d
000002f0: b253 173d c721 aebc b604 ff3c 3d6e f23c
00000300: 429a 7ebd 033c 8dbc f5fa b7bd d8e8 a63d
00000310: a19a d1ba 57fb 75b9 98bc 23bd 7cca 363c
00000320: d705 12be fcf5 883d 829a a63d 1996 8b3c
00000330: 69a7 8a3c abf0 013c 40bf debc 28f0 50bb
00000340: 0c1e 833c cbe1 a53d 227c 0e3d fe57 33bd
00000350: 6db1 00be 0e8c 033d f3b8 02be b927 c63d
00000360: 01e0 02bc cd2a ee3c 9d22 f93c 99ef c33c
00000370: b870 9f3b ecf5 a4bb 0858 c3ba 336d f43c
00000380: 67f0 b43c 2740 54bd 6cd7 5dbe 799e 883c
00000390: b3de 01be 1ce9 db3d f10a 6fbd 3dea 9c3c
000003a0: b98c d63c d1ae 043c 1c49 ba3d 1488 1b3c
000003b0: 6b58 63bd 5ebf d43d afa5 83bd 90b1 a2bd
000003c0: 1ef2 3abd a77a 633d 3233 24be 184a f43d
000003d0: a593 bfbc 8183 22bd 42ee bb3c 1f1f 0a3b
000003e0: 39a5 efbc 629c 29bb f59d cebc a0cf e8bc
000003f0: 4149 443c 8a70 e8bd d57e 11be 0692 1cbd

network_body.linear_encoder.seq_layers.2.bias f4 [256]
0.012288401 0.03284367 -0.043263767 -0.04281516 0.022161247 0.013506516 0.05072082 -0.0024834399
0.03588722 -0.03390391 0.001546702 0.029019862 -0.020058 -0.031722024 -0.035144575 0.042117152
0.003484592 0.008370176 -0.04352679 0.011446178 0.0012286541 -0.03609411 -0.011788428 -0.014305733
-0.014922319 0.043051668 0.0021407222 -0.040110573 -0.040015843 -0.06122886 -0.018421289 0.05429545
0.048712075 -0.038781933 0.041426376 -0.012148492 0.004829778 -0.049349546 -0.017998721 0.050815895
0.046548434 0.002989643 -0.0025341164 -0.017326208 0.0019091397 0.025562217 -0.009167155 -0.048406214
0.033625886 -0.04884426 -0.034871344 -0.044815626 0.021549612 0.020841366 0.02169305 0.04971175
0.025520507 0.019304056 0.031875364 0.02154304 -0.031106692 -0.010596791 -0.019262772 0.0031124996
0.03330376 -0.0065338765 0.009900112 -0.03718836 -0.00046166242 0.020585094 -0.04392365 -0.01865044
0.010460333 0.019833187 0.030477317 0.032958325 -0.012158253 -0.009517119 0.037258375 0.009868257
-0.057662044 -0.021504313 0.00085228676 -0.026981724 -0.055964004 -0.03945649 -0.046754956 -0.0063873525
0.033522062 -0.017908147 0.0478943 0.037288904 -0.06253171 -0.020941714 -0.01675926 -0.004674485
-0.009659471 -0.030286917 -0.010981135 -0.053102825 0.04881379 -0.04436436 0.02621598 -0.0117651755
-0.0048503713 0.027172502 0.008275688 -0.0070834598 -0.06575164 0.02745583 0.01851868 -0.018206082
-0.031317182 -0.03481633 5.6078443e-05 -0.035703607 -0.03471912 -0.05604419 -0.071445845 0.075241655
-0.039954234 0.026960827 0.02102946 0.030859888 -0.05658543 0.021590104 0.005678444 -0.04151945
0.019646632 -0.039864756 0.013241665 0.019082477 0.02729407 -0.016355945 0.020940198 -0.036052432
-0.0019493473 0.04829576 -0.05315321 -0.0029442736 -0.026819224 0.040262584 0.018459294 -0.0095787775
0.0021859913 -0.017431615 -0.020327961 -0.0084370095 -0.04181063 -0.0035731122 -0.008602884 -0.0012868004
0.050485063 0.014386554 -0.023254633 -0.03029524 0.04280145 -0.0379329 -0.035611488 0.005987757
-0.022708673 -0.031730227 -0.056752287 -0.055557452 -0.03144495 0.026261847 -0.0075946823 -0.04331656
-0.0014916117 -0.0245051 -0.06371109 -0.034417856 -0.05508632 -0.017502667 0.008577301 -0.02039778
0.0073100817 0.006417574 -0.05379612 0.0016116075 0.04034373 -0.05138347 0.025960274 0.011024707
-0.0084199505 0.0028611105 -0.03657031 0.029536216 0.04495439 0.03823708 0.044437196 0.021540431
-0.021497224 -0.03206374 -0.006892539 -0.0273149 -0.03481919 -0.036826 -0.002378798 0.01600407
-0.058560412 -0.074903496 0.015616907 -0.007715371 0.0064898697 0.0609532 0.014534068 -0.028222604
0.020097645 0.0020704973 0.016472183 0.014196549 0.0302991 -0.019410633 0.027930753 -0.007938206
-0.038133036 0.01656128 -0.010451436 -0.062352303 0.015436964 -0.0056628943 -0.030715244 -0.00944299
0.038301326 0.039022382 0.04241687 -0.044582397 0.026787529 0.037590828 -0.020915613 0.014170603
0.003880992 0.008563145 -0.01732028 0.011250318 -0.019173864 -0.024607608 0.03500238 0.0029301024
0.018587077 -0.0133965155 0.004689889 -0.0145349605 0.00553103 0.013080909 0.039369106 -0.016952062
-0.024288436 -0.057567026 0.024842594 -0.06856578 -0.02614689 -0.026144858 0.021032117 0.056862295
00000000: 4a55 493c 1687 063d 5935 31bd f35e 2fbd
00000010: 818b b53c 6f4a 5d3c a2c0 4f3d 35c1 22bb
00000020: 7afe 123d d4de 0abd b5ba ca3a 10bb ed3c
00000030: ad50 a4bc f4ee 01bd c2f3 0fbd 0983 2c3d
00000040: c15d 643b 1023 093c 2649 32bd c088 3b3c
00000050: ca0a a13a 6bd7 13bd 4024 41bc 9862 6abc
00000060: be7c 74bc f256 303d 5c4b 0c3b fc4a 24bd
00000070: a7e7 23bd 1dcb 7abd 3ee8 96bc e864 5e3d
00000080: 5086 473d ced9 1ebd b4ae 293d 780a 47bc
00000090: 1d43 9e3b c022 4abd 0e72 93bc 5424 503d
000000a0: 92a9 3e3d e3ed 433b 6b13 26bb b1ef 8dbc
000000b0: 193c fa3a db67 d13c d631 16bc 9845 46bd
000000c0: 4cbb 093d eb10 48bd 41d5 0ebd 9790 37bd
000000d0: d088 b03c 83bb aa3c a0b5 b13c 8c9e 4b3d
000000e0: 6210 d13c 8a23 9e3c be8f 023d 087b b03c
000000f0: 76d3 febc 2a9e 2dbc f6cc 9dbc 14fb 4b3b
00000100: 8669 083d 211a d6bb 1434 223c d252 18bd
00000110: 480b f2b9 12a2 a83c 49e9 33bd cfc8 98bc
00000120: d161 2b3c 3579 a23c 91ab f93c 4fff 063d
00000130: 6933 47bc b1ed 1bbc 3d9c 183d 78ae 213c
00000140: 092f 6cbd d029 b0bc ff6b 5f3a c708 ddbc
00000150: 833a 65bd 219d 21bd 2082 3fbd ff4c d1bb
00000160: 6e4e 093d 1bb4 92bc d02c 443d 40bc 183d
00000170: a010 80bd f58d abbc b74a 89bc 6c2c 99bb
00000180: c242 1ebc 451c f8bc 38ea 33bc 5982 59bd
00000190: f8f0 473d 67b7 35bd e5c2 d63c b9c2 40bc
000001a0: ddef 9ebb de98 de3c c096 073c 5e1c e8bb
000001b0: cca8 86bd 0ceb e03c 7db4 973c ec24 95bc
000001c0: 7246 00bd 919b 0ebd c535 6b38 f23d 12bd
000001d0: a335 0ebd 988e 65bd 3352 92bd 4c18 9a3d
000001e0: 0da7 23bd f4dc dc3c f945 ac3c e0cd fc3c
000001f0: 20c6 67bd bbdd b03c 3e12 ba3b 4c10 2abd
00000200: f9f1 a03c 3a49 23bd 92f3 583c db52 9c3c
00000210: d097 df3c e7fc 85bc c78a ab3c b7ab 13bd
00000220: 3e81 ffba c6d1 453d 2eb7 59bd b7f4 40bb
00000230: fdb3 dbbc 61ea 243d f237 973c 4ef0 1cbc
00000240: d942 0f3b bfcc 8ebc d386 a6bc 623b 0abc
00000250: a041 2bbd e02a 6abb 1cf3 0cbc dba9 a8ba
00000260: 6dc9 4e3d 95b5 6b3c 8080 bebc b92d f8bc
00000270: 9350 2f3d 875f 1bbd 5add 11bd f234 c43b
00000280: 8a07 babc 8ef7 01bd 1675 68bd 3690 63bd
00000290: 6bcc 00bd 1623 d73c d0dc f8bb b56c 31bd
000002a0: 2f82 c3ba ebbe c8bc f67a 82bd bdf9 0cbd
000002b0: 31a2 61bd c161 8fbc cf87 0c3c 3f19 a7bc
000002c0: 6989 ef3b 834a d23b 5259 5cbd 933c d33a
000002d0: 783f 253d 7977 52bd a4aa d43c f9a0 343c
000002e0: d5f3 09bc 7881 3b3b c0ca 15bd eff5 f13c
000002f0: 1822 383d 7c9e 1c3d c703 363d 8f75 b03c
00000300: f21a b0bc 4555 03bd cfda e1bb 7fc3 dfbc
00000310: 919e 0ebd dcd6 16bd 9ce5 1bbb f81a 833c
00000320: 0bdd 6fbd 0167 99bd 0ede 7f3c 39d1 fcbb
00000330: f9a8 d43b 10aa 793d 4d20 6e3c 1733 e7bc
00000340: d1a3 a43c 2eb1 073b acf0 863c a498 683c
00000350: d135 f83c 0c03 9fbc 09cf e43c 400f 02bc
00000360: 6331 1cbd 85ab 873c 803c 2bbc 2165 7fbd
00000370: 52eb 7c3c cd8f b9bb 899e fbbc c5b6 1abc
00000380: dae1 1c3d efd5 1f3d 50bd 2d3d 089c 36bd
00000390: 8571 db3c d7f8 193d 3857 abbc d12b 683c
000003a0: 3e58 7e3b 6f4c 0c3c 43e3 8dbc 4153 383c
000003b0: 8212 9dbc e595 c9bc a85e 0f3d f606 403b
000003c0: ed43 983c 0f7d 5bbc a4ad 993b 0b24 6ebc
000003d0: a43d b53b 4f51 563c 8041 213d 0ddf 8abc
000003e0: 8bf8 c6bc 67cb 6bbd b282 cb3c 376c 8cbd
000003f0: 0132 d6bc be2d d6bc 8c4b ac3c 70e8 683d

network_body.linear_encoder.seq_layers.2.weight f4 [256, 256]
-0.006253633 0.0056794346 0.08452757 0.07498117 0.10319348 0.008294876 -0.065049216 0.04977088
0.06263243 -0.011068164 -0.084105864 -0.0267442 -0.051562134 -0.05247905 0.104015626 -0.00944161
0.009081286 0.059533484 0.040006373 0.048851706 -0.05564896 -0.032374512 0.07870468 -0.025007969
0.09522244 -0.15680763 0.023663957 0.009300587 0.0029173247 -0.012513607 0.00023148363 -0.12691943
0.014016748 0.0080112135 0.010693181 0.011710919 -0.004273978 -0.055695143 -0.11942829 0.0352592
-0.0210826 0.09484338 -0.03431604 0.044609036 -0.07897725 -0.025985967 0.001366279 -0.091360174
0.07975602 0.03184361 0.11138818 0.0118261045 -0.013329969 -0.0064521385 0.016927488 -0.07720913
-0.032159258 -0.062033113 0.048142236 -0.09114662 0.047440898 0.07043791 0.07732965 -0.093982406
-0.0243596 -0.025018673 0.04252358 0.012041557 -0.10870352 -0.011735889 -0.00221124 0.01911284
0.08802575 -0.05588124 0.019023918 0.11659425 -0.016640611 0.00789032 0.057130996 -0.06056417
0.0010091198 -0.047838982 -0.09478816 -0.059111025 0.076882415 0.06620449 -0.042613354 0.0009912985
0.04875802 -0.076532915 -0.06526113 0.02084223 -0.029535417 -0.069487445 -0.007540367 0.019630615
-0.03488691 0.03178545 0.0033378883 -0.008751427 -0.06913917 -0.18415897 -0.038757753 0.096434414
0.009170034 -0.15593562 -0.012660967 -0.09550813 -0.12719917 0.15202518 -0.048841488 0.045086306
0.014223959 -0.042791825 -0.011678393 0.030036986 0.017555827 0.048462424 -0.1476664 -0.033418022
0.011229518 -0.00650482 0.034168907 0.05780751 -0.04359355 -0.03009017 0.017318957 -0.08649485
-0.009769031 -0.06939577 -0.07631315 -0.0047370214 0.085417494 0.030951412 -0.1360204 -0.13674878
-0.0641691 -0.051195405 -0.027953994 0.017036501 0.0191128 0.06179497 -0.025632426 0.09536125
0.00236319 0.08382183 -0.017984182 -0.014700361 -0.002375974 -0.028317893 0.044434723 -0.051491804
-0.025201233 0.039030295 0.11957137 -0.009435799 0.038454905 -0.032607444 0.058274873 -0.07516776
-0.042511847 0.023324462 -0.038260855 0.06535568 -0.067052364 -0.08518396 -0.052278638 0.04202577
-0.014221729 -0.027075166 0.033777002 0.01822886 0.10156484 -0.0098661585 -0.079917625 0.08613305
0.05268755 0.06774163 -0.06707696 -0.043022074 -0.052074213 -0.15296046 0.037449963 0.033716936
-0.08372078 0.018971063 0.049220014 -0.013511179 -0.02944178 -0.019338556 -0.0018847602 0.064769164
0.07187956 0.002318413 0.117272146 -0.019901687 -0.04980439 -0.091436684 -0.08922608 -0.05000677
-0.0014363867 0.06815824 0.02582817 -0.03470641 -0.013513581 -0.012363774 -0.09725016 0.02388415
0.034267686 -0.05640957 0.0573289 0.11845792 0.046148002 -0.0141002545 -0.05914434 -0.09103344
-0.031396773 -0.08386981 0.039006814 0.056536604 0.018068852 0.030955736 0.037273683 -0.017301077
0.026182685 0.07055021 0.013518851 -0.029776871 0.1253576 -0.00014566786 0.14931564 -0.032924708
0.002350882 0.035438746 -0.00582686 0.04441364 -0.06382678 -0.20074287 -0.103427626 -0.1307577
-0.11106151 -0.11957148 0.07428152 0.04281281 0.01240426 0.023484604 -0.049956623 0.051422194
-0.025432356 -0.005360645 0.027058635 -0.102075025 -0.066708736 -0.08103015 0.008483945 -0.005007757
00000000: 47eb ccbb 8d1a ba3b ca1c ad3d ba8f 993d
00000010: 1a57 d33d 3be7 073c 8638 85bd 8ddc 4b3d
00000020: 6e45 803d 3f57 35bc b23f acbd a716 dbbc
00000030: d132 53bd 46f4 56bd 2506 d53d fcb0 1abc
00000040: adc9 143c 62d9 733d b9dd 233d ba18 483d
00000050: 2af0 63bd 239b 04bd eb2f a13d 83dd ccbc
00000060: fc03 c33d 2e92 20be eada c13c 7d61 183c
00000070: 9630 3f3b df05 4dbc 6aba 7239 2bf7 01be
00000080: 81a6 653c 7741 033c 7432 2f3c 28df 3f3c
00000090: ba0c 8cbb 9720 64bd d296 f4bd f36b 103d
000000a0: 6bb5 acbc 3f3d c23d fa8e 0cbd f7b7 363d
000000b0: d3be a1bd 86e0 d4bc b714 b33a 0b1b bbbd
000000c0: 2057 a33d 726e 023d 7c1f e43d 47c2 413c
000000d0: f165 5abc 766c d3bb 84ab 8a3c d21f 9ebd
000000e0: 6db9 03bd 6f16 7ebd cb30 453d 14ab babd
000000f0: 6351 423d c041 903d 025f 9e3d d979 c0bd
00000100: c98d c7bc f6f3 ccbc 352d 2e3d f349 453c
00000110: f39f debd e347 40bc 73ea 10bb 8892 9c3c
00000120: d846 b43d bae3 64bd 0cd8 9b3c f7c8 ee3d
00000130: e451 88bc 6746 013c 3102 6a3d 2312 78bd
00000140: 7144 843a cff2 43bd 4b20 c2bd 671e 72bd
00000150: 8774 9d3d 3896 873d 578b 2ebd 75ee 813a
00000160: 7db6 473d 4abd 9cbd a1a7 85bd 53bd aa3c
00000170: 42f4 f1bc 6f4f 8ebd 2f15 f7bb 62d0 a03c
00000180: 94e5 0ebd 7631 023d 79c0 5a3b 2562 0fbc
00000190: d698 8dbd 2b94 3cbe 73c0 1ebd 687f c53d
000001a0: e93d 163c 96ad 1fbe f26f 4fbc c499 c3bd
000001b0: 8040 02be 7dac 1b3e 030e 48bd 6bac 383d
000001c0: 9c0b 693c 7b46 2fbd bb56 3fbc 2010 f63c
000001d0: 3dd1 8f3c 8980 463d dc35 17be 56e1 08bd
000001e0: 03fc 373c 6326 d5bb b2f4 0b3d 91c7 6c3d
000001f0: 268f 32bd a97f f6bc 7ce0 8d3c 3624 b1bd
00000200: 490e 20bc 5f1f 8ebd 124a 9cbd 0439 9bbb
00000210: 5eef ae3d d18d fd3c ef48 0bbe df07 0cbe
00000220: 176b 83bd 46b2 51bd c6ff e4bc 2290 8b3c
00000230: 7292 9c3c b91c 7d3d 18fb d1bc c24c c33d
00000240: c0df 1a3b c8aa ab3d 9053 93bc c8d9 70bc
00000250: 3bb6 1bbb edfa e7bc 2f01 363d 12e9 52bd
00000260: d172 cebc 3bde 1f3d d6e1 f43d 9c98 1abc
00000270: e482 1d3d 628f 05bd a2b1 6e3d 8ef1 99bd
00000280: e720 2ebd f112 bf3c 6ab7 1cbd 33d9 853d
00000290: c052 89bd ee74 aebd 2022 56bd 3723 2c3d
000002a0: 4102 69bc bdcc ddbc c159 0a3d b154 953c
000002b0: 3a01 d03d aba5 21bc daab a3bd 8666 b03d
000002c0: e7ce 573d 20bc 8a3d a55f 89bd ea37 30bd
000002d0: c54b 55bd aba1 1cbe 2265 193d c51a 0a3d
000002e0: cd75 abbd 3469 9b3c ed9a 493d fe5d 5dbc
000002f0: e32f f1bc e46b 9ebc 0f0a f7ba b2a5 843d
00000300: 9735 933d 84f0 173b 612c f03d dd08 a3bc
00000310: b0ff 4bbd 2843 bbbd 2abc b6bd e6d3 4cbd
00000320: 2445 bcba 8c96 8b3d 9995 d33c 4f28 0ebd
00000330: 1168 5dbc 6d91 4abc 182b c7bd b1a8 c33c
00000340: 465c 0c3d b90d 67bd b5d1 6a3d 119a f23d
00000350: b005 3d3d c104 67bc 5641 72bd bd6f babd
00000360: e799 00bd efc3 abbd 9cc5 1f3d ed92 673d
00000370: 2105 943c e296 fd3c 4aac 183d fdba 8dbc
00000380: 127d d63c a17c 903d 2c7e 5d3c a0ee f3bc
00000390: be5d 003e 6bbe 18b9 33e6 183e 0fdc 06bd
000003a0: 4111 1a3b 3828 113d 3fef bebb 14eb 353d
000003b0: 9db7 82bd 8a8f 4dbe ddd1 d3bd 59e5 05be
000003c0: 3874 e3bd e4e1 f4bd e920 983d 7c5c 2f3d
000003d0: 3d3b 4b3c c962 c03c 519f 4cbd 14a0 523d
000003e0: 8457 d0bc 59a8 afbb 12aa dd3c b60c d1bd
000003f0: 979e 88bd 23f3 a5bd 3f00 0b3c 1c18 a4bb
