Project/Assets/MyProject/Train/TrainModels/rubyrun.onnx (onnx, 527792 bytes, 6 tensors)

action_model._discrete_distribution.branches.0.bias f4 [7]
0	0x3ce68136	0.028137784
1	0x3ca87f84	0.020568617
2	0xbd09b3d0	-0.03361875
3	0x3c940270	0.018067569
4	0xbd2367a2	-0.039893754
5	0xbcbf43ae	-0.023347702
6	0x3c8a4861	0.016880216

action_model._discrete_distribution.branches.0.weight f4 [7, 256]
0	0xbe082260	-0.13294363
1	0xbd8b6a10	-0.06807339
2	0x3d9109d5	0.070819534
3	0x3d84e9b8	0.06489891
4	0xbdef6be1	-0.11690498
5	0xbcb457a3	-0.022014445
6	0xbd16a73d	-0.036780585
7	0x3d2f8e8f	0.042860564
8	0x3d4190f4	0.04725738
9	0x3ccf443b	0.02530109
10	0x3d9af2a9	0.07565815
11	0x3d0c6f96	0.034286104
12	0x3d60534f	0.05476695
13	0x3b696710	0.0035614409
14	0x3d0dcf42	0.034621485
15	0x3b2d3d9e	0.0026434432
16	0xbc5af19a	-0.013363266
17	0xbe079553	-0.13240556
18	0x3c51b7a0	0.012800127
19	0xbe164560	-0.14674902
20	0x3e1030b0	0.14081073
21	0xbd36068b	-0.044439834
22	0xbc2fefcc	-0.010738324
23	0x3cb57dfa	0.022154797
24	0xbd3a3085	-0.045456428
25	0x3ca70970	0.020390242
26	0xbc84f0c0	-0.01622808
27	0xbb8cafb1	-0.004293405
28	0xbd909b6b	-0.070608936
29	0x3d50da40	0.05098939
30	0xbbbe2521	-0.005802766
31	0xbd2d1744	-0.042258516
32	0x3ce40ebb	0.027839055
33	0xbe0eb25f	-0.1393523
34	0x3d8fd61b	0.07023259
35	0xbdad2fb7	-0.084563665
36	0x3cb17076	0.02166007
37	0xbdb12405	-0.08649448
38	0x3d267d9f	0.040647145
39	0x3c9e63ee	0.01933476
40	0xbc6c695f	-0.014429419
41	0x3da9bed7	0.08288353
42	0xbdb33ca9	-0.087518044
43	0xbd048fc7	-0.03236368
44	0xbd7f265e	-0.06229245
45	0xbc898797	-0.016788287
46	0x3ccd6adb	0.025075367
47	0xbc855a7d	-0.0162785
48	0x3d1e8af8	0.03870675
49	0x3d919053	0.07107606
50	0x3cc430a1	0.02394897
51	0xba108f53	-0.0005514521
52	0xbc3a8d7a	-0.01138627
53	0xbd828594	-0.06373134
54	0x3d04a8e9	0.032387648
55	0x3b6975a4	0.0035623098
56	0x3d0e1ebf	0.03469729
57	0xbc4ac43f	-0.01237589
58	0xbd134018	-0.035949796
59	0x3d5408f5	0.051766355
60	0xbc982807	-0.018573774
61	0xbccec66d	-0.025241101
62	0x3ca95508	0.020670429
63	0xbc77c9ea	-0.015123824
64	0x3dc02d0a	0.093835905
65	0x3c2d7d8d	0.010589016
66	0xbd09545a	-0.03352771
67	0x3cad26b8	0.021136627
68	0x3d0111ab	0.03151099
69	0x3d696d26	0.056988858
70	0x3d4c87d4	0.049934223
71	0x3ccaae2f	0.02474126
72	0xbd96180f	-0.073288076
73	0x3d737de8	0.059446245
74	0xbb521043	-0.003205315
75	0xbbe20238	-0.006897237
76	0x3ccac093	0.02475003
77	0xbd9f372d	-0.07774196
78	0xbc541a70	-0.012945756
79	0xbd16b2ad	-0.036791492
80	0x3b7a063d	0.003815069
81	0xbcfc1f83	-0.030776745
82	0xbcccd44a	-0.025003571
83	0xbcb9b5a9	-0.02266963
84	0xbd5a4140	-0.053284883
85	0x3d2f3c34	0.042782024
86	0x3d778385	0.06042816
87	0xbc833fdc	-0.016021661
88	0x3cd59da9	0.026076155
89	0xbc16c809	-0.009202966
90	0x3c65684c	0.014001917
91	0x3af37709	0.0018574904
92	0xbd6ffc38	-0.058590144
93	0x3d8d66fd	0.06904409
94	0xbc10b8c8	-0.008833118
95	0x3cdee64c	0.027209423
96	0xbd058628	-0.032598644
97	0x3db68fae	0.089141235
98	0xbd2d58cc	-0.04232101
99	0xbd1989fe	-0.037485115
100	0xb88254a4	-6.2146486e-05
101	0xbd4431b8	-0.047898978
102	0xbdc69895	-0.096970715
103	0xbcee1342	-0.029061917
104	0x3baeea4d	0.0053379894
105	0xbbfe4d02	-0.007760645
106	0xbd4dfb2b	-0.05028836
107	0x3c92bcec	0.01791235
108	0x3cc38f97	0.02387218
109	0x3ce62958	0.028095886
110	0x3d0795b5	0.033101756
111	0x3d016513	0.031590533
112	0x3d8edb72	0.069754496
113	0x3c9b4d5b	0.018957784
114	0x3cb2e5c1	0.02183807
115	0x3c12b143	0.008953395
116	0xbb6f1f1b	-0.0036487046
117	0x3c8dac52	0.017294083
118	0xbd550285	-0.052004356
119	0x3b5b75b5	0.0033486907
120	0x3c14d0b8	0.009082966
121	0xbbe72a13	-0.007054576
122	0xbe016107	-0.12634669
123	0x3d73386b	0.059379976
124	0xbb81295a	-0.003941697
125	0x3bca2f9a	0.0061702253
126	0xbdbc0b53	-0.091818474
127	0x3d84f28e	0.06491576
128	0x3bfdef12	0.0077494467
129	0xbd3943db	-0.045230728
130	0xbd30fe91	-0.043211523
131	0xbc73ed71	-0.014888153
132	0xbd018dc9	-0.031629357
133	0x3c211140	0.009830773
134	0xbcdb7f64	-0.026794143
135	0x3d6a1bb4	0.057155326
136	0xbdc1927d	-0.094517685
137	0x3da23081	0.07919408
138	0xbda2518a	-0.079257086
139	0xbd5ce0e2	-0.053925402
140	0x3d21870c	0.03943543
141	0xbd90412b	-0.0704368
142	0xbb308e2b	-0.0026940207
143	0xbdb174a7	-0.08664828
144	0xbc28e3c2	-0.010308208
145	0x3d278bd4	0.040904835
146	0x3c621aec	0.013800364
147	0xbccad439	-0.024759399
148	0x3b8a3a94	0.004218409
149	0x3c8a6ac8	0.01689662
150	0xbd88461e	-0.06653999
151	0xbbfe91b7	-0.0077688354
152	0xbc596e04	-0.013270859
153	0xbd2ce660	-0.04221189
154	0xbc6e7ab1	-0.014555619
155	0x3d77356c	0.06035368
156	0x3d79e2ee	0.061007433
157	0xb9f4ef3e	-0.00046717556
158	0x3c88fb1b	0.016721299
159	0xbd4545ce	-0.048162274
160	0x3c03bde2	0.008040877
161	0xbd6c81b7	-0.057740893
162	0x3c1fc3a8	0.009751238
163	0x3cead1c2	0.028664473
164	0x3d22c5f3	0.03973956
165	0xbce93d40	-0.02847159
166	0x3c01eb3f	0.007929622
167	0xbd5d8191	-0.054078642
168	0xbdbd2c99	-0.09237022
169	0xbd9720c6	-0.07379298
170	0xbd1eaf4c	-0.038741395
171	0x3c9b8d57	0.018988295
172	0xbda87aef	-0.08226573
173	0x3cd37997	0.025814814
174	0x3bee8c1d	0.0072798864
175	0xbd5f6bf5	-0.054546315
176	0xbd28b44d	-0.041187573
177	0x3db6d15e	0.08926652
178	0xbd47a2c3	-0.048739206
179	0x3d001cb7	0.031277385
180	0xbdc641b2	-0.09680499
181	0x3af4f119	0.0018687575
182	0x3c9e03fe	0.019289013
183	0xbe09656c	-0.13417596
184	0xbd326bac	-0.043559715
185	0x3cebfa8a	0.02880599
186	0xbd2223e7	-0.03958502
187	0xbd634434	-0.055484965
188	0x3d9e8d39	0.0774178
189	0x3c7da9d4	0.015482385
190	0xbc2064a2	-0.009789618
191	0xbdbf46c7	-0.093396716
192	0x3d35ccd2	0.044384785
193	0x3cbf1202	0.023324016
194	0x3d19e411	0.037571017
195	0xbd84d5b6	-0.064860746
196	0x3ca8915f	0.02057713
197	0xbd625cba	-0.055264212
198	0xbbccb570	-0.006247215
199	0xbbdc2825	-0.006718653
200	0xbc9b79dd	-0.018979007
201	0xbbfb1aa4	-0.007663088
202	0x3b6cfff1	0.0036163295
203	0x3dd71fc1	0.105041035
204	0xbdd8a78c	-0.10578832
205	0x3d8c10d7	0.068391494
206	0x3d0ba35b	0.034091335
207	0xbdb3900d	-0.0876771
208	0x3d09ff8a	0.033690967
209	0x3dbe9b12	0.09306921
210	0xbd2e2562	-0.04251612
211	0xbd70f184	-0.058824077
212	0x3c83b562	0.016077701
213	0xbd1cdf4c	-0.03829889
214	0x3ca8a3d1	0.020585926
215	0xbd9cac6b	-0.076500736
216	0xbd4ae8bb	-0.049538355
217	0x3c559f9d	0.013038543
218	0xbdc675e3	-0.09690454
219	0x3d6ff2ce	0.058581166
220	0x3cad5da6	0.02116282
221	0x3d1e5cce	0.038662724
222	0x3db01b5d	0.08598969
223	0x3d945fc4	0.07244828
224	0x3dd94327	0.106085114
225	0xbdb9a6ae	-0.09064995
226	0xbc49e7ec	-0.012323361
227	0xbb4795f3	-0.0030454367
228	0x3c60bc91	0.013716833
229	0xbd3a04a7	-0.045414593
230	0xbd9fff53	-0.07812371
231	0xbb2b9326	-0.0026180237
232	0xbcc93c62	-0.024564926
233	0x3cb6c31c	0.022309832
234	0xbd86b9c0	-0.06578398
235	0xbd9d7209	-0.07687766
236	0x3d30d65c	0.04317318
237	0xbe2e053c	-0.16994184
238	0x3cc3d162	0.023903552
239	0x3b8d9624	0.0043208767
240	0xbdb8dc12	-0.0902635
241	0xbc42ad6f	-0.01188217
242	0x38addd16	8.290463e-05
243	0x3cf78440	0.030214429
244	0x3d2c60d5	0.042084534
245	0x3bc7b4dd	0.0060945586
246	0xbd1e339a	-0.03862343
247	0xbd9c1e08	-0.076229155
248	0xbd1d58b3	-0.03841467
249	0xbc382700	-0.011239767
250	0xbd18683b	-0.037208777
251	0x3c6fdcbc	0.0146400295
252	0xbdc94d1f	-0.09829163
253	0xbcbcba62	-0.023038093
254	0xbd436f1d	-0.047713388
255	0xbcb081cf	-0.021546273

network_body.linear_encoder.seq_layers.0.bias f4 [256]
0	0x3ca47e52	0.020079765
1	0x3b697822	0.0035624583
2	0x3be10c39	0.006867912
3	0xbc1f0c42	-0.009707512
4	0x3c9818a3	0.018566435
5	0xbc634193	-0.013870615
6	0x3d04771c	0.032340154
7	0xbb97671b	-0.0046204454
8	0x3cc3a181	0.023880722
9	0xbc293a0a	-0.010328779
10	0xba8d973b	-0.0010802516
11	0xbca16772	-0.019702647
12	0x3d28092f	0.041024383
13	0x3a940604	0.0011293297
14	0xbcd63dbc	-0.026152484
15	0xbd0f5aba	-0.034998633
16	0x3bc6c3db	0.0060658283
17	0x3cfbc2c2	0.030732516
18	0x3d5805bb	0.05273984
19	0x3c9539dc	0.018216066
20	0x3c8c0516	0.017092269
21	0x3d234e0e	0.03986936
22	0x3d2787e5	0.040901083
23	0x3c381f91	0.011237995
24	0xbac06b00	-0.0014680326
25	0x3c806d6f	0.015677182
26	0xbbd095dc	-0.006365521
27	0x3c6afdd2	0.014342742
28	0xbc829068	-0.015937999
29	0xbd18c16a	-0.03729383
30	0xbc45bdc7	-0.012069172
31	0x3ca35bac	0.019941173
32	0xbb7dcd65	-0.003872716
33	0xbb016932	-0.001974654
34	0x3ca05b92	0.019574914
35	0xbce27a47	-0.027646197
36	0xbb08fda0	-0.0020903125
37	0x3d1bb4f5	0.03801437
38	0x39bd7f84	0.00036143896
39	0xbc405340	-0.011738598
40	0xbd3d009e	-0.046143167
41	0xbcd6074b	-0.026126524
42	0x3ca4f4a8	0.020136192
43	0xba7b1c67	-0.00095791224
44	0x3a5e4618	0.0008479073
45	0xbc56131a	-0.013066078
46	0x3bc428a0	0.005986288
47	0x3ca9474c	0.02066388
48	0x3bac9bf4	0.0052676145
49	0x3c9c8e1d	0.019110734
50	0x3d3b015e	0.0456556
51	0x3ce61824	0.028087683
52	0x3ca721e8	0.02040191
53	0xbd0320d4	-0.03201373
54	0x3c6a494c	0.014299702
55	0xbc6e9533	-0.014561939
56	0x3d1f8241	0.03894258
57	0x3cafb440	0.021448255
58	0xbbc6ef96	-0.0060710413
59	0xbcf418b8	-0.029796943
60	0x3ce385ab	0.027773699
61	0x3c09869d	0.008393911
62	0x3cf25ef6	0.029586297
63	0x3d0362c0	0.032076597
64	0x3c9a8ffd	0.018867487
65	0xbc8a041b	-0.01684766
66	0x3b7beb8d	0.003843996
67	0x3d131079	0.03590438
68	0xbd86aa96	-0.065755054
69	0xbb3eb1fd	-0.0029097789
70	0x3ca021ed	0.019547427
71	0x3bb3e048	0.005489383
72	0xbbba1ad2	-0.0056794668
73	0xbd8639d5	-0.06553999
74	0xba6ab699	-0.0008953601
75	0x3c7a410e	0.015274299
76	0xbcb5c3af	-0.022188036
77	0xbbba8602	-0.0056922445
78	0x3d6a5d2a	0.057217754
79	0x3cb59012	0.022163425
80	0x3d2ccf4e	0.04218989
81	0xbd0f85be	-0.035039656
82	0xba81cfc6	-0.000990384
83	0xbcf9b33c	-0.030480973
84	0xbc627a31	-0.013823078
85	0xbd035254	-0.032060936
86	0x3ce536b2	0.027980182
87	0x3ca45169	0.02005835
88	0xbc315c0a	-0.0108251665
89	0xbc4da662	-0.012551876
90	0xbc48f5be	-0.012265621
91	0xbc873e7f	-0.016509293
92	0xbbb99030	-0.0056629404
93	0xbd5a0a1e	-0.053232305
94	0xba0818bf	-0.0005191676
95	0x3d07f1bc	0.03318952
96	0x3c87c5fa	0.016573895
97	0x3cafca35	0.021458725
98	0xbcf85865	-0.030315587
99	0x3c9605d0	0.018313318
100	0xbc87d0a3	-0.016578978
101	0x3ba05efb	0.004894135
102	0xbc301ab4	-0.010748554
103	0xbb952dbe	-0.004552572
104	0x3d85341d	0.065040804
105	0x3cf5cf22	0.030005995
106	0xbd95aa51	-0.07307876
107	0xbd6b8e46	-0.05750873
108	0xbd0486b2	-0.032355018
109	0xbc8803ab	-0.016603312
110	0x3ca8d977	0.020611508
111	0x3cf9a430	0.030473799
112	0xbba515ab	-0.0050379834
113	0x3d41e56e	0.04733794
114	0x3c167418	0.009182952
115	0x3d25818b	0.040406745
116	0xbbf1a036	-0.007373835
117	0xbc1b53c5	-0.009480421
118	0xb79ad5dd	-1.8457818e-05
119	0xbd0fb4d9	-0.03508458
120	0x3ad56b54	0.0016282597
121	0x3b5e9edf	0.0033969206
122	0x3c6a6139	0.014305406
123	0x3c5cea88	0.013483651
124	0x3c129307	0.008946187
125	0xbc3ee635	-0.011651565
126	0xbd42e843	-0.047584783
127	0x3bcf14bf	0.006319612
128	0x3d073c3d	0.033016432
129	0xbafd2bf4	-0.0019315467
130	0xbcd81d8a	-0.026381273
131	0x39a19dc2	0.00030825852
132	0xbc2e230c	-0.010628473
133	0x3c44927f	0.011997818
134	0xbc53c95a	-0.012926424
135	0xbc8c62ed	-0.017137015
136	0xbbf4442e	-0.0074544167
137	0xbd2ba658	-0.041906685
138	0x3beddb33	0.0072587966
139	0x3ceabef7	0.028655512
140	0x3c87395a	0.01650684
141	0xbc6cee44	-0.014461104
142	0xbdba5499	-0.09098167
143	0xbd4b25ee	-0.04959672
144	0xbc9424bc	-0.018083923
145	0xbc432952	-0.011911707
146	0xbbe2140d	-0.006899363
147	0x3caa4c02	0.020788196
148	0x3c8dfc42	0.0173322
149	0x3cdc9568	0.026926711
150	0x3b191b47	0.0023362206
151	0xbd30ed50	-0.04319507
152	0xbbd961f6	-0.0066339923
153	0xbb8415cd	-0.004030919
154	0xbc1ef09b	-0.0097009195
155	0x3cf2fbf5	0.029661158
156	0xbc04fd9f	-0.008117109
157	0xbd31ab7a	-0.043376423
158	0x3c8166e8	0.01579614
159	0x3d2b8550	0.041875184
160	0x3ab4242d	0.0013743691
161	0x39de2b43	0.00042375372
162	0x3d2e3d77	0.042539086
163	0xbcdfa263	-0.027299112
164	0x3c3eb7f7	0.01164054
165	0xbc037c8f	-0.008025303
166	0xbbaba31c	-0.00523795
167	0x3cbf9e96	0.02339105
168	0x3d30663e	0.043066256
169	0xbd1451c5	-0.036210794
170	0xbaf524db	-0.0018703
171	0xbbcc1114	-0.006227622
172	0x3b9b2685	0.0047348165
173	0x3c35c374	0.011093963
174	0x3ccc2701	0.024920942
175	0xbc98ccec	-0.018652402
176	0x3bec5fbc	0.007213561
177	0x3d0a588b	0.033775847
178	0xbc340df2	-0.010989653
179	0xbb1f301b	-0.0024290148
180	0x3d106f5e	0.035262458
181	0x3af398e3	0.0018584993
182	0xbc94e481	-0.018175365
183	0xbccf7239	-0.02532302
184	0xbb9f5d0f	-0.0048633884
185	0xbbd77394	-0.0065750573
186	0xbd7e4340	-0.062075853
187	0xbc865bc4	-0.01640118
188	0x3bab377e	0.005225121
189	0x3c2a94ab	0.010411422
190	0xbcd812b8	-0.026376113
191	0x3c5434c5	0.012952034
192	0x3cedad74	0.029013373
193	0x3b88267c	0.0041549783
194	0x3c6465be	0.013940273
195	0xbc6f0731	-0.014589117
196	0xbda35143	-0.07974484
197	0x3d523102	0.05131627
198	0xbd3b705d	-0.045761455
199	0x3d17b11c	0.03703414
200	0x3d1072bc	0.03526567
201	0x3cbb0c78	0.022833094
202	0x3b8400b5	0.0040284046
203	0xbb21d965	-0.0024696228
204	0xbba1eae9	-0.0049413336
205	0x3d437b13	0.047724795
206	0xbd352e51	-0.044233624
207	0xbc8bdab5	-0.017072061
208	0xbcb254b7	-0.02176891
209	0xbd1fe5c1	-0.03903747
210	0xbd17b404	-0.03703691
211	0xbcf56b69	-0.029958444
212	0x3be84cea	0.007089247
213	0x3b18c72d	0.0023312077
214	0x3d0c52b2	0.034258552
215	0xbb9504be	-0.0045476845
216	0x3be25f70	0.0069083497
217	0xbca97b9c	-0.020688824
218	0x3c55764c	0.013028692
219	0xbcf0f24e	-0.029412415
220	0xbbb42850	-0.0054979697
221	0x3d46af9a	0.04850731
222	0x3b2432d6	0.0025054715
223	0xbcf44c1b	-0.029821446
224	0x3cfde7bd	0.03099429
225	0x3ceb40d6	0.02871744
226	0xbcf09a0f	-0.029370336
227	0x3c2ce5a1	0.010552795
228	0x3cad7202	0.021172527
229	0x3d118247	0.035524633
230	0xba24fcc7	-0.000629377
231	0xba4b268f	-0.0007749581
232	0x3c315493	0.010823387
233	0xbc92d418	-0.0179234
234	0x3bd1194d	0.00638119
235	0x3d01ff49	0.0317376
236	0xbc8ab3fd	-0.016931528
237	0xbc034b9b	-0.008013631
238	0x3bbbe997	0.005734633
239	0x3cbe930a	0.023263473
240	0xbca5d4de	-0.020243105
241	0xbd36926a	-0.044573225
242	0x3c14b893	0.009077209
243	0x3bd3d9cb	0.006465172
244	0xbc74a1be	-0.0149311405
245	0xbcd70461	-0.026247205
246	0xbc8f2e47	-0.017478121
247	0xbbb34aaf	-0.0054715495
248	0x3c407914	0.011747617
249	0xbbd61aef	-0.0065339725
250	0xbc5a1b0f	-0.013312115
251	0xbd953dd0	-0.072871804
252	0x3d10a1e7	0.035310652
253	0xbc07741f	-0.0082674315
254	0xbccabfbb	-0.024749627
255	0x3c432c3c	0.011912402

network_body.linear_encoder.seq_layers.0.weight f4 [256, 248]
0	0xbd4ff491	-0.050770346
1	0xbdfb54f1	-0.12272061
2	0xbd0934f0	-0.03349775
3	0xbd0e7448	-0.034778863
4	0x3e06fedf	0.13183163
5	0x3cfd38a6	0.030910801
6	0xbd59e165	-0.05319347
7	0xbc853deb	-0.016264876
8	0x3d4c0f29	0.049819145
9	0xbc95b79d	-0.01827603
10	0xbdb71982	-0.08940412
11	0x3d96cbaa	0.073630646
12	0xbdbf1be9	-0.09331495
13	0xbdc3d09a	-0.09561272
14	0xbcb98c4f	-0.022649912
15	0xbd5a92d4	-0.053362682
16	0x3c31afa2	0.010845097
17	0x3d022e89	0.03178266
18	0x3df09f3a	0.1174912
19	0xbe00327c	-0.12519258
20	0xbe332f05	-0.17498405
21	0xbd0f7e27	-0.035032418
22	0x3c4f8cee	0.012667878
23	0x3c9f722f	0.019463627
24	0xbc337ba2	-0.010954769
25	0xbe678bea	-0.22611967
26	0x3ddc70fd	0.10763738
27	0xbde8e61d	-0.113720156
28	0xbbf88d2f	-0.00758519
29	0x3e1b0cf5	0.15141661
30	0x3d17452d	0.036931206
31	0x3e16d5fc	0.14730066
32	0x3d1ea50e	0.038731627
33	0xbd2d7342	-0.042346247
34	0xbd4aa970	-0.049477994
35	0xbd87b55d	-0.06626389
36	0xbde26d9d	-0.11056063
37	0xba9a9abd	-0.0011795383
38	0xbdb20e5c	-0.08694145
39	0x3db7d35c	0.089758605
40	0x3defb35f	0.11704134
41	0xbe22051a	-0.15822259
42	0xbc1e23ad	-0.00965206
43	0x3db97b05	0.09056667
44	0x3e16ce25	0.14727075
45	0x3db90081	0.09033299
46	0x3e45b6de	0.1930804
47	0xbe44a3f9	-0.19203176
48	0x3cbe83af	0.023256151
49	0xbe543958	-0.20725
50	0xbdd042fe	-0.10169028
51	0xbd42f214	-0.047594145
52	0x3db0bd8c	0.08629903
53	0xbdad677d	-0.084670044
54	0xbc0fba06	-0.008772379
55	0x3e53dabf	0.20688914
56	0xb93e0cd9	-0.00018124598
57	0x3d7b739b	0.061389547
58	0x3dcfee8a	0.101529196
59	0x3e0c1307	0.13679133
60	0x3dea272d	0.114332534
61	0xbce78b05	-0.028264532
62	0xbd5c3f83	-0.053771507
63	0xbe83114d	-0.25599137
64	0xbc2fddcd	-0.010734034
65	0x3d9f0e64	0.07766417
66	0x3cf41586	0.02979542
67	0x39c70d5b	0.00037966188
68	0x3e1763d5	0.14784177
69	0xbda1eb1f	-0.07906174
70	0x3d2727e2	0.04080952
71	0x3cae8fd7	0.021308823
72	0x3e455584	0.19270903
73	0x3e0bb92f	0.1364486
74	0x3d2d67b0	0.042335212
75	0xbce3740a	-0.027765293
76	0x3d032a20	0.032022595
77	0xbe3e4406	-0.18580636
78	0xbd8c41d7	-0.068484955
79	0xbdc13553	-0.09433999
80	0x3e27a8a0	0.16372919
81	0x3de64080	0.11242771
82	0x3cf96a46	0.030446183
83	0x3d0cd280	0.034380436
84	0xbe115562	-0.14192727
85	0x3dfb68b4	0.1227583
86	0x3e2c645b	0.16835158
87	0x3d762366	0.060092352
88	0xbdc8a960	-0.09797931
89	0x3d9c1d0b	0.07622727
90	0x3d15f4f0	0.036610544
91	0xbe51d32e	-0.20490715
92	0x3dc765c8	0.0973621
93	0x3bbca6dd	0.0057571963
94	0x3b5c1c56	0.0033586225
95	0x3ddcacb4	0.10775128
96	0xbd970962	-0.073748365
97	0x3d2a47d4	0.041572407
98	0x3e2d1f54	0.16906482
99	0xbce9115e	-0.028450664
100	0x3de4f418	0.1117937
101	0x3e47d1e4	0.1951366
102	0x3d195318	0.03743276
103	0x3d77a76d	0.060462404
104	0xbaed9efa	-0.0018129044
105	0xbd7320d3	-0.059357475
106	0x3dbd9afc	0.092580765
107	0xbdaf4ebc	-0.08559939
108	0xbce560aa	-0.028000195
109	0x3dbcc4ea	0.09217246
110	0x3c0e94ec	0.008702498
111	0xbd8ba34b	-0.06818255
112	0x3e4eeb66	0.20206985
113	0x3cac89dd	0.021061832
114	0x3dd60762	0.10450627
115	0x3d00a4aa	0.031407036
116	0x3bbd6741	0.005780131
117	0x3e51df4d	0.20495339
118	0x3dbf8ea7	0.09353381
119	0xbe2440e3	-0.16040377
120	0xbd3fdda8	-0.046842247
121	0xbe0ad833	-0.13559036
122	0x3ce19d37	0.027540786
123	0xbd36ddac	-0.044644997
124	0xbcb7fb5b	-0.022458723
125	0x3bc45ffa	0.0059928866
126	0x3e111524	0.14168221
127	0x3e190944	0.14944941
128	0x3e2ab24d	0.16669579
129	0x3d076280	0.03305292
130	0x3d3c7a07	0.04601481
131	0x3e640026	0.22265682
132	0xbd293e39	-0.041319106
133	0xbddc894d	-0.107683755
134	0xbe0aecae	-0.13566849
135	0xbe0d9eef	-0.1383016
136	0x3dd148f9	0.102189966
137	0x3bcfab90	0.0063375905
138	0xbdb9143d	-0.09037063
139	0x3d87c1f8	0.066287935
140	0x3df8a7e9	0.12141401
141	0x3d85d0b6	0.06533949
142	0x3d4b14e3	0.049580466
143	0x3e1d76c9	0.15377344
144	0xbda6a34e	-0.08136617
145	0x3d9336bc	0.07188174
146	0x3d8f4e75	0.06997386
147	0xbe2d051f	-0.16896485
148	0xba915ecf	-0.0011090877
149	0xbdca9796	-0.09892194
150	0xbe52d0e6	-0.20587501
151	0x3b0c2517	0.0021384412
152	0xbe00556f	-0.1253259
153	0x3cb4ac5d	0.022054845
154	0x3e1bb14a	0.15204349
155	0x3e1390f1	0.1441076
156	0xbda8142e	-0.08206974
157	0x3dbca81e	0.09211753
158	0xbdb1adaf	-0.08675706
159	0x3dbdbeca	0.09264906
160	0xbd954db2	-0.0729021
161	0x3d29f348	0.041491777
162	0xbe0e38bf	-0.13888834
163	0x3d40a284	0.047029987
164	0xbd8ed395	-0.0697395
165	0xbcfe85b5	-0.031069616
166	0xbd8c5fdd	-0.06854222
167	0x3dd303c2	0.10303451
168	0x3e1f2eb4	0.1554516
169	0x3de51c3d	0.11187027
170	0x39df977a	0.00042646733
171	0x3d82508b	0.063630186
172	0xbe0853f6	-0.13313279
173	0xbcfe2542	-0.031023625
174	0xbc5e2099	-0.013557577
175	0x3cafea83	0.021474129
176	0xbd90b192	-0.07065119
177	0x3dc07e39	0.09399075
178	0xbdd1e6bd	-0.10249088
179	0x3e0970f4	0.13421994
180	0xbdcad20a	-0.09903343
181	0x3e56f12c	0.20990437
182	0x3d58a166	0.052888297
183	0x3cd33479	0.025781857
184	0xbc966345	-0.018357882
185	0x3c82223d	0.015885467
186	0xbda831e1	-0.08212639
187	0xbd1b8062	-0.037964232
188	0x3e0fdebe	0.14049813
189	0x3b7e7916	0.0038829497
190	0x3e102491	0.14076449
191	0x3dc4f32d	0.096166946
192	0x3c90ec59	0.017690824
193	0xbd9eb29d	-0.077489115
194	0x3cd21e14	0.025649108
195	0x3e9777ec	0.2958368
196	0xbc94e89a	-0.01817732
197	0xbd0595d5	-0.032613594
198	0x3c3fa467	0.011696911
199	0x3e2ef05a	0.17083874
200	0xbc876746	-0.016528737
201	0xbd33ad48	-0.043866426
202	0x3e41105c	0.18853897
203	0x3bb4990f	0.00551141
204	0x3ce4c3f2	0.027925465
205	0xbc876224	-0.01652629
206	0x3d36569d	0.044516195
207	0xbe0cb22f	-0.13739847
208	0xbddeb301	-0.10873986
209	0x3e190581	0.14943506
210	0x3e0badca	0.13640514
211	0x3d1a64c6	0.03769376
212	0x3c0b3d4e	0.008498503
213	0xbde4ffd7	-0.1118161
214	0xbd6c0141	-0.057618383
215	0x3cac9df4	0.021071412
216	0x3e2b041c	0.16700786
217	0x3dcc2ec3	0.099698566
218	0xbdbb81c0	-0.09155607
219	0x3c96c3db	0.018403938
220	0x3e183c11	0.14866664
221	0x3d8e2242	0.06940128
222	0xbd412991	-0.04715878
223	0x3d0c8a3e	0.034311526
224	0x3d849997	0.064746074
225	0x3d3112e3	0.043230902
226	0xbd2aebbd	-0.041728724
227	0x3b53a0dc	0.0032291925
228	0xbda94315	-0.08264748
229	0x3a8a3907	0.001054556
230	0x3e6d956c	0.23201531
231	0x3e2ee591	0.1707976
232	0x3c780076	0.015136829
233	0xbd1298a9	-0.03579012
234	0x3dbb87b8	0.09156746
235	0xbe01a681	-0.12661172
236	0x3da723fb	0.081611596
237	0x3e43acfa	0.19108954
238	0x3dce11a3	0.10061958
239	0x3d542c5e	0.051800124
240	0xbcb71376	-0.022348147
241	0x3dd467f3	0.10371389
242	0x3cf67b13	0.030087983
243	0x3cf09515	0.029367963
244	0x3ca65c66	0.02030773
245	0x3d8b36d3	0.06797566
246	0xbcb1c3a4	-0.021699734
247	0xbdadbeec	-0.08483681
248	0xbd33bf87	-0.043883827
249	0xbcc69ffb	-0.024246207
250	0xbca1b396	-0.019738954
251	0x3b1be8b2	0.002378982
252	0x3c158b41	0.009127439
253	0x3d1f841c	0.03894435
254	0xbc8a17c4	-0.016857035
255	0x3d1e52fa	0.03865335

network_body.linear_encoder.seq_layers.2.bias f4 [256]
0	0x3cf796ff	0.030223368
1	0xbd66b4fe	-0.05632495
2	0xba856acc	-0.0010178923
3	0xbbf6cd07	-0.0075317654
4	0x3c626029	0.013816872
5	0x3c5ae0eb	0.013359289
6	0xbb3278ba	-0.0027232603
7	0xbc6a0147	-0.014282531
8	0xbb590338	-0.003311349
9	0xbcc70851	-0.024295958
10	0x3d067492	0.032826014
11	0xbc3978c1	-0.011320294
12	0xbc67bc94	-0.014144082
13	0x3bfef2a8	0.0077803917
14	0x3b2b1b62	0.002610885
15	0xbc8e5dce	-0.017378714
16	0xbb279df8	-0.0025576334
17	0x3d50872b	0.050910156
18	0x3c098718	0.008394025
19	0x3c52a5fa	0.012856955
20	0x3a731f07	0.0009274338
21	0x3c5fc3da	0.0136575345
22	0x3d2301f0	0.03979677
23	0xbbbdefba	-0.0057964
24	0xbc8792d9	-0.016549515
25	0xbce93eb4	-0.028472282
26	0xbca16018	-0.019699141
27	0xbb8e9fdc	-0.004352553
28	0xbbad599c	-0.0052902233
29	0xba9f2f9f	-0.001214493
30	0x3cbaffa9	0.022826986
31	0xbc881ac4	-0.016614325
32	0xbb38594e	-0.0028129402
33	0x3c5dd426	0.01353935
34	0xbc60835f	-0.013703196
35	0x3bb3b066	0.005483675
36	0x3cd264c8	0.025682822
37	0x3d449cf6	0.048001252
38	0xbaca2c12	-0.0015424511
39	0xbce1e4b8	-0.027574882
40	0xbcfa35a0	-0.030543149
41	0x3ccbb2ba	0.024865497
42	0x3d4f1052	0.050552674
43	0x3c780fda	0.015140498
44	0xbc463f1e	-0.012100009
45	0x3d3188c8	0.043343335
46	0x3cc6ffc6	0.024291884
47	0x3ccf865c	0.025332622
48	0xbce9cf8a	-0.028541345
49	0xbd83c42d	-0.06433902
50	0xbdd21d48	-0.10259491
51	0xbc2f3746	-0.010694331
52	0xbd0d5989	-0.034509216
53	0xbbc0163f	-0.005862027
54	0xbd2ea63a	-0.042638995
55	0xbb73d2b3	-0.0037204444
56	0xbc51909a	-0.012790823
57	0xbb7c1bb9	-0.0038468672
58	0x391cfd5f	0.00014971707
59	0x3d314aea	0.043284334
60	0xbca016a6	-0.01954205
61	0xbd1d84ff	-0.038456913
62	0xbb0efc52	-0.0021817875
63	0xbcd4d2bb	-0.02597939
64	0xbcb7e21d	-0.022446686
65	0x3c1ee7d0	0.009698823
66	0xbcc37c56	-0.023862999
67	0xbce8cb46	-0.02841724
68	0xbd1bef63	-0.038070094
69	0xbccb75ec	-0.024836503
70	0xbb07e771	-0.0020737315
71	0xbbfbd247	-0.007684979
72	0x3c964f39	0.018348323
73	0xbc29c40c	-0.010361683
74	0xbdc3d6ae	-0.09562431
75	0xbc47fc87	-0.012206203
76	0xbcbfed3f	-0.023428557
77	0x3b10e2a7	0.0022107752
78	0xbcd80148	-0.026367798
79	0x3d13da28	0.036096722
80	0x3d230d97	0.039807882
81	0xbc341602	-0.010991575
82	0xbab95bbd	-0.001414172
83	0x3c980add	0.018559868
84	0xbc0724dd	-0.008248535
85	0x3c093864	0.008375261
86	0x3d0a8e3a	0.033827044
87	0xbc8a1077	-0.016853554
88	0xbcd0dbec	-0.025495492
89	0x3a901050	0.001099119
90	0xbc090c0a	-0.008364687
91	0x3cdddbfa	0.027082432
92	0xbd64a0a7	-0.055817273
93	0xbcdc8f92	-0.026923928
94	0xbce5252a	-0.027971823
95	0xbcfd2ad6	-0.030904215
96	0xbcb7d73d	-0.0224415
97	0xbd1469e9	-0.036233816
98	0x3c84eb61	0.016225519
99	0x3cec8cce	0.028875735
100	0xbd3d3d83	-0.04620124
101	0xbcaf972a	-0.021434385
102	0x39f0f172	0.00045956258
103	0x3c7b7e93	0.015350002
104	0x3cccf6fa	0.025020111
105	0x3c0cf181	0.008602501
106	0xbc96575d	-0.018352205
107	0x3ce3e8dd	0.027820999
108	0xbca06eae	-0.019584026
109	0xbcb2acc9	-0.021810906
110	0xbd451c5b	-0.048122745
111	0xbbe6a775	-0.0070390054
112	0xba7a29cb	-0.0009542971
113	0x3c1bb49a	0.009503508
114	0xbd81766a	-0.06321414
115	0xbd14b022	-0.036300786
116	0x3d24dcf9	0.0402498
117	0xbcd64eaa	-0.026160557
118	0x3c0e7518	0.0086949095
119	0x3c945ce0	0.018110693
120	0xbd488ce1	-0.048962478
121	0x3c58772a	0.013212005
122	0x3c7b3f91	0.01533498
123	0x3cb7dadf	0.022443233
124	0x3b990f46	0.00467101
125	0xba7ad570	-0.0009568548
126	0xbc0d73e2	-0.008633586
127	0x3c72255c	0.014779415
128	0xbc918c11	-0.017766984
129	0x3a02a1f4	0.00049832393
130	0x3d43f0e7	0.047837164
131	0xbd010f10	-0.031508505
132	0x3d2dfe53	0.04247887
133	0x3ca12183	0.0196693
134	0x3cec7bdf	0.02886766
135	0x3c09f630	0.008420512
136	0xbb4813d8	-0.0030529406
137	0xbd1be986	-0.038064502
138	0x3cecc83b	0.028904071
139	0x3cfcd38a	0.030862588
140	0xbcc7bb7f	-0.024381397
141	0x3c9b1c26	0.01893432
142	0xbd0ef012	-0.034896918
143	0x3a8f436d	0.0010930129
144	0x3d18b27e	0.0372796
145	0xbc6af82e	-0.014341397
146	0xbd2b185c	-0.041771278
147	0xbb9f9f59	-0.0048712906
148	0x3cfbba2d	0.030728424
149	0x3bdd77f4	0.0067586843
150	0x3d422781	0.047400955
151	0xbc2efff5	-0.010681142
152	0x396a2a44	0.00022331724
153	0xbc57ae6b	-0.013164143
154	0xbc49ea97	-0.012323997
155	0xbbdb5814	-0.0066938493
156	0xbb0e5d14	-0.002172296
157	0xbd0d53fb	-0.03450392
158	0xbd2c4d00	-0.04206562
159	0x3bcd294d	0.006261027
160	0x3c699ac8	0.014258094
161	0xbd054f69	-0.032546435
162	0x3c99638f	0.018724231
163	0xbd10e854	-0.035377815
164	0xbcf6ec45	-0.030141959
165	0xbcc53f8a	-0.02407815
166	0xbc0d66ad	-0.008630437
167	0xbcd83571	-0.02639267
168	0xbc51f483	-0.012814644
169	0xbc1416f7	-0.009038678
170	0x3c982d40	0.018576264
171	0xbae90eac	-0.0017780862
172	0x3cf13a00	0.029446602
173	0x3d311275	0.043230493
174	0x3c5f5ba4	0.013632689
175	0x3bb69657	0.005572121
176	0x3c202d18	0.009776376
177	0xbba3c1f6	-0.004997487
178	0xbccd7d1a	-0.025084067
179	0x3cc4e3b6	0.024034362
180	0xbcf3049f	-0.02966529
181	0x3bc29e0c	0.005939251
182	0x3d0b4d6c	0.034009382
183	0x3cd33d19	0.02578597
184	0xbc4afc4a	-0.012389252
185	0xbdd55f87	-0.10418611
186	0xbc554c29	-0.013018646
187	0x3caf6bc5	0.021413693
188	0xbc36ed56	-0.011164984
189	0xbb493b1d	-0.00307054
190	0xbb12f0dd	-0.0022421398
191	0x3cab74f9	0.0209298
192	0xbc983e09	-0.018584268
193	0xbc9196bb	-0.01777207
194	0x3c941f33	0.018081283
195	0x3d8990d2	0.067170754
196	0xbca32916	-0.019917052
197	0x3cb218a6	0.021740269
198	0xbd92b988	-0.071642935
199	0xbd19501b	-0.03742991
200	0xbcb02704	-0.02150298
201	0x3c3ac499	0.011399412
202	0xbc6ee1b0	-0.014580175
203	0x3d15441f	0.03644192
204	0x3d09932a	0.033587612
205	0xbd07032a	-0.032962
206	0x3c0259d8	0.007955991
207	0xbbeb3d7f	-0.0071789618
208	0xbd0ca74b	-0.03433923
209	0xbd371c57	-0.04470476
210	0xbb45e023	-0.003019341
211	0xbc0868e3	-0.008325788
212	0xbc42c5ec	-0.011888009
213	0x3d1aaf01	0.037764553
214	0x3c280b6a	0.010256628
215	0x3d096565	0.033543963
216	0x3c1ca52f	0.009560867
217	0x3c8f0687	0.017459167
218	0xbcb87fab	-0.022521814
219	0xbd28900d	-0.041153003
220	0xbd103672	-0.035208173
221	0x3cb3aa05	0.021931658
222	0xbd581cc1	-0.052761797
223	0xbd37de34	-0.044889644
224	0x3a219d1e	0.0006165075
225	0x3d083cfe	0.03326129
226	0xbd08234a	-0.03323678
227	0x3a2fd4ba	0.0006707419
228	0x3bb3ebe1	0.0054907654
229	0x3c533a6d	0.012892348
230	0xbd075e47	-0.033048894
231	0xbcb495a9	-0.02204402
232	0x3b76713a	0.003760411
233	0xbd8d6a83	-0.06905081
234	0x3d03d06c	0.03218119
235	0x3d8a747c	0.06760499
236	0x3b55df15	0.0032634188
237	0x3c9d8677	0.019229157
238	0x3b3792f7	0.0028011182
239	0x3ca14938	0.019688234
240	0x3c3a1d74	0.011359561
241	0x3c5fc4bd	0.013657746
242	0xbdb1c106	-0.086793944
243	0xbcb4a0ca	-0.022049326
244	0xbd1be52d	-0.038060356
245	0xbc1d446c	-0.009598833
246	0xbb6aa0f7	-0.003580151
247	0xba1a1294	-0.0005877402
248	0xbd9bb3ae	-0.076026306
249	0xbc453616	-0.012036821
250	0x3c26cb12	0.010180252
251	0xbcbdd32a	-0.02317198
252	0xbc076bf9	-0.008265489
253	0xbcb61b64	-0.022229858
254	0x390e17f3	0.00013551097
255	0xbc5d8c22	-0.01352218

network_body.linear_encoder.seq_layers.2.weight f4 [256, 256]
0	0xbcc86fa7	-0.024467302
1	0x3d99b425	0.07505063
2	0xbd42ab24	-0.047526494
3	0x3c43db7e	0.0119541865
4	0xbd6a9612	-0.057272024
5	0xbd6d10a9	-0.057877216
6	0x3b12842c	0.0022356613
7	0x3d59c853	0.05316956
8	0xbdb0bb08	-0.086294234
9	0xbd8f6131	-0.0700096
10	0xbc67e272	-0.01415311
11	0x3ddfbc76	0.10924618
12	0x3dae4927	0.085100465
13	0xbcf51555	-0.029917398
14	0xbcf77ab3	-0.030209875
15	0x3d71de82	0.05905009
16	0xbdb8131d	-0.089880206
17	0xbe01b1ed	-0.1266553
18	0xbda62220	-0.081119776
19	0xbe5116ce	-0.20418856
20	0x3e11382b	0.14181583
21	0x3deeff77	0.1166982
22	0xbc8cddd5	-0.017195622
23	0x3d3d0e39	0.046156142
24	0x3d9b520d	0.07584009
25	0x3daf5934	0.08561936
26	0xbc3a7ff7	-0.011383048
27	0x3e037e9c	0.12841266
28	0xbe496d03	-0.19670491
29	0x3dd0ac6c	0.10189137
30	0xbe01f9ea	-0.12692991
31	0xbd003443	-0.03129984
32	0x3d6a8131	0.057252113
33	0x3c5a1bfa	0.013312334
34	0xbde2769f	-0.110577814
35	0xbdb578a1	-0.08860899
36	0x3830d603	4.2160984e-05
37	0x3e2abfc2	0.16674712
38	0x3d26e786	0.04074814
39	0xbcffce3c	-0.03122627
40	0xbc6dc9a7	-0.01451341
41	0x3d8da9a4	0.06917122
42	0xbe21769b	-0.157679
43	0x3dc18852	0.09449829
44	0xbc96acc6	-0.018392932
45	0xbd271c25	-0.040798325
46	0x3e13b8f0	0.14426017
47	0xbd6b556b	-0.057454508
48	0x3e36c746	0.17849454
49	0xbc9869cb	-0.018605134
50	0x3da041d5	0.078250565
51	0x3c8cb983	0.017178303
52	0xbd6ca6b5	-0.05777617
53	0x3dbe3188	0.09286791
54	0xbd15ac30	-0.036541164
55	0xbe7928c0	-0.24331951
56	0x3d9e1d4e	0.07720433
57	0xbe0242c1	-0.12720777
58	0x3a93d260	0.0011277907
59	0xbdbf9169	-0.09353907
60	0xbda3a0c8	-0.07989651
61	0x3e13fc2d	0.14451666
62	0xbe551346	-0.20808133
63	0xbd92a4e3	-0.07160356
64	0xbd575a5d	-0.05257641
65	0x3dc6da51	0.09709609
66	0xbd87d064	-0.06631544
67	0xbc22b99d	-0.009931949
68	0xbb6d2d34	-0.0036190273
69	0x3e3a3353	0.18183641
70	0xbe139e14	-0.14415771
71	0xbd76420c	-0.06012158
72	0x3d6ec83a	0.05829642
73	0xbd0effc0	-0.03491187
74	0x3d24730e	0.040148787
75	0x3cffa435	0.03120623
76	0xbdcb678c	-0.099318594
77	0xbe45b03b	-0.19305508
78	0xbd8fe9c8	-0.07027012
79	0x3d0ca367	0.03433552
80	0xbd0c1976	-0.03420397
81	0xbd799f38	-0.06094286
82	0x3e66a175	0.22522528
83	0xbbb5a7c4	-0.005543681
84	0xbdc7a4f2	-0.09748258
85	0xbc7f6080	-0.015586972
86	0x3d5e9a25	0.054346222
87	0xbe11cd5f	-0.14238499
88	0x3d18619a	0.037202455
89	0xbdcc8a0f	-0.0998727
90	0x3e51f802	0.20504764
91	0xbe6a5488	-0.22883809
92	0x3ba8a25e	0.005146309
93	0x3d295158	0.04133734
94	0x3c08cb91	0.008349315
95	0x3e007197	0.12543331
96	0xbd6a4be9	-0.0572013
97	0xbbaef06f	-0.0053387205
98	0xbd81c7a5	-0.06336907
99	0x3e337aae	0.17527267
100	0xbdad6fbe	-0.08468579
101	0x3dc57762	0.09641911
102	0xbe6aed17	-0.22942005
103	0xbd91cafe	-0.07118796
104	0x3e02cd4c	0.12773627
105	0x3dbe431d	0.092901446
106	0xbdbd4609	-0.09241874
107	0xbd1626e0	-0.036658168
108	0xbdaae7ac	-0.08344969
109	0x3cf0969c	0.029368691
110	0x3d1851f4	0.03718753
111	0x3dbfc60a	0.09363945
112	0x3e0f9ba4	0.14024216
113	0x3c7909aa	0.015200058
114	0xbccb6d6b	-0.024832448
115	0xbc69323e	-0.01423317
116	0xbd7926e5	-0.06082811
117	0x3bc71d8b	0.00607652
118	0xbe0a6b6c	-0.1351754
119	0xbd83e2ae	-0.0643972
120	0x3c358f8f	0.01108159
121	0xbd3f5aff	-0.04671764
122	0xbdad5d4b	-0.0846506
123	0x3de709af	0.11281144
124	0x3c8d08a4	0.017216034
125	0x3d47eeb2	0.048811622
126	0xbe008f12	-0.12554577
127	0xbd5e73f1	-0.05430979
128	0x3e05b050	0.13055539
129	0xbd5f5500	-0.05452442
130	0x3dad7d97	0.0847122
131	0xbdc40a07	-0.09572225
132	0x3dbb3188	0.09140307
133	0x3e13a8f6	0.14419922
134	0x3d5dc47b	0.054142457
135	0xbd91a1b9	-0.07110924
136	0xbe249bb9	-0.16075028
137	0x3d70af77	0.058761086
138	0xbdec35fe	-0.11533736
139	0xbd8ab1f3	-0.06772222
140	0xbd96ce9d	-0.07363627
141	0x3d9cdc68	0.07659227
142	0xbe058a5d	-0.13041063
143	0x3d9fd82e	0.07804905
144	0xbd4366ed	-0.04770558
145	0x3c4b73b3	0.012417722
146	0x3da63450	0.081154466
147	0x3d25414e	0.040345483
148	0x3e42c978	0.19022167
149	0xbdc35e47	-0.09539466
150	0xbc969096	-0.01837949
151	0xbb8182ff	-0.0039523835
152	0x3ddff81e	0.109359965
153	0x3d98eac7	0.07466655
154	0xbc9145cf	-0.017733483
155	0xbdac79a4	-0.084216386
156	0xbe2b4764	-0.16726452
157	0xbe1406fc	-0.1445579
158	0xbe430198	-0.19043577
159	0x3e091f26	0.13390788
160	0xbd400685	-0.046881218
161	0x3d945cff	0.072443
162	0xbdcdefe4	-0.10055521
163	0xbc31c47b	-0.010850067
164	0x3d9d357b	0.07676216
165	0xbda04a4a	-0.078266695
166	0xbeab729e	-0.33485883
167	0xbdf1fa36	-0.11815302
168	0xbe160c32	-0.1465309
169	0xbcd7e046	-0.02635206
170	0x3dd84a9f	0.10561108
171	0xbe752ba8	-0.23942435
172	0x3dd2f92e	0.103014335
173	0x3c96a827	0.018390728
174	0x3d96ce7a	0.07363601
175	0x3e0cb248	0.13739884
176	0x3d405e5c	0.046964988
177	0x3da56768	0.08076364
178	0xbd196147	-0.037446287
179	0xbe811766	-0.25213164
180	0xbe482cc1	-0.19548322
181	0x3df0a34e	0.11749898
182	0xbd7555df	-0.059896346
183	0xbdf388df	-0.118913405
184	0xbd62ab44	-0.055339113
185	0x3c630f2c	0.013858598
186	0xbe659090	-0.22418427
187	0xbd046fd6	-0.032333218
188	0xbc26837c	-0.010163184
189	0xbe10f361	-0.14155342
190	0xbd8c1411	-0.06839765
191	0x3d99ff2b	0.075193726
192	0x3dc13260	0.094334364
193	0x3e4a9f19	0.19787253
194	0xbd8cca61	-0.06874538
195	0x3e09a737	0.13442694
196	0xbd364b31	-0.044505302
197	0x3d90e433	0.070747755
198	0xbcf59883	-0.02997995
199	0xbc282b59	-0.010264241
200	0xbe9640b1	-0.2934623
201	0x3d507271	0.05089039
202	0x3dd0c970	0.10194671
203	0xbc0b3487	-0.00849641
204	0x3d38b2fa	0.04509256
205	0xbd6ccc25	-0.057811875
206	0x3d86ae51	0.06576217
207	0xbcc64fbe	-0.024207946
208	0xbe404c2c	-0.18779057
209	0x3b877977	0.004134353
210	0xbd1778b7	-0.036980357
211	0x3d9302d9	0.071782775
212	0x3db9b672	0.09068002
213	0xbc1dccee	-0.009631379
214	0xbe2e2fac	-0.17010373
215	0x3d0e48a7	0.034737255
216	0x3e35a3e3	0.17738299
217	0xbe27bf5a	-0.16381589
218	0xbe349192	-0.17633656
219	0xbdbbd3a7	-0.09171229
220	0xbde83ec2	-0.11340095
221	0xbdbd503a	-0.092438176
222	0x3cb5b31f	0.022180138
223	0xbd220c94	-0.039562777
224	0xbe2beb09	-0.16788878
225	0xbdea969e	-0.11454509
226	0xbd4dba2e	-0.050226383
227	0xbe369dd9	-0.17833652
228	0x3db76644	0.089550525
229	0x3e7d03c6	0.2470847
230	0x3ddec0b5	0.108766
231	0xbcd41418	-0.025888488
232	0xbb6038da	-0.0034213574
233	0xbe019a93	-0.12656622
234	0x3c00aa3b	0.007853086
235	0x38425dd5	4.6340592e-05
236	0xbdfd5791	-0.123702176
237	0xbcb8fc1d	-0.022581154
238	0xbe1fe916	-0.15616259
239	0x3d65e145	0.056123037
240	0x3e4608e8	0.19339335
241	0x3e0a3a54	0.13498813
242	0x3e522ea2	0.20525602
243	0xbd6d5187	-0.05793908
244	0x3d399c80	0.045315266
245	0xbc072bf9	-0.00825023
246	0xbe20a1f5	-0.15686782
247	0x3d3714b2	0.04469747
248	0xbd12bb68	-0.035823256
249	0x3ddc2c7b	0.107506715
250	0xbcccc3c4	-0.024995692
251	0x3d5a2f4e	0.05326777
252	0x3d41e4a1	0.04733718
253	0x3c301e77	0.010749451
254	0xbd9b8fe1	-0.07595802
255	0xbb8e9224	-0.0043509174
