Project/Assets/MyProject/Train/TrainModels/RunnerBrain.onnx (onnx, 388435 bytes, 6 tensors)

action_model._discrete_distribution.branches.0.bias f4 [7]
000000 da a1 0d 3d 59 95 1f bc a9 93 6c bd b3 d6 f5 3c
       0.03457818 -0.009740197 -0.057758007 0.030009603
000010 75 d5 a6 3c cc 36 d5 3c 2a ba 90 3c
       0.020365456 0.026027106 0.017666895

action_model._discrete_distribution.branches.0.weight f4 [7, 256]
000000 d5 e7 25 bd a1 53 89 bd 05 99 58 3c 48 93 d3 3d
       -0.040504295 -0.06705404 0.013220076 0.10330826
000010 71 d5 86 3d cc c9 20 3d 65 7e be bd 2f 1b 5a ba
       0.065836795 0.03925495 -0.093014516 -0.0008320091
000020 f7 f5 d3 3d dd 67 59 bd 2c f5 e4 3b a4 4b 2a bd
       0.103496484 -0.053077567 0.0069872346 -0.041576043
000030 f6 b5 c6 bc 4a 7e 06 3c 77 c0 38 bd b9 eb d4 3a
       -0.024256688 0.008208821 -0.045105424 0.0016244567
000040 d0 c6 7f 3d 92 75 d6 3c d6 6f 68 bd 79 75 fb 3c
       0.06244546 0.026179109 -0.05674728 0.030695664
000050 35 0d 87 3d b1 06 32 bd de 8e c7 3b 04 8c aa bb
       0.06594316 -0.043463413 0.006090029 -0.0052046794
000060 c4 ac 88 bd 40 e5 95 bc c6 5d c1 3c e6 72 5b 3c
       -0.066735774 -0.018297791 0.023604285 0.013394093
000070 e1 11 80 bd 32 c3 b4 3d d1 34 08 bd cd 09 d0 3c
       -0.0625341 0.08826293 -0.033253495 0.025395298
000080 6f 24 75 bc 8d 2f cb bd 87 80 40 3b e0 a4 0a bd
       -0.0149623 -0.09921179 0.0029373483 -0.033848643
000090 eb 4d d4 bb 27 ce 7d bc 6a 20 a3 bd f9 b1 09 3d
       -0.006479015 -0.015491045 -0.07965167 0.033616994
0000a0 26 bd a5 3c 5c 9e 24 3c 87 57 76 bc b8 29 04 3e
       0.020231795 0.010047521 -0.015035517 0.1290654
0000b0 5d 69 be ba c7 3e 55 3c 51 64 ab 3d 47 1c 4f 3c
       -0.001452725 0.013015456 0.08368743 0.012641019
0000c0 1d b5 73 3d 82 d1 3f bd b7 65 be 3d ec 55 4a bc
       0.059498895 -0.04683066 0.09296744 -0.012349587
0000d0 39 10 a8 bd 3b 10 aa 3c 73 31 4f bc 00 cb 7d 3d
       -0.08206219 0.020759692 -0.012646067 0.061961174
0000e0 51 7a 1f bd 1e 73 ed bd fe 77 78 bd 0d 58 88 bc
       -0.03893501 -0.115942225 -0.06066131 -0.016643548
0000f0 f6 a1 75 3a e5 ba 35 3d 49 79 4a 3c b3 73 82 3c
       0.00093701424 0.04436769 0.012358018 0.01592431
000100 2a 2d ee bc af 7b 28 3d 65 ae 9b bd 1a ab cb 3c
       -0.02907427 0.04113358 -0.076016225 0.024861861
000110 0e 86 3e 3d 88 ee b2 bc 3e f8 a7 bb 79 51 99 bc
       0.046514563 -0.021842256 -0.0051260283 -0.018715607
000120 e4 c4 b5 bd 2f 80 48 bc 40 35 98 bd 20 5e ad 3c
       -0.088754445 -0.012237593 -0.07432032 0.021163046
000130 c4 31 1b bd d5 df 8d 3d 7b 82 19 bc b1 0b 86 bc
       -0.037889257 0.06927458 -0.009369488 -0.016362997
000140 0d d9 5b bd 19 46 37 3d 95 da 8a bc 37 0e 0c bc
       -0.053673793 0.044744585 -0.016949931 -0.008548311
000150 98 c9 02 3c ae b5 6a bc c4 5a 89 bd 08 2c 6d bd
       0.007982634 -0.014325542 -0.06706765 -0.05790332
000160 04 43 09 3c 56 b8 c1 3d 63 3e 41 bc 65 1b 1e 3d
       0.008377794 0.094589874 -0.011794659 0.038600344
000170 27 7f c8 3d 44 2e d0 bc 08 34 cc bd 80 03 a1 3b
       0.097898774 -0.025412686 -0.09970862 0.0049137473
000180 44 1f 35 bc 90 87 b7 bc b2 5f 1f bc b2 76 69 bd
       -0.011054818 -0.022403508 -0.009727405 -0.056997962
000190 3c 54 fd bc ae ba 22 3d 00 98 17 3c eb 5d 8e bd
       -0.030923955 0.039728813 0.009252548 -0.06951507
0001a0 ac 21 c4 bd 2b e6 9d ba 5d fb 0f bd 53 1c bd bd
       -0.09576735 -0.0012046745 -0.035151828 -0.09233918
0001b0 52 92 6a bd 0b 10 18 3e 99 4c 56 bd fc 95 83 3d
       -0.05726845 0.1484987 -0.052319143 0.064250916
0001c0 9f 5d 85 bd 6d c0 81 bd dd c5 42 3c b7 da 7c bc
       -0.065119974 -0.063355304 0.011887995 -0.015433005
0001d0 f6 55 80 bd 7c 82 c2 3d 49 58 2b bd 63 3c 20 bd
       -0.06266396 0.09497544 -0.041832242 -0.03912009
0001e0 d1 55 29 3c b0 c7 87 3d d1 b8 0f be 08 80 36 ba
       0.010335402 0.06629884 -0.14035346 -0.0006961827
0001f0 6a e0 0a 3d 48 34 03 bd 16 9c d2 bc 35 2d f1 bd
       0.033905424 -0.03203228 -0.025709193 -0.11776201
000200 4b 30 24 bd 4a 7f 2e bc ef da cc bc 63 24 99 3c
       -0.04008512 -0.010650465 -0.02500674 0.018694108
000210 2d d9 b3 3b 74 a9 5e 3d f3 1f cb 3c a7 ee be 3c
       0.005488536 0.05436082 0.024795508 0.023307158
000220 1b 1e 13 3c 23 85 d1 38 db 73 da bc 03 7d ab 3c
       0.008979346 9.990695e-05 -0.026666572 0.020933634
000230 06 6d 0e 3c bd 45 8b bd 3f d5 a2 bc e0 fe 98 bb
       0.008692985 -0.06800411 -0.019877074 -0.0046690553
000240 d0 f7 a1 bd da 2c e9 3c e2 ed b5 bd 1f 2d 98 3c
       -0.079085946 0.02846377 -0.08883263 0.018576203
000250 3c da 13 3d d4 97 a1 bc 70 50 0b 3d c5 dc 12 bb
       0.036096796 -0.019725718 0.034012258 -0.002240942
000260 56 62 03 3d 24 14 f3 bc b0 6e e1 bb 74 4d 77 3c
       0.032076202 -0.02967269 -0.00687965 0.01509415
000270 01 03 ad 3c 43 b0 3a 3d c7 4e 97 3b 88 15 e8 bd
       0.021119596 0.045578253 0.0046175453 -0.11332232
000280 5e e3 d6 3d 73 36 dc bc ed 4a 8b 3a 09 05 b2 3d
       0.104925856 -0.026881432 0.0010627188 0.08692367
000290 c3 79 bb bd 49 a9 33 3b 9b d0 39 3c 1e bc 8d 3c
       -0.091540836 0.0027414134 0.011341239 0.017301615
0002a0 3f 13 67 3d 4c 56 2e 3b 5e 12 9c bc b7 1d 8b bc
       0.05641484 0.002660173 -0.019051727 -0.016981943
0002b0 d0 a1 bf 3d 4f e5 97 bc 4c ae 44 3d cd ed 63 3c
       0.09357035 -0.01854196 0.048017785 0.013911677
0002c0 37 43 88 3d 14 3f 30 bd e0 11 60 3c c1 f0 c0 3b
       0.06653445 -0.043028906 0.013676137 0.005888075
0002d0 95 52 3c bd 3c ee 8a bd aa 66 e2 3c cc 3c 81 bd
       -0.045977194 -0.06783721 0.027636845 -0.06310424
0002e0 e8 92 62 bd c6 8f a1 bd f5 b9 9b bd 34 22 ed bd
       -0.055315882 -0.07888751 -0.07603828 -0.11578789
0002f0 8f 31 2f 3b 56 51 e0 3c bc cb 55 3d 99 c8 31 3d
       0.002673242 0.027382534 0.05219625 0.043404195
000300 a8 7d 98 3d 9d bb 77 bc 8b d0 31 3d 98 fb 0f bd
       0.07445842 -0.015120414 0.043411773 -0.035152048
000310 c0 af bd 3d 93 7e f4 3c ad 65 aa 3d 8d 77 d9 3d
       0.09262037 0.029845512 0.08320174 0.106185056
000320 f5 35 06 bd 51 a6 3e bd 40 89 15 3b 74 65 ee ba
       -0.0327663 -0.04654533 0.0022817403 -0.0018188194
000330 ff 2e 9d 3c 1a 08 db 3c aa 45 9d bc 05 1d 86 bc
       0.019187449 0.026737262 -0.019198257 -0.01637126
000340 b2 2c 80 bb 59 35 0d bc b2 12 ea 3d cb 53 c1 bd
       -0.003911578 -0.008618676 0.11429347 -0.0943981
000350 f8 86 bb bd 89 36 08 3d 18 ec 43 bc 71 f3 b4 3b
       -0.091566026 0.033255134 -0.011958145 0.0055221845
000360 58 87 52 3d a4 1c 7a bd cd 5e 0e 3d 9d 13 f3 3b
       0.051398605 -0.06106247 0.034758378 0.0074181096
000370 3e 3d 16 bd e3 3a 37 3d 2c 58 88 bb fe 6a b9 bd
       -0.0366795 0.044733893 -0.0041609015 -0.0905361
000380 e0 50 b0 3c ad b9 f6 3d 2b e8 11 3e 2a 1b 05 bd
       0.02152294 0.120471336 0.14248721 -0.03249661
000390 2c bb c7 3c df 39 81 3d d0 a7 55 bd 57 60 96 3d
       0.024381243 0.06309866 -0.05216199 0.07342594
0003a0 94 35 24 3d 01 49 51 3b 52 bd bf 3c 10 29 d6 bb
       0.04009016 0.0031934383 0.023405705 -0.0065356568
0003b0 9f 43 47 3b cb 04 8a 3d 09 d2 1c bd 81 9c 5b 3d
       0.0030405296 0.067391954 -0.038286243 0.05361605
0003c0 7d c4 82 bd 46 3c fb 3c 48 3e 9a bd a2 00 28 3d
       -0.063851334 0.030668389 -0.075314105 0.04101623
0003d0 ee 76 6e 3b ac a3 39 3c d2 7c 21 bd 4c a9 bc bc
       0.0036386806 0.011330526 -0.03942568 -0.023029946
0003e0 95 8c a4 bd cc 7d cf 3c 79 45 87 3c 04 da a1 3c
       -0.080346264 0.02532854 0.01651262 0.019757278
0003f0 6e bd 52 3c 84 7b 82 3c 52 fc b7 3c df 6d 96 3c
       0.012862546 0.015928037 0.022459183 0.018362937

network_body.linear_encoder.seq_layers.0.bias f4 [256]
000000 ae b0 18 3c 13 40 09 3d 3d 0b 11 3d c0 81 86 3c
       0.0093194675 0.03350837 0.03541111 0.016419291
000010 bf dd 2f bd 87 87 e5 b8 c5 21 a4 3c ca a9 00 3c
       -0.042936083 -0.00010944815 0.020035634 0.007852981
000020 e5 68 02 3d 86 05 f9 bc 9d 1d 81 bc a0 f2 ff bc
       0.031838316 -0.030398142 -0.015761191 -0.031243622
000030 96 5e 2c 3c eb 33 f6 3c 43 31 91 3c 15 cb 48 3c
       0.010520598 0.030054053 0.017723685 0.01225545
000040 82 60 f2 bb b4 fb d1 3c a6 97 89 bc a7 5f 45 bb
       -0.0073967585 0.025632717 -0.016795944 -0.0030116828
000050 8f 20 0b bd d5 d6 e5 ba 01 bd 78 3d c6 64 73 3b
       -0.033966597 -0.0017535338 0.060727123 0.0037138923
000060 2a fa 36 bd 26 f7 98 3c 11 3f 63 3b b7 ea e2 3c
       -0.04467217 0.018672537 0.0034675042 0.027699811
000070 54 c9 25 3c af 6d 0d 3c d5 8c 19 3c 42 aa 30 bc
       0.010118801 0.008632108 0.009371956 -0.01078278
000080 5c 2d 0c bc 9e 70 90 3b cc 75 fe 3c e0 7c 6f 3c
       -0.008555736 0.0044079563 0.03106203 0.014617175
000090 df 7f bf bc ab 27 b6 3c ac 3a 2a 3d 38 20 83 3c
       -0.023376403 0.022235712 0.04155986 0.016006574
0000a0 93 b2 e1 3b e4 e2 5e bd c8 46 d3 3c 16 53 1e 3c
       0.006887743 -0.0544156 0.025790587 0.009663364
0000b0 89 af 48 ba 07 c9 14 3d e8 6c 17 3d fe 70 ae bc
       -0.00076555513 0.036324527 0.036969095 -0.021294113
0000c0 a5 25 ca bc a2 fe a0 3c ea 07 4b 3d a4 0a a8 3b
       -0.024676153 0.019652668 0.049568094 0.0051282216
0000d0 71 d3 cf bc 9f 8b 17 ba 5c 62 dd 3c 6d e5 33 bc
       -0.025369378 -0.0005780998 0.02702444 -0.010979992
0000e0 a1 03 d9 3b 5b 15 7c bc ec f0 2a 3c a9 d5 48 3b
       0.006622747 -0.015385951 0.010433417 0.003064493
0000f0 86 ab a9 3c 13 90 0c 3d 7a 9e 3f bb 9c 09 18 3c
       0.020711672 0.034317087 -0.0029238747 0.009279635
000100 a1 17 71 bc 16 f5 9c bc d5 ab de 3c 67 3e 09 3d
       -0.014715106 -0.019159835 0.027181545 0.033506777
000110 69 5c 9c bc 5b 90 d0 3c 43 fc 16 bb 8a 97 cb bb
       -0.019087033 0.025459459 -0.0023038543 -0.006213133
000120 51 1d 6e 3c f3 07 ba 3c 85 d2 7f 3c 59 15 48 3d
       0.014533357 0.022708869 0.015614157 0.048848484
000130 3e ab 59 bd b2 cb 79 3c dc 9f da bc 69 14 2c 3d
       -0.053141825 0.015246319 -0.026687555 0.042011652
000140 c5 f9 01 bc e7 bc 94 3c 46 3f 22 3d 5d 44 ff bb
       -0.007933085 0.018156482 0.039611124 -0.007790132
000150 73 61 a4 3c 75 19 b3 bc 13 c3 5c bc f8 fe 18 bd
       0.020065999 -0.021862725 -0.013474244 -0.037352532
000160 8a a5 8c bc 8e a9 fa bb a0 86 b5 ba 3d 5c 4d 3d
       -0.017168779 -0.007649607 -0.0013849325 0.050136793
000170 2c 94 2b bd 8e 7c 64 bc 3f df fb 3b d7 2b c4 bc
       -0.041889355 -0.013945712 0.007686525 -0.023946686
000180 d6 01 83 bb 39 0e fb bc 27 5d 1e be 49 2f 9f bc
       -0.0039980216 -0.03064643 -0.15465222 -0.019431727
000190 db 90 9c 3c 00 41 37 3d 03 8a ec bc b0 eb a0 bc
       0.019112041 0.044739723 -0.028874403 -0.019643635
0001a0 7a f8 c7 3c 7e f9 bf 3c a2 13 d3 3c 91 04 a7 3b
       0.024410475 0.023434397 0.025766198 0.00509698
0001b0 09 70 65 3b 56 0e 39 3b 07 7c f1 3c 20 1d b9 3b
       0.0035009405 0.0028237305 0.029478086 0.005649224
0001c0 8f b6 af 3c 15 65 2e 3d 6b 83 3c 3d 36 8f 05 3d
       0.021449355 0.042576868 0.046023767 0.03260728
0001d0 80 ea 5a bd ae 69 11 3c 7c 17 08 bc 90 e2 9e bc
       -0.053446293 0.008875294 -0.00830638 -0.019395143
0001e0 0c 67 39 ba da 76 ce 3b 79 5e a8 bc fb ea 41 bc
       -0.0007072545 0.0063007893 -0.02055286 -0.011835809
0001f0 84 35 38 3d 91 f5 36 3c f1 2e 02 3d 6a 19 1c 3c
       0.04497291 0.011166946 0.031783048 0.009527544
000200 eb fa 5c bb 2f 1b 2f 3d d7 79 c1 3c e9 95 6d 3a
       -0.0033718895 0.042750534 0.023617668 0.0009063171
000210 9e 59 f2 bb 45 17 e6 3b 72 73 2e 3c 01 db 4c 3c
       -0.007395937 0.007021817 0.0106476415 0.0125033865
000220 b4 ac 04 3d dc ab af 3c 27 ba fb bc c8 38 96 bc
       0.032391265 0.021444254 -0.030728413 -0.018337622
000230 00 b4 89 bb ec 78 53 bb 15 71 97 3c fb a2 4f 3c
       -0.004202366 -0.003226812 0.018486539 0.012673135
000240 96 14 ae 3b 5a 7b a5 3c 12 68 88 bc 66 cd 77 3c
       0.0053125126 0.02020042 -0.016651187 0.015124654
000250 21 97 85 3c c0 48 12 3d 1d 0d 39 be ac 0c cc 3c
       0.016307415 0.03571391 -0.18071409 0.024908386
000260 e9 ab 5d 3c b2 82 13 3d 95 98 15 bb 5f 87 3e bb
       0.013529756 0.036013313 -0.0022826542 -0.0029072387
000270 3a fc 14 3d 21 6d 5e 3c e4 25 d5 3c 9f 5e f0 3c
       0.036373354 0.013575823 0.026019044 0.029341994
000280 28 92 1c bd f8 ee 85 3c 8e 7c e5 bc 35 64 0d 3d
       -0.038225323 0.0163493 -0.028013494 0.034519393
000290 1c 79 96 bb cc 6d 92 3c 15 6b ad 3c a9 d5 93 bc
       -0.004592074 0.01787462 0.021169225 -0.018046217
0002a0 d8 dc 81 bc d7 85 81 bc a3 25 ff bc 06 13 48 3c
       -0.015852377 -0.01581089 -0.031145876 0.012211567
0002b0 a6 56 88 3b 1d d5 d5 bc 42 79 25 3c 53 ba 0d 3d
       0.00416072 -0.026102597 0.010099711 0.03460152
0002c0 44 a4 9d 3b de db 56 bc 29 45 90 3c 8b 76 b6 bc
       0.0048108418 -0.013113944 0.017611103 -0.022273323
0002d0 db 12 56 bd dd d1 00 3d ac 8f f5 3c 13 7d a5 3c
       -0.052264076 0.03145014 0.029975735 0.020201242
0002e0 12 a5 d6 3c d0 e7 25 bc 34 ea e3 3c c5 32 68 ba
       0.026201759 -0.010126069 0.027821638 -0.0008857663
0002f0 eb bd 7c bc 00 5a 20 3b a2 80 3f 3b 83 50 c7 bb
       -0.015426139 0.0024467707 0.0029220958 -0.006082596
000300 01 63 6c b9 d3 f5 07 bc 55 63 58 3c 4f 86 b3 bc
       -0.00022543596 -0.008298355 0.013207276 -0.02191463
000310 73 45 05 3d f5 34 2a bd d7 ad c4 bc d8 eb 94 bc
       0.032536935 -0.04155441 -0.024008675 -0.018178865
000320 14 9c 86 3c 2a 9c ac 3c eb 5b 16 3d 26 3f 99 3c
       0.016431846 0.021070559 0.036708754 0.01870687
000330 2d 8b de ba ed 5a dc 3c 07 b3 21 bc c2 d3 0c 3d
       -0.0016978733 0.026898826 -0.009869344 0.034381635
000340 be b7 7f 3c d6 18 97 b9 f9 59 0d 3d 72 6a 5d 3c
       0.015607772 -0.0002881947 0.034509633 0.013514148
000350 3b 03 d5 ba a6 6e 9e 3c 5f f5 bd 3c 7f 57 34 3d
       -0.0016251573 0.01933987 0.023188291 0.044028755
000360 b1 8e e1 3b 8c e3 95 bc 8a 8d d4 3c 66 29 4b 3c
       0.006883465 -0.01829698 0.025946397 0.012400007
000370 be 50 f6 3c 57 eb 79 3c fd 79 bc bb 77 1c 07 bc
       0.030067798 0.015253863 -0.005751847 -0.008246533
000380 13 58 38 3c ff 62 54 3b 7d ac c7 3b 0d 37 d6 3b
       0.011251467 0.003240764 0.0060935603 0.0065373243
000390 1f df 81 3c c9 6f f0 3c 32 af 97 bc a6 c5 90 3c
       0.015853463 0.029350178 -0.018516157 0.017672371
0003a0 d1 f6 fc ba c7 6e 0e ba fc 06 c4 3b 99 b5 8a 3b
       -0.0019299631 -0.0005433377 0.005982278 0.004233074
0003b0 c8 4e 5f 3c 4f e3 66 3c ce 2b 33 3c af 23 ae 3c
       0.013629623 0.0140922805 0.010935737 0.02125725
0003c0 0e a2 df 3b 4c 6c 87 3b 17 13 04 bd 24 9f 00 3b
       0.0068247383 0.004132783 -0.032244768 0.0019626105
0003d0 b9 5d 1f bd 8b b7 8f 3c 01 b9 dd bc 11 62 81 3c
       -0.03890774 0.017543575 -0.027065756 0.015793832
0003e0 d2 03 85 3b dc 4b c9 3c 23 6e 0e 3c 0a 64 a6 3b
       0.0040592933 0.024572305 0.008693251 0.0050778436
0003f0 9e ab 01 bc 07 f7 e7 3b ee 70 6c 3c 5a 5f ae bb
       -0.007914452 0.0070790085 0.014431221 -0.0053214254

network_body.linear_encoder.seq_layers.0.weight f4 [256, 112]
000000 23 78 bd 3b 0b 52 7f 3c 8d cc 8b 3c a4 8c dc 3a
       0.0057821437 0.015583525 0.01706531 0.0016826582
000010 b2 79 00 bc 11 df a8 bd f0 a1 6f 3d ba ef f4 3c
       -0.007841514 -0.082456715 0.058504045 0.029899467
000020 cb fd ae bd b5 2a 54 be f1 b0 a8 3c 09 70 8c bd
       -0.08544501 -0.20719416 0.020592185 -0.068573065
000030 fb 3d d6 bc 76 0d da 3d 20 23 8e bd d9 2b ed 3d
       -0.026152601 0.10647099 -0.06940293 0.11580629
000040 f0 de ce 3d 3f be de 3b 47 f0 bf 3c ff 24 11 3c
       0.10101116 0.0067975814 0.023430003 0.008858918
000050 cc 02 91 3e b4 e0 4b be 8c 73 22 bd 79 c2 11 be
       0.28322446 -0.19909936 -0.039660975 -0.14234342
000060 2d d7 56 bc 88 bd ce 3d f3 96 79 3e b6 c5 85 3e
       -0.013112825 0.10094744 0.24373989 0.26127404
000070 37 92 50 3c 65 36 7d 3c 7f c5 a6 bd fa e6 a8 be
       0.012730173 0.015454863 -0.08143138 -0.3298872
000080 68 af 3a 3e c5 d9 5a bd 73 15 9e 3d 6b 2f b6 3d
       0.18230975 -0.053430337 0.07718935 0.08895763
000090 ec 22 a9 be 98 92 f2 3d ad d9 98 3e ec f1 72 bb
       -0.33034456 0.11844367 0.29853573 -0.0037070466
0000a0 4c 9b c0 3c 5a 2e 87 3d f8 f7 26 3d dd f6 ba 3d
       0.023511551 0.06600638 0.040763825 0.09129117
0000b0 ea d1 97 bd e8 9e a1 3c f1 25 9a 3d 95 77 44 3d
       -0.07413085 0.019729093 0.07526768 0.047965605
0000c0 e7 38 4f be 9e 9e 95 3d 08 dc 03 3f 73 b1 35 3d
       -0.2023655 0.073056445 0.51507616 0.044358682
0000d0 08 fa cc bd a1 4f df bd fa 18 ea 3a e2 ce 03 3d
       -0.10008627 -0.1090386 0.0017860227 0.03217972
0000e0 eb 70 74 bd 1e a1 f6 3d 78 5d fa bd 37 ad c5 3d
       -0.059678 0.120424494 -0.12224859 0.09652179
0000f0 f1 90 0d bd ee 57 62 3e a9 f3 0d 3f ea 54 97 bd
       -0.034562055 0.22103855 0.5544992 -0.07389243
000100 8a 1d 7e 3d 10 11 d3 bd 8c 16 f6 bc 50 46 b1 be
       0.06203989 -0.10305989 -0.030040048 -0.34623957
000110 f3 12 d5 bd 08 3d f7 bd 25 6d 92 3d 29 f7 d4 bc
       -0.10404005 -0.12072188 0.07149724 -0.025996761
000120 41 ba 22 be 95 ef ad 3e 25 d4 d7 bd 1f 7f b3 be
       -0.15891363 0.3397185 -0.1053851 -0.35057923
000130 db b1 ba 3d 76 cb ed 3d 26 d0 f3 bd de d7 08 be
       0.091159545 0.11611073 -0.119049355 -0.13363597
000140 09 fc 40 be 11 ac ab be 2d 40 91 bb eb d4 5a 3d
       -0.18846144 -0.33529714 -0.004432699 0.05342571
000150 68 c1 9e bd 5f f0 0f 3d f9 f1 e1 b9 28 cc 8b be
       -0.07751733 0.035141345 -0.00043095628 -0.27304196
000160 85 5c 45 3e f4 62 2e 3e 66 c4 b9 3d 59 8a 5d be
       0.19273575 0.17029935 0.09070663 -0.21634807
000170 54 ed 53 be 1f 61 05 be 59 8a 9a bd d0 53 a0 3d
       -0.20696002 -0.1302533 -0.07545919 0.07828486
000180 a7 c3 44 be fc 13 8d bd d9 e4 18 be c9 1e 4d bc
       -0.1921526 -0.06888577 -0.14931048 -0.012519547
000190 de e3 b2 bb 32 cd 8f 3d 8a b4 13 be 6a 5d 24 bd
       -0.005459293 0.0702156 -0.14424339 -0.04012815
0001a0 fd 0f 88 3c 1e 8b 09 3e ed 2b a9 bd 8f 81 be bd
       0.016609186 0.13431975 -0.08260331 -0.09302055
0001b0 f2 8f 8b bd bb 1e d8 3c 11 1e c2 bc e3 9b c8 bd
       -0.06814565 0.02638184 -0.023695977 -0.09795358
0001c0 75 4e 06 be 7b 6d 27 3d dc 02 99 bd bf cb 23 3d
       -0.13115866 0.040875893 -0.074712485 0.03998923
0001d0 1a 7c 72 3e ad 30 ef 3c b2 51 91 bd e4 58 76 bd
       0.23680153 0.029198015 -0.0709566 -0.060143366
0001e0 91 ce 21 be 86 1b b5 3e 3d 25 16 bd c4 30 81 ba
       -0.15801455 0.3537256 -0.036656607 -0.0009856452
0001f0 85 77 0e be 0f 82 48 be 7d aa a3 be 9d 04 e5 bd
       -0.1391278 -0.19580863 -0.3196601 -0.111825205
000200 0e ba 3f 3d af a9 5b bc 84 51 28 be d4 ef 09 be
       0.046808295 -0.013407155 -0.16437346 -0.13470393
000210 26 94 bb be 72 f3 aa bc a1 0f b7 3d 2b 82 ec bc
       -0.36636466 -0.020868037 0.08938528 -0.028870663
000220 f1 8f 77 bd 00 52 34 be 30 8a 06 be 75 19 e3 be
       -0.060440008 -0.17609406 -0.13138652 -0.4435536
000230 6a 80 b2 3d fb b8 9b bd 46 65 6f be ba d7 30 be
       0.08715899 -0.076036416 -0.23378477 -0.17269793
000240 2a 96 ee 3d c0 b3 22 be 82 08 c6 3d bb e9 37 bd
       0.11649735 -0.15888882 0.096695915 -0.044900637
000250 ff ae 48 bd f5 a4 c8 bd b5 5f 9e be af 8b ca be
       -0.048995014 -0.09797088 -0.30932394 -0.39559695
000260 e2 81 48 bd c5 03 46 be 37 2e 43 3d 02 48 21 3e
       -0.04895199 -0.19337375 0.047651496 0.15750125
000270 81 44 c1 bd 57 27 8d 3e 8a c3 48 3d f8 5a db bc
       -0.09436894 0.27569076 0.049014606 -0.026776776
000280 20 c7 95 bd 10 37 bb bc 0f be 1b 3d 2d 48 dc bd
       -0.07313371 -0.022853404 0.03802305 -0.10755954
000290 5c 70 7b 3d 96 96 02 3d f0 07 a7 be c2 c5 1c bd
       0.06138645 0.03188189 -0.32623243 -0.038274534
0002a0 5d de 2b 3d 9d 50 04 be d3 89 96 3d 2a ea ee bc
       0.04196011 -0.12921377 0.07350507 -0.029164393
0002b0 6a 3b bd 3c 95 bf 0f bd 8f 73 a9 3d c7 58 a1 3c
       0.02309962 -0.035094816 0.08273994 0.019695653
0002c0 0f a9 50 bd 0e 8d db bd 09 fa 44 be 2b 3a da b9
       -0.050942477 -0.107202634 -0.19236006 -0.0004162354
0002d0 ff 62 fc 3d 9e 7f 3b be 4b 18 ad bd 2d c3 82 3d
       0.123235695 -0.18310401 -0.08451899 0.06384883
0002e0 ba 56 ba bc 67 be 39 be 42 c1 2d be c3 87 4c be
       -0.022746433 -0.18139039 -0.16968253 -0.19973664
0002f0 ae 0c 1b 3d 3f 66 0d 3e 9f 36 7f bc 1d 9e 8a bd
       0.03785389 0.13808535 -0.0155769875 -0.06768439
000300 a1 67 9b 3d 9b 0d 86 be b6 25 b8 bb 8a 12 41 3c
       0.07588125 -0.26182255 -0.00561973 0.011784205
000310 16 47 52 be 4b f2 ff bd a2 39 93 be 2e 68 93 be
       -0.2053493 -0.124973856 -0.28754908 -0.2879042
000320 60 ed b3 3e 78 c1 07 3e f3 34 25 be 53 a9 82 3d
       0.3514204 0.13257396 -0.1613348 0.06379952
000330 16 f4 14 3e 4b 4d 0d 3e 21 58 d1 3d 06 ca cf bd
       0.14546236 0.13799016 0.102218874 -0.10145955
000340 42 5a 08 be 91 f4 a4 3d 1b d4 c9 bc 52 d0 a8 3e
       -0.1331568 0.0805446 -0.024637273 0.32971436
000350 89 5b e1 bc d8 99 3b be c5 d3 39 3d 53 45 0e 3e
       -0.027509468 -0.18320405 0.045367975 0.13893633
000360 fe 00 9f 3c fc ef 0f 3d 74 1a d9 bc ad a4 9f bd
       0.019409653 0.035140976 -0.026501872 -0.07795081
000370 8a 8c 93 3c 5c dd b6 bd a4 cd 40 be e9 a2 59 3e
       0.01801135 -0.0892894 -0.18828446 0.21253552
000380 4d 5b f1 3d 4e 04 a5 bd ce af 6b be e4 83 84 be
       0.11784992 -0.08057462 -0.23016283 -0.25881875
000390 b7 09 2b bc 69 2f c3 bc da a8 a4 3e 96 f6 02 be
       -0.010439328 -0.023826318 0.32160074 -0.12789378
0003a0 23 01 b9 be 19 ec dc bd b5 55 84 bb f5 a8 61 3d
       -0.3613368 -0.107872196 -0.0040385374 0.05509277
0003b0 e2 f7 b3 3d 30 54 bf 3c 95 5a fd be c4 ab 13 be
       0.08787514 0.023355573 -0.4948317 -0.14420992
0003c0 7f d1 0d 3e 11 01 3f be eb ab eb 3d c4 77 a2 bd
       0.13849448 -0.1865275 0.115074 -0.07933
0003d0 ff c6 a0 be 4e ca d6 bc 6d 59 30 be 57 f6 95 3d
       -0.31401822 -0.026219513 -0.17221613 0.07322376
0003e0 ac 51 ca 3d 66 de 28 3e e3 b7 05 be ea 4e cd 3d
       0.09878859 0.16491088 -0.13058428 0.10024817
0003f0 e2 ef a0 3c 68 bf 7e 3d fc 5f ad 3d ce 33 35 be
       0.019645635 0.062194258 0.08465573 -0.17695543

network_body.linear_encoder.seq_layers.2.bias f4 [256]
000000 69 55 94 3b b2 61 88 3c 0e 81 bb bc 64 c7 92 bc
       0.0045267832 0.016648147 -0.022888687 -0.017917342
000010 4a 25 7d 3c 5c 66 08 ba 2b d6 9b bc bd 54 1f bd
       0.015450785 -0.0005203241 -0.019023022 -0.038899172
000020 42 2b 39 bd ab 31 45 bd c8 13 43 bb 7e cc 29 3c
       -0.04520727 -0.04814307 -0.002976643 0.010363696
000030 20 07 9a 3b ec bf 57 3c 37 d5 bd bc 03 51 06 bd
       0.0047005564 0.013168316 -0.023172958 -0.032792103
000040 b7 48 3f bd 01 9e b0 ba 22 ab c3 bc 4b f4 4f 3c
       -0.046700206 -0.0013474823 -0.023885313 0.012692521
000050 a9 25 f7 bc 26 73 88 bd 19 6b 7b bc 4f b9 6d bc
       -0.030169325 -0.06662588 -0.015345358 -0.014509513
000060 90 5b 4c bd 1e 22 80 3c ac b9 27 bd c8 38 8f bb
       -0.04989201 0.015641268 -0.040948555 -0.0043707825
000070 12 c2 91 3c 90 79 ae bd 70 42 c9 3a b2 7d 02 3c
       0.017792735 -0.0851928 0.0015354883 0.007964538
000080 9b 37 08 bc 66 f4 49 bd 1b 27 a4 b8 89 ba 29 bd
       -0.008314039 -0.049305342 -7.827413e-05 -0.04143766
000090 44 2a d3 bc 84 01 f6 bb 6a 4a 2a 3d 4f ec 36 3d
       -0.02577699 -0.007507505 0.041574873 0.044658955
0000a0 a6 c6 31 3b 18 70 23 bd 46 d5 d5 bb 58 cf 61 bd
       0.002712646 -0.039901823 -0.0065256683 -0.05512938
0000b0 db a2 84 bc c6 29 09 bd df 0e 65 3c 1f 83 f1 bc
       -0.016190937 -0.033487104 0.013980596 -0.029481469
0000c0 82 f9 15 3c 4a 9b 32 bd b5 da 39 bd 25 52 10 bd
       0.009153726 -0.043605126 -0.04537459 -0.03523459
0000d0 ab b6 80 bd 23 2b f8 bd 35 d8 09 bd 2f 3e bc 3c
       -0.06284841 -0.12117603 -0.033653457 0.02297887
0000e0 40 39 4b bd 8e ba 48 bd 37 20 83 3c 12 43 83 bc
       -0.049615145 -0.049006037 0.016006572 -0.016023193
0000f0 7a 96 00 bd e0 7f 8f 3c 94 ba 01 3c b5 8f 84 3c
       -0.031393506 0.01751703 0.007918019 0.016181806
000100 41 d6 67 3c f6 df 00 3d c1 97 a4 bc ae bd ac bb
       0.014150203 0.031463586 -0.020091893 -0.005271635
000110 a4 b7 6f bb f7 92 13 3d cc ff a5 3a 9e ca 1b 3d
       -0.0036577964 0.03602883 0.0012664734 0.038035028
000120 b1 b3 34 bc 97 b4 85 3c 73 ff 33 ba 32 59 cb bb
       -0.01102917 0.016321464 -0.0006866373 -0.0062057013
000130 73 75 40 bb a8 bd 5a bd c4 99 3a ba 80 bb 83 b9
       -0.002936688 -0.053403527 -0.000711825 -0.00025125965
000140 83 cf 15 bc d7 ca 4b bd 68 80 7b 3b 77 5b ba 3b
       -0.009143713 -0.04975399 0.0038376097 0.005687173
000150 22 b1 66 3c 4b a5 00 bd 29 eb 5a bc 13 f1 86 bd
       0.014080318 -0.031407636 -0.013361731 -0.0658895
000160 0d 62 44 3b cb 27 00 bd ba af d4 bc b2 e6 fc bc
       0.002996567 -0.03128795 -0.0259627 -0.030871723
000170 4b b5 bb bc 77 61 24 bd de b5 a2 bb f9 d9 e3 ba
       -0.022913596 -0.040132012 -0.004965528 -0.0017383686
000180 7a dd f4 3b 7f ba fe ba aa 16 15 bc 4c 02 75 3b
       0.007472691 -0.0019434242 -0.009099642 0.0037385402
000190 3b 7c 63 bc 4e 20 97 bd 7d 75 1c 3c a0 21 91 bb
       -0.013884599 -0.073792085 0.009549496 -0.0044290572
0001a0 90 ec d5 38 ef 76 1f bd 93 a9 1a bc 74 8d 3b bd
       0.00010200695 -0.038931783 -0.009439844 -0.045789197
0001b0 e1 a9 03 3d 5c 6f 61 bd e4 42 39 bd 01 0a 65 bd
       0.03214443 -0.05503784 -0.045229807 -0.055917744
0001c0 4c 7e 11 bd f5 e6 9e bd 7b d2 89 bc d9 d7 43 bc
       -0.035520837 -0.07758895 -0.016823998 -0.011953318
0001d0 0a 88 7e bc d1 58 68 bc 74 32 26 bd 8c 36 7e bb
       -0.015535364 -0.014181332 -0.04057546 -0.0038789837
0001e0 64 17 96 ba 7b a4 82 bd 45 04 fb bc 3e 86 13 3d
       -0.0011451063 -0.063790284 -0.030641684 0.036016695
0001f0 9f 84 c6 3c 8c 5c 14 be c0 9a fa bb 05 62 59 3c
       0.02423316 -0.14488429 -0.007647842 0.013267999
000200 c9 8a 16 bd 8d 36 45 bd 5d cb af bb d8 05 dd 3c
       -0.03675345 -0.048147727 -0.005364819 0.026980326
000210 da 09 67 3c c7 2b a9 bd 7b 5e bd bb bf 53 a3 bc
       0.01410147 -0.08260303 -0.005779085 -0.019937394
000220 f6 19 d2 3c c2 ca 88 bc e1 18 ae bc ea 5e 42 3d
       0.025647145 -0.016698245 -0.021252098 0.0474538
000230 d7 7d c6 bd ed 01 01 3d 6a 1f c1 3a 45 c4 19 3c
       -0.09691971 0.031495977 0.0014734094 0.009385173
000240 43 12 63 bd 21 43 e2 bb 17 b9 36 bd 66 37 2d 3c
       -0.055437338 -0.006904975 -0.04461011 0.01057229
000250 f0 71 0f 3d ef 14 34 bc 9f 13 27 bd b4 b1 d4 bc
       0.03502077 -0.010991319 -0.040790197 -0.025963642
000260 d8 b2 05 bd c3 aa 17 bd e8 f2 74 3c 7e 2d d5 bb
       -0.03264126 -0.037028085 0.0149504915 -0.006505667
000270 1d e7 9e bc d9 06 a5 3c b0 2d d2 3c 7d 87 f2 3c
       -0.019397313 0.020144867 0.025656551 0.029605621
000280 e9 4e 5e bd 52 dc 60 bd c7 5b 62 bc 16 a0 74 3b
       -0.054274473 -0.054897614 -0.013815827 0.0037326864
000290 0d 23 ca bb 72 ee 1e bd 39 51 b5 bc b0 9b 79 bd
       -0.006168729 -0.038801618 -0.022133457 -0.06093949
0002a0 e6 bf 0d 3c a7 a9 86 bd f4 89 52 bc 00 63 a4 bc
       0.008651709 -0.06575327 -0.012850273 -0.020066738
0002b0 f7 2d 30 bd 52 73 40 bc f5 bf 10 bd 96 bc e2 bb
       -0.043012585 -0.0117462445 -0.035339314 -0.006919454
0002c0 aa 8d 8b bd b7 a6 b1 bc 64 8f a6 bc f4 f4 8a 3b
       -0.0681413 -0.021685941 -0.020332046 0.0042406265
0002d0 d2 25 22 3c 25 30 2b 3c 47 70 be 3b e7 62 79 bd
       0.009896712 0.01044849 0.0058117243 -0.060885336
0002e0 6c c7 37 bc 3f 1b f1 3c 09 31 dc bc a7 08 14 bc
       -0.0112169795 0.029431937 -0.02687885 -0.009035266
0002f0 87 61 29 3c d7 2d 82 3c f8 ef 48 bd 5e 33 98 bc
       0.010338194 0.015890999 -0.049056977 -0.018579181
000300 ee 0c 37 bd 67 1a e6 bc 5b 5c 87 3d 0f d4 19 bd
       -0.044690065 -0.028088761 0.06609412 -0.03755575
000310 95 45 10 bd 71 ae 1c bd 93 e9 2c bd 0b 49 84 bd
       -0.03522261 -0.038252298 -0.04221494 -0.06459244
000320 7e 50 92 bb d7 53 d7 3b a6 55 18 bd eb 23 26 bc
       -0.004465162 0.006571274 -0.037191056 -0.010140399
000330 df aa ba 3c dd 76 e7 bc ee bb 2e bc dc 8d 7d bd
       0.022786556 -0.02825492 -0.010664923 -0.061902866
000340 2d a2 3d bc 9f 8e 7f b9 8a 02 e3 bc 58 1a 19 bc
       -0.01157431 -0.00024371826 -0.027711172 -0.00934466
000350 7f 39 96 bb fd f0 53 bd 92 02 48 bd e3 50 c2 3b
       -0.004584491 -0.051743496 -0.048830576 0.0059300526
000360 9d 5a 00 bd 1e db 21 bd 50 6f 19 ba 1b 52 05 bc
       -0.031336416 -0.039515607 -0.00058530737 -0.008137251
000370 16 64 92 bd c7 e1 88 bb 02 47 4e bb 25 f8 9b bc
       -0.07147996 -0.0041773054 -0.003147543 -0.019039223
000380 d9 84 d9 39 18 48 37 bd 14 e5 37 bd 46 c6 a4 bd
       0.00041488445 -0.04474649 -0.0448962 -0.0804563
000390 33 67 b3 3c f9 1d 93 3d 9b 38 f9 bc 56 e2 4d bd
       0.021899795 0.07183451 -0.0304225 -0.05026468
0003a0 9c 1f 09 bd 7d 64 6d bc 11 55 4f bd c2 af f7 3c
       -0.03347741 -0.01448929 -0.050618235 0.030235175
0003b0 ff df 64 bc 3f 20 50 bd a0 25 9b 3b 4d 64 84 3c
       -0.01396942 -0.050812002 0.00473471 0.016161108
0003c0 05 d1 3e bd e6 ea bf bc d6 75 2c bb 5e 6f 98 bc
       -0.046586055 -0.023427438 -0.0026315353 -0.018607792
0003d0 cb 45 15 3b 04 27 d4 3c f9 5d 82 bc 6b b4 ad 3c
       0.0022777196 0.02589751 -0.01591395 0.021204194
0003e0 7c d7 e0 bc cb 62 a6 3c 35 42 89 3b fa 74 68 3b
       -0.027446501 0.02031078 0.0041888007 0.0035470114
0003f0 73 e4 85 bd ae da b4 3c 0b 34 90 bb 6b 7a 25 bc
       -0.06537714 0.02207693 -0.0044007353 -0.0100999875

network_body.linear_encoder.seq_layers.2.weight f4 [256, 256]
000000 99 8e 10 be 5f 4c 65 3c 76 30 83 3c 81 22 8d 3c
       -0.14116897 0.013995259 0.016014319 0.017228367
000010 73 fd d0 3d e1 2a 16 bd 69 06 49 3d 22 df 22 bc
       0.102045916 -0.036661986 0.04907838 -0.009940894
000020 47 dc 27 bd 74 8a 5d 3c e2 aa 22 3d ca 1d 7c bd
       -0.040981557 0.013521779 0.039713748 -0.061551847
000030 f6 a8 9f 3d a5 ce bf bd 18 58 1c 3e ca a8 b9 bc
       0.077958986 -0.09365586 0.1526798 -0.022663493
000040 b1 6e 8a 3d ed 5b 85 bd d1 44 09 bd 00 5d a4 bd
       0.06759394 -0.06511674 -0.033512894 -0.08025551
000050 0f 27 96 bc 75 aa 95 bd dd 82 26 be 89 0b d2 bd
       -0.018329171 -0.07307903 -0.16260858 -0.102561064
000060 64 2a f4 3d d0 74 25 3e 95 d3 d9 bd f8 e3 7f bd
       0.11922148 0.16157842 -0.10636059 -0.062473267
000070 21 fa 18 be 6a 88 f7 bd a3 29 f1 3d 25 21 7f 3d
       -0.14939167 -0.12086566 0.1177552 0.06228747
000080 a2 68 db 3a 20 b0 cb 3b b8 89 7e 3d 41 a4 e1 3d
       0.0016739557 0.006216064 0.062143058 0.11017657
000090 ef 90 16 be 7e 53 b2 3c 49 98 1e 3e c8 9d 5d 3d
       -0.14703725 0.021768328 0.1548778 0.05410555
0000a0 ab 86 b4 3d 3d 99 54 3c e0 15 39 be 33 cc c0 bd
       0.088147484 0.012975988 -0.18074751 -0.09413948
0000b0 95 d9 c1 3d 41 1f 81 bd 74 ac 10 3e 08 7a 24 bc
       0.094653286 -0.06304789 0.14128286 -0.01003886
0000c0 64 a5 05 bd 7b d6 b2 3d 8d 3b 27 3d 39 a8 8e bc
       -0.032628432 0.08732315 0.040828276 -0.0174142
0000d0 5b 3b 7a 3b b5 c7 4e 3d b1 09 ad 3c 4b f9 bc bd
       0.0038182351 0.050483424 0.021122785 -0.09227236
0000e0 20 75 38 3e 51 35 0a be 18 5c 27 3e 9c f4 44 bd
       0.1801343 -0.13496901 0.16343725 -0.04808484
0000f0 8f 51 ee 3d 3a 5d 1a bc 81 09 60 3e c1 76 c5 bd
       0.1163665 -0.009421641 0.21878625 -0.09641791
000100 09 08 18 bd 9a af fc 3c 31 b2 ab 3d a1 90 06 be
       -0.037117038 0.030845452 0.08383597 -0.13141109
000110 71 f2 49 3c 87 7a c9 bc ce ab 4b 3d ac e4 d2 bd
       0.012325869 -0.024594558 0.049724393 -0.10297522
000120 ec 0c 5b 3d be 28 29 3b 8d 16 96 bd c7 2f be 3d
       0.05347912 0.0025811638 -0.0732852 0.092864566
000130 c9 83 4b 3c c8 ae 11 3e a1 7b c8 bc 33 d6 de 3d
       0.012421557 0.1422683 -0.024473013 0.10880699
000140 fd b0 5b 3a 9a 23 22 bb aa 8e 32 3e fc 8f 34 bd
       0.00083805603 -0.0024740458 0.17437235 -0.044082627
000150 4b 1b 15 3e 23 b4 04 bd 59 8d e8 3c 77 6f d7 3d
       0.14561193 -0.032398354 0.028387712 0.10519307
000160 2a c3 03 be da 9b c7 bc 72 26 f3 bd 97 3e 62 3b
       -0.12867418 -0.024366308 -0.11872567 0.003452217
000170 48 c9 7e bd 2c 8e 95 3e 3b da 7a bc a4 0b d2 bc
       -0.062203676 0.2921003 -0.015310819 -0.025640316
000180 e7 e6 2a 3c b1 13 f0 bc ee 14 5c 3d b0 95 89 3d
       0.010431028 -0.029306265 0.053730898 0.06718004
000190 50 f3 71 3d b0 c9 e6 3c d3 69 c8 bd 54 f1 d1 bd
       0.05906993 0.028172344 -0.09785809 -0.10251108
0001a0 49 33 d6 bc 46 c9 f4 3d 44 8f ef bd ef d9 94 3b
       -0.026147502 0.11952452 -0.116972476 0.0045425813
0001b0 0b ff 66 bc bb af d2 bd 23 12 4d be 8b e4 81 3d
       -0.014098893 -0.10287424 -0.2002645 0.06342419
0001c0 b8 17 8c 3d 60 2f d6 3d 22 5b 0d 3d ac 78 3c 3e
       0.068404615 0.10458255 0.03451074 0.18405408
0001d0 26 77 f2 bb c7 2c 08 bb 9c 21 29 3d b0 cf 2c bd
       -0.0073994575 -0.0020778643 0.041291818 -0.042190254
0001e0 62 e2 f9 3d 93 ca 24 3b ac b1 b3 3c 6f 64 f8 bd
       0.12201382 0.0025145158 0.021935306 -0.12128531
0001f0 4b 3a 8c bd a8 96 24 be 79 46 df bd c4 36 51 bd
       -0.06847056 -0.16073096 -0.109021135 -0.05107762
000200 63 31 10 3a a4 3e bf bc 9a 78 bb 3d 22 0c 22 3d
       0.0005500523 -0.023345299 0.09153862 0.039562352
000210 83 d5 9c 3d 91 77 c2 3d b5 bb dd bc 44 1d 06 bc
       0.07657912 0.09495462 -0.027067045 -0.008185688
000220 70 90 0a be 5e bf 03 3e 63 8b 16 3e 0a 6f ef 3b
       -0.13531661 0.1286597 0.1470161 0.007306938
000230 cd 00 ca bd b4 c3 15 3e ed c7 dc 3d 5c c7 9d bd
       -0.09863434 0.14625436 0.1078032 -0.077040404
000240 44 76 41 3c 6c d3 23 3d 39 93 9a bd ef ea aa bd
       0.011807982 0.03999655 -0.07547612 -0.08345591
000250 41 0d 06 3b 84 29 fe 3d 65 e2 5e 3c 01 35 89 3c
       0.0020454677 0.12410262 0.013603781 0.016748907
000260 80 d5 2e 3e 91 b7 44 3e 0e b2 a9 bd 1a ae 9d bd
       0.17073631 0.1921065 -0.08285914 -0.07699223
000270 48 d1 8f bd 37 3f 52 bd b6 84 54 3d 10 9b 0d be
       -0.07022339 -0.051329818 0.051884376 -0.13828683
000280 83 ed 25 3d a0 a4 73 bc 43 b7 3c bd c1 80 d2 3d
       0.040509712 -0.014870793 -0.04607321 0.10278464
000290 f9 13 f9 3c 23 a8 83 3c 25 5e 5c 3d f6 ab b8 3d
       0.030405032 0.016071385 0.05380072 0.09017174
0002a0 40 f4 08 bd 9e 9c a7 3c 17 b9 eb 3d 2d c8 26 bd
       -0.03343606 0.020460423 0.115099125 -0.040718246
0002b0 7d 8d 4d bc 5e 2f 17 3d 46 f5 92 3b 28 07 30 3e
       -0.0125459405 0.036910407 0.0044848053 0.1719023
0002c0 27 1c 41 3c 65 1f 60 bc ed 67 0a 3b b8 45 29 3c
       0.011786497 -0.01367936 0.0021119073 0.010331564
0002d0 4c 2b 8d 3c 67 79 b1 3d f6 9d b1 3c 6d 2e 80 bd
       0.01723256 0.08665734 0.021681767 -0.06258855
0002e0 b0 8b 4c 3d 38 73 e9 bd 31 00 9d 3d 41 81 1d be
       0.049937904 -0.11398929 0.07666052 -0.15381338
0002f0 54 eb 3c bd e4 9b 36 bd 02 2f 5b 3d 0c f0 4f bb
       -0.046122864 -0.044582263 0.053511627 -0.0031728772
000300 5b 6d d1 bc 1e a7 82 3c f0 43 97 bb da 4e 7d bc
       -0.02556484 0.015948828 -0.004616253 -0.015460694
000310 7f 04 c0 3d 81 ed d8 bc 22 ab 05 be 36 ae b1 bd
       0.093758576 -0.026480438 -0.13053563 -0.08675806
000320 2a 0b 38 be 14 78 af 3c 7f e9 72 bc 74 c3 62 3b
       -0.17973009 0.021419562 -0.014826178 0.0034601362
000330 1e ce 4d bd df e0 96 bc 74 04 cc bd 46 88 c6 b8
       -0.050245397 -0.018417774 -0.09961787 -9.466759e-05
000340 64 2c 46 be 29 93 4f 3c 07 a2 3d 3b c5 a2 2f be
       -0.19352871 0.012669363 0.0028935687 -0.17151935
000350 92 3b 85 3d ed 40 d2 3d 29 89 2e 3c 80 69 9d bd
       0.06505503 0.1026629 0.010652819 -0.07686138
000360 cf 98 5b bd 62 89 00 be 52 1f 8e 3d 04 b9 64 3c
       -0.053612527 -0.12552407 0.069395676 0.013960127
000370 b7 48 e5 bc 54 4c 1d 3e b3 2b c2 bd 77 86 46 3c
       -0.027988775 0.15361148 -0.09480991 0.01211702
000380 93 b3 e2 bc 37 b0 46 be 86 39 53 3e 97 c7 bf bd
       -0.027673518 -0.19403158 0.20627412 -0.093642406
000390 85 2a b9 3d 75 10 4a bd 95 1e 23 3e c6 67 93 3d
       0.09041313 -0.0493321 0.15929635 0.071975276
0003a0 75 43 da 3d c7 fa 82 3d a2 91 f7 3d be 69 18 3e
       0.10657398 0.06395488 0.12088324 0.14884087
0003b0 c7 33 17 3e 35 31 a0 3d 5d a3 5f bb 08 82 13 bd
       0.14765845 0.078218855 -0.0034124472 -0.03601268
0003c0 ad a2 b9 bd 7a 15 9f 3c 79 aa 0a 3e 40 41 2d 3b
       -0.09064231 0.01941942 0.13541593 0.0026436597
0003d0 07 cc 23 3e 48 22 05 3d c7 05 7a 3e 9c 27 01 bb
       0.15995799 0.032503396 0.24416266 -0.0019707447
0003e0 83 dc d3 bc 46 fa b3 bd 3f 05 05 3d 68 e9 4a 3d
       -0.025861984 -0.0878797 0.032475706 0.049539
0003f0 b1 a4 5a 3d aa 69 2e bc 9b 40 68 3d 84 c2 4e be
       0.05337972 -0.010645309 0.056702238 -0.2019139
