Project/Assets/MyProject/CVR 4/Models/ver 8/ThiefBrain.onnx (onnx, 184330 bytes, 6 tensors)

action_model._discrete_distribution.branches.0.bias f4 [7]
0	0x3b896c42	0.0041938135
1	0xbbc0c209	-0.005882506
2	0x3c10ede1	0.008845777
3	0x3bb47e95	0.005508254
4	0xbb200334	-0.0024415972
5	0xbb2f93b3	-0.0026790916
6	0xbbc48e48	-0.0059984066

action_model._discrete_distribution.branches.0.weight f4 [7, 128]
0	0x3ae97d31	0.0017813799
1	0x3c85c819	0.016330766
2	0x3b169573	0.0022977262
3	0x3ca3f89d	0.020016009
4	0x3b80ad3a	0.0039269
5	0xbb9f50bf	-0.0048619206
6	0xbb0cda32	-0.002149236
7	0x3c18ea8d	0.009333265
8	0xbc88b854	-0.016689457
9	0xbc22791a	-0.009916568
10	0x3b26a519	0.0025427996
11	0xbc1aef61	-0.009456486
12	0xbb31ad0d	-0.0027111203
13	0xbbc526f1	-0.006016605
14	0x3afdb899	0.0019357383
15	0x3c23e20e	0.010002626
16	0x3c30cb54	0.010790665
17	0xbc003798	-0.007825755
18	0x3c443f12	0.011977928
19	0x3c03fab9	0.008055382
20	0x3c679e7a	0.014136905
21	0x3ba7ede7	0.0051247957
22	0x3be8711e	0.0070935627
23	0xbc07bade	-0.008284299
24	0x3b91112a	0.004427095
25	0x3bf559b2	0.007487499
26	0x3afc5268	0.0019250633
27	0x3c2ebd78	0.01066529
28	0xbc7b7caa	-0.015349546
29	0x3bfae082	0.007656158
30	0xbbbe33e0	-0.005804524
31	0xbc43f89c	-0.011961129
32	0x3a195326	0.0005848877
33	0x3b7b9dfb	0.0038393724
34	0xbbf8c406	-0.007591727
35	0xbc239d7e	-0.0099862795
36	0x3b9a43b8	0.0047077797
37	0x3a2a970b	0.00065074925
38	0xbca695c3	-0.020335084
39	0xbb8201f1	-0.0039675166
40	0xbc323f1c	-0.010879304
41	0x3a76b16f	0.0009410595
42	0xbb5ba130	-0.0033512823
43	0x3ad60c70	0.0016330611
44	0x3ca628ca	0.020283122
45	0x3c3b9633	0.0114493845
46	0x3a9a22f8	0.0011759689
47	0xbbbd8ad4	-0.005784372
48	0xbb830528	-0.0039984174
49	0x3b2d6747	0.0026459263
50	0xbbaf41de	-0.005348428
51	0xbbe6139e	-0.0070213815
52	0x3c4ec72c	0.012620728
53	0x3b911489	0.004427497
54	0xbadb32f8	-0.0016723564
55	0xbba1447f	-0.0049214954
56	0xba6d8114	-0.00090600667
57	0x3bef346f	0.0072999517
58	0x3c0f57a1	0.00874892
59	0xbc229bf6	-0.009924879
60	0xbb817f94	-0.003951976
61	0x3b9bbf6c	0.004753044
62	0xbc127526	-0.008939063
63	0x3b682ce6	0.0035427152
64	0x3c8c8be0	0.017156541
65	0x3b3b6f34	0.0028600218
66	0xbc56a32c	-0.013100427
67	0x3b19233d	0.002336695
68	0x3c52cb97	0.012865922
69	0x3abbb0ea	0.0014319692
70	0xbc71e3b9	-0.014763766
71	0x3b0fe32c	0.0021955473
72	0xbb43b61d	-0.0029863187
73	0xbc179075	-0.00925075
74	0xbc3efd0e	-0.011657013
75	0x3bfa147d	0.007631837
76	0xbb797ea4	-0.0038069868
77	0x3be10a1c	0.00686766
78	0xbc00a218	-0.007851146
79	0x398440da	0.0002522532
80	0x3bfd98b6	0.007739152
81	0x3cacf8e6	0.021114778
82	0x3be3d09d	0.006952359
83	0x3b361400	0.0027782917
84	0xbcad9cf3	-0.021193003
85	0x3c8173db	0.015802315
86	0x3c3e565d	0.01161727
87	0xbc9bc204	-0.019013412
88	0xbc996fa5	-0.018729994
89	0xbc5c19aa	-0.013433853
90	0x3c514159	0.012771928
91	0xbbcc2162	-0.0062295655
92	0x3c551498	0.013005398
93	0xbb085c40	-0.0020806938
94	0xbc033593	-0.008008379
95	0x3c700053	0.014648515
96	0xbc139da2	-0.009009751
97	0x3a3d8795	0.0007229981
98	0x3cd1d335	0.025613407
99	0xbb997257	-0.00468282
100	0xba680ceb	-0.00088520226
101	0xbc8d6ad3	-0.017262852
102	0x3b7ee6c0	0.0038894862
103	0x3c076bb3	0.008265424
104	0x3b9f7b0c	0.0048669633
105	0x3badc056	0.0053024692
106	0xbbc3b821	-0.0059728776
107	0x3c495a5b	0.012289609
108	0xbc81f24c	-0.015862606
109	0x3c20bb58	0.009810291
110	0x3bd77255	0.0065749087
111	0xbbd03c0a	-0.0063548135
112	0xbb425054	-0.002964993
113	0x3c127058	0.008937918
114	0x3c2b364a	0.010449955
115	0x3c08838f	0.008332147
116	0x3cba021e	0.022706088
117	0x3a977ac9	0.0011556979
118	0xbb7bb6fd	-0.003840863
119	0x3a8b22cd	0.001061523
120	0xbb6f8933	-0.0036550283
121	0x3b6e370c	0.0036348728
122	0xbb7b2dcc	-0.0038326858
123	0x3c4a2785	0.012338524
124	0x3b3255c4	0.0027211765
125	0x3bdbe05a	0.0067100944
126	0xbb509e65	-0.0031832692
127	0x3c30e746	0.010797327
128	0x3bcecce7	0.0063110474
129	0xbcc2e80c	-0.02379229
130	0x3c3ab7dd	0.0113963755
131	0x3bfa3a14	0.007636318
132	0x3c5bdb93	0.01341905
133	0xbcab3258	-0.02089803
134	0x3b9b354a	0.004736577
135	0xbb87e81c	-0.0041475426
136	0xbc2fd1bb	-0.010731156
137	0x3c625a66	0.013815498
138	0xbb53312b	-0.0032225351
139	0x3af350fc	0.0018563564
140	0x3c601d06	0.013678795
141	0xbb1d6123	-0.0024014197
142	0x3b97b2ff	0.0046294923
143	0xba8f41a9	-0.0010929602
144	0xbc382956	-0.011240324
145	0xbc9576b4	-0.018245079
146	0x3be52748	0.006993208
147	0xbc761e4b	-0.015021871
148	0x3c8af21f	0.016961155
149	0x3b6adccc	0.0035837172
150	0x3c3ca925	0.011514937
151	0xbbc5c111	-0.006034978
152	0xbc88cb37	-0.016698463
153	0xba3ace25	-0.0007126055
154	0xbb98c0ce	-0.004661656
155	0x3ccc4270	0.024934024
156	0xbbdbf786	-0.0067128567
157	0xbac87c61	-0.0015295857
158	0x3c855a62	0.01627845
159	0x3c525327	0.012837208
160	0x3be4afae	0.0069789505
161	0xbb8b391d	-0.004248752
162	0xbbea42d4	-0.00714908
163	0x3b9e2b88	0.0048269667
164	0xbbefb114	-0.0073148105
165	0xbb356e69	-0.0027684218
166	0xbaa71671	-0.0012747777
167	0xbbcbdb3e	-0.006221204
168	0xbc5d2022	-0.013496431
169	0x3b48902d	0.0030603514
170	0xbc2359b5	-0.009970118
171	0xbc3b5de9	-0.011435964
172	0xbc441880	-0.011968732
173	0x3c3dfaed	0.01159547
174	0x3ba06158	0.004894417
175	0xbbdb76f5	-0.0066975304
176	0x3c1dba12	0.009626882
177	0xbc1143de	-0.008866278
178	0xbb44ee64	-0.0030049318
179	0x3c279274	0.010227788
180	0x3cd61ad5	0.026135841
181	0x3c8ead8b	0.017416736
182	0x3c2e5746	0.010640925
183	0xbc0d914d	-0.008640599
184	0xb9aadb64	-0.00032588386
185	0xbb8d54a2	-0.0043130675
186	0xbc221bb1	-0.009894297
187	0x3bac79ff	0.0052635665
188	0x3b49efd7	0.0030813122
189	0xbc23fd49	-0.010009118
190	0xbc14023c	-0.009033736
191	0x3cc25604	0.023722656
192	0x3b034416	0.0020029596
193	0xbc497ea8	-0.012298264
194	0xbad7c7f4	-0.0016462789
195	0xbc390ee1	-0.011295051
196	0x3bc44be5	0.0059904926
197	0xbb01414a	-0.0019722753
198	0xbaf8f32b	-0.0018993368
199	0x3953f292	0.00020212893
200	0xbbad6950	-0.0052920952
201	0x3b4c1f00	0.0031146407
202	0xbbdebafa	-0.0067971917
203	0x3c997df4	0.018736817
204	0x3b208e31	0.0024498815
205	0xbc6e2df1	-0.0145373205
206	0xbc9698b9	-0.01838337
207	0x3a93ae4e	0.0011267157
208	0x3b51bf43	0.003200487
209	0x3ac0a8d8	0.0014698757
210	0xbae6dc43	-0.001761325
211	0xbafa170d	-0.0019080356
212	0xbabd9dd6	-0.0014466594
213	0xbc081fca	-0.00830836
214	0x3c69c568	0.014268257
215	0x3c1d5389	0.009602436
216	0x3bf8ab70	0.0075887963
217	0xbc4dfdde	-0.012572734
218	0xbbc8ac79	-0.006124076
219	0xbc591739	-0.013250166
220	0x3cac3445	0.021021018
221	0xba9d24dd	-0.0011989136
222	0x3c094cac	0.008380096
223	0x3b9921fa	0.00467324
224	0xbc0cb7ed	-0.008588773
225	0xbb16f551	-0.0023034404
226	0x3a7a0042	0.00095367816
227	0x3ba368ea	0.004986872
228	0xbba94d7d	-0.005166708
229	0xbb6da83a	-0.00362636
230	0xbc8c3f06	-0.017119896
231	0xbb53f055	-0.0032339294
232	0x3cab849c	0.020937257
233	0x3b27b0d5	0.0025587578
234	0xbbc187c4	-0.005906077
235	0xbb5354ad	-0.0032246516
236	0xbb3f5ec5	-0.0029200774
237	0xbb6c215e	-0.003603063
238	0x3c305105	0.010761504
239	0x3af3baa3	0.0018595051
240	0xbc5b03e1	-0.013367624
241	0xbaeae1f4	-0.0017920122
242	0x3ca48679	0.020083653
243	0x3aa7edfa	0.0012812011
244	0x3c8982ce	0.016786005
245	0x3be1ff9a	0.006896925
246	0x3b93a873	0.0045061647
247	0xb9b9723c	-0.0003537106
248	0x3b92f5ec	0.0044848826
249	0x3bd4c2eb	0.0064929626
250	0x3cb78df1	0.02240655
251	0xbc372606	-0.011178499
252	0xbc85c3a5	-0.016328642
253	0xbc0990a3	-0.0083963005
254	0xbb5a2701	-0.0033287408
255	0xbc148fba	-0.00906747

network_body.linear_encoder.seq_layers.0.bias f4 [128]
0	0xbb96a941	-0.0045978134
1	0xbb099d5d	-0.0020998337
2	0x3bbbd215	0.005731831
3	0xbb990367	-0.004669595
4	0x3bddeadf	0.0067723836
5	0xbc4f50fc	-0.0126535855
6	0x3bfc6632	0.0077026123
7	0x3b83e28f	0.0040248106
8	0x3ba9d55c	0.005182905
9	0x3adcc762	0.0016844089
10	0xbbef9e44	-0.007312568
11	0x3bcb0419	0.006195557
12	0x3bb56210	0.0055353716
13	0xbb6fcc2e	-0.0036590206
14	0x3c0da49e	0.008645205
15	0xbc0d0787	-0.008607752
16	0xba2d766f	-0.0006617074
17	0xbb166d54	-0.0022953348
18	0xbadb8379	-0.0016747556
19	0xbba8e4f5	-0.005154247
20	0x3c45028f	0.012024536
21	0xba8c13d4	-0.0010687062
22	0xbbd71a0e	-0.0065643853
23	0x3b4e6c03	0.0031497485
24	0x3bb0d53d	0.0053965137
25	0x3b4aca34	0.0030943276
26	0xbba8d3df	-0.00515221
27	0xbbfb32bf	-0.0076659615
28	0xbc218fa4	-0.009860907
29	0x37708870	1.4336882e-05
30	0xbabf5a77	-0.0014599104
31	0xbc3d761b	-0.011563803
32	0x3c38ff6a	0.011291364
33	0xbc22255d	-0.009896603
34	0x3b112ccc	0.0022151945
35	0x3ba8505a	0.005136532
36	0x398fd3f8	0.00027433014
37	0xbae06563	-0.0017120059
38	0xbb8612e0	-0.0040916055
39	0xbb9d2e3a	-0.0047967704
40	0xbb416df6	-0.0029515005
41	0x3a649466	0.0008719623
42	0xbbefbdc7	-0.0073163244
43	0x398c496a	0.0002675758
44	0x3b9f4183	0.0048601045
45	0x3b4b82a7	0.0031053217
46	0x3bdef9be	0.006804674
47	0xbb9e7447	-0.0048356387
48	0xbbfd3a66	-0.007727909
49	0x3c1005ee	0.008790476
50	0x3aebaf99	0.0017981409
51	0x3c0d8e0a	0.008639822
52	0x3aba882f	0.001423126
53	0x3be8ddaf	0.007106505
54	0xbb7d51e1	-0.003865354
55	0x3c51f07a	0.012813682
56	0x3ba31cfa	0.0049778195
57	0x3af0a4ab	0.0018359622
58	0xbbe3f95d	-0.0069572167
59	0x3b1c2144	0.0023823539
60	0x3c1e7bdb	0.009673084
61	0xbb7011e7	-0.0036631764
62	0xba41393b	-0.0007370894
63	0x3c2bf34a	0.010495016
64	0x3c2cb726	0.010541713
65	0x3b30392c	0.0026889546
66	0xbb5bec8a	-0.0033557736
67	0x3a04448d	0.0005045615
68	0x3bc7269c	0.0060776006
69	0x3a87fe2f	0.0010375435
70	0x3b94876b	0.0045327446
71	0x3c05ec39	0.008173996
72	0x3af96bb4	0.001902929
73	0x3b8d0d1d	0.0043045417
74	0xbb2be6b7	-0.0026230046
75	0x3bc08652	0.005875387
76	0x3b3d963a	0.0028928653
77	0xbab764e1	-0.0013991856
78	0x3bdfd370	0.0068306252
79	0xbbd0cab8	-0.006371822
80	0x3b71722f	0.003684174
81	0xbb1d6369	-0.0024015552
82	0x3c367dc4	0.011138383
83	0x3bc56f15	0.006025205
84	0x3a28ffd2	0.00064468116
85	0x3c2c082a	0.010499993
86	0x3b21a587	0.0024665312
87	0xbb1bed14	-0.0023792433
88	0xba3cd8b8	-0.00072039245
89	0x3b31baf9	0.00271195
90	0xbc00aa65	-0.007853125
91	0x3a14d5b5	0.0005677597
92	0xbaeece48	-0.0018219436
93	0x3b165b43	0.002294258
94	0xbb027e0b	-0.0019911553
95	0x3ade905a	0.0016980276
96	0x3b14df45	0.0022716087
97	0x3b892204	0.004184963
98	0x3b50eae7	0.0031878294
99	0x3b09e0f3	0.0021038621
100	0xbc0dfdfc	-0.008666512
101	0xbc2595ea	-0.010106543
102	0xbb885819	-0.0041608927
103	0xbbd0f124	-0.0063764025
104	0x3b9cee67	0.004789162
105	0x3c16c02d	0.009201092
106	0xbba55f6c	-0.0050467756
107	0x3ba1e3ff	0.0049405093
108	0xbb6b72c0	-0.003592655
109	0x3b5a467a	0.0033306167
110	0xbaab0eec	-0.0013050712
111	0xbb9d93ca	-0.0048088776
112	0x3bb08585	0.0053870105
113	0x3ba3ae97	0.004995178
114	0xbb4a669c	-0.0030883914
115	0x3a8a3e20	0.0010547079
116	0x3c247e3c	0.010039862
117	0x3bd40b50	0.006471075
118	0xbbc7a3ec	-0.006092539
119	0x3b8af04d	0.004240072
120	0x3be834f7	0.007086392
121	0x3bfb2eb9	0.007665482
122	0xbb354f75	-0.0027665768
123	0xbb85ca24	-0.004082935
124	0x3c00b7b3	0.007856297
125	0xbbd77994	-0.0065757725
126	0x3be4cd70	0.006982498
127	0xbbea2daa	-0.007146557

network_body.linear_encoder.seq_layers.0.weight f4 [128, 218]
0	0xbc08ff00	-0.008361578
1	0xbc826234	-0.015915968
2	0x3d064595	0.032781202
3	0xbe206aad	-0.15665694
4	0x3d9cccf5	0.0765628
5	0x3d111e3f	0.035429236
6	0x3b382670	0.0028099082
7	0x3c99c314	0.018769778
8	0x3c6a7d5d	0.0143121155
9	0x3d53193a	0.05153773
10	0x3d9b7261	0.075901754
11	0xbc59bd37	-0.013289741
12	0x3c96a080	0.01838708
13	0x3e05a4d2	0.13051155
14	0xbd374dff	-0.044752117
15	0x3c137add	0.009001461
16	0x3df1d5ab	0.11808332
17	0x3d4e74c5	0.05040433
18	0x3a5e8a6b	0.0008489254
19	0x3cf54607	0.029940618
20	0xbdb58b3a	-0.08864446
21	0xbd65fd50	-0.05614978
22	0xbd16ed46	-0.036847375
23	0xbd97bc33	-0.07408943
24	0x3d8ff089	0.070283
25	0x3be04d4a	0.006845151
26	0xbdbe3ee6	-0.09289341
27	0x3e0e9586	0.13924226
28	0xbe28ecf4	-0.1649664
29	0xbe162650	-0.14663053
30	0x3cd455d7	0.025919838
31	0x3e11aa2c	0.14225072
32	0x3d06cff8	0.03291318
33	0x3d51f5eb	0.051259916
34	0xbdba0a45	-0.0908399
35	0x3d744678	0.059637517
36	0xbcfd3db7	-0.030913217
37	0xbd89c0f4	-0.06726256
38	0xbd0c8755	-0.03430875
39	0x3cb8c11f	0.022553025
40	0x3dc7ae60	0.09750056
41	0xbd60f1ca	-0.054918088
42	0x3ddc80a5	0.107667245
43	0xbd0313bd	-0.032001246
44	0x3e1bbae3	0.1520801
45	0xbdaea836	-0.085281774
46	0x3c1b806d	0.009491068
47	0xbd0db1de	-0.034593455
48	0xbdbce924	-0.092241555
49	0xbcaa0caa	-0.020757992
50	0x3de1137e	0.10990046
51	0xbbb1e819	-0.0054292795
52	0x3c9fa6cf	0.01948872
53	0xbc8d4c87	-0.017248405
54	0xbc357002	-0.011074068
55	0x3c55a17d	0.01303899
56	0x3c8ba88e	0.017048147
57	0x3d49c3c0	0.049258947
58	0xbd07971e	-0.0331031
59	0xbdf76bfa	-0.12081142
60	0x3d696102	0.05697728
61	0x3da6a80b	0.081375204
62	0x3d66b021	0.056320313
63	0x3d741b3a	0.059596278
64	0xbb8743f6	-0.0041279746
65	0xbd731aa2	-0.05935157
66	0x3daa3506	0.08310895
67	0x3c02da08	0.007986553
68	0x3dcaf282	0.09909536
69	0x3bf5135f	0.007479116
70	0x3d85a5f2	0.06525792
71	0xbc2b1e14	-0.010444183
72	0xbd1fa80d	-0.038978625
73	0x3da325ee	0.07966219
74	0x3d1011a3	0.03517307
75	0xbdabf7f5	-0.083969034
76	0x3a735b3e	0.00092833105
77	0xbd236966	-0.039895438
78	0x3db8097d	0.08986185
79	0x3daf33e3	0.085548185
80	0xbe16d797	-0.14730678
81	0xbdcd1803	-0.100143455
82	0x3d6e265b	0.058142047
83	0x3bbdd603	0.0057933345
84	0x3d083bd8	0.033260196
85	0x3d5ec421	0.05438626
86	0xbe1531f8	-0.14569843
87	0xbbed3b93	-0.007239768
88	0x3d14c602	0.036321647
89	0x3decd3e4	0.115638524
90	0xbda1c5b2	-0.078990355
91	0x3d1b9efc	0.037993416
92	0x3dae2462	0.08503033
93	0xbdff0c99	-0.12453575
94	0x3ca1456f	0.019686429
95	0x3daeeca6	0.08541231
96	0x39a65554	0.00031725562
97	0x3db8ebe1	0.09029365
98	0xbcfbe127	-0.03074701
99	0x3d4e10e1	0.050309066
100	0x3bfd2fc8	0.0077266432
101	0xbe11cdf4	-0.14238721
102	0xbd1099b9	-0.03530285
103	0xbd0bf39a	-0.034167863
104	0x3cfaabd0	0.030599505
105	0x3d2c1c28	0.04201904
106	0x3e09bf15	0.13451798
107	0xbd1d1d95	-0.03835829
108	0x3d9f5aa4	0.0778096
109	0xbe2d47a0	-0.16921854
110	0x3b09dcae	0.0021036076
111	0x3c1b990b	0.0094969375
112	0xbced92c3	-0.029000646
113	0x3abd9fab	0.001446714
114	0xbdb02998	-0.086016834
115	0xbdca612d	-0.09881816
116	0xbd096343	-0.03354193
117	0x3c9a3f02	0.018828873
118	0xbd357358	-0.044299453
119	0xbd4d4c55	-0.050121624
120	0xbcedcada	-0.029027391
121	0x3e1832f4	0.14863187
122	0x3d89a6e1	0.06721283
123	0xbd8e56d3	-0.06950154
124	0xbd7a29a2	-0.06107486
125	0xbcc7dea4	-0.024398156
126	0x3d6520c5	0.055939455
127	0xbd1b9596	-0.037984453
128	0x3bf97225	0.007612484
129	0x3d80f587	0.062968306
130	0xbcc00c30	-0.023443311
131	0x3d299ed0	0.04141122
132	0x3dc9e698	0.098584354
133	0xbd492599	-0.04910812
134	0x3c8a8eaa	0.01691373
135	0x3dd66e72	0.104702845
136	0xbd6aa5a4	-0.057286873
137	0xbcc4de29	-0.024031715
138	0xbdb94ae8	-0.0904749
139	0xbe083ec4	-0.13305193
140	0xbc30bafd	-0.010786769
141	0xbd6bf505	-0.057606716
142	0x3b4e0d9e	0.0031441222
143	0xbc857625	-0.016291687
144	0x3dd40b6d	0.10353742
145	0x3c92a52b	0.017901024
146	0xbe19a741	-0.15005209
147	0xbbc7ffd9	-0.0061034975
148	0xbcde08be	-0.027103778
149	0xbd1f9c6f	-0.038967546
150	0x3cdb161f	0.026743947
151	0xbd4aa9b8	-0.049478263
152	0x3d9ac8be	0.0755782
153	0x3e98060a	0.29692107
154	0xbd26801e	-0.040649526
155	0x3dc73cf9	0.097284265
156	0xbd7d31f0	-0.061815202
157	0x3d2ea192	0.042634554
158	0xbd6bd9a6	-0.057580613
159	0xbe170425	-0.14747675
160	0xbc78711f	-0.015163689
161	0xbccdbad5	-0.025113503
162	0x3d83ca55	0.06435076
163	0x3da5739b	0.080786906
164	0xbd510f4b	-0.051039975
165	0x3cd6a217	0.026200337
166	0xbc5dbbbc	-0.013533529
167	0x3d4740fd	0.048645962
168	0x3d98d33a	0.07462163
169	0xbadabfb7	-0.0016689216
170	0xbd56630e	-0.05234056
171	0xbc56b9b3	-0.013105798
172	0x3dea683d	0.11445663
173	0xbdf87467	-0.12131577
174	0x3dcbb765	0.09947089
175	0x3d370b1c	0.04468833
176	0xbd21f5c7	-0.039541032
177	0xbc91c668	-0.017794803
178	0xbd943f73	-0.072386645
179	0xbc526dd9	-0.012843573
180	0xbddcacc2	-0.107751384
181	0x3b01a194	0.0019780146
182	0x3d519033	0.05116291
183	0x3c9540ec	0.018219434
184	0x3cf64f29	0.030067043
185	0x3df8cee3	0.121488355
186	0xbd33889f	-0.043831464
187	0x3cec82a0	0.02887088
188	0xbdf0d6f4	-0.11759749
189	0xbb85814f	-0.0040742527
190	0x3d18a540	0.03726697
191	0xbcd7bb12	-0.02633432
192	0x3a7d4fe4	0.0009663089
193	0xbde9716e	-0.11398588
194	0x3e3080d5	0.17236646
195	0xbd39c44f	-0.04535323
196	0xb953f8d5	-0.00020215225
197	0x3d44afd6	0.048019253
198	0x3e081e03	0.13292699
199	0x3c8a3ebc	0.016875617
200	0x3d8b192f	0.06791913
201	0xbd0de537	-0.034642424
202	0xbda4eb03	-0.080526374
203	0xbe0307ea	-0.12795988
204	0x3d52b8d6	0.051445805
205	0xbd7c6eed	-0.061629225
206	0x3dfc86d5	0.12330405
207	0xbda5f424	-0.08103207
208	0xbcc9d559	-0.024637865
209	0x3d8e7f72	0.06957902
210	0x3d653a77	0.05596396
211	0x3d221f4e	0.039580636
212	0x3dc964df	0.09833693
213	0xbd946437	-0.07245677
214	0x3d20806b	0.03918497
215	0xbd24fe83	-0.040281784
216	0x3e224d44	0.15849787
217	0xbd9354f5	-0.07193939
218	0xbc252d1d	-0.010081557
219	0xbd7057d3	-0.058677506
220	0x3dcd9564	0.100382596
221	0xbe268b70	-0.16264129
222	0xbddfdb13	-0.10930457
223	0x3c9a424f	0.018830447
224	0x3ca183f2	0.019716237
225	0xbb09d268	-0.0021029953
226	0xbcf116f8	-0.029429898
227	0xbc3012d7	-0.010746679
228	0xbde3f8ce	-0.1113144
229	0xbdc62afc	-0.09676167
230	0x3d0a7e02	0.033811577
231	0xbd5a79de	-0.053338878
232	0x3d6093b7	0.05482837
233	0x3cf06f99	0.029350089
234	0x3da7f007	0.082000785
235	0xbdd8ccc1	-0.10585929
236	0x3dcf7011	0.10128797
237	0xbcee4ef5	-0.029090384
238	0x3db7ec64	0.08980635
239	0xbd2d2e30	-0.042280376
240	0xbcbe13aa	-0.023202736
241	0xbd878c00	-0.066185
242	0xbd38afc3	-0.045089494
243	0x3d8153b4	0.06314793
244	0x3d8a7d72	0.06762208
245	0xbd2d28f7	-0.042275395
246	0xbca94e37	-0.020667179
247	0xbc8dac8c	-0.01729419
248	0xbcc5767d	-0.024104351
249	0x3d231f4d	0.039824773
250	0x3de8055e	0.11329149
251	0xbb0d5a28	-0.002156863
252	0xbc9d8f59	-0.019233393
253	0x3d22a588	0.039708644
254	0x3d03619b	0.032075506
255	0x3cfb5e02	0.030684475

network_body.linear_encoder.seq_layers.2.bias f4 [128]
0	0xbc1f0e97	-0.009708068
1	0x3bcf12af	0.006319366
2	0xbb7f9016	-0.0038995794
3	0x3bd2dba1	0.006434873
4	0xbbaf0aff	-0.005341887
5	0x3b9d7aa5	0.00480588
6	0x3bf5da47	0.0075028273
7	0x3bd959a8	0.0066330023
8	0x3bd404f7	0.0064703184
9	0xbbe2d2a9	-0.0069220853
10	0xbb857fc7	-0.00407407
11	0x3b8b6518	0.0042539947
12	0xbbd2a4c5	-0.0064283335
13	0xbbfb4c9e	-0.0076690456
14	0xbbd5b81d	-0.006522192
15	0x3c0c23c7	0.008553452
16	0xbb2d0628	-0.0026401374
17	0x3ba53237	0.0050413865
18	0xbb7ec78a	-0.0038876259
19	0x3c0a5ea9	0.00844542
20	0x3b3f34d3	0.0029175773
21	0x3abcded5	0.0014409671
22	0xbc0012cd	-0.007816982
23	0x3c49d8b9	0.012319737
24	0x3c0f0e8e	0.008731497
25	0x3bc95d04	0.0061451215
26	0xbb34b438	-0.002757324
27	0x3bda5d36	0.0066639436
28	0x3aaed4f1	0.0013338608
29	0xbbb3da17	-0.005488645
30	0xbbee6e5b	-0.007276339
31	0xbbc97287	-0.006147686
32	0x3b840be7	0.004029739
33	0xbaf5b5cd	-0.0018746197
34	0xba836dd7	-0.0010027242
35	0xbc24cf54	-0.0100591965
36	0x3b6108e1	0.0034337568
37	0xbb19c621	-0.0023464041
38	0xba8f031d	-0.0010910962
39	0xbc1a357e	-0.009412168
40	0x3c08394e	0.008314444
41	0x3c32a6c1	0.010904015
42	0x3c2fc509	0.010728129
43	0xbbc7f9ac	-0.0061027613
44	0x3a0baee7	0.00053284917
45	0xbb49c47b	-0.0030787278
46	0xbc159462	-0.0091296155
47	0x3b6b41df	0.0035897417
48	0xbc16a66b	-0.009194951
49	0x3b7b500e	0.0038347277
50	0x3c0f56bf	0.008748709
51	0xbbbe9fca	-0.005817388
52	0xbb72e8da	-0.003706506
53	0x3bd55201	0.00651002
54	0x3b5b8d25	0.0033500877
55	0x3bac1fa4	0.0052527953
56	0x3bfbeead	0.0076883645
57	0x3ada9e23	0.0016679208
58	0x3b3c8e9f	0.0028771532
59	0x39e739b0	0.00044102734
60	0x3b28e07f	0.0025768576
61	0x3be7aeae	0.007070384
62	0x3bbfe50e	0.005856163
63	0xbbed3805	-0.007239344
64	0x3b335457	0.0027363503
65	0x3bc65158	0.0060521774
66	0x3c067ac6	0.008207982
67	0x385e2428	5.2962598e-05
68	0x3b985bf7	0.004649635
69	0x3bc442ac	0.005989393
70	0xbb94652b	-0.0045286617
71	0xbba09c4e	-0.0049014455
72	0x3b967694	0.0045917723
73	0x39b79dc4	0.00035022025
74	0xbb6486eb	-0.0034870456
75	0x3bb06b21	0.0053838645
76	0x3c1f9137	0.009739212
77	0x3c3ffd21	0.0117180655
78	0xbae02eb8	-0.0017103767
79	0xba856580	-0.0010177344
80	0x3c3078dc	0.010771003
81	0x3b74d31e	0.003735728
82	0x3c35ef66	0.01110444
83	0xbbaae6fa	-0.005215523
84	0xbb6bfc95	-0.0036008705
85	0x3c24831c	0.010041025
86	0x3bc838e1	0.006110296
87	0xbb8fec53	-0.0043921857
88	0xbc2ddada	-0.01061126
89	0x3bbc613e	0.005748897
90	0x3b4246db	0.0029644284
91	0x372063a1	9.55994e-06
92	0xbc140174	-0.00903355
93	0xbb45cd9c	-0.0030182367
94	0xb82c5ff6	-4.1097366e-05
95	0xbb5fd906	-0.0034156456
96	0xbb920826	-0.004456538
97	0x3bcb6254	0.00620679
98	0x3b84d7ea	0.0040540593
99	0x3b559961	0.0032592642
100	0x3aab2474	0.0013057129
101	0xbc23c209	-0.009994992
102	0x3bcf1435	0.0063195475
103	0x3b3027f6	0.0026879287
104	0xbb857dbc	-0.0040738266
105	0xbc1c2b55	-0.009531816
106	0x3c08246f	0.008309468
107	0xbb1740ad	-0.0023079321
108	0x3a899d5e	0.001049917
109	0x3ba67908	0.005080346
110	0xbacc3dca	-0.001558238
111	0xbb8ad2e2	-0.004236565
112	0xbb08e25b	-0.0020886871
113	0x3b4e51eb	0.0031481932
114	0xbba91975	-0.0051605054
115	0xbbe4a759	-0.006977957
116	0x3a483871	0.0007637805
117	0x3b7a9567	0.0038236023
118	0xbc32d88a	-0.010915885
119	0x3b55e65b	0.0032638523
120	0xba0979ec	-0.0005244303
121	0x3b716e0e	0.003683928
122	0x3b704378	0.0036661308
123	0x3c045266	0.008076286
124	0x3af5ad55	0.0018743674
125	0xbb782f26	-0.00378699
126	0x3c202892	0.009775298
127	0xba3eb46e	-0.0007274811

network_body.linear_encoder.seq_layers.2.weight f4 [128, 128]
0	0xbdb81f33	-0.08990326
1	0x3c34ab3a	0.011027152
2	0xbdb1dcc2	-0.08684684
3	0x3d43a60f	0.047765788
4	0xbd1d4f3a	-0.038405634
5	0x3cca8187	0.024719967
6	0x3dfef14c	0.124483675
7	0x3d42b8a5	0.047539372
8	0x3bada04c	0.00529865
9	0xbda50b97	-0.08058851
10	0xbd4b754a	-0.049672402
11	0xbda5ad31	-0.08089674
12	0xbd510e4c	-0.051039025
13	0xbd25d63c	-0.040487513
14	0xbd921864	-0.071335584
15	0x3d8f3dda	0.06994219
16	0x3d197441	0.037464384
17	0xbd278425	-0.040897507
18	0xbd86b20a	-0.06576927
19	0x3db5fb16	0.088857815
20	0x3d86a6a9	0.06574757
21	0xbdd87101	-0.10568429
22	0x3e64b8a6	0.22336063
23	0x3decde74	0.11565867
24	0xbc9b772b	-0.018977722
25	0xbc35405a	-0.011062706
26	0x3c5ab3a2	0.013348492
27	0x3d24bc89	0.040218864
28	0xbcdc968d	-0.026927257
29	0x3d576faa	0.052596726
30	0x3ac4cff0	0.0015015583
31	0x3d30a745	0.04312827
32	0x3bbbd62b	0.005732318
33	0xbd5f6374	-0.054538205
34	0x3c95c51b	0.018282464
35	0x3dc04dcd	0.09389839
36	0xbd11cbb8	-0.035594672
37	0x3c72543d	0.014790592
38	0xbe1cc214	-0.1530841
39	0xbc9c814b	-0.01910462
40	0x3d898b41	0.06716014
41	0x3cb88587	0.022524608
42	0x3cceea73	0.025258278
43	0xbdc9e7ce	-0.09858666
44	0x3cbb50dc	0.022865705
45	0xbd0c6eef	-0.034285482
46	0x3d86ea93	0.0658771
47	0xbcadaefe	-0.021201607
48	0xbb001733	-0.0019545078
49	0xbd23f019	-0.040023897
50	0xbcfe3b54	-0.03103415
51	0xbe1ce484	-0.15321547
52	0xbe0934b0	-0.13399005
53	0xbd4206eb	-0.04736988
54	0x3d40c208	0.047060043
55	0x3d88f511	0.06687368
56	0xbd6c93db	-0.057758193
57	0xbb76c80c	-0.0037655858
58	0xbd5ed88c	-0.054405734
59	0x3d02d105	0.031937618
60	0xbd470543	-0.048589002
61	0xbe249158	-0.16071069
62	0xbd00fcd3	-0.031491112
63	0x3dbce57c	0.09223458
64	0x3c96c58a	0.01840474
65	0x3c60cea3	0.013721141
66	0x3d2e4a2e	0.042551212
67	0xbc09e948	-0.008417435
68	0x3e233f8f	0.15942214
69	0xbe486833	-0.19570999
70	0xbd9624aa	-0.07331212
71	0xbdde789b	-0.108628474
72	0x3cdf62d7	0.02726881
73	0x3dd03433	0.10166206
74	0x3e47a702	0.19497302
75	0x3d5d8e9b	0.054091077
76	0x3e676840	0.22598362
77	0x3d9164fc	0.07099339
78	0xbdc67afb	-0.096914254
79	0xbcf2f56a	-0.029658038
80	0xbd690d3f	-0.056897398
81	0x3d188e71	0.037245218
82	0xbd7aac12	-0.061199255
83	0x3cf36a47	0.029713763
84	0xbdf65c91	-0.120293744
85	0xbea37195	-0.31922594
86	0xbce1d5e5	-0.027567813
87	0x3e36e47d	0.17860599
88	0x3d6bb5fd	0.057546604
89	0x3d6f9dac	0.058499977
90	0xbc106de1	-0.00881526
91	0x3d422241	0.04739595
92	0xbd84a54a	-0.06476839
93	0xbd48d973	-0.0490355
94	0x3cbefead	0.023314798
95	0x3d34804a	0.04406766
96	0xbd88001d	-0.066406466
97	0x3cc2316b	0.023705205
98	0xbd828d68	-0.06374627
99	0x3ce22c0f	0.0276089
100	0xbcf34d77	-0.029700024
101	0xbc9aa3d6	-0.018876951
102	0xbd10e3ac	-0.035373375
103	0xbb4c0e40	-0.0031136423
104	0xbddb105a	-0.10696478
105	0xbdb38419	-0.0876543
106	0x390d1daf	0.00013457866
107	0x3d9b151c	0.07572386
108	0xbd7b7884	-0.06139423
109	0x3e28fed2	0.16503456
110	0xbd198c5f	-0.037487384
111	0xbd18f570	-0.037343442
112	0xbd3d55bc	-0.04622434
113	0xbb7cfe73	-0.0038603812
114	0xbc3cd28c	-0.011524808
115	0x3e02e40e	0.12782308
116	0x3c4fdceb	0.012686948
117	0x3d4b8bd6	0.049693905
118	0xbd5d1678	-0.053976506
119	0x3d485837	0.048912253
120	0xbcbf0e20	-0.023322165
121	0x3df25b10	0.11833775
122	0x3c039225	0.008030449
123	0x3d4dd5be	0.05025267
124	0xbe170051	-0.14746214
125	0xbd83e435	-0.064400114
126	0xbdbff0b5	-0.09372083
127	0x3d2318d9	0.03981862
128	0xbcd562e4	-0.026048131
129	0xbc9c60f3	-0.019089198
130	0xbdd338db	-0.10313579
131	0xbe085cba	-0.13316622
132	0xbd8ef96c	-0.06981167
133	0xbd959c22	-0.073051706
134	0xbdbf498d	-0.093402006
135	0x3cb3ba1f	0.021939335
136	0x3d922286	0.07135491
137	0x3d653618	0.05595979
138	0xbc30d22e	-0.010792298
139	0xbd53b26a	-0.05168382
140	0x3df466e9	0.11933691
141	0xbc81e856	-0.015857857
142	0xbc0f11fd	-0.008732316
143	0xbc6fa8c9	-0.014627644
144	0x3e18f99d	0.1493897
145	0x3e2884ae	0.16456863
146	0x3d011b4b	0.03152017
147	0x3d2ef3eb	0.042713087
148	0xbe2b2f3f	-0.16717242
149	0x3cc15a3b	0.023602596
150	0x3da06f5f	0.07833742
151	0x3c83898a	0.016056795
152	0x3e2a8437	0.16651998
153	0xbcf67304	-0.03008414
154	0xbd71a77d	-0.05899762
155	0xbd4cfe81	-0.0500474
156	0x3b0afc43	0.0021207489
157	0x3d7b89bc	0.06141065
158	0xbd12c9e8	-0.035837084
159	0x3daa31b1	0.08310259
160	0x3c9e3a6a	0.019314963
161	0x3cad71f1	0.021172496
162	0xbbf52a40	-0.0074818432
163	0x3e273b89	0.16331305
164	0xbda7b092	-0.08187975
165	0xbdb47f9c	-0.08813402
166	0x3e10034b	0.14063756
167	0xbd526626	-0.051366948
168	0x3da7de0e	0.081966504
169	0x3dc92c71	0.0982293
170	0xbe336243	-0.17517953
171	0xbd515c1e	-0.05111324
172	0x3d5f681b	0.054542642
173	0x3b828947	0.00398365
174	0xbd1bd5ca	-0.038045682
175	0x3d640bb6	0.05567523
176	0xbc95f189	-0.01830365
177	0x3c81abcf	0.015828995
178	0xbd5bc207	-0.053651836
179	0xbdea84a4	-0.114510804
180	0xbe1e0cd2	-0.15434578
181	0xbd959e36	-0.07305567
182	0xbdb50a8f	-0.088399045
183	0x3dcf9ac3	0.1013694
184	0xbd03064d	-0.03198843
185	0xbe1b30d8	-0.15155351
186	0xbda788cc	-0.08180389
187	0xbcab4b97	-0.020910067
188	0x3d8939d5	0.06700484
189	0x3cd9e4b3	0.02659831
190	0x3df4db67	0.1195591
191	0x3e05b20a	0.13056198
192	0xbdaa3aff	-0.08312034
193	0xbd5fd9bf	-0.05465102
194	0x3d846d89	0.06466205
195	0x3d9297a7	0.07157832
196	0xbca91c09	-0.020643251
197	0xbcdf532b	-0.027261337
198	0x3dde3afe	0.108510956
199	0xbde119b5	-0.10991231
200	0xbe50a477	-0.20375238
201	0x3d2a236f	0.0415377
202	0x3b90edff	0.0044229026
203	0x3c559704	0.013036493
204	0xbcc2c989	-0.02377774
205	0x3d8f4453	0.06995454
206	0x3e01f199	0.12689818
207	0x3a630de4	0.00086614327
208	0x3e36c7df	0.17849682
209	0x3bfca10e	0.007709629
210	0xbd0c8fff	-0.034317013
211	0xbd832914	-0.064043194
212	0xbd4b3fc3	-0.049621355
213	0xbc42c48c	-0.011887681
214	0x3cca9b1f	0.02473217
215	0xbd863a15	-0.06554047
216	0x3df6ad09	0.120447226
217	0x3dcebc87	0.100945525
218	0x3aa2d1d8	0.0012422157
219	0x3cb78b92	0.02240542
220	0xbca3fda5	-0.020018408
221	0xbd749d24	-0.059720173
222	0xbe1ecee0	-0.15508604
223	0xbd644edd	-0.055739272
224	0xbd976cbc	-0.07393786
225	0x3da4aec9	0.0804115
226	0xbde1e4d1	-0.110299714
227	0x3e19e01b	0.15026896
228	0xbdca13ae	-0.09867035
229	0xbd724adb	-0.05915342
230	0xbdc8cf2f	-0.09805142
231	0xbd2e5d57	-0.042569485
232	0xbc103bcd	-0.00880332
233	0xbe5e12d4	-0.2168687
234	0xbe1055a8	-0.14095175
235	0x3e1b1f0b	0.1514856
236	0xbd48de0a	-0.049039878
237	0xbc7c574e	-0.015401674
238	0xbe1f38f3	-0.15549068
239	0x3e1254f0	0.14290214
240	0x3d87ae4a	0.0662504
241	0xbdadfdf8	-0.08495706
242	0x3dc958de	0.09831403
243	0x3d906ebd	0.07052372
244	0xbd83eeaf	-0.0644201
245	0xbbdc13b2	-0.006716215
246	0xbe065500	-0.13118362
247	0x3ddb0437	0.10694163
248	0x3db4c5ee	0.088268146
249	0xbd6d3885	-0.05791523
250	0x3c66e5eb	0.014092903
251	0xbb943ab8	-0.0045236014
252	0x3c51681f	0.012781172
253	0xbe1dd1b0	-0.1541202
254	0xbcc49e22	-0.024001185
255	0x3d32d753	0.04366238
