Project/Assets/MyProject/Train/Chaser/CVR 4/Models/ver 2/PoliceBrain.onnx (onnx, 532910 bytes, 6 tensors)

action_model._discrete_distribution.branches.0.bias f4 [7]
0	0xbadc8147	-0.0016823196
1	0x3c6ee68d	0.014581335
2	0x3cc88010	0.024475127
3	0x3c70cf35	0.0146978395
4	0xbcba848a	-0.022768278
5	0x3ceea8c0	0.0291332
6	0xbbf98771	-0.007615023

action_model._discrete_distribution.branches.0.weight f4 [7, 256]
0	0x3da0088d	0.07814131
1	0xbd191ddd	-0.037381995
2	0x3d7bccd0	0.06147462
3	0xbc13cabb	-0.009020503
4	0x3bf16136	0.007366325
5	0xbc1c2632	-0.009530591
6	0xbd32ae41	-0.043623213
7	0x3c23fa51	0.010008411
8	0xbcd4f124	-0.025993891
9	0x3c61f4b8	0.013791256
10	0xbbcf9fce	-0.006336189
11	0xba9cc517	-0.0011960593
12	0x3d2d254d	0.0422719
13	0xbd1abc12	-0.037777014
14	0xbc52c25f	-0.0128637245
15	0x3d5a710f	0.053330477
16	0x3d3d9bf1	0.046291295
17	0xb9f87352	-0.00047388166
18	0xbbb135c4	-0.0054080207
19	0xbc6687de	-0.014070479
20	0xbd8125ea	-0.0630606
21	0x3d925a6c	0.07146153
22	0x3b6908b1	0.003555816
23	0xbba27480	-0.0049577355
24	0xbdbc0e07	-0.09182363
25	0x3d6bdbe8	0.057582766
26	0xbd6e8fab	-0.05824248
27	0xbba1dd08	-0.004939679
28	0xbcb97e06	-0.0226431
29	0x3c8d9f19	0.017287778
30	0x3d237e5c	0.039915428
31	0x39e12b59	0.0004294764
32	0x3c9201d8	0.017823145
33	0xbcb6c864	-0.02231235
34	0xbbfea81e	-0.007771506
35	0xbcb9453e	-0.022616025
36	0xbd96097e	-0.07326029
37	0x3d045285	0.03230526
38	0xbd8c09da	-0.068378165
39	0xbc30e584	-0.010796908
40	0xbd14ab55	-0.036296207
41	0x3d45ac4f	0.04826003
42	0xbcf3ba90	-0.029752046
43	0xbd622adc	-0.055216655
44	0xbd477493	-0.04869516
45	0xbd8a8aff	-0.06764793
46	0x3c514fbc	0.012775358
47	0xbda5ca2c	-0.08095202
48	0x3c8e4cf2	0.017370675
49	0xbbbb9c8f	-0.0057254503
50	0xbd103ce3	-0.035214316
51	0x3a3cbfec	0.00072002294
52	0x3c8b3ee4	0.016997762
53	0x3c324985	0.010881786
54	0x3a1e0ace	0.00060288317
55	0xbd278aa4	-0.040903702
56	0x3c72be80	0.014815927
57	0x3d23698b	0.039895575
58	0xbccbea3a	-0.024891961
59	0x3d260864	0.040535346
60	0xbd5aa1f8	-0.05337712
61	0xbc7ac148	-0.015304871
62	0x3d8d1088	0.06887919
63	0x3c4c7a08	0.012480266
64	0x3d654222	0.055971272
65	0xbc3bfda8	-0.011474051
66	0x3d2ebb5e	0.042659156
67	0xbd1204ca	-0.0356491
68	0xbccb00dd	-0.024780685
69	0xbd1ee48d	-0.03879218
70	0x3d799335	0.060931403
71	0xbc026bd7	-0.007960281
72	0x3d3e8be8	0.046520144
73	0xbd40cf04	-0.047072425
74	0xbd0c8ffd	-0.034317005
75	0x3d2a3aff	0.04156017
76	0xbc2fbf14	-0.010726709
77	0x3b95f73a	0.004576591
78	0x3cba74d4	0.022760786
79	0x3c7391f5	0.014866342
80	0x3d8b35d1	0.06797374
81	0xbd884bce	-0.066550836
82	0xbca4f4a0	-0.020136178
83	0x3c933eac	0.01797422
84	0xbcd1ecf6	-0.025625687
85	0xbb358673	-0.0027698546
86	0x3b9f7e6c	0.0048673656
87	0x3d80911b	0.06277677
88	0x3b703520	0.0036652759
89	0x3c311309	0.010807761
90	0xbd93fd08	-0.07225996
91	0xbd41f2fd	-0.047350872
92	0x3c22ed97	0.009944341
93	0x3d5d3b96	0.054011904
94	0xbd3a8580	-0.04553747
95	0xbd126ce6	-0.035748385
96	0xbd1c916c	-0.038224623
97	0x3d413e70	0.047178686
98	0x3cea37b1	0.028591009
99	0xbd93b4b0	-0.07212198
100	0xbd3bf3ac	-0.04588668
101	0x3a945987	0.0011318185
102	0xbcb05ebb	-0.021529546
103	0xbd8bc48e	-0.06824599
104	0x3c8be92f	0.017078964
105	0xbdc3cc7c	-0.09560487
106	0xbd6d5582	-0.057942875
107	0x3cb8f068	0.022575572
108	0x3d9b1541	0.07572413
109	0x3d8a8478	0.06763548
110	0x3d901622	0.070354715
111	0x3cc3f02d	0.023918236
112	0x3cd87b98	0.026426122
113	0x3cd105b2	0.025515411
114	0xbde59e30	-0.112118125
115	0x3ce36288	0.027756944
116	0xbd042891	-0.03226525
117	0xbcc1897b	-0.023625126
118	0x3bc78f5d	0.0060900883
119	0xbd536b23	-0.051615845
120	0x3d27ab73	0.04093499
121	0x3cf17c9c	0.029478364
122	0x3ce7fcd9	0.02831881
123	0x3c6285f2	0.01382588
124	0xbda7ccd3	-0.08193364
125	0x3d0a0011	0.03369147
126	0xbc9d6170	-0.0192115
127	0xbd4950a2	-0.049149163
128	0x3d55e30a	0.052218474
129	0xbc9c48bf	-0.019077657
130	0x3b013017	0.0019712502
131	0xbcd55554	-0.026041664
132	0x3c5af584	0.0133642
133	0xbb9bbf69	-0.0047530425
134	0xbd3a4a27	-0.045480873
135	0x3d6b2aab	0.05741374
136	0xbaf465fc	-0.0018646116
137	0xbc13542f	-0.008992239
138	0x3cc808d7	0.024418278
139	0x3cedea68	0.029042438
140	0xbd7c1179	-0.0615401
141	0xbd88bf5a	-0.066771224
142	0x3d517fae	0.051147155
143	0xbd1bff05	-0.038085002
144	0x3d14ff40	0.036376238
145	0xbc8f9d66	-0.017531108
146	0x3cf192db	0.029488971
147	0x3bcebaea	0.006308903
148	0x3cb2b4e2	0.021814767
149	0x3c595bf3	0.013266551
150	0x3d01e790	0.031714976
151	0x3ba46ae6	0.005017626
152	0xbb17f251	-0.0023185203
153	0xbbad3f80	-0.005287111
154	0xbbe10a83	-0.006867708
155	0x3d84cce3	0.064843915
156	0xbce5eb23	-0.028066223
157	0xbd287aad	-0.041132618
158	0x3c84aee9	0.016196685
159	0x3d516468	0.051121145
160	0xbd29169c	-0.041281328
161	0x3d27b08d	0.040939856
162	0xbcb9da27	-0.022687031
163	0x3d7c373b	0.06157611
164	0x3c518eb1	0.012790368
165	0x3b5473ef	0.0032417735
166	0xbd6780a3	-0.056519162
167	0x3c2c1663	0.010503384
168	0xbd55f67d	-0.052237023
169	0xbd867bc4	-0.06566575
170	0xbd308996	-0.043099962
171	0x3d6933f4	0.056934312
172	0x3d469e81	0.048491005
173	0x3d0e0884	0.03467609
174	0xbde56d91	-0.11202539
175	0xbcc3fe49	-0.023924964
176	0xbbe02d98	-0.0068413727
177	0x3d1afc26	0.037838124
178	0xbcb37d5e	-0.021910366
179	0xbba2671a	-0.0049561383
180	0xbb8a1110	-0.00421346
181	0xbbb16aa3	-0.0054143234
182	0x3bed9306	0.0072501926
183	0xbc80f20f	-0.015740423
184	0x3ce88b13	0.028386628
185	0x3cb43731	0.021998974
186	0xbc225bbd	-0.009909567
187	0x3d25fa5a	0.040521957
188	0x3d867ad3	0.065663956
189	0x3c710b29	0.014712133
190	0x3d427ca9	0.047482166
191	0xbca43890	-0.020046502
192	0x3c1b1aa4	0.009466801
193	0xbd308991	-0.043099944
194	0xbd9e8813	-0.07740798
195	0xbd97b4b2	-0.07407512
196	0x3d0be9e8	0.034158617
197	0x3d3dd19b	0.046342473
198	0x3c2c256c	0.010506969
199	0xbd907b4f	-0.07054769
200	0x3c13c5f7	0.009019366
201	0xbd6fb0fa	-0.058518387
202	0x3cb6c9a4	0.022312947
203	0x3bbdb80c	0.0057897624
204	0x3bb6da95	0.005580256
205	0x3b054a4d	0.0020338476
206	0xbda1b391	-0.07895578
207	0xbd030e57	-0.031996097
208	0xbd0b54af	-0.034016307
209	0x3ca3762a	0.019953806
210	0x3ca8c39b	0.020601084
211	0x3c0afbe5	0.008482908
212	0xbbf7cdbb	-0.007562367
213	0x3a91bd36	0.0011119011
214	0xbd9df892	-0.07713427
215	0xbcde1ce9	-0.027113395
216	0x3b23b4a9	0.0024979508
217	0x3b1cc619	0.0023921786
218	0x3ce15ddd	0.027510578
219	0xbaf79ca2	-0.0018891285
220	0x3d9439e6	0.07237606
221	0x3d2afbe7	0.04174414
222	0x3ca65102	0.0203023
223	0x3d668f8c	0.05628924
224	0xbd2b2643	-0.041784536
225	0xbd106114	-0.03524883
226	0xbd964e1f	-0.07339119
227	0x3c319eed	0.0108411135
228	0xbd8e160d	-0.069377996
229	0x3c2872a9	0.010281243
230	0x3b1e7d2e	0.00241835
231	0x3da74d29	0.08169014
232	0xbc85c827	-0.016330792
233	0x3cb1e399	0.021714972
234	0x3b125f27	0.0022334547
235	0xbd06fee2	-0.03295792
236	0x3c0c9246	0.008579796
237	0xbd36e2d3	-0.04464991
238	0xbd832993	-0.06404414
239	0xbcfd55a2	-0.030924622
240	0xbca5ca19	-0.02023797
241	0x3c0ead2f	0.008708282
242	0xbe15cfb9	-0.14630021
243	0x3c82bbb9	0.015958654
244	0xbd0a0ca7	-0.033703472
245	0xbd73c632	-0.059515186
246	0xbd041c28	-0.032253414
247	0xbc8689c9	-0.016423123
248	0x3c613c71	0.0137473205
249	0x3d433989	0.04766229
250	0xbdc68d50	-0.09694922
251	0xbbd3d53c	-0.0064646285
252	0xbd8ddc95	-0.06926838
253	0xbd5a2457	-0.053257313
254	0x3935b643	0.00017329403
255	0xbcfe9dcd	-0.031081105

network_body.linear_encoder.seq_layers.0.bias f4 [256]
0	0xbd1fbaf1	-0.03899664
1	0x3be92810	0.0071153715
2	0xbced8a70	-0.028996676
3	0xbc719df4	-0.014747132
4	0xbd9e014e	-0.077150926
5	0x3b28543e	0.0025684978
6	0x3cfc7d0c	0.030821346
7	0x3b911c4a	0.004428421
8	0x3bd8e2c9	0.006618832
9	0xbccf7382	-0.025323633
10	0x3c985f11	0.018600019
11	0x3d1d2b48	0.038371354
12	0xbbc3bea2	-0.005973653
13	0x3c363e7d	0.011123297
14	0x3d154a7c	0.036447987
15	0xbcd6f7a8	-0.026241139
16	0xbb1b5a01	-0.002370477
17	0x3d123ef5	0.03570457
18	0x39c6249b	0.00037792776
19	0x3c3b2860	0.0114232
20	0xbdb9c013	-0.090698384
21	0x3cb87a13	0.022519147
22	0xbbff5ae7	-0.007792819
23	0x3c706a5e	0.014673797
24	0xbbd33109	-0.0064450544
25	0x3cd3e01b	0.025863698
26	0x3cb2e488	0.021837488
27	0xbc9f32a7	-0.019433333
28	0xbb91ff8c	-0.0044555124
29	0x3b359edf	0.0027713103
30	0x3d0eb5b9	0.034841273
31	0x3cbb2934	0.022846796
32	0x3d16c18e	0.036805682
33	0xbc38094a	-0.011232683
34	0x3cba16bf	0.022715924
35	0x3d0c8765	0.03430881
36	0x3bee84c6	0.0072790114
37	0x393bdd01	0.0001791604
38	0xbce75be4	-0.028242059
39	0xbcbb16c4	-0.022838004
40	0x3b9f02e3	0.004852639
41	0xbb881bc6	-0.0041537015
42	0xbcd7e0db	-0.026352337
43	0xbcbb2ec3	-0.022849446
44	0x3b817199	0.0039503095
45	0xb8bbed3a	-8.961042e-05
46	0xbd5f8eb8	-0.054579467
47	0x3d04206b	0.03225748
48	0x3d49499c	0.049142465
49	0x389d7c13	7.509454e-05
50	0xbbd5ab58	-0.00652067
51	0x3c11773f	0.008878528
52	0x3c9f851e	0.019472655
53	0xbae1adf9	-0.0017217986
54	0x3d7abab5	0.061213214
55	0x3c15dc8c	0.009146821
56	0xba90f36b	-0.0011058872
57	0x3ce58d1a	0.028021384
58	0xbd8d8ccf	-0.06911623
59	0xbd256944	-0.040383592
60	0xbc9478d2	-0.018124018
61	0xbc6f1304	-0.014591936
62	0x3c94ab26	0.018148016
63	0x3c3b52eb	0.011433343
64	0x3d3aea88	0.045633823
65	0xbd22710d	-0.039658595
66	0xbd019510	-0.031636298
67	0xbcb3b598	-0.021937177
68	0x3d17248c	0.03690009
69	0x395f2e55	0.00021284197
70	0xbc91717e	-0.017754313
71	0xbb21027c	-0.0024568131
72	0xbca70811	-0.020389589
73	0x3baf5305	0.005350473
74	0xbd5204f7	-0.051274266
75	0xbdb61206	-0.088901564
76	0x3c305e86	0.010764724
77	0x3a3eb0fb	0.0007274297
78	0xbd9b560c	-0.075847715
79	0x3d224ef2	0.03962607
80	0x3c939eb0	0.018020004
81	0x3cc4c556	0.024019878
82	0xbcb21146	-0.021736752
83	0xbd05b8a7	-0.0326468
84	0xbcb42188	-0.021988645
85	0x3d0f99b8	0.035058707
86	0x3cea85e9	0.028628306
87	0xbc24693e	-0.010034857
88	0x3badbfbf	0.005302399
89	0xbac042f9	-0.0014668397
90	0x3c214de5	0.009845232
91	0x3c5c4c2d	0.013445896
92	0x3ba42e3f	0.005010396
93	0xb9d5c5e0	-0.00040773954
94	0xbb9d6cca	-0.0048042284
95	0xbd3a101e	-0.045425527
96	0xbcc36b58	-0.023854896
97	0x3cdc5785	0.026897201
98	0xbc062dda	-0.008189643
99	0x3da2a31c	0.07941267
100	0xbc888fd4	-0.016670145
101	0xbccab7a9	-0.02474578
102	0x3d46d5a3	0.048543584
103	0xbc31c697	-0.01085057
104	0x3c906530	0.017626375
105	0xbc5d665d	-0.013513175
106	0x3c373172	0.011181222
107	0x3caf8dcf	0.021429924
108	0xbcdebdde	-0.027190145
109	0xbc96a2e0	-0.018388212
110	0x3b9ae4d0	0.0047269836
111	0xbb56a618	-0.0032752808
112	0x3d6ab173	0.057298135
113	0xbccde9d2	-0.025135908
114	0xbac6b8c6	-0.0015161268
115	0x3d10dd52	0.035367317
116	0x3bbc1ba7	0.005740601
117	0x3d155420	0.03645718
118	0x3d4a147d	0.049335945
119	0xb9f3a39b	-0.00046470467
120	0x3bda869f	0.00666888
121	0xbcd3042d	-0.025758827
122	0xbccd4fa9	-0.025062399
123	0x3d5fc9af	0.0546357
124	0xbc03ce45	-0.008044784
125	0x3c92aa1b	0.017903378
126	0x3c03506d	0.0080147805
127	0x3b318d4e	0.002709228
128	0x3c991675	0.018687466
129	0xbcc339a2	-0.023831192
130	0xbbb0fc1f	-0.005401149
131	0x3acdab7c	0.0015691365
132	0x3c8195f6	0.015818577
133	0xbd37c25e	-0.044863097
134	0xbcba34a2	-0.022730175
135	0x3c5fa81a	0.013650918
136	0x3b8498a2	0.0040465156
137	0xbc3de168	-0.011589386
138	0xbc4d5a36	-0.012533715
139	0x3b0c4a7d	0.0021406703
140	0xbcdc78ed	-0.02691313
141	0xbcc8d0eb	-0.024513682
142	0x3cee75ba	0.02910887
143	0xbc818f71	-0.015815469
144	0x3cbf39e7	0.02334304
145	0x3ba2e7a8	0.0049714632
146	0xbb5d8568	-0.003380144
147	0xbcf332ea	-0.029687364
148	0x3d2188df	0.03943717
149	0xbbc92e57	-0.0061395573
150	0xbc151fb7	-0.0091018
151	0x3c8e408f	0.017364768
152	0xbd8e3166	-0.06943016
153	0x3d113d84	0.035459056
154	0x3a2ea62b	0.0006662334
155	0xbc0576f1	-0.008146034
156	0x3d19dbf5	0.037563283
157	0xb7652639	-1.3658363e-05
158	0xbc667e0f	-0.014068141
159	0x3d3e5bdd	0.046474326
160	0x3a12cd54	0.0005600054
161	0x3c5c4adc	0.013445582
162	0x3bfa720d	0.0076429904
163	0xbc914c6b	-0.017736634
164	0xbcca4e10	-0.024695426
165	0xbcdd6450	-0.027025372
166	0xbc5f518e	-0.013630284
167	0xbce978bd	-0.028499955
168	0xbcd87378	-0.026422247
169	0xbcbc0be4	-0.022954889
170	0xbcdca0dd	-0.026932174
171	0xbc7f0792	-0.01556577
172	0x3d23f8c0	0.04003215
173	0x3c237f64	0.009979103
174	0xbd0182cc	-0.03161888
175	0xbc98ce09	-0.018652933
176	0xbb7b10b3	-0.0038309514
177	0xbc908176	-0.017639857
178	0x3ca3eae5	0.020009467
179	0x3aa64233	0.0012684524
180	0x3a8f92a2	0.0010953734
181	0xbcd38d5a	-0.025824238
182	0x3be1610c	0.006878024
183	0xbcbae987	-0.022816433
184	0xbb232dce	-0.0024899128
185	0xbcb52756	-0.022113483
186	0x3c82d887	0.015972389
187	0xbbca092e	-0.006165645
188	0xbd08a299	-0.03335819
189	0xbdd403ca	-0.10352285
190	0x3cbf27ba	0.023334373
191	0x3b097bf0	0.0020978414
192	0x3d004546	0.031316064
193	0x3d50a05e	0.050934188
194	0xbc8cd3c4	-0.017190821
195	0xbd1e81c2	-0.038697965
196	0xbd50887b	-0.050911408
197	0x3d719905	0.05898382
198	0x3d8b7442	0.06809284
199	0xbbab2b5d	-0.005223675
200	0xbcd7b831	-0.026332946
201	0xbc1b59eb	-0.009481887
202	0x3c9c8c97	0.019110007
203	0x3c2c534b	0.0105179055
204	0xbc8dcc78	-0.017309412
205	0xbd91f86b	-0.0712746
206	0xbc40d258	-0.0117689
207	0x3d4464fe	0.047947876
208	0xbc52b8db	-0.012861456
209	0xbc60155d	-0.013676968
210	0x3ae703f5	0.0017625081
211	0x39b82e72	0.0003512982
212	0xbd0f32d8	-0.034960598
213	0x3ca03698	0.019557282
214	0x3d7480bf	0.059693094
215	0xbd2e5cfd	-0.04256915
216	0x3a8f5e06	0.0010938055
217	0x3c938f51	0.018012675
218	0xbc85f326	-0.016351294
219	0xbc80719b	-0.015679171
220	0xbc274ccd	-0.010211182
221	0xbc46d867	-0.012136555
222	0x3d392d8b	0.04520945
223	0xbc7c0401	-0.015381814
224	0xbceb7b22	-0.028745238
225	0xbcb04d1c	-0.021521144
226	0x3b27fc76	0.0025632656
227	0xbaa9ccf9	-0.0012954763
228	0xbac63cff	-0.001512438
229	0x3cc6e719	0.024280118
230	0xbcff5746	-0.031169545
231	0xbc154a43	-0.009111944
232	0xbd10207b	-0.035187226
233	0xbb9d675c	-0.004803581
234	0x3cbe5b23	0.023236817
235	0xbd15792b	-0.036492508
236	0x3c60ce69	0.013721087
237	0xbc382be3	-0.011240932
238	0x3c862fc5	0.0163802
239	0xbb4ebe68	-0.0031546596
240	0xbcfe5008	-0.031044021
241	0xbc021bd1	-0.007941202
242	0xbda60308	-0.08106047
243	0xbc0aba0d	-0.0084672095
244	0xbd5f26d4	-0.05448039
245	0x3bab4632	0.005226874
246	0x3c5f18de	0.013616769
247	0x3d69775e	0.056998603
248	0xbc427701	-0.011869193
249	0xbd238661	-0.039923076
250	0x3d8378af	0.06419503
251	0x3d141d15	0.036160547
252	0x3ce75d6f	0.028242795
253	0x3c4dc39f	0.012558847
254	0xbcebc875	-0.028782109
255	0xbc821b14	-0.015882052

network_body.linear_encoder.seq_layers.0.weight f4 [256, 253]
0	0x3dddd674	0.10831919
1	0xbc41bad2	-0.011824327
2	0x3d644a77	0.055735078
3	0xbd5f8242	-0.054567583
4	0x3dd74458	0.105110824
5	0x3d420a5d	0.047373164
6	0xbd847cbf	-0.06469106
7	0xbd602c51	-0.054729763
8	0xbd54d3bb	-0.051959734
9	0xbb277924	-0.0025554383
10	0xbd818675	-0.06324474
11	0x3d93135b	0.07181426
12	0x3c96d382	0.018411402
13	0xba1e28f3	-0.00060333236
14	0xbd82f1b5	-0.06393758
15	0xba90bc8a	-0.0011042517
16	0x3d020ec2	0.031752355
17	0xbe32bcdc	-0.17454857
18	0xbd0b171c	-0.033957586
19	0x3c9f5e67	0.019454194
20	0xbe01cda7	-0.12676106
21	0xbe094ff0	-0.134094
22	0xbd810f2f	-0.06301724
23	0xbd5337d8	-0.05156693
24	0xbd938a0e	-0.07204066
25	0xbd853d94	-0.06505886
26	0x3de3c6fa	0.11121936
27	0xbc4ae835	-0.012384464
28	0xbd38c2a4	-0.0451075
29	0xbdca9422	-0.09891535
30	0xbdb4ac8e	-0.08821975
31	0x3d86c677	0.06580823
32	0x3d1c91d9	0.03822503
33	0xbbb3360d	-0.00546909
34	0xbe00e12e	-0.12585899
35	0xbd5cdaa4	-0.05391945
36	0xbd0c8f65	-0.03431644
37	0x3d55f5c1	0.052236322
38	0x3c8d7cee	0.017271485
39	0xbe08d418	-0.13362157
40	0xbc81cf23	-0.01584584
41	0x3c6b8601	0.014375211
42	0x3c755c20	0.014975578
43	0x3d2b8856	0.041878067
44	0x3e185acf	0.1487839
45	0x3d273d7a	0.040830113
46	0xbe0766a8	-0.13222754
47	0xbcf933d2	-0.030420218
48	0x3d3755a5	0.04475941
49	0x3c8fd5e4	0.017558046
50	0x3cbb85ef	0.022891013
51	0xbd9eb902	-0.07750131
52	0xbde76eae	-0.11300407
53	0x3d4a175e	0.04933869
54	0x3d52e136	0.05148431
55	0x3ccec004	0.025238045
56	0xbd64f839	-0.055900786
57	0xbc6f87cd	-0.01461978
58	0x3d3afaf5	0.045649488
59	0xbd17c37f	-0.037051674
60	0x3d3c5d70	0.045987546
61	0xbe0988e1	-0.13431121
62	0x3c99cade	0.018773492
63	0xbd1df234	-0.03856106
64	0x3bcc34df	0.0062318887
65	0xbd90cbb3	-0.070701025
66	0xbd10b600	-0.03532982
67	0xbd836ac1	-0.06416846
68	0xbd7594b5	-0.05995627
69	0xbc634b7a	-0.0138729755
70	0x3dfdbb5b	0.12389251
71	0xbdc0d6e6	-0.094159886
72	0x3d931b51	0.071829446
73	0x3d16fdd9	0.03686318
74	0xbce6eeae	-0.028189983
75	0x3d1f7de7	0.03893843
76	0x3c2ee986	0.0106757935
77	0xbd47406a	-0.048645414
78	0x3cd623a3	0.02614004
79	0x3cd22918	0.02565436
80	0xbb24c261	-0.0025140273
81	0xbd88e98f	-0.06685173
82	0x3de51999	0.11186523
83	0x3dd00a9d	0.10158274
84	0x3d34c0c0	0.044129133
85	0xbd95cf63	-0.073149465
86	0x3d5e2637	0.054235663
87	0xbc8038e8	-0.015652135
88	0x3dad587e	0.08464144
89	0xbdc98979	-0.09840674
90	0x3daa09f0	0.08302677
91	0x3d435ec5	0.0476978
92	0x3b2ff4a4	0.0026848698
93	0xbc5149af	-0.012773915
94	0x3dccf4c1	0.100076206
95	0xbdb784c9	-0.08960874
96	0xbd4dd201	-0.050249103
97	0x3e0d798c	0.13815898
98	0x3d0a85b0	0.0338189
99	0xbda65b81	-0.08122922
100	0xbd9f073d	-0.077650525
101	0x3dd8044a	0.10547693
102	0x3def36d0	0.116803765
103	0x3dc22ee7	0.09481602
104	0x3d1949ac	0.037423775
105	0x3da9d3b8	0.08292335
106	0x3eb029ef	0.34406993
107	0xbe252eb2	-0.16131094
108	0xbe1334aa	-0.14375558
109	0x3bc0511c	0.005869044
110	0x3e57bac6	0.21067342
111	0xbd890471	-0.066903
112	0xbdcc49e4	-0.09975031
113	0x3dcf97ba	0.101363614
114	0x3e46f83f	0.19430636
115	0xbd9f6537	-0.07782977
116	0xbe07e682	-0.13271526
117	0xba2a06ed	-0.00064860174
118	0x3da17f5e	0.078856215
119	0xbc825b4f	-0.01591268
120	0x3b1a5a18	0.0023552235
121	0xbda726d4	-0.08161703
122	0x3e8370fc	0.25672138
123	0x3d5e2a1c	0.054239377
124	0xbe1dd77c	-0.15414232
125	0x3e153f7c	0.14574999
126	0x3e8deb85	0.2771875
127	0xbcd93289	-0.026513355
128	0x3e15de9e	0.14635703
129	0x3d8f9f30	0.070127845
130	0x3de24b5c	0.1104953
131	0xbc75b698	-0.014997147
132	0xbd178b1b	-0.036997896
133	0x3deb211d	0.11480925
134	0xbe0025a4	-0.12514359
135	0xbd1454d5	-0.036213715
136	0xbd24a1d7	-0.040193405
137	0xbd52dc85	-0.051479835
138	0x3de1aac5	0.110189
139	0xbdb8a5d7	-0.090160064
140	0xbe047bf0	-0.12937903
141	0x3c2623ba	0.010140354
142	0xbe3f27a9	-0.18667473
143	0xbdbbcbad	-0.091697074
144	0xbcbaabca	-0.022786994
145	0xbcacd8eb	-0.021099528
146	0xbd2af44c	-0.041736886
147	0xbdb3855d	-0.087656714
148	0xbda258e4	-0.07927111
149	0x3dad6343	0.08466198
150	0xbdb73cd7	-0.08947151
151	0xbe1656d7	-0.14681564
152	0x3d80dafa	0.062917665
153	0xbc8063a7	-0.015672518
154	0x3bb51d03	0.00552714
155	0xbe3c3176	-0.18378243
156	0xbe0b2b70	-0.13590789
157	0xbdee0e30	-0.116238
158	0xbda0872d	-0.07838283
159	0xbdaabcad	-0.08336768
160	0xbd446ae6	-0.04795351
161	0xbd72fb96	-0.059321962
162	0xbdc915a9	-0.098185845
163	0xbd8e2c96	-0.06942098
164	0xbe0085a3	-0.12550978
165	0xbd15288d	-0.036415625
166	0xbe34116c	-0.17584771
167	0xbc164937	-0.009172729
168	0xbd4458f8	-0.04793641
169	0xbc86e47e	-0.016466375
170	0xbc83d877	-0.01609443
171	0x3c396885	0.011316423
172	0xbdb49cfc	-0.08819005
173	0xbd144a50	-0.036203682
174	0xbdaa904f	-0.08328306
175	0x3d82ca51	0.06386245
176	0x3cb32e34	0.021872617
177	0xbc9ba23a	-0.018998254
178	0x3d28f5a8	0.0412499
179	0xbd8e4d34	-0.06948319
180	0x3b228e38	0.0024804007
181	0x3c67b13f	0.01414138
182	0xbd90f562	-0.07078053
183	0x3c90272d	0.017596805
184	0xbdcd4295	-0.10022465
185	0xbd6a2fd2	-0.05717451
186	0x3e04a028	0.1295172
187	0x3d333ab5	0.04375716
188	0xbc6e2162	-0.014534326
189	0x3ccd33c0	0.02504909
190	0x3d60802b	0.05480973
191	0xbd2495a3	-0.040181767
192	0xbe0a49e8	-0.13504755
193	0xbdebeb95	-0.11519543
194	0x3d764fd9	0.060134742
195	0x3d576684	0.052588
196	0xbdaca02e	-0.08428989
197	0xbd8608e4	-0.065446645
198	0x3d1196cb	0.035544198
199	0x3d727d24	0.059201375
200	0xbd95f362	-0.07321812
201	0xbd390b80	-0.045176983
202	0x3d5095f5	0.05092426
203	0xbc9eeea0	-0.019400895
204	0x3c90da66	0.017682265
205	0xbcc8df10	-0.024520427
206	0xbde2ef26	-0.1108077
207	0x3d953ba2	0.07286765
208	0x3cb653c1	0.022256734
209	0xbe1413e4	-0.14460713
210	0x3d184295	0.037172873
211	0x3db75608	0.08951956
212	0x3ca8c6c4	0.020602591
213	0xbdff8413	-0.12476363
214	0xbcf01db2	-0.029311035
215	0xbd476a16	-0.048685156
216	0xbc07a836	-0.008279851
217	0xbdc2d0c7	-0.09512477
218	0x3dacef07	0.08444028
219	0xbd09acfe	-0.033612244
220	0x3de59e12	0.1121179
221	0xbdf8371a	-0.12119885
222	0x3dacca85	0.08437065
223	0xbd42d2d4	-0.047564343
224	0xbd0d3c78	-0.034481496
225	0x3dba77b4	0.09104863
226	0x3e18fb84	0.14939696
227	0x3d74673b	0.05966876
228	0xbc90b154	-0.017662682
229	0x3cb47153	0.022026693
230	0x3d1cd5f3	0.038289975
231	0xbc19c1bd	-0.00938457
232	0xbd204134	-0.039124683
233	0xbd63a852	-0.055580445
234	0x3d2873e9	0.041126166
235	0x3d3cd370	0.04610008
236	0xbddfa593	-0.10920253
237	0x3d3d4832	0.04621143
238	0x3d46f908	0.04857734
239	0x3cac48ce	0.02103081
240	0xbdf27ad9	-0.118398376
241	0x3d5ef908	0.054436713
242	0x3d36b936	0.044610225
243	0x3c25fddf	0.010131328
244	0xbdacbd85	-0.084345855
245	0x3c300160	0.010742515
246	0x3d17d5b4	0.037069038
247	0xbdf336b2	-0.11875667
248	0xbca02020	-0.019546568
249	0x3da1ee1d	0.07906745
250	0x3d4fc054	0.050720528
251	0x3dd551aa	0.10415967
252	0xbddc9610	-0.1077081
253	0xbc3fcd55	-0.01170667
254	0xbd76d87c	-0.06026505
255	0xbd09e1b3	-0.03366251

network_body.linear_encoder.seq_layers.2.bias f4 [256]
0	0x3c991f34	0.018691637
1	0xbc9e2783	-0.01930595
2	0xbd1b7581	-0.037953857
3	0xbd41a60a	-0.047277488
4	0xbce42cac	-0.027853332
5	0xbd7dcaeb	-0.061961096
6	0xbcdf3557	-0.027247114
7	0xbd90bf59	-0.07067747
8	0xbc98f8ef	-0.018673388
9	0x3c525958	0.012838684
10	0xbbeab6a1	-0.0071628843
11	0xbce2b10d	-0.027672315
12	0x3cb06fd7	0.021537704
13	0x3b14dacc	0.002271342
14	0xbd23ac4e	-0.039959244
15	0x3d1027aa	0.035194077
16	0x3b9f65b1	0.0048644175
17	0xbd86f10a	-0.06588943
18	0xbca1bedc	-0.01974433
19	0xbdef5476	-0.116860315
20	0xbccf7adf	-0.025327144
21	0x3ccdd710	0.025126964
22	0xbc9bafe3	-0.019004768
23	0xbd069b80	-0.03286314
24	0xbca30ab3	-0.019902563
25	0xbd14b6bd	-0.036307085
26	0xbcc98acb	-0.024602314
27	0xbd914629	-0.0709346
28	0xbc8a735a	-0.016900707
29	0xbd0a2f05	-0.033736248
30	0xbd999f1c	-0.07501051
31	0xbc3538a9	-0.011060872
32	0xbd25a129	-0.040436897
33	0xbd861914	-0.06547752
34	0xbd13fd66	-0.03613033
35	0x3c686ef9	0.014186614
36	0xbd63eaea	-0.055643953
37	0x3c38a9d1	0.011270956
38	0x3c089ce3	0.008338186
39	0xbd83100b	-0.06399544
40	0xbd61847e	-0.055057995
41	0x3d011944	0.031518236
42	0xbd0be7ac	-0.034156486
43	0xbcb91c97	-0.02259664
44	0x3b64b604	0.0034898529
45	0x3b958bf5	0.0045638033
46	0xbd9b9e54	-0.07598558
47	0xbc581275	-0.013187994
48	0xbcd811fc	-0.026375763
49	0xbd8aa535	-0.06769792
50	0xbb930e40	-0.0044877827
51	0xbd41cbe4	-0.047313586
52	0xbd5fcf02	-0.054640777
53	0xbc9e5857	-0.019329233
54	0xbd6505a2	-0.055913575
55	0xbd1e1797	-0.038596716
56	0xbc454650	-0.01204069
57	0xbc5c47f9	-0.013444894
58	0xbd45ec62	-0.048321135
59	0x3cd903d0	0.026491076
60	0xbc0b7089	-0.008510717
61	0x3c0072a7	0.007839835
62	0x3afce5ed	0.0019294597
63	0x3c784b79	0.015154713
64	0xbd327268	-0.043566138
65	0xbd025844	-0.031822458
66	0xbca82c0b	-0.020528814
67	0xbcb981d9	-0.022644924
68	0xbd1d9747	-0.038474347
69	0xbc97df10	-0.018538982
70	0xbd5d4719	-0.054022882
71	0xbc4be4b4	-0.012444664
72	0xbbf588db	-0.007493121
73	0xbd44ef2f	-0.048079666
74	0xbd3626f0	-0.044470727
75	0xbd7d85e4	-0.061895266
76	0xbd903c85	-0.07042793
77	0xbcbdbdf3	-0.023161864
78	0x3d0ac7b9	0.033881877
79	0x3d838145	0.064211406
80	0xbc400cac	-0.011721771
81	0xbd1ba672	-0.03800053
82	0xbcb4507f	-0.02201104
83	0xbd4912d5	-0.049090225
84	0xbbc358dc	-0.0059615206
85	0xbce2298f	-0.027607707
86	0xbd947823	-0.07249477
87	0x3bfdbea0	0.0077436715
88	0xbdc49a21	-0.0959971
89	0xbd61a4f2	-0.055088945
90	0x3d088f8e	0.03334003
91	0x38d7ccad	0.00010290123
92	0xbb763ab0	-0.0037571602
93	0xbbff52d4	-0.0077918563
94	0xbd96dcf2	-0.07366361
95	0xbd0c6d3f	-0.034283873
96	0xbcb892ac	-0.022530876
97	0x3c7d5209	0.015461453
98	0xbd518650	-0.05115348
99	0x3c1e225b	0.009651746
100	0x3c90eaf9	0.017690169
101	0xbc805818	-0.015667006
102	0xbdfb3a0b	-0.1226693
103	0xbd464ddb	-0.048414093
104	0xbd22bce4	-0.03973092
105	0xbc702044	-0.01465613
106	0xbcf4c7f1	-0.029880496
107	0xbd06d58b	-0.032918494
108	0xbce55911	-0.027996572
109	0xbd3c4771	-0.04596657
110	0x3d070c54	0.03297074
111	0xbcb9ba97	-0.02267198
112	0xbcebeb73	-0.028798794
113	0x3b82f7eb	0.0039968393
114	0xbbca0a6e	-0.006165794
115	0xbd916043	-0.070984386
116	0xbcd531ac	-0.026024662
117	0xbcb8a028	-0.022537306
118	0xbd6bda81	-0.05758143
119	0xbd468da0	-0.048474908
120	0xbcc8bab1	-0.024503084
121	0x3bab3182	0.0052244077
122	0xbd0d7944	-0.034539476
123	0xbd862b32	-0.065512076
124	0x3c22af10	0.009929433
125	0xbbad1c90	-0.005282946
126	0xbd5ac254	-0.053407982
127	0x3a8ce5a9	0.0010749596
128	0xba4d830f	-0.00078396586
129	0xbccce61c	-0.025012068
130	0xbc6f2fe4	-0.01459882
131	0xbd773f4b	-0.060363095
132	0xbd77e60b	-0.06052212
133	0xbd2962b2	-0.04135389
134	0xbc950b8a	-0.018193979
135	0xbd01854f	-0.031621274
136	0xbd92d364	-0.07169226
137	0x3ba161db	0.0049249954
138	0xbd29dd12	-0.041470595
139	0xbcda0b1c	-0.026616625
140	0xbce3706d	-0.02776357
141	0xbd90e75a	-0.07075377
142	0xbbfa3176	-0.0076352907
143	0xbaac65de	-0.0013152917
144	0xbd523759	-0.051322315
145	0xbd533b41	-0.05157018
146	0xbd13fa09	-0.036127124
147	0xbcd3d950	-0.025860459
148	0x3cc64b2a	0.024205763
149	0xbd16ffbc	-0.03686498
150	0xbce50454	-0.027956165
151	0xbb5ba2b9	-0.0033513738
152	0xbd1fe22d	-0.039034057
153	0xbd9d63a3	-0.0768502
154	0xbd853125	-0.06503514
155	0xbd32839a	-0.043582536
156	0x3c02cf5b	0.007984008
157	0xbcd41506	-0.025888931
158	0x3c78f11c	0.015194204
159	0x3c8801be	0.016602393
160	0xbd110c8c	-0.035412356
161	0xbcd65ef4	-0.026168324
162	0xbda8644e	-0.082222566
163	0xbbfd14dc	-0.007723434
164	0xbd93894f	-0.07203924
165	0x3af91587	0.0019003608
166	0xbcdc486d	-0.026890004
167	0xbd2f26ec	-0.04276173
168	0xbcc3679c	-0.023853116
169	0xbd0a3808	-0.03374484
170	0xbd17fbc4	-0.037105337
171	0x3cd5f7c0	0.026119113
172	0xbd0e4c77	-0.03474089
173	0xbd776aa2	-0.060404427
174	0xbd2bb95e	-0.041924827
175	0xbc98c2dc	-0.018647604
176	0xbcd8fad0	-0.026486784
177	0x3cd10a2b	0.025517544
178	0xbd8eaf4d	-0.0696703
179	0xbcd862a7	-0.026414229
180	0xbd3886fe	-0.045050614
181	0xbd38347e	-0.044971935
182	0xbc01ee5b	-0.0079303635
183	0xbd190bf6	-0.037364922
184	0xbd9348cf	-0.071916215
185	0xbd4fd4d8	-0.050740093
186	0xbd8316f7	-0.064008646
187	0xbd59b900	-0.053154945
188	0xbce43202	-0.027855877
189	0xbd03991a	-0.03212843
190	0xbc4b8210	-0.012421146
191	0xbb7273d9	-0.003699532
192	0xbd4f4e4c	-0.05061178
193	0xbc943291	-0.018090518
194	0x3c926de4	0.017874666
195	0xbd3015a0	-0.042989373
196	0xbd3fe2fd	-0.046847332
197	0xbcd10484	-0.025514849
198	0xbd05b6f5	-0.032645185
199	0x3c1a03ef	0.009400352
200	0xbcc79612	-0.024363551
201	0xbcb52bea	-0.022115666
202	0xbd252505	-0.040318508
203	0xbc3f385a	-0.01167115
204	0xbde131ba	-0.10995813
205	0xbd451dee	-0.048124246
206	0xbd3179fb	-0.04332922
207	0xbd304249	-0.043031964
208	0xbd4a8c46	-0.04945018
209	0x3b894835	0.004189516
210	0xbc60de86	-0.013724929
211	0xbd7c5236	-0.06160184
212	0xbd707ba3	-0.05871166
213	0xbd2cbc44	-0.04217173
214	0xbc8985de	-0.016787466
215	0xbd3f8084	-0.04675342
216	0x3b718c6b	0.0036857377
217	0xbd3b79ae	-0.04577034
218	0xbd21ab52	-0.039470024
219	0xbd9fc80a	-0.07801826
220	0x3af49d30	0.0018662568
221	0xbccdf961	-0.025143327
222	0xbcc067a5	-0.023486922
223	0xbd3c349b	-0.045948606
224	0xbd365b51	-0.04452068
225	0xbb3b347a	-0.0028565214
226	0xbbba8c6a	-0.005693008
227	0xbcab729e	-0.020928677
228	0xbc93d319	-0.018044995
229	0x3c708be7	0.014681793
230	0xbd824ebe	-0.06362675
231	0xbc7cb471	-0.01542388
232	0xbd0eb9f9	-0.034845326
233	0xbd9caa88	-0.07649714
234	0x3be140d5	0.0068741837
235	0xbd15c26a	-0.03656236
236	0xbd27c289	-0.040957008
237	0xbbd498ca	-0.0064879404
238	0x3cef2873	0.029194092
239	0xbd78a7a5	-0.060706753
240	0x3cb49282	0.022042517
241	0x3b059c80	0.002038747
242	0x3c982892	0.018574033
243	0xbde3bebe	-0.111203656
244	0x3c53f2b0	0.012936279
245	0xbbc40424	-0.005981939
246	0xbd394f99	-0.045241926
247	0x3c2055e7	0.009786106
248	0xbd7f3395	-0.06230505
249	0xbc99acf2	-0.018759225
250	0xbd38103c	-0.044937357
251	0xbd88c7b3	-0.066787146
252	0xbb9b31ea	-0.004736175
253	0xbd342d68	-0.043988615
254	0xbd7ec3f0	-0.06219858
255	0xbd1ef895	-0.038811285

network_body.linear_encoder.seq_layers.2.weight f4 [256, 256]
0	0x3baa36f3	0.0051945387
1	0xbded74a9	-0.11594517
2	0x3c131617	0.008977435
3	0xbe60ad23	-0.21941046
4	0x3db3f51d	0.08786986
5	0xbdeec1ae	-0.11658035
6	0xbdeb4035	-0.11486856
7	0x3d99e0f7	0.07513612
8	0xb753da37	-1.2627387e-05
9	0x3ddb2b74	0.107016474
10	0xbdc75211	-0.0973245
11	0xbc6a3c5f	-0.01429662
12	0x3e0a9d0a	0.13536468
13	0xbda459ae	-0.080249175
14	0xbe20ea1f	-0.1571431
15	0x3e48b287	0.19599353
16	0x3e1598d2	0.14609078
17	0x3d82d34f	0.0638796
18	0x3d48dd27	0.049039032
19	0x3d08a438	0.033359736
20	0x3e1fc33e	0.15601823
21	0x3ca03983	0.019558674
22	0xbd6bb226	-0.057542942
23	0xbe1edf25	-0.1551481
24	0x3962dddf	0.00021635693
25	0xbcda009a	-0.026611615
26	0xbd2caff8	-0.042160004
27	0x3d02e3b0	0.03195542
28	0x3d5ddf06	0.05416777
29	0x3d8effb6	0.06982367
30	0xbd5d48e0	-0.054024577
31	0xbe092a85	-0.13395126
32	0x3d5b48e8	0.053536326
33	0x3dc140d6	0.094361946
34	0xbd1a6a4a	-0.03769902
35	0x3d448e95	0.04798754
36	0xbd71935f	-0.058978435
37	0x3e3f08bf	0.1865568
38	0x3b695f87	0.0035609917
39	0x3ca92b07	0.0206504
40	0xbcd2343d	-0.025659675
41	0x3d1496b2	0.036276527
42	0xbe41a645	-0.18911083
43	0xbdaf29ab	-0.085528694
44	0x3dc12abe	0.094319806
45	0xbd9c6f93	-0.076384686
46	0x3d667ed2	0.05627329
47	0x3d321493	0.043476652
48	0x3d049546	0.03236892
49	0xbc31cf73	-0.010852682
50	0xbe2a772a	-0.1664702
51	0x3dadf2cb	0.08493575
52	0xbcb5a9dc	-0.022175722
53	0xbcc3c136	-0.023895841
54	0xbd5c922b	-0.053850334
55	0x3d385cb7	0.045010295
56	0x3da5145a	0.080605224
57	0x3ca50f22	0.020148817
58	0x3d263fdb	0.04058824
59	0xbc93dc0c	-0.018049262
60	0x3bed49c6	0.0072414605
61	0x3dfabf45	0.12243513
62	0xbd9ea78c	-0.07746801
63	0xbe1f9f10	-0.15588021
64	0xbe13e1c6	-0.14441594
65	0xbd71b4f8	-0.059010476
66	0x3ce8d8de	0.028423723
67	0xbc927fc6	-0.017883193
68	0xbe2657d5	-0.16244443
69	0x3e07e66e	0.13271496
70	0x3dc872b9	0.097875066
71	0x3a21c4b5	0.0006170974
72	0xbb5e7be0	-0.0033948347
73	0xbd0ebcbb	-0.034847956
74	0x3d52b849	0.05144528
75	0xbc5ddfdb	-0.013542141
76	0x3b8f6114	0.0043755863
77	0xbd970dac	-0.073756546
78	0x3d6a810f	0.057251986
79	0xbe198cc6	-0.14995107
80	0x3dba5ecc	0.09100112
81	0x3d00197f	0.031274315
82	0x3e3d7fa5	0.18505724
83	0x3dc79fa9	0.0974725
84	0xbd6b81be	-0.05749678
85	0x3d3ce7f6	0.046119653
86	0xbdc6d288	-0.097081244
87	0xbc2e72c0	-0.010647476
88	0xbdeb70d6	-0.11496131
89	0xbd324025	-0.043518204
90	0xbe5e2ab6	-0.2169598
91	0xbd8f13ed	-0.069862224
92	0x3ddb000e	0.1069337
93	0xbcd46d0c	-0.025930904
94	0x3d1602b7	0.036623683
95	0xbd5ffe3a	-0.05468581
96	0xbcaf592a	-0.021404821
97	0xbd4a5574	-0.0493979
98	0xbdb13541	-0.086527355
99	0xbc413936	-0.011793425
100	0x3d0a3397	0.033740606
101	0xbdce2870	-0.100663066
102	0xbd95ec71	-0.07320488
103	0xbdfd7a44	-0.12376836
104	0xbc237144	-0.009975735
105	0xbe47e378	-0.19520366
106	0x3dceedfc	0.10103986
107	0xbd1501ee	-0.036378793
108	0x3e3602c1	0.17774488
109	0xbdb229b9	-0.08699364
110	0x3c3709ee	0.011171801
111	0xbdd29420	-0.10282159
112	0x3d6f737a	0.058459736
113	0xbb960199	-0.004577827
114	0xbb5c8359	-0.0033647625
115	0xbcd083fb	-0.025453558
116	0x3e7cdbcb	0.2469322
117	0xbe7dc1af	-0.24780916
118	0xbe16e5b0	-0.14736056
119	0x3ba0093a	0.0048839124
120	0xbe0cea03	-0.13761143
121	0x3cd90121	0.026489796
122	0xbd0fa369	-0.03506795
123	0xbde8b1cc	-0.11362037
124	0xbd03a400	-0.032138824
125	0xbd1b5a0d	-0.037927676
126	0xbd7f1a23	-0.062280785
127	0x3e164e23	0.14678244
128	0xbc4dbacd	-0.012556744
129	0xbd95bc80	-0.07311344
130	0xbcd3c13e	-0.025848981
131	0x3d95b72d	0.07310329
132	0x3e03d53d	0.12874313
133	0x3d9d418b	0.07678517
134	0x3dcef90b	0.10106095
135	0xbd932436	-0.07184641
136	0xbdd172a0	-0.10226941
137	0x3d792dc1	0.06083465
138	0x3d69ee7f	0.057112213
139	0x3c80acf7	0.015707476
140	0x3d32b831	0.04363269
141	0x3d09f79a	0.033683397
142	0xbdb149da	-0.08656664
143	0xbd5bd128	-0.053666264
144	0xbd4dbb96	-0.050227724
145	0x3e772213	0.24134092
146	0xbd4226e4	-0.04740037
147	0xbd4d137b	-0.050067406
148	0x3d9e3986	0.077258155
149	0x3d241a14	0.040063933
150	0x3e3ee080	0.18640327
151	0x3c71b755	0.014753182
152	0x3cddd66d	0.027079785
153	0x3d126329	0.035739098
154	0xbdaa2ff8	-0.083099306
155	0x3dd7eef2	0.10543622
156	0xbc6e0b92	-0.014529126
157	0x3db24a7e	0.087056145
158	0xbd9952cf	-0.074864976
159	0x3e6d061f	0.23146866
160	0x3c5eb1dc	0.01359221
161	0xbd10ab4c	-0.03531961
162	0xbce7ce14	-0.028296508
163	0xbb924e08	-0.0044648685
164	0xbd8d031d	-0.068853594
165	0xbd62e1f5	-0.05539127
166	0x3e3a63f9	0.18202199
167	0x3d96bd0a	0.07360275
168	0x3dd5ea0f	0.10445034
169	0xbdc9687a	-0.098343804
170	0xbe16eafe	-0.1473808
171	0x3e8c74c3	0.27432832
172	0xbd9a6a9a	-0.07539864
173	0xbdf67c7a	-0.12035461
174	0x3dd563a8	0.104193985
175	0xbcfdd753	-0.030986464
176	0xbdcb36c8	-0.09922558
177	0x3da47e0f	0.08031856
178	0x3d957dbe	0.07299374
179	0xbdb27df5	-0.08715431
180	0x3d2aadc3	0.04166962
181	0xbdb39ccc	-0.08770141
182	0x3e65317d	0.2238216
183	0x3c4401ea	0.011963347
184	0x3db350cc	0.08755645
185	0x3e2cc753	0.16872911
186	0xbde88a0b	-0.113544546
187	0xbc29d816	-0.01036646
188	0xbd196752	-0.03745205
189	0x3cd1a8f3	0.025593257
190	0x3dbf972e	0.09355007
191	0x3e36d661	0.17855217
192	0xbcd6702f	-0.02617654
193	0x3d7b5f7d	0.06137036
194	0x39c9a686	0.00038461777
195	0x3d3cad34	0.046063617
196	0xbcdc79b5	-0.026913503
197	0xbde6aaf8	-0.112630785
198	0x3ac53c7b	0.0015047932
199	0xbb68933d	-0.0035488151
200	0xbc2157d2	-0.009847598
201	0x3e3cbcfe	0.1843147
202	0xbd88e225	-0.06683759
203	0xbd2a4479	-0.041569207
204	0x3d58d27d	0.052935112
205	0x3d8ef301	0.06979943
206	0x3cce6c62	0.025198165
207	0xbd999da1	-0.075007685
208	0x3d8c51cc	0.06851539
209	0xbe048761	-0.12942268
210	0x3ca446df	0.020053325
211	0x3da1c308	0.078985274
212	0xbd52f91c	-0.0515071
213	0xbe1afc5d	-0.15135331
214	0xbda0c474	-0.078499705
215	0x3d4606ae	0.048346214
216	0x3e227de6	0.15868339
217	0x3e0c012c	0.13672322
218	0xbd97f6de	-0.07420133
219	0x3de18b9b	0.11012956
220	0xbca849f4	-0.020543076
221	0x3d51fe00	0.051267624
222	0xbc8d66eb	-0.01726099
223	0x3e1800e1	0.14844085
224	0xbdec5906	-0.115404174
225	0xbe1d1bd3	-0.15342645
226	0xbd543399	-0.05180702
227	0x3b918620	0.004441038
228	0xbe289860	-0.16464376
229	0xbd5dc778	-0.054145306
230	0xbd72d467	-0.059284594
231	0xbd05f4b0	-0.032704055
232	0xbd1de555	-0.038548786
233	0x3c2c0eda	0.010501588
234	0x3cbbee29	0.022940712
235	0x3d87c7e5	0.06629924
236	0x3d9d49a5	0.07680062
237	0xbb302470	-0.0026877187
238	0xbd7c1e57	-0.06155237
239	0xbdbf9d54	-0.0935618
240	0x3dc60cba	0.09670396
241	0x3d3b956b	0.045796793
242	0x3e1220bd	0.14270301
243	0xbda8f19f	-0.082492106
244	0x3db62985	0.08894638
245	0xbc944d24	-0.01810319
246	0x3da3a99f	0.07991337
247	0xbe4d7526	-0.2006422
248	0xbb1576eb	-0.0022806476
249	0xbd9f8868	-0.07789689
250	0xbccfca82	-0.025365118
251	0xbd9a2810	-0.075271726
252	0x3c73be51	0.014876918
253	0xbd8751d6	-0.06607406
254	0xbcc4b974	-0.024014212
255	0xbdcbe623	-0.099560045
