Project/Assets/MyProject/Train/Chaser/CVR 5/Models/ver 4/PoliceBrain-11999989.onnx (onnx, 661834 bytes, 6 tensors)

action_model._discrete_distribution.branches.0.bias f4 [4]
00000000: f6bc f7bb ae18 783c bbf6 f4bb 1085 503c
-0.0075603677 0.015142603 -0.0074757016 0.012727037

action_model._discrete_distribution.branches.0.weight f4 [4, 256]
00000000: 4dfe 893c c1ad 213c a244 6bbd 03ca 08bd
00000010: c085 853d 4045 05bd 6f88 df3c 87e6 86bd
00000020: e20b 18bb c78e 693d 5dfa 93bc 3bbf 8f3c
00000030: fae2 143d dbe0 49bc 4539 17bd 8230 cebd
00000040: 5d69 c93c e116 a1bc 3901 a53c eb2a 40bc
00000050: f987 3c3d 82af 3ebd 376f 1abd f609 a6bc
00000060: cdb3 b2bc 5879 0b3d 29f0 503d 0ec5 9c3c
00000070: f695 a1bc 5ed8 2d3d 343c 3cbc 8526 e23b
00000080: 0173 0c3b 6670 d83c 4d32 1dbd 687d b63c
00000090: 3407 593d b993 1ebd 34d1 633c 5a2a 503c
000000a0: 7bb4 b43c 3826 343d d93f 813d 100c f13c
000000b0: 6129 b03c 751d b5bc a98e 023d 6915 a8bc
000000c0: 0099 633c 7bda 593c d200 96bc 2868 2d3b
000000d0: d0d0 72bd a052 80bd 0775 083d 1c05 da3b
000000e0: f6af c6bc 98f1 443d 559c 893c 661c 5a3c
000000f0: 6364 c7bc 58f1 8cbd 17e1 793c bdf7 f0bb
00000100: 7c53 32bd bc62 ef3c ae19 1abd 65ef f43c
00000110: 0bd1 83bd faf3 15bc 2919 75bd 950d 753b
00000120: 5b45 15bd 0788 2d3d fd07 36bb b7f4 3e3d
00000130: bdb8 f23b 1b6f 82bd 83f3 38bd cde9 56bd
00000140: 8015 85bd 2e06 d03c e5a5 043c 7397 a8bb
00000150: 94f5 74bd 0aee 113d b1e0 1ebd 91ca 863d
00000160: fef5 453c 5978 d13c 76c7 58bb 16d1 053d
00000170: 425f 2abd d347 173c a27a c2bb abe5 423d
00000180: 075a d03c 5a9b 8d3c 7c19 7c3c 5192 763d
00000190: 2686 0b3d bc8a 933c 9f49 653d 01e5 103b
000001a0: b054 c7bc 6b0a 6fbc f1e0 783c bb1f b73c
000001b0: b7e5 18bd 92a9 86bd 10e1 0bbd ecca d9bb
000001c0: 0a33 1ebb 2528 0fbd e353 b73b cf34 f439
000001d0: d8ac df3c 649d 303d 9e7d b7bd bfa1 183d
000001e0: 0774 66bd 0f11 6fbd d5f7 2fbd 3e56 ecbc
000001f0: 3351 ceba 003c 30bc 3146 5ebd 0fa8 86b9
00000200: 3deb 6bbc e77c e03b dfd5 683b d34a 953c
00000210: e50c 713d 3d12 333d 9043 92bc 1784 353d
00000220: 9f9d f33c c537 7cbd 18eb 133d 42e1 213d
00000230: 0044 f23a 06ea cabd 5ddd 55bd 5fb2 9a3c
00000240: 8573 91bc 6d1f 7f3c 9a7d 5b3c a0c4 6c3d
00000250: eb3b 13bd e855 87bc 601a 8fbc 0ba2 363c
00000260: 20d6 09bd 3e01 99bd cf07 c03b ccc8 7dbc
00000270: 76c3 69bb e3f5 2fbc a5bc a6bd 974d 99bb
00000280: f27f 4a3c 89d3 033c 74c6 323c f505 5cbd
00000290: 56cb a8bc e50f 9abb d409 d03c 2f90 cc3c
000002a0: fde8 75bb 1c15 fdbc 5c69 debb df2b 89bb
000002b0: 57c3 11bd b255 37bd 7672 65bc feea 613c
000002c0: ba81 723d 5227 f6bc 03c9 f9bc 6ad7 373d
000002d0: e04d 41bd ca92 e13c d3a4 f33c f867 863d
000002e0: 559a 42bd 8a00 e03c 7b6a 04bd 59f3 ca3c
000002f0: bd49 8f3b 60e6 b7bd c9cb a53c 3e69 ec3c
00000300: 6527 ba3c 0b7e 7b3c 9884 bf3c b931 603d
00000310: b162 68bd 099b 1cbd 16d9 07bd 7476 883d
00000320: de22 b43c 2c0d 3abb f71e a1bc 9ae2 163d
00000330: 0b3f e43b 3211 bf3c 3b27 d4bc 97a4 0fbd
00000340: dd18 45bb 6cf0 903c b6f6 28bb bc2a 3c3d
00000350: 824f f4bc e671 d43b 1502 a43c 15e9 b03b
00000360: 3720 503d df7a 29bd 860b 083c 8dbe 05bd
00000370: f1a9 9ebc 7db8 2e3d 1e13 0e3d 096c 81ba
00000380: 70e5 87bd 92af ce3c 2a19 01bd 8520 483d
00000390: 64e6 babc 0850 503d d46e 833d a09b 29bd
000003a0: 33f3 55bb 25eb 843d 1bcd 5c3b 4a87 57bd
000003b0: a2b5 0abd 2a31 2e3d a396 a6bd 7818 05bc
000003c0: db22 d13c 17da 92bc 345a f23c 75e7 0b3d
000003d0: aa32 fd3c 7d6a 80ba dae8 02bd 2f92 483d
000003e0: 86cd 413c b62d 0dbd 9a9b 483d 2dce cfbb
000003f0: 0ff2 c4bc dc3e 013d bf49 4f3d ff5d 47bd
0.016844893 0.009868086 -0.0574385 -0.03339578 0.065196514 -0.032536745 0.027286736 -0.06586938
-0.0023200442 0.05702093 -0.018063718 0.01754724 0.036349274 -0.012321676 -0.03691985 -0.10067846
0.024586374 -0.01966423 0.020142185 -0.011728982 0.04602811 -0.046554096 -0.03770372 -0.020268422
-0.021814251 0.03405127 0.051010285 0.019136932 -0.019724827 0.042442672 -0.011488963 0.0069015645
0.0021430852 0.026420783 -0.03837805 0.022276595 0.052985385 -0.038715098 0.013904858 0.01270541
0.022058716 0.04398176 0.06311006 0.029424697 0.021504106 -0.022108773 0.031874333 -0.020518022
0.0138914585 0.013296719 -0.018310938 0.0026459787 -0.05928117 -0.062657595 0.03331473 0.006653441
-0.024253827 0.048081964 0.016798178 0.013312435 -0.02433986 -0.0688197 0.0152514195 -0.0073537515
-0.04353665 0.029221885 -0.037622146 0.029899308 -0.06436356 -0.009152407 -0.059838448 0.0037392129
-0.036443096 0.042366054 -0.0027775757 0.046620097 0.0074072764 -0.06368848 -0.045154106 -0.052469064
-0.064982414 0.025393572 0.008096193 -0.0051450073 -0.059804514 0.035627402 -0.0387885 0.06581605
0.012082575 0.025570082 -0.0033077872 0.032670103 -0.04159475 0.009233433 -0.005935029 0.04758231
0.025433553 0.017285991 0.015386935 0.060198132 0.03406348 0.01801049 0.055978414 0.0022109153
-0.024332374 -0.014589886 0.015190349 0.022353997 -0.03732845 -0.06575312 -0.034150183 -0.0066465046
-0.0024139308 -0.034950394 0.005594717 0.00046578652 0.027304098 0.04311885 -0.089595065 0.037263628
-0.056262996 -0.058365878 -0.04296096 -0.028849717 -0.0015740752 -0.010756493 -0.05426616 -0.00025683685
-0.014399347 0.006850827 0.0035527868 0.018224156 0.058850188 0.043718565 -0.017854482 0.044315424
0.029738246 -0.061576623 0.036112875 0.039521463 0.00184834 -0.09907918 -0.05221306 0.018883882
-0.01775528 0.015571457 0.013396645 0.057804704 -0.035945814 -0.016520455 -0.017468631 0.0111470325
-0.03365147 -0.0747094 0.005860306 -0.015489768 -0.0035669482 -0.010739776 -0.0814145 -0.004678439
0.012359606 0.008046039 0.010911573 -0.05371662 -0.02060477 -0.004701602 0.025395311 0.024971096
-0.0037522905 -0.030893855 -0.006787462 -0.004186138 -0.03558668 -0.04475946 -0.01400434 0.013788937
0.05920575 -0.030048046 -0.030491358 0.04488317 -0.047193408 0.027535815 0.02974168 0.06562799
-0.047510464 0.027344007 -0.03232811 0.02477424 0.004372804 -0.089794874 0.020238774 0.028858777
0.022723863 0.015349875 0.023378655 0.05473492 -0.056734744 -0.03823379 -0.033166014 0.06663218
0.021989282 -0.0028389199 -0.019668086 0.036837198 0.006965523 0.023323629 -0.025897613 -0.035069074
-0.0030074634 0.017692767 -0.0025781817 0.045939192 -0.029823069 0.0064833043 0.020020524 0.0053988793
0.050811972 -0.041376945 0.008303529 -0.032652427 -0.019368144 0.04265641 0.0346862 -0.0009874116
-0.066355586 0.025230203 -0.03151814 0.048859138 -0.022814937 0.050857574 0.06417623 -0.04140818
-0.0032646179 0.06490163 0.0033691588 -0.052619256 -0.033864625 0.042527355 -0.081342004 -0.00812351
0.025529316 -0.017926259 0.029584028 0.03415628 0.030907948 -0.0009797361 -0.031960346 0.048967537
0.011828786 -0.03446742 0.04897652 -0.0063417167 -0.024041204 0.031554088 0.05060744 -0.048673626

network_body.linear_encoder.seq_layers.0.bias f4 [256]
00000000: 51e1 6238 cd7e 0ebd 7290 943c dbb9 0bbc
00000010: 8752 aebc 3d51 afbc d2ca dfbc 1b25 fd3c
00000020: d6e9 adbb bf29 b43c 2642 1ebb 13ae a83a
00000030: 66c2 093d 3608 773c 20a3 2fbc 63c9 ae3c
00000040: 229e 1bbc ca37 623d b5c7 d5bc 0ca6 123d
00000050: d258 88bd dae6 11bd 8f00 e6bc c33c 48bc
00000060: ff0a feb9 4eb4 abbd c601 603b 6e84 69bc
00000070: e0fc 8bbc 8798 cb3c 0698 8a3b 5284 513b
00000080: 2355 c7bd 26eb 01ba f0fa ae3c 2eba 133d
00000090: fa4d 07bb 5036 443c 9d7c 0dbd 8980 013c
000000a0: a06c 1cbd 1dfb c93c c5a6 173c 3392 3e3d
000000b0: 6b4b f9bb c464 23bc 156b 00bd b060 3bbc
000000c0: 6edd ea3b 24de 4b3d d294 46bb 6fcb 22bd
000000d0: f370 ff3b 066f fe3c a6a4 bcbd 8558 adbc
000000e0: f705 0d3d fed0 24bc 0cc4 1bbd 67d9 89bc
000000f0: 50b3 66bc 6751 b6bc bac6 003c 2c50 9abc
00000100: 84ed 9e3c 7d65 97bc 08db 8cba 8f95 023d
00000110: 194b 55bc 1665 c6bb c2e9 14bc c6ff e03a
00000120: aed1 96bc 3268 063b 9abe 853c 8c3b e33c
00000130: 026b 92bc 423d 563c 4287 dbbc f0fd 1cbc
00000140: 26f8 b63a ce29 7b3c 03ab 1fbd ca73 bc3c
00000150: 47c8 99bc 31c7 7abc 7da9 61bc c626 9fbb
00000160: f205 43bc dfc6 013c 2f8b 493c 8bd8 63bc
00000170: 9259 6f3a 6d44 57bd 59e2 1fbd 33c7 dc3c
00000180: cfb1 c63c ff94 d7bc 2e35 ab3c e0e6 ca3c
00000190: d2a8 80bb cdc6 8bbd 0d15 983c 7410 1f3d
000001a0: 3841 373a e0da e23a f80c 0ebd 2ac5 9c3d
000001b0: f799 cf3b a5f6 a23c 776b af3c b02d 553d
000001c0: 1809 bd3a a360 2bbc f52d 85bd 3880 4bbc
000001d0: 9c6d 013d 1b00 45bd d633 15bc bc57 ffbc
000001e0: 8819 cbbc 0b5e bfbc 360b 92bb 0433 8bbc
000001f0: 830d 483c 09d6 a3bc afbd 063d 4ce3 c6ba
00000200: f015 153b 1734 10bb cfa8 413d 3a4c 7ebd
00000210: b14d 11bd a3bd 25bc fded c3bd 71a4 57bd
00000220: 064f fdbb 1666 45bc 38ab 6ebc 3cd5 873b
00000230: b700 b23c c4e4 80bc a956 ff3c 6753 ce3b
00000240: 8fae 793c ab1e 123c 79e8 adbc a7c1 1f3d
00000250: 95f7 3fbc c4ef 91bc 1bc4 ebbc a3cd 293d
00000260: 442b 9abd 21dc b4bd ea57 8abc 51f0 fdbb
00000270: 495c 5abb 6e75 b33c 7c4e 8bbc 110c 373c
00000280: 19c8 9b3c 2eed 4bbc df00 de3a 8746 81bb
00000290: b30d 533c f9b3 8ebd 24d7 da3b f1f1 52bd
000002a0: 7881 82bc 5516 053d 528b d23c 629f 20ba
000002b0: 8f90 24bd bdfc 90bc 3ee1 1ebd 72a1 a8bc
000002c0: 605c 973b bf04 413b c353 32bb c2fb dabc
000002d0: 20b7 153d 233d 01bb 4ac0 0bbc d537 c03b
000002e0: 0945 843c 2bed 8f3a dc05 b6bb d426 6d3c
000002f0: e65e 93bd 06dc 043d e473 d2bc 1fce c1bc
00000300: 644a c93c 7a0a 48b8 62b9 9fbc fc72 ad3c
00000310: c693 2fb9 97e9 56bc a611 25bc 4557 f939
00000320: 794f b7bc 4b7d 4abb ca21 bbbb 92f7 4d3c
00000330: 61ad 15bc ae65 31bd 5d6c 5fba fe99 013c
00000340: 54bc 8c3c 65be a3bc be83 f33b 4e85 b9ba
00000350: 379f 54bc 3d36 3dbc 4a78 63bc 6b0d 713c
00000360: bacf a4bc eb23 febc e328 d6bc 89c1 b0bc
00000370: 2fe4 f0bb c9a4 f83b fa56 56bc f723 49bd
00000380: adc7 033c 5a55 a13b 3d4c a23b 9b86 fa3a
00000390: c396 053c f8f0 003d 0df1 ea3c b110 e4bc
000003a0: c31a 9dbc 726f ffbb a781 e5bb 136c dd3a
000003b0: 120d c2bb 111a 4f3b b035 843c ef6b 64bd
000003c0: 0519 3c3d 2dcb c2ba ea8d c0bc b460 78bc
000003d0: 44a3 19bd c51e b13b a593 773c d58c 323d
000003e0: 9b42 45bb efe8 02bd 65ee 0e3d 6f0b 293b
000003f0: 2aaf 723d cd0a f4bc 3984 89bc c727 a43c
5.409244e-05 -0.034788895 0.018135283 -0.008528198 -0.021279586 -0.021401042 -0.027318392 0.030901482
-0.0053074164 0.021992562 -0.0024148314 0.0012869261 0.03363266 0.015077641 -0.010720044 0.021336263
-0.009498151 0.055228986 -0.026096204 0.035802886 -0.06657566 -0.035620548 -0.028076438 -0.012221518
-0.00048454848 -0.08384 0.0034180745 -0.014252765 -0.017088354 0.024853004 0.0042295484 0.0031969738
-0.097330354 -0.00049559993 0.02135989 0.036066227 -0.0020645843 0.01197584 -0.03454267 0.00790418
-0.03818953 0.024655873 0.00925607 0.046526145 -0.0076078675 -0.009972755 -0.03135212 -0.011436626
0.0071675098 0.049772397 -0.0030301106 -0.03974479 0.007795447 0.0310588 -0.09211092 -0.021160373
0.034429517 -0.010059593 -0.03802876 -0.016827298 -0.014080837 -0.022255613 0.00785988 -0.018837057
0.019400366 -0.01848101 -0.0010746429 0.03188091 -0.013018393 -0.006054531 -0.009088935 0.001716607
-0.01841053 0.0020508883 0.016326237 0.027738355 -0.01787329 0.013076128 -0.026797894 -0.009582028
0.0013959452 0.015329791 -0.03898145 0.023004431 -0.018772257 -0.01530628 -0.013773319 -0.004856917
-0.011903273 0.00792095 0.01230125 -0.013906608 0.00091304735 -0.05255549 -0.03903422 0.026950454
0.024254708 -0.026316164 0.020899381 0.024768293 -0.003926375 -0.068250276 0.018564725 0.03883405
0.00069906143 0.0017307661 -0.034680337 0.076547936 0.0063354927 0.019893 0.021413548 0.052045524
0.0014422266 -0.010460052 -0.06502906 -0.012420706 0.031598672 -0.048095804 -0.009106597 -0.031169765
-0.024792448 -0.023360273 -0.004456903 -0.0169921 0.012210253 -0.01999952 0.03289574 -0.0015173941
0.0022748671 -0.0022003704 0.04728013 -0.062084414 -0.035474483 -0.010116014 -0.09566877 -0.052647058
-0.0077303676 -0.012048265 -0.014567189 0.0041452926 0.021728856 -0.015734084 0.031169252 0.0062965634
0.015239372 0.008918445 -0.021229016 0.03900304 -0.011716743 -0.017814524 -0.028780034 0.041455876
-0.075277835 -0.08831049 -0.016887624 -0.007749595 -0.0033319166 0.02190658 -0.017005198 0.01117231
0.019016312 -0.012446685 0.0016937515 -0.003945175 0.012881684 -0.06967921 0.006678479 -0.051500265
-0.015930876 0.032492 0.025701199 -0.00061272655 -0.040176924 -0.01769864 -0.038789026 -0.020584796
0.0046191663 0.0029452292 -0.002721057 -0.026731376 0.036551595 -0.0019720278 -0.008529732 0.0058660307
0.0161462 0.0010980716 -0.0055548977 0.014474589 -0.07195835 0.032436393 -0.025690027 -0.023657857
0.024571605 -4.7693473e-05 -0.019497577 0.021172993 -0.0001674435 -0.013117216 -0.0100750085 0.00047558002
-0.022376763 -0.0030897434 -0.005710815 0.012571232 -0.009135575 -0.04330986 -0.0008522922 0.00791025
0.017179646 -0.019988248 0.0074314764 -0.0014154108 -0.012977413 -0.011548576 -0.01388366 0.014712672
-0.020118583 -0.031022986 -0.026142543 -0.02157666 -0.0073514204 0.0075880033 -0.01308226 -0.049106564
0.008043212 0.004923505 0.004952936 0.0019113602 0.00815362 0.031479806 0.028679395 -0.02783999
-0.0191778 -0.0077952677 -0.007003981 0.001689317 -0.0059219683 0.003160123 0.016138881 -0.055766996
0.045922298 -0.0014861576 -0.02350517 -0.015159775 -0.037509218 0.0054052793 0.015110885 0.04359134
-0.0030099514 -0.031960424 0.03489532 0.0025794168 0.05924908 -0.029790306 -0.016786681 0.020038499

network_body.linear_encoder.seq_layers.0.weight f4 [256, 382]
00000000: 9c6f 26bd 87a6 78bc 5bfb 7d3d 6438 70bd
00000010: 8acf de3d e6b2 f53b a86f d6bd c45c 3d3e
00000020: c425 933d 22c6 fdbd 0de4 c43d a5ce 673d
00000030: d03b 4b3d 10cc 8c3d 6f7f 233b 4a33 17be
00000040: 0311 913b 2ece 043e ff55 78bd 199c 0b3e
00000050: 67e2 f8bd 3954 a6bd 912f 1bbc 99e4 abbc
00000060: 2aea 133e 07f6 363e abca 963c 894d 33be
00000070: 71f3 28bc cc64 72bc ff1b 7ebb 1473 cf3d
00000080: d95c 27bd 4757 21bc 4e1d 183d 99c8 323d
00000090: dd62 92bd 0f83 193d f211 543d 98f7 a2bd
000000a0: 1e69 f63c ea97 923d 3d2a 06bd 5765 aa3d
000000b0: c72e 30be 2243 1abd 6eac 72bc 2507 953d
000000c0: 840d b6bb 3e7f 403c ec2e 11bd 0864 52bd
000000d0: 2ccf 233c 9dbf c0bc bffe b0bc b9a3 2f3e
000000e0: be55 80bd badc d6bc a474 8e3c 91d4 d0bc
000000f0: 6b6e fcbc ab44 973b 33ba 5bbc 22f2 91bd
00000100: b7bb 80bd 0776 67bd 1b3b 1cbd 2ed0 6c3d
00000110: cd59 e7bd 79bb ffbd 9013 0cbd 2e55 183e
00000120: 4aff a7bd 921f 203e b8b0 0e3d 40d6 cbbc
00000130: b05b d73c f75d 493d b068 c23b 7908 cc3d
00000140: 6cd0 cbbd 01be a3bd 6191 793d 99e3 4f3d
00000150: 4302 0f3d 16cd 2cbd 1b9d cebd 7f35 03bd
00000160: 80f1 0b3e 2a3a d93d 3b15 433b aad7 383d
00000170: c16e 41bd 17fe a7bc 971b dfbd 0e97 9ebc
00000180: 2b93 9b3c d741 043e 100e 97bd 8e0c f7bd
00000190: d25f 18bd 7b9a 753d 27b9 ac3b 383a e33d
000001a0: 2324 1fbc 8e8b 33bd eeef 61bb ce87 c8bc
000001b0: 4dff 9b3b 182c a13d 0b61 86bd e3bd 06be
000001c0: 79e2 42bd 90b7 463d 1c6e 433c b537 7c3d
000001d0: 9d4e 11be 8545 bb3c abda d0bd 25c3 23be
000001e0: e674 0a3d 57b8 233e 28f2 473c 9ec4 0dbd
000001f0: b90e 0ebd 7615 2f3d a2cf 68bd a9c5 803d
00000200: 6445 babc 7e1f 963d e63f fbbd 09c8 b43c
00000210: 045e b6bc e084 4fbc 916c f6bc 1d0b 88bd
00000220: 467f 52bd a70d fb3d c13a 383d 1049 b03b
00000230: 2524 f03d d190 413d c744 00bd 7387 19bd
00000240: 5ec9 833c ce46 083e 44d9 4e3d efdb 27bd
00000250: 3a7e 9ebd 074e 843d 4499 823c 4e66 8bbd
00000260: 59ad d9bc 5949 12be a01b 963c a411 793d
00000270: 7228 6cbc 8ade 21bc 4ec3 153c b2ab ae3c
00000280: 13f8 b4bc 15bb 2b3e be66 283d 8d90 0d3d
00000290: a825 e93d 03eb 4f3d 22b4 ce3d e700 ff3c
000002a0: 6463 c1bc d208 95bc 899e 1ebd 0442 c6bc
000002b0: d50b bfbd 1dd0 2f3e 97d3 32be 12ff 3f3e
000002c0: 71cf abbd 3b4d aabd 397e a03d 38ad 433d
000002d0: 52cc b63d 204a 93bd f79a c63c f3ee 733c
000002e0: 0631 d0bc 8af8 283e e73f babd ba4f bf3d
000002f0: 49a9 9c3d 6fc1 84bd d023 953d fe2e 993d
00000300: 3dc3 35bc 0da7 ea3b ed9e cbbc 8585 8d3c
00000310: 6155 63bc f341 1a3e 7239 383d b016 8bbc
00000320: 8a64 b53c 82b8 6dbd 7fc1 bcbd 9c7b 7a3d
00000330: a6e7 8b3c cbcc b6ba 0749 0ebd 6826 0f3b
00000340: 3d88 0cbb befb a03c c8d6 013c 9797 913d
00000350: b8a7 583d b87a 5abd 9496 81bd 4878 583c
00000360: dc63 fe3c ee79 9c3d 5ee6 52bd 7d84 b7bd
00000370: 96de 82bc 0302 403e 710a 8e3d 7c68 0c3e
00000380: ae89 4ebe 221d afbd 3427 1bbb 793d 4f3d
00000390: fd08 213d 8df6 4dbd 0e22 60bd 06df d6bd
000003a0: 55dc 40bd b8b5 263e eed7 86bd 67ca 463d
000003b0: 5d6d 2a3d 6304 74bc 34fa 47bd 66d0 333e
000003c0: 4a3f ba3c 024e 05bd 24b9 dfbd e1da c8bd
000003d0: f5ce a2bd 1ab6 3b3e e0cd fdbb bd73 21bd
000003e0: b3d3 763d 7143 6fbd c5c4 7f3c be76 3c3e
000003f0: 8fd2 153e a82f 74bd 42b1 07be b097 82bd
-0.040633783 -0.015176422 0.06200729 -0.05864753 0.10879429 0.007498133 -0.104705155 0.18492419
0.071849376 -0.123913065 0.0961381 0.056593556 0.04961759 0.06874859 0.0024947783 -0.14765659
0.004427077 0.12969276 -0.060628887 0.13633765 -0.12152558 -0.08121533 -0.00947179 -0.020983027
0.14444795 0.1786729 0.018407186 -0.17510046 -0.010311947 -0.01479454 -0.0038774011 0.10129371
-0.04086003 -0.009847469 0.037137322 0.043648336 -0.07147763 0.037478503 0.051774926 -0.07957381
0.03007942 0.071578816 -0.032755125 0.0832011 -0.17205344 -0.03766168 -0.014811618 0.07276753
-0.0055558104 0.011749087 -0.03544514 -0.05136493 0.009998124 -0.023528868 -0.021605847 0.17152299
-0.06266354 -0.026228298 0.017389603 -0.025491985 -0.03081437 0.00461634 -0.013411093 -0.07126261
-0.06285804 -0.056509044 -0.038142305 0.057815723 -0.11296425 -0.124869294 -0.034198344 0.14876243
-0.082029894 0.15637043 0.0348365 -0.024882436 0.026288837 0.049161877 0.00593289 0.099625535
-0.09951863 -0.07995225 0.06092966 0.050754163 0.034914266 -0.042187773 -0.10088559 -0.03203344
0.13666344 0.10606797 0.0029767293 0.04512755 -0.047224764 -0.020506902 -0.10893934 -0.019359138
0.018991074 0.12915741 -0.07375729 -0.120629415 -0.037200756 0.059961777 0.0052710953 0.11095089
-0.0097132055 -0.04383426 -0.0034475285 -0.02447882 0.004760659 0.07869738 -0.06561478 -0.13158374
-0.047579262 0.048514903 0.011928108 0.061576564 -0.14190145 0.022860298 -0.101979576 -0.1599241
0.03380289 0.15988289 0.012203731 -0.034611337 -0.03468201 0.042745076 -0.05683864 0.06287701
-0.022738166 0.073302254 -0.12268047 0.02206804 -0.022261627 -0.012665957 -0.030081065 -0.06642745
-0.05139091 0.12258463 0.044977907 0.0053798035 0.11725644 0.04725725 -0.03131559 -0.03748269
0.01608723 0.1330826 0.05050017 -0.04098123 -0.077389196 0.06460195 0.015942223 -0.068066224
-0.026571916 -0.14285792 0.01832372 0.06080784 -0.01441394 -0.009879718 0.009140803 0.021322105
-0.022090947 0.16770585 0.041113608 0.034561682 0.113841355 0.050761234 0.10092951 0.03112836
-0.023606963 -0.018192682 -0.03872541 -0.0242014 -0.09328429 0.17169233 -0.17463528 0.18749645
-0.08389176 -0.08315512 0.07836575 0.047772616 0.0892569 -0.071918726 0.024243815 0.014888513
-0.025414001 0.1650106 -0.0909422 0.093413785 0.07649476 -0.06482207 0.07282221 0.07479666
-0.011093912 0.0071610273 -0.024856055 0.017275581 -0.013875336 0.1506422 0.04497666 -0.016978592
0.022142667 -0.05803729 -0.09216594 0.06115304 0.017078232 -0.0013946531 -0.034737613 0.002184296
-0.002144351 0.01965129 0.007924743 0.071089916 0.052894324 -0.05333969 -0.063275486 0.013212271
0.031053476 0.07640444 -0.051489227 -0.08960817 -0.015975278 0.18750767 0.06935585 0.13711733
-0.20169708 -0.085504785 -0.002367449 0.050595734 0.039315213 -0.050283957 -0.054719977 -0.10491757
-0.047085125 0.16280258 -0.06584154 0.04853287 0.041608203 -0.014893624 -0.048822597 0.17559966
0.022735257 -0.032545097 -0.10923985 -0.09807373 -0.0794963 0.18331185 -0.0077454895 -0.039417017
0.060260486 -0.058413927 0.015610878 0.18404672 0.14631103 -0.05961576 -0.13251212 -0.06376588

network_body.linear_encoder.seq_layers.2.bias f4 [256]
00000000: bc29 13be ee3a af3b b679 74bc 161b 093c
00000010: 7798 0bbc 472e 4cbc d86b 75bd fd56 1bbc
00000020: cb80 033d 0afa 81bd 3517 cf3b 571d f83a
00000030: 1196 a7bc 1e3d 21bd 1bc0 003d 8d6c 3f3c
00000040: d0c8 4cbd 84aa 4bbc c113 1a3c bf36 0fbd
00000050: 2f19 2fbc d930 1ebd f153 f13c ed4e 07bb
00000060: abe9 0e3d c888 e2bd f392 453c 1da9 50bd
00000070: e317 d73b 9bd2 a43a 8d8c 53bc 09ef 01be
00000080: f543 a0bd 9a6c 6dbd 53de 993b a67e 80bd
00000090: 7e4e d23c a84f 21bc 69ae 48bb 4b6f 85bd
000000a0: 88c5 143a 04d1 803c 92f2 69bd cd5f 4ebd
000000b0: 630e f1bc 3054 983b 6ff6 80bd 2402 c23c
000000c0: 3951 62bd f09c 18bd 7651 4a3c f9ee e1bd
000000d0: 1bf6 e2bb b20e c13c 249b b3ba 9f5a b83c
000000e0: c868 263b 48c3 55bd 5b53 d1bc 1d06 8b3b
000000f0: 9fae a5bd d8e7 9ebc 9d97 423b caf6 93bd
00000100: 8037 343c 9e12 7dbd 9c78 b03b 5954 c1bd
00000110: 49e5 b9ba 5518 d03c fe7d 7a3c 39d4 92bd
00000120: 5b48 88bc 3750 9d3b f1e3 9e3b dd4c 31bb
00000130: 0154 88bd 82c1 e23c 7496 a63b fe13 9dbc
00000140: 405d 88bc b555 1d3d acf8 ddbd f693 bfbd
00000150: 4ecc cb3b e545 0fbc 4248 1dbd 42a5 0ebd
00000160: e9b4 2bbc 9b94 1bbd 8d0d febb 986d c7bd
00000170: 7bb9 183c 8726 c6bd b12c 8bbb 62a4 61bd
00000180: 6fbb 41bd e214 46bb 6dad babd 3f5c 2ebc
00000190: c935 7d3c 19dc c3bd 1272 c63c 8b83 76bd
000001a0: 4c08 b9bb fb61 a93c b63e 13bd 6cb3 3abc
000001b0: 14be a5b9 7904 483c 2b23 d73b c221 abbc
000001c0: 6f44 bcbb 1514 b2bb d169 4ebd c663 b4bc
000001d0: 43bd c8bc 7c12 b9bc ada2 8d3c 3c64 943c
000001e0: 2326 6bbc c2a4 213c f897 2e3c 079c b6bc
000001f0: fa6f 533c ffde df3b 1348 bd3b 48ab 463c
00000200: 3b97 6d3b 7d0d 05bd 775e 1fbd fe6d abbd
00000210: c77d 20bd cfd3 33bd 0c0f b7ba 365b 36bc
00000220: 68cf 4dbd f300 acbb 112e 6dba bf16 06bd
00000230: f182 3a3a ae5d 3e3d ce71 b43c 2c54 d03b
00000240: e9f4 26bd 33b8 a4bd 6f2a d0bc b51a e93b
00000250: 4e56 58bc 4de3 0dbd a632 273d f312 82bd
00000260: ee54 ddbc 2de9 5b3b 5b79 86bd 8108 05bd
00000270: c9ab 02be 9462 023c 864b 173c 5184 3bbd
00000280: ad92 03be 3b5d fdbc 3f1f a0bc 155b 103d
00000290: 5a32 413d 233c 53bd af90 8cbd c1cc f5bd
000002a0: 3ba3 32bd 11c0 98bc bbb8 ddbd 5187 88bd
000002b0: f849 82bc 1b44 adbb e76b 31bd 364a 92bd
000002c0: a26f ccbc 053a 92bc c1a2 6dbb 3fd3 5f3c
000002d0: e5a8 63bc 0c0b 47be 296e c9bd 05c6 29bd
000002e0: e29a 383b 2ce5 85bd a2c1 5d3c 3643 22be
000002f0: e947 853c fdb5 9b3c d62a 9dbc 43e0 6fbd
00000300: 718c 94bd e177 93bd ab1b 61bd 4f12 6f3c
00000310: 2277 90bc 430c 71bc d7bd 91bb 705c 1bbd
00000320: acc1 b5bd d84d e5bb 43e9 7eba e400 93bd
00000330: 12f6 5abc a7af 1b3d 1875 d3bb 6960 b73c
00000340: ab25 f0bc 6b20 21bd fe32 a43b 1f10 053b
00000350: bdce e5bc 174e b1bd d5a6 65bd b7e5 fbbc
00000360: a3be 45bd cf07 54bc f9ef 45ba 01e2 253c
00000370: f8cb 753b 9883 5bbc e6e4 6fbd 066b f03c
00000380: 5833 283d 2aa3 3dbd 1388 aabc 22b9 67bd
00000390: e42d b6bd 4513 3cbd bf95 2c3d c2e1 98bc
000003a0: 6a7f 07bc 10df 4bbd 4010 9cbd b37d 11bc
000003b0: 0090 1a3c 0318 2439 d2df 953c 6cd0 b1bc
000003c0: a7f1 0cbe 777a b93c 6ff4 cd3c 42c3 5cbc
000003d0: 5485 06bd 8149 d8bc fb3a 99bc ca48 a33c
000003e0: 68ff 83bd 6fbf f03b f3ac 58bd 4037 07bd
000003f0: f3b4 1fbd 0bb5 81bd e99b 973b 18f2 c5bc
-0.14371389 0.005347601 -0.014921596 0.008368274 -0.008520237 -0.012462205 -0.0599173 -0.009481189
0.03210525 -0.06346519 0.006319905 0.0018929642 -0.0204573 -0.039364927 0.031433206 0.011683595
-0.049996197 -0.012430791 0.009404124 -0.03496432 -0.010687157 -0.038620804 0.029458972 -0.0020646409
0.034890812 -0.11061245 0.012058961 -0.05094253 0.006564127 0.0012574972 -0.012911928 -0.12688841
-0.07825462 -0.0579649 0.0046956926 -0.06274156 0.025672194 -0.009845652 -0.0030621535 -0.06515368
0.00056751864 0.015724666 -0.0571161 -0.05038433 -0.029425805 0.004648708 -0.062970035 0.023682661
-0.05525324 -0.037259042 0.012348523 -0.110319085 -0.0069263107 0.023566578 -0.0013702852 0.022504149
0.0025392044 -0.052188188 -0.025552442 0.004242672 -0.08089947 -0.019397661 0.002969242 -0.07224806
0.01099956 -0.061785333 0.0053854715 -0.09439916 -0.0014182712 0.025402227 0.015288828 -0.071693845
-0.016636064 0.004800822 0.00484895 -0.002705387 -0.066566475 0.027680162 0.0050838534 -0.019174572
-0.016646028 0.038411815 -0.10838446 -0.09354393 0.0062194234 -0.0087446915 -0.03839899 -0.03482557
-0.010480144 -0.037983518 -0.00775308 -0.097377 0.009321566 -0.09675317 -0.004247271 -0.05508841
-0.04729789 -0.003022485 -0.091151096 -0.01064211 0.015454718 -0.09563465 0.024224315 -0.060184043
-0.005646741 0.020676604 -0.035948478 -0.011395317 -0.00031612872 0.012208098 0.0065654716 -0.02089012
-0.0057454626 -0.005434523 -0.050393883 -0.022020232 -0.02450431 -0.022591822 0.017289484 0.018114202
-0.014352354 0.0098659415 0.010656349 -0.022291197 0.012905115 0.006832003 0.005776414 0.012125798
0.003625347 -0.032483567 -0.038908448 -0.08370589 -0.03918245 -0.04390317 -0.0013966276 -0.011130145
-0.050246626 -0.0052491366 -0.0009047697 -0.032736536 0.00071148487 0.04647606 0.022026923 0.0063576903
-0.04076091 -0.08042946 -0.025410859 0.0071137794 -0.01320417 -0.0346406 0.040819786 -0.063512705
-0.027018037 0.0033555732 -0.065661155 -0.032478813 -0.12760843 0.007958073 0.009234315 -0.045780484
-0.12848921 -0.030928245 -0.01954615 0.035243113 0.04716716 -0.051571023 -0.06863534 -0.12001944
-0.0436127 -0.018646272 -0.1082625 -0.066664346 -0.015904412 -0.00528766 -0.043315794 -0.07143061
-0.024955574 -0.017849931 -0.003626034 0.013661205 -0.013895248 -0.19437808 -0.098354645 -0.04144861
0.002816849 -0.06537852 0.013534935 -0.15845951 0.016269641 0.019007677 -0.019185465 -0.058563482
-0.072533496 -0.072005995 -0.054958027 0.014591767 -0.017634932 -0.014712396 -0.0044476795 -0.037929952
-0.088748306 -0.006997805 -0.000972409 -0.07177904 -0.013364332 0.038009312 -0.0064531676 0.02238484
-0.029314836 -0.039337557 0.0050109616 0.0020303798 -0.028052682 -0.086574726 -0.056067307 -0.030749185
-0.04827751 -0.012941315 -0.00075507123 0.010124684 0.0037505608 -0.013398074 -0.058567904 0.029347908
0.04106459 -0.046298184 -0.020816838 -0.05657304 -0.08895472 -0.045916814 0.042134997 -0.018662337
-0.008270124 -0.049773276 -0.07620287 -0.008880067 0.009433746 0.00015649204 0.018295202 -0.021705829
-0.13764058 0.022641404 0.02514097 -0.013474287 -0.032841995 -0.026402237 -0.018704882 0.01993217
-0.06445199 0.0073470394 -0.052899312 -0.033011675 -0.038990926 -0.06333359 0.0046267402 -0.02416329

network_body.linear_encoder.seq_layers.2.weight f4 [256, 256]
00000000: 404e 6f3e af9e 1f3e a8a7 f9bc aeef d33c
00000010: 37e8 e6bd 89c8 bd3c 724f bf3d 5745 fd3b
00000020: a0f8 4abd 0acb e1bd 890f daba c908 8bbd
00000030: cd0c 693c 8ac5 95bc 4582 7fbd 6d0c eebd
00000040: 3afa 3ebe 3a9d 1ebd c249 343d 6298 283d
00000050: 6c0c 203e 2aea 703d 77db ebbc 0dfa aebc
00000060: f128 5abd f5d7 943d e2c1 82bd 0430 1c3c
00000070: 9f08 05be 21f5 2bbd 0f83 2b3c faa1 623b
00000080: ba96 efbb 7ed1 283d c1cb e4bd 9ef7 9ebd
00000090: acc8 49bd 2b8e 21bd 977a 75bc 8878 3a3d
000000a0: 5ab3 823c 7b94 353d 7d20 a23d 60c1 d7bd
000000b0: 28d7 d73b 492e 38bd 9c45 213d 1ae7 23be
000000c0: eb8f 09bb 2ce5 a23d 0f5e 0b3e 9a2a 5a3d
000000d0: 4249 b33c 0557 d43c 98c8 133e 3627 323e
000000e0: 1a68 8b3d fdfc cabc e142 f8ba edea aa3d
000000f0: 24f1 423d c8ef cd3d 1d33 be3d b40f 66be
00000100: 61db cf39 fd2d ec3d dd13 e33d a60f fa3c
00000110: 3240 d0bd 2ff9 613d b423 1ebe a6b5 57bd
00000120: 9f64 d43d 78a0 0f3d 4cb8 6b3d 4e9a f2bd
00000130: fce0 2ebd 2108 44bd a50c 4c3d 201c b1bc
00000140: 6fc5 a2bc dfbc bcbd 58eb d53d fffb 7cbb
00000150: 90c2 d93d f8ae 883d 7beb 73bd c297 343e
00000160: 98c8 fcbd 8c9c d6bd 79d8 173d 81e2 f63d
00000170: 4aff e7bd cbeb 763d e2d5 8f3b 1b7c 0abe
00000180: 4735 11be d6bd e0bd 9747 d9bd ede8 04bd
00000190: a4d8 263c 383d 263d 38cd 143b 8e89 c63c
000001a0: d760 a0bb b981 01be 0e33 9d3d 7a57 a4bd
000001b0: 2de7 4c3d 1473 b6bd 562c 563b edc1 1fbe
000001c0: b411 45be 2bc0 123e ae57 9a3d 8a75 6c3d
000001d0: a48f 1cbe b670 1e3e de9e aabd deab dcbd
000001e0: e0fa 353d a178 9cbd e250 843d c9a8 b63a
000001f0: 8829 c8bd 064a 903b b61c 313d 1c4b c7bd
00000200: adc1 df3c 197c 523d 94f8 57bc 8329 c4bb
00000210: 64b7 68bd d672 18be fdf6 143d 682a ce3c
00000220: 126d 233d 2036 423d 9572 673d 50ca bebd
00000230: d8e3 31bd eeb3 633d 622e 17bd e924 72bd
00000240: 6330 ebbc cd83 04bd 2ca8 b53d 896e cebc
00000250: 338e c4bd 8094 403e 9f72 403e 34b9 bfbd
00000260: 7900 1b3e f910 06bb fcc5 843d bcd7 77bb
00000270: 03d7 d9bd 7571 a2bd 26ea 433d e1ef 703b
00000280: 3d76 3abe 510a a4bd 3131 dc3d bae7 b1bc
00000290: e26a 2cbd 79cf f03d bb8b bebd c61e 5e3d
000002a0: 7136 b7bc eb1d db3d 2481 71bc 6a72 66be
000002b0: 6e3d 153d 06e7 133e 1bd2 d6bd 3a48 52bd
000002c0: 0740 2cbd 4ec0 babb d081 b43c f644 bf3b
000002d0: da0c 40bc bb2c 06be 58ec 223e e945 99bd
000002e0: 71ed 403d 4426 583d b65f 18bd e25e 09bd
000002f0: 291e a33d eed2 82bd 5a87 d33d 1f59 3d3e
00000300: b6a4 403c 9bd3 90bd 3305 3a3d 7a79 0fbc
00000310: 58fc 1dbd 9e9d b43d a9c2 2b3e 7bae 96bd
00000320: 6b40 393d e940 90bd 1b1f da3c 165e dabd
00000330: c4ec 74be 426f c93d 3e9c 993c 255c e5bc
00000340: 07aa 9abd 98aa 6e3d 1b30 dc3d dae2 50bd
00000350: f3a4 843b 0911 263d 226e b03d 387c 703d
00000360: 6f27 2b3e b428 30bc 96b0 9f3d 93d4 423d
00000370: 2408 d03d 146b 38bd d4a3 ad3d 0c76 393d
00000380: e98c 793d ebc6 88bc 40dc 073e 511b ae3c
00000390: c353 7ebe b482 dfbd f289 ed3d ca3e e33d
000003a0: 14c5 0c3d e895 a2bd 124d 16bd 6f6b 043e
000003b0: 049a 863d 25ab 6cbd 9ed3 06bd acd5 fb3d
000003c0: 76d6 55be eda1 993d 5ebd 123d fd4a 993a
000003d0: edcb 443d f465 a8bc 4881 13bd 69ea 9f3d
000003e0: b143 bf3c a97c a93d ee53 293d ac82 0cbe
000003f0: 7220 a73d 7308 18be db6c 813d f2a2 14bd
0.23369694 0.15587877 -0.030475453 0.025871124 -0.1127476 0.023166912 0.09341325 0.007729213
-0.049553514 -0.11025055 -0.001663671 -0.06788785 0.014224243 -0.01828267 -0.062380094 -0.11623464
-0.18650141 -0.03872416 0.044015653 0.04116095 0.15629739 0.058817066 -0.028791172 -0.021359468
-0.0532617 0.07267753 -0.063846365 0.009532932 -0.1299157 -0.04198182 0.0104682585 0.003458141
-0.007311669 0.041215412 -0.111716755 -0.07762073 -0.04926364 -0.039442223 -0.014982841 0.045525104
0.015954662 0.044331055 0.07916353 -0.1053493 0.006586928 -0.044966016 0.039373025 -0.16006127
-0.0020990323 0.07953867 0.136101 0.053263284 0.021885518 0.0259204 0.14431989 0.1739777
0.06806965 -0.024778837 -0.001894083 0.0834559 0.04759325 0.100555 0.09287093 -0.22466928
0.00039645567 0.11532209 0.11087773 0.03052504 -0.10168494 0.05516928 -0.15443307 -0.052663468
0.103707545 0.035065144 0.057548806 -0.118458375 -0.04269503 -0.047859315 0.049816746 -0.021619856
-0.019869534 -0.09215712 0.10445279 -0.003860235 0.10632813 0.06673998 -0.059550744 0.17636016
-0.12342948 -0.10479078 0.03707168 0.12054921 -0.113279894 0.060283463 0.0043895105 -0.13523905
-0.1418048 -0.10973708 -0.10609358 -0.032448698 0.010183487 0.040585726 0.0022705328 0.024235513
-0.0048943567 -0.12647142 0.076757535 -0.08024497 0.050025154 -0.08908668 0.0032680235 -0.1560132
-0.19245034 0.14331119 0.07536255 0.05772928 -0.1528917 0.15472683 -0.08331083 -0.107749686
0.044428706 -0.07640196 0.0646074 0.00139358 -0.097735465 0.0044033555 0.04324027 -0.09731123
0.027314031 0.05138788 -0.013181824 -0.005986394 -0.05681552 -0.14887556 0.03636836 0.025166705
0.03989894 0.0474149 0.05650576 -0.09315932 -0.04343018 0.055591516 -0.03690947 -0.05911723
-0.028709596 -0.032352258 0.08869967 -0.025199192 -0.09597435 0.18806648 0.18793724 -0.093614966
0.15136899 -0.0020456894 0.06483075 -0.0037817797 -0.10636713 -0.079317965 0.047830723 0.0036764073
-0.18209167 -0.0800978 0.1075157 -0.021716941 -0.04209412 0.11758322 -0.09303995 0.054228567
-0.022364827 0.10699066 -0.014740262 -0.22504583 0.036435537 0.14443597 -0.10489293 -0.051338412
-0.04205325 -0.005699194 0.022034556 0.005837078 -0.011721814 -0.13103001 0.1591047 -0.074840374
0.04710144 0.052770868 -0.037200652 -0.033537753 0.07964737 -0.06387888 0.10328551 0.18491028
0.01175802 -0.070716105 0.045415115 -0.00875699 -0.038570732 0.088191256 0.16773476 -0.07357498
0.04522745 -0.07043631 0.02662616 -0.10662477 -0.23918444 0.09835674 0.01875126 -0.02799804
-0.075519614 0.05826816 0.10751363 -0.050997593 0.004047984 0.04054359 0.08614756 0.058712214
0.16714261 -0.010751892 0.07797353 0.047566008 0.10157803 -0.045023993 0.08478513 0.045278594
0.060925398 -0.016696414 0.13267612 0.02125326 -0.2483664 -0.109136015 0.115985766 0.110959604
0.034367636 -0.079387486 -0.036694594 0.12931608 0.06572345 -0.057780404 -0.032916658 0.12296614
-0.20882592 0.07501588 0.035825126 0.0011695322 0.04804604 -0.020556428 -0.036011964 0.07808382
0.023347707 0.0827573 0.041339807 -0.13721722 0.08160485 -0.14846973 0.06319591 -0.03628821
