Project/Assets/MyProject/Chaser/CVR 5/Models/ver 2/PoliceBrain.onnx (onnx, 669192 bytes, 6 tensors)

action_model._discrete_distribution.branches.0.bias f4 [7]
00000000: 5c91 dbbb aca4 aebb bb19 803c 646b 39bc
00000010: 709d e73b 87cd 2bbb 19ac 993c
-0.006700678 -0.005329689 0.01563727 -0.011317108 0.0070683286 -0.0026215033 0.01875882

action_model._discrete_distribution.branches.0.weight f4 [7, 256]
00000000: 8ce0 1bbe 4140 853d 0b8b b33c 78de 92bc
00000010: 8c34 1dbd 2320 f33c 0934 e23c 3a4e 643d
00000020: 435c f5bc 6b32 d0bd ef6b 25bd ddb0 febc
00000030: c706 223d 46c6 d03c d699 22bd b3a1 cabc
00000040: 4a7f 2b3d 37c6 47bd 37dd 1abc 6f9b ab3d
00000050: 6623 5d3d 1238 e7bd dbf2 0bbd 16ac bcbd
00000060: f2a0 163d 0591 15bd 11e0 bd3c 5296 1a3b
00000070: 0390 babc d2a6 97bb c8bc 873d 263d 2a3c
00000080: 87b2 4d3c 9330 1a3c 06d0 043d 76f3 9c3c
00000090: 7111 093d d018 89bd 1274 20bb 5917 383d
000000a0: 8cee c2bc a2e7 04bc d4c9 53bd f8ed 09bd
000000b0: 54cb 9dbd ddae e33c 564e fdbd 708a 9abd
000000c0: a844 f33c eee0 32bb a8a2 89bc 4959 ccbd
000000d0: c956 0abd 57f4 e63a 072a 7c3d e79a 563c
000000e0: f216 d23c 469c 4c3d bd1c 5bbc 3a64 793b
000000f0: c506 35bd 7e23 8ebd 7062 923d 0536 7dbd
00000100: 3afa 21bd 2022 6d3c a5ee 75bb 09a4 143d
00000110: 74cb 483d 04a4 83bd 39ea ebbd e971 ebbc
00000120: 74fc e7bc df44 9b3c 50fd 783c 37a2 283a
00000130: f346 17bd 500f b2bd f83d 59bd 6220 97bd
00000140: f738 093b 8097 593d e655 c6bd e45c dbbc
00000150: 03c6 3bbd 2cfc 03bd 4112 8cbd 369d ac3d
00000160: e1a9 8bbc 85de ed3c 14a1 c33d cfba 98bb
00000170: 3971 acbd 61cf 22bd ec0b 143c 108c 38bd
00000180: ad8e a13c 9e1a 36bd 563b 703b 66a1 93bd
00000190: 2c46 55bd 7c2d 34bd 4b30 fcbc 2e98 d2bd
000001a0: d77d 1bbe 1dff 6cbc 6bb1 f73c 4ee0 e13c
000001b0: 7fc4 e8bd 3154 17bc f1d7 363d 183b 103d
000001c0: 260f cdbd 698c 38bd db1b 41bd 3fc8 95bd
000001d0: 5ffb 83bd 4c66 cc3c 5550 c73c 7f0b babc
000001e0: 91fb a1bd 5645 bcbc 4079 9cbc d60f 67bd
000001f0: 3cc5 bbbd fb2c 953c 0ff9 aa3c 5a76 76bd
00000200: 1080 06bd bdcb 3cbd 3dda b83d 621a 22bc
00000210: e245 e23c ce59 a33c 2fa7 c03b 22fb cabc
00000220: 9a87 353c 3ead 89bc 91c8 8fbc 8461 4b3c
00000230: c033 a9bb 3fe9 4ebd 1df5 cabd c2a2 8ebd
00000240: 4f40 8c3d fc24 cdbd e5a2 1cbd 4dd4 37bd
00000250: bb27 ddbd b538 b63a 544d cb38 7ea0 1fbb
00000260: dcf4 b53d a40f b33a 2b09 9cbc c009 313c
00000270: 497b 47bd da17 393d 1f44 023d 932d 6fbd
00000280: b8b1 cc3c cacf 61bd 37f3 81bc 0275 52bd
00000290: 0928 b4bd 934f 94bd d119 4f3d ffd5 063d
000002a0: c1e5 55bd 2da3 763d 1c08 4b3c c41e 7cbd
000002b0: e764 933c 7843 6d3d c1c8 b33b edc7 e5bd
000002c0: 92e2 4abb 0131 b1bd 36d3 b8bd 4366 a0bc
000002d0: 62af 5a3d a5b0 6dbd 8286 89ba ee4b 04be
000002e0: 483e e0bd 35e9 053d b016 cdbc adf0 a5bd
000002f0: f126 b8bd b3c9 23bb 5d18 0bbd c5d9 ccbc
00000300: 2cd5 8dbd 0197 59bd 2f22 183d 19bc b83c
00000310: dfd9 153d 3574 8ebd 95c5 013d b9e1 eabc
00000320: 2db5 4b3d 1a3f a83b 0063 2dbb 9dec 3b3d
00000330: acf4 733d bc6e 283c d234 68bc 5857 a4bc
00000340: 9268 4abc 5911 06bd d382 85bc 4977 e4bc
00000350: 83a3 fdbd a942 38be 422c 11be 32ea be3a
00000360: 632c 603d 950e d63b 9dc1 abbc bd9c 023d
00000370: d273 a83d e585 b83d 6606 1abd 1e86 8cbd
00000380: e952 103c 7b10 f33b 2f79 b8bd e4d7 023c
00000390: 2531 b9bd a21b 9cbd 7508 b3bc 5a46 afbd
000003a0: 214c 1ebd 5e74 f9bc a0fe 853d 9cee 73bd
000003b0: 5012 c8bd a7aa 41bd e871 ae3b ac5c 1f3d
000003c0: abe5 123d 1bc4 fd3b 509b f33c 18e7 4dbd
000003d0: e8e7 dd3c e2ce c93c 71d7 a03d d64f 963d
000003e0: 348a 29bd 9e86 54bd 6e00 a53c 250e d337
000003f0: f949 54bb 1dfc a2bd 77dc 263d 8b68 89bd
-0.15222377 0.06506396 0.021916887 -0.017928347 -0.03838019 0.02967841 0.027612703 0.055738665
-0.02995122 -0.101658665 -0.040386137 -0.031090194 0.039557245 0.02548517 -0.03969749 -0.024735307
0.04186944 -0.048773017 -0.009452156 0.08379256 0.053988837 -0.112899914 -0.034167152 -0.0921251
0.036774583 -0.036515255 0.023178132 0.0023588133 -0.022773748 -0.004628041 0.06627804 0.0103905555
0.012554771 0.009410995 0.03242495 0.01915906 0.0334639 -0.06694186 -0.0024483246 0.04494414
-0.023795389 -0.008111866 -0.05170615 -0.03367421 -0.077047974 0.027793342 -0.12368457 -0.07545936
0.029695824 -0.0027294713 -0.016801193 -0.09977967 -0.03377417 0.0017620426 0.061563518 0.013098455
0.025645707 0.04995372 -0.013373551 0.0038054124 -0.04419591 -0.06940363 0.07147682 -0.061819095
-0.039545275 0.014473468 -0.0037526276 0.03628925 0.049022153 -0.06427768 -0.11519284 -0.02874084
-0.028318621 0.018953739 0.015197113 0.00064328633 -0.036932897 -0.08694327 -0.053037614 -0.073792234
0.0020938495 0.053122997 -0.096843526 -0.026777692 -0.045843136 -0.03222291 -0.06839419 0.08428423
-0.017048778 0.02903677 0.095522076 -0.004660941 -0.08420033 -0.039748553 0.0090360455 -0.04505545
0.019721353 -0.044458978 0.003665646 -0.07208519 -0.052068874 -0.04398869 -0.030784747 -0.10282932
-0.15184723 -0.014465121 0.030235967 0.027572777 -0.11365604 -0.009236381 0.04463953 0.035212606
-0.10012655 -0.04505578 -0.047145706 -0.073135845 -0.064444296 0.024951123 0.024330297 -0.02271056
-0.079093106 -0.02298228 -0.019100785 -0.056411587 -0.09168479 0.018209925 0.020870714 -0.060171463
-0.032836974 -0.046092737 0.09026001 -0.009893985 0.027621213 0.019940283 0.005879305 -0.024777953
0.011079693 -0.016806241 -0.017551692 0.012413386 -0.00516364 -0.05051541 -0.09910033 -0.06964637
0.068482034 -0.1001682 -0.038241286 -0.0448802 -0.107985936 0.0013902398 9.694198e-05 -0.0024357135
0.08884594 0.0013661277 -0.01904734 0.010805547 -0.04870156 0.045188762 0.031803247 -0.058393072
0.024987087 -0.055129804 -0.015863044 -0.05138112 -0.087966986 -0.0724174 0.05056173 0.032918926
-0.052221064 0.06021421 0.01239207 -0.061552778 0.01799245 0.05792567 0.005486578 -0.112197734
-0.00309578 -0.08651925 -0.0902466 -0.019580012 0.053389914 -0.05802979 -0.0010492357 -0.1291959
-0.10949379 0.032693107 -0.025035232 -0.08102546 -0.089918025 -0.0024992048 -0.03395878 -0.025006184
-0.06925425 -0.053122524 0.037141975 0.02255063 0.03658473 -0.069557585 0.03168257 -0.028672086
0.04973333 0.0051344754 -0.0026456714 0.04587995 0.05955951 0.010280307 -0.01417275 -0.02006118
-0.012354033 -0.032731388 -0.016297733 -0.02788891 -0.12384703 -0.17994179 -0.1417704 0.0014565645
0.05472983 0.0065325 -0.020966345 0.03188776 0.08225216 0.09009913 -0.03760376 -0.06861518
0.00880883 0.007417736 -0.09007489 0.007986043 -0.09042577 -0.07622458 -0.021854619 -0.0855834
-0.03864682 -0.030450996 0.065427065 -0.059553728 -0.09769118 -0.047281887 0.0053236373 0.03890674
0.03586356 0.007744325 0.029737145 -0.050269216 0.02708812 0.024634782 0.07853592 0.07339446
-0.041391566 -0.051886193 0.020141806 2.5159747e-05 -0.0032392724 -0.07958243 0.040737595 -0.06709393

network_body.linear_encoder.seq_layers.0.bias f4 [256]
00000000: ae4f 6f3c 2947 9d3c ea34 e53c 6f28 993c
00000010: 2363 5a3d 2f55 b3bc 3b76 803b 2211 423b
00000020: 4583 4e3c 4703 2fbb 8acb e43c 0944 ce3c
00000030: c608 833c c531 923c 36b5 49bc 1c9c 743c
00000040: bce7 383d 3ade b93c 57b1 053b eb80 93bb
00000050: 329b 9c3c 4292 86bc 3f9b be3c 5e3e 473b
00000060: 0897 9cbb b61a a7bb 6d5e 523c 03bc 47bb
00000070: 58b5 5a3b e246 c1bc e9bb d83c 90e3 263c
00000080: 91ba b63b 33bf 6d3c 85ac 4d3c e58a 023d
00000090: 94a2 b93c 568a 703b f62a bd3c dbcb ab3c
000000a0: 32a2 d73c 30f2 d2bd cfab 223c 3787 64bc
000000b0: 4699 bbbc 0d14 263c 71fc 0a3d 9726 e43b
000000c0: a39c c03c e80a 26bc 352d f03b f982 163c
000000d0: b00b 8e3b 4467 4cbb 627b dabc 4aa9 983c
000000e0: 7c4c 43bb 4177 13bd ddaa 033d 46ad 37bc
000000f0: 07a5 d83c 6b3d e7bb 0a4e 843b c171 623b
00000100: 131f 9a3c de49 0cbc a46b 2d3c f7c8 363d
00000110: 7331 a53a 8ddf 653c 5088 413c 6a6d 1bbc
00000120: e210 bebb ff80 783b d6be 943b 0b1b 4f3c
00000130: 2ae9 67bc b1bd 203d 687d 733c b5ba e43c
00000140: d15c 07bd e396 edbc a8be 203d c295 df3c
00000150: 86b3 053c 38e8 313c 5e10 a2bc eb1a 9e3b
00000160: fdfa 103b fe0d c1bb 876e 103d fe26 c63b
00000170: 7daf 1dbc 0aa0 bc3c 27d0 413c 16d4 4bbc
00000180: c9a3 093d 13ee 6f3c 01a9 3b3c 0575 b63c
00000190: 9666 7b3b 72d6 4e3c 226e 6dba 6ba8 0bbd
000001a0: f6bb d13c 2f24 33bc 6a76 4b3c 9455 77bc
000001b0: d12a 9f3c ba5b 8eba c625 1c3d 631e 8f3c
000001c0: bc80 033d 2644 19b9 c5b6 893b 5da1 ab3c
000001d0: b79c 66bc 0b56 6b3c 7ed0 8e3b 3958 223d
000001e0: 5a7a cb3c 3e3b f83c bfed f23c e9c3 5b3c
000001f0: e60c debc 184f e5bb 05b6 2e3b ac20 97bb
00000200: 3cd2 bfbc 6230 9abb fa09 93bc 8e4e bb3c
00000210: 1041 a63c 9360 173b f03a 313b 6cba 563b
00000220: 3a26 0b3d aa0a c3bb 4f00 153b 26e6 8e3c
00000230: d69a 3c3a f273 60bc 64c7 573c 376d d73b
00000240: 0164 3cbc b5aa 7dbc 9082 95bc 14e0 f73b
00000250: 4829 fa3b b858 8f3c 917d f2bb 0527 c5bc
00000260: 23e1 573c a750 e2bc 8534 c63c 9ff0 cd3c
00000270: 204f 42bc 9697 dd3c 429d 693b fac2 22bc
00000280: 3341 cc3c d45e 453c 6dc2 1e3c ddfd e43c
00000290: 90f3 9ab9 93c2 a2bc 65b4 123d 1095 9a3c
000002a0: 931e c63c d9cd 273d baa5 65bd 2a22 823c
000002b0: bfb0 02bd aa2c cf3c d1a7 4b3d 34a1 fd3b
000002c0: 4b6e 63bc 1a79 a8bc 189e f73b da6d 5abb
000002d0: e469 0dbb 677f c9bc 9c83 cb3c 685d 19bc
000002e0: 9bcc 503b 0da5 573c 450a 2cbb 930c 893c
000002f0: b28f e03c f5be bb3c f1c3 433a 4670 103c
00000300: 2871 263c 3ee7 dbbb cc20 d6bc ccb5 d1bb
00000310: d212 063d aa45 13bc 3c3b 8f3c 35b8 a6bb
00000320: 1ce1 7fbc 7faf 8c3c c861 1c3c e7bd 4ebb
00000330: 4237 11b9 33ff 5b3c 3ee4 293d 2fa9 74bc
00000340: 6d99 e1bc 5487 adbb 6243 a33b 2c68 2d3c
00000350: 2094 f23b 2908 fdbc b31f e13c 4865 28bd
00000360: 27a9 fd3b 1a96 f43c 91ee ba3c 16fc 8f3c
00000370: b27b ff3b 4b6b 073d 4aad fb3c 0cca 963c
00000380: 60de 5e3c fbc6 5b3c b348 83bc 3dc2 bd3c
00000390: 887e 44bb ec05 17bc 5a48 863c 21a6 c13b
000003a0: cfbc 56bc 2b2f 63bd fd8d 153d 29f3 963c
000003b0: 751f 85ba 92fa bcbc 9b6d 1a3c b861 063d
000003c0: f89b 823c d433 3d3c 4809 963c ada5 c33b
000003d0: 4872 92ba 03d9 aa3b cd54 ba3a 831c 27bc
000003e0: 4aa1 bbba b3fc 703c 8ebe cf3c fd5d 033d
000003f0: b297 1bbc 2050 fc3c 61be f63c d373 e03b
0.014606399 0.01919897 0.027979333 0.018696038 0.0533172 -0.021891205 0.003920344 0.0029612263
0.012604539 -0.0026704834 0.027929086 0.025178926 0.015995394 0.017845998 -0.01231127 0.0149297975
0.045142874 0.022688974 0.0020399892 -0.004501452 0.019116972 -0.016427163 0.023267386 0.0030402164
-0.0047787465 -0.0050996197 0.012839896 -0.0030477054 0.003337225 -0.02359337 0.02645679 0.010186091
0.0055764397 0.0145109175 0.012553339 0.03187074 0.022660531 0.0036703548 0.023091774 0.02097123
0.026322458 -0.103001 0.009928658 -0.013948253 -0.022900235 0.010136616 0.033932153 0.006962608
0.02351219 -0.010134436 0.007329608 0.0091865 0.0043348894 -0.003118948 -0.026670162 0.01863541
-0.0029800227 -0.0360024 0.03214537 -0.011210745 0.026445879 -0.007056882 0.0040376233 0.0034552666
0.018813645 -0.008562533 0.010584746 0.04462525 0.0012603238 0.014030349 0.011812285 -0.009486536
-0.0058003524 0.0037918685 0.004539351 0.012640725 -0.014154712 0.039243404 0.014861442 0.02792106
-0.0330475 -0.029002612 0.039244324 0.02729309 0.0081604775 0.010858588 -0.019783195 0.004824986
0.0022122257 -0.0058915606 0.035261657 0.0060471287 -0.009624359 0.023025531 0.011829413 -0.012440702
0.033603463 0.014644164 0.011453868 0.022272596 0.0038360707 0.01262437 -0.00090572436 -0.034096163
0.025602322 -0.01093392 0.012418369 -0.015096087 0.019429596 -0.0010861077 0.03812196 0.017470544
0.032105193 -0.00014616604 0.004202696 0.020950967 -0.01407545 0.014363776 0.0043583503 0.039634917
0.024838615 0.030301686 0.029654382 0.013413408 -0.02710576 -0.006997954 0.0026658785 -0.004612049
-0.023415677 -0.0047054747 -0.017949093 0.022864606 0.020294696 0.0023098334 0.0027043186 0.0032764925
0.033972003 -0.005952199 0.002273578 0.017443728 0.0007194703 -0.0136995185 0.013170097 0.0065742987
-0.011498452 -0.015482594 -0.018250734 0.007564554 0.0076343156 0.01749836 -0.0074002226 -0.024066458
0.013176235 -0.027626349 0.024194965 0.025139151 -0.011859685 0.02704982 0.0035646711 -0.009934181
0.024933433 0.012046535 0.009689909 0.027953083 -0.00029554637 -0.01986817 0.03581657 0.018869907
0.0241845 0.040967796 -0.056066252 0.015885431 -0.03190684 0.025289852 0.04972059 0.007740164
-0.013881276 -0.020565558 0.007556688 -0.0033329637 -0.0021578008 -0.024596883 0.02484303 -0.009360649
0.0031860236 0.01316191 -0.0026251238 0.016729629 0.02741227 0.022918204 0.0007467857 0.008815831
0.0101588145 -0.006710916 -0.026138686 -0.0063998457 0.032732792 -0.008988777 0.0174843 -0.005087877
-0.015617635 0.017173527 0.009544797 -0.0031546296 -0.00013848863 0.013427543 0.041477434 -0.014932915
-0.02753898 -0.0052956734 0.004982398 0.010583919 0.007402912 -0.03088768 0.027480936 -0.041112214
0.007741112 0.02985673 0.022818835 0.017576259 0.007796728 0.033061307 0.03072228 0.01840689
0.013602823 0.01341414 -0.016025877 0.02316391 -0.0029982645 -0.0092177205 0.016391922 0.0059096967
-0.013106539 -0.055464905 0.036512364 0.018426495 -0.001015647 -0.0230687 0.009425546 0.032808036
0.015943512 0.011548001 0.018314973 0.005970678 -0.0011172974 0.005213858 0.0014215946 -0.010199669
-0.0014315036 0.014708686 0.025359418 0.032072056 -0.009496616 0.030799925 0.030120077 0.006849745

network_body.linear_encoder.seq_layers.0.weight f4 [256, 386]
00000000: 522c adbd a413 aebd 12f5 553d ece9 833c
00000010: 95d9 593b ccea ef3d b4cc b03c 510d 783c
00000020: dc7e b9bc a605 833d 7912 d4bc 5488 063d
00000030: 47a5 24bb 1034 eebc 777b 76bc 054f 423d
00000040: f199 8c3d 504e 553c 2d91 7f3b 5bf8 aa3d
00000050: 44fd ba3d bbb7 513b 33c3 d4bd c27b aebc
00000060: 4a48 ed3d 91a0 dd3d a0d8 95bd 3f31 13be
00000070: 6446 093d 0b5a 8d3d 33b7 0fbe 053d c2bd
00000080: 0359 ae3d a739 083e 6609 393d 08d0 2cbe
00000090: feee 22bd 9196 133c 946f 083d 61f8 0a3e
000000a0: dbce af3d 529f 2b3d a072 a53d 399e 31bd
000000b0: 69db efbd 2ac8 8bbd 6ce7 583d 320b 48be
000000c0: a3eb e43d 0cb3 423d b2cb 5d3e 3fbf 8ebe
000000d0: 0061 2f3b 7cf0 4dbd f7dc 0d3d fea2 9dbe
000000e0: 7e14 4d3d 7724 f2bc 6f79 99bc 2095 a6be
000000f0: 7008 ca3c 4768 2bbd 247e a2bd f2b5 093e
00000100: 2a5f 1abe df5d 1f3d 95e6 be3d ac80 a7bc
00000110: e106 64bd c449 2abd 7466 a63d 5cdd 533e
00000120: adf7 783d 8886 743d 7a53 f63c d4ac 8a3d
00000130: f095 7f3d 0025 303e 6457 dfbd e0d0 f6bc
00000140: 1821 fa3c cf19 ec3a d87f f63c 44e5 553d
00000150: 7998 d23d efc0 6ebc 2319 f03d 37df 2a3c
00000160: f3c1 a03d 6d79 123d ae25 53be 2f68 debd
00000170: c112 e3bd 3821 693e 87a7 3d3d d128 69bd
00000180: e986 853d 46b2 333d f01c ea3c af2f 2fbe
00000190: a5a5 76be 8101 ccbc 2325 01be cf89 873e
000001a0: 7efc e33d cfc8 f2bc 45af eb3c 4078 163e
000001b0: 438a 34bd 1c01 ea3b 926a 66be 54eb d13c
000001c0: a923 23bd f959 a43e 0e15 c93c 335e dbbd
000001d0: bef6 323d c248 12bd c9d8 fb3d f3b1 28bc
000001e0: 108a 5fbe 0d71 cebc fb59 ff3d d28b 0e3e
000001f0: 6f7f 293d 06d4 7cbd f6e5 8ebd 8f04 afbd
00000200: 1581 4f3e d439 84bd cf4a e9bc c96f 96bd
00000210: ba06 8e3d 5ea0 e7bc 7506 073e cf67 d4bd
00000220: a23e 8abd a285 b53d 6a9b 17bc 06d9 a63c
00000230: d425 a03d 3f83 8d3c 3ad6 4bbc 18ee 02be
00000240: 3fef 3f3d fdb0 c5bd cf6a f43d 817a e0bc
00000250: 928c 913d 4f6a 23bd 42f0 2b3e 38b5 9f3c
00000260: 82c1 37bc fabb 23be e1e6 833d c507 a4bd
00000270: e53e 583d cc2a 9d3d 8bdf cc3d ecc5 99bd
00000280: 6368 4b3e 70bf 94bb ee6f 663b 76fa 06be
00000290: 364b b23c 1450 073d ca17 54bc 6b23 413e
000002a0: 1bd5 12bd c010 11bd bd6d b73d 3703 c63d
000002b0: 7541 b93b f56e 673b aee1 11be 00a7 19bd
000002c0: 450f 9b3c b669 153e 2e0e 9abc fb19 f4bd
000002d0: 7804 0dbd adc6 873d bc00 003c c16f 90bd
000002e0: f72c 05be fc5f 2cbd c585 0bbd 929b a33d
000002f0: c867 d73d f9f3 2d3d be3a f03c c8a7 f43d
00000300: e623 9a3d 9f97 9fbd fb09 08be d480 733c
00000310: 6c3a 11bd e00e 2e3d c8a6 813e 2b4b 003e
00000320: 365b d8bd 52f0 a53b aa7c b43c c9b7 00be
00000330: 2b7c c3bd f0c4 ad3c 7318 a23d 2b5c db3d
00000340: 637e 693e 0f00 c03d 0db4 1dbc b171 733d
00000350: 2e5a 9b3d 103e 14be 9ebf 42bd a977 033d
00000360: f4c1 343d aa3d 6abd a386 603e 9680 503c
00000370: 698e 22be b2b2 93bc 2a40 e83d 088b 2c3e
00000380: 4b99 943a 426b d3bc da29 563d 9aec d8bd
00000390: 8f40 2b3e 86cb a5bd 2d61 4ebd 256d af3d
000003a0: 61af 083e 7494 233e f868 e3bd 2fd5 6a3d
000003b0: 746d ad3d 4d68 c13d 45e0 213d 745e 053d
000003c0: cfa2 80bd dce6 3b3b e685 1abd 660e 023e
000003d0: afe2 583d a5cd fbbd 45af 563d 1b50 49bc
000003e0: 11af 813e 014b f4bc 8190 6c3d 7299 4f3e
000003f0: 9daf 8e3d 0a5a 223e 96ca cd3d b557 36bd
-0.08455719 -0.0849984 0.05223567 0.016102754 0.0033241261 0.11714706 0.021581985 0.015139894
-0.0226435 0.06397562 -0.025887715 0.032844856 -0.0025122927 -0.02907756 -0.015044085 0.04743864
0.068652995 0.013019159 0.0038996444 0.08348151 0.09130338 0.003200038 -0.10388794 -0.021299247
0.11586054 0.10821641 -0.073167086 -0.14374255 0.033514395 0.0690194 -0.14034729 -0.09484295
0.085130714 0.13303243 0.04517498 -0.16876233 -0.039778702 0.009008066 0.033309534 0.13571312
0.085843764 0.041899987 0.080785036 -0.043363784 -0.11711771 -0.06825288 0.052955076 -0.1953552
0.11177757 0.047534034 0.21659735 -0.27880284 0.0026760697 -0.050278172 0.034634557 -0.30788416
0.05006837 -0.029558403 -0.018734662 -0.32535648 0.024662226 -0.041847493 -0.07934216 0.13448313
-0.15075365 0.03890788 0.09321324 -0.020447098 -0.055670623 -0.041574255 0.0812501 0.2068991
0.060783077 0.05969861 0.030069102 0.067712456 0.06239885 0.17201614 -0.1090534 -0.030128896
0.030533358 0.0018013063 0.030090258 0.052220598 0.10282988 -0.014572366 0.117235444 0.010429195
0.07849493 0.035760332 -0.20619842 -0.10859715 -0.110875614 0.22766578 0.046302345 -0.05692369
0.06519873 0.043871187 0.028578252 -0.17108034 -0.24086626 -0.02490306 -0.12611823 0.26472327
0.111321434 -0.029636769 0.028770098 0.14694309 -0.04407717 0.0071412455 -0.22501591 0.025624909
-0.03982893 0.32099894 0.024546172 -0.107113265 0.043692343 -0.03571392 0.12297208 -0.010296333
-0.2183001 -0.025200391 0.12468334 0.13920525 0.041381296 -0.06172564 -0.06977455 -0.08545791
0.20264085 -0.06456342 -0.028478054 -0.0734554 0.06934877 -0.028274711 0.13186057 -0.103713624
-0.067502275 0.08863379 -0.009253362 0.020367157 0.07819715 0.017274497 -0.012441212 -0.12786138
0.046859022 -0.096528985 0.119344346 -0.027402164 0.0710689 -0.039896306 0.1679087 0.019495592
-0.011215569 -0.15989676 0.06440521 -0.080092944 0.052794356 0.076741785 0.10003575 -0.07508454
0.19864039 -0.0045394227 0.003516193 -0.13181481 0.021764379 0.033035353 -0.012945125 0.18861167
-0.035847764 -0.035416365 0.08956478 0.09668582 0.005653555 0.0035313938 -0.14246246 -0.03751278
0.01892818 0.14591107 -0.01880559 -0.11919018 -0.03442809 0.06629691 0.007812675 -0.07052565
-0.13005434 -0.042083725 -0.03406312 0.07988657 0.105178416 0.042469 0.029324885 0.11946064
0.07526378 -0.07792591 -0.13285057 0.014862258 -0.035456106 0.042494655 0.25322556 0.12528674
-0.10564272 0.005064049 0.0220321 -0.12570108 -0.095451675 0.021212071 0.079148196 0.10710939
0.22802119 0.09375011 -0.009625447 0.059434596 0.0758556 -0.144768 -0.04754602 0.03209654
0.04413028 -0.057187714 0.2192636 0.01272597 -0.15874638 -0.018029545 0.11340363 0.16849911
0.0011337189 -0.02580798 0.052286007 -0.10592003 0.16723846 -0.0809546 -0.050385643 0.085657395
0.13348152 0.15974599 -0.111040056 0.057332214 0.08468142 0.09443722 0.03952052 0.03256078
-0.06281053 0.0028671538 -0.03772535 0.12700805 0.052950557 -0.12295083 0.052413244 -0.012287165
0.25328878 -0.02982092 0.057754997 0.20273378 0.06967089 0.1585466 0.10048406 -0.044517238

network_body.linear_encoder.seq_layers.2.bias f4 [256]
00000000: 063e 133d b786 21bd 9607 0dbd 222b b0bb
00000010: 251b 1abc e943 4dbd 35d2 f23c 84b1 883d
00000020: f3a9 92bc 5be6 243d 3288 a9bc 54bd 4f3c
00000030: d513 193d 4f02 8ebd ce96 63bc b1f8 b4bc
00000040: f98e 083d 5205 773d 7fea c2bc 066b f13c
00000050: 8f6a 59bd 2bef ed3c d2fc 2abc 5a6e 4f3c
00000060: c455 61bc 9520 90bd 061e 19bd a972 26bd
00000070: 369d 2a3c 21d5 5cbd 3a92 1abd 857a e33d
00000080: f245 8cbd 638f 0c3d 7e71 0dbd cd97 a5bc
00000090: 8aed 283d 0b8e 4ebd be6b 56bd 8692 96bc
000000a0: f8d1 8f3b 5c7a b5bc 1638 ab3c fd97 dc3a
000000b0: 38a5 babc aefe 1fbd 59bd 90bc 0170 9539
000000c0: a21f df3b 5d39 c2bb 2ec1 483d 96c2 fbbc
000000d0: f719 9cbd 2f73 01bd c63a 51bc d81d 893c
000000e0: 119a 9dbc 6d00 23bd 187f 493b 85f5 89bb
000000f0: c9fa 263c 4003 173d 784c 3cbd 1cc5 753c
00000100: 4601 a83a dc50 c9bc 5a16 003d b5a6 3ebd
00000110: 6ed7 cc3d 6302 42bd 744d 0dbd ddb1 f53c
00000120: 7f48 963d 28a7 bfbc 620c 9a3d e69b c0bc
00000130: 0246 e1bd 9592 b73c 2026 9d3b 9f74 253d
00000140: 0962 a63b e2be 59bb 3e00 733b 67f2 a8bc
00000150: 9e45 81bc 6cca 9c3c f891 693d 4fcc 9ebb
00000160: 087a b6bc deec a7bc 1738 4cbd 9ed7 483b
00000170: a0b2 913c bc77 813c 3735 03bd 4eda 8bbd
00000180: f632 043d a3d8 e5bc 10e7 fd3c 43c1 0c3d
00000190: dee6 6fbd e640 7abd 2f63 efbc af61 133c
000001a0: 9501 4abc 56f2 6ebd c2f1 77bd 7c50 afbc
000001b0: 917d 093d 44c8 01bc 37fe c1bc 9e9f 81bc
000001c0: 855f a53b 4446 9c3c 421d 8a3c ea3b acbc
000001d0: 1113 23bc 9df6 fabc af28 82bc 6c6b bdbc
000001e0: 7719 fb3b 7a25 c93c 0350 26bd e362 babc
000001f0: 0d41 3a3d a570 523c f6fc 86bd 3405 54bd
00000200: 7788 c5bc 2544 5dbd 4324 88bd 91fc 913c
00000210: 456d afbc d094 3cbd 8412 823b 5727 8538
00000220: 7d8c 37bc e01a bb3c 9a46 d9bc a498 a33b
00000230: 6cd6 053c 056e 433c ce72 43bc b773 7e3c
00000240: b1d0 6cbd 8508 2abb 99fd c13b 52c2 24bd
00000250: 8c8c 4d3c bf0c f73b b42f c73a ec2a 36bc
00000260: 13d8 15bc 9b15 203c 8e39 fe3c f390 ecbb
00000270: 15fd 863a 5e98 58ba a266 003d 89d1 3abc
00000280: ab73 fe3b 38b1 163d 9963 d63a 2873 97bd
00000290: 9a56 113d f54e 663d d699 4fbd 02ed 2fbd
000002a0: 0ad6 9a3c 34db 0b3c fb93 a0bc 378c ddbb
000002b0: 276b b63c 2b97 a53c dcf6 f0bc bfb7 453d
000002c0: 35f6 c23c a112 b0bc 969e 033d c03e e23d
000002d0: 57d1 75bc 863f 35bc e9b7 19bd 172b 863c
000002e0: e646 f9bc 802f 253c 2e4d 1f3d f919 d23d
000002f0: 0760 25bc 8c5f b53c 4b4f 57bc 6d93 193a
00000300: f893 e4bc e55f b13b 60e6 a8bc 2516 e83c
00000310: 25a5 89ba 5c96 553c 4234 df3b c33e babc
00000320: 8004 b7bc f58a 08bc a01b 99bb 8c91 67bd
00000330: 9367 08bd a96d 3e3d fb76 d93a 7142 7abc
00000340: f0f0 ddbb e0f7 1a3c a24b 7a3c c7cf 41bc
00000350: 967e 8f3c 838d d0bc f4b8 ad3b 39d9 eabc
00000360: e0ec 383d 7ad8 223c 6278 873b 66ca 7bbd
00000370: 6f43 70bc 5f96 26bd 5e14 023d a8f9 1c3d
00000380: 14fe a23c 0f4b 87bc 158c 5c3c a7e0 ecbb
00000390: 0a41 75bc 867d 68bd 463b 69bc 6c13 33bd
000003a0: f593 143b 9f1f 43bd 9ac0 eb3c 12f8 1abd
000003b0: f179 0cbd 52b3 803c 1e29 ebbb 849a 613d
000003c0: 4bde 5e3b 8bcc f1bb 903c 18bd b6cb 313c
000003d0: 31e4 a7bc f1df 073c f2de a6b8 c0e2 f73c
000003e0: 62af e2ba b0f4 903c ac72 ddbc f03e 47ba
000003f0: c559 2cbc 36e6 e43c c3f1 323d 3ff6 1ebd
0.035947822 -0.039435115 -0.034431063 -0.0053762356 -0.009405886 -0.050113592 0.02964125 0.066744834
-0.017903304 0.040258747 -0.020694826 0.012679417 0.03737243 -0.06934034 -0.013890935 -0.022091242
0.033339474 0.06030781 -0.023793457 0.029469978 -0.053080138 0.029044708 -0.010436254 0.012660587
-0.013753358 -0.070374645 -0.03738215 -0.040636692 0.010413459 -0.053914193 -0.03773711 0.11107353
-0.068492785 0.03431643 -0.034532063 -0.020213986 0.04124216 -0.05042843 -0.052348845 -0.018380415
0.004389044 -0.022153072 0.020900767 0.0016829964 -0.02278386 -0.03906124 -0.017668413 0.00028502944
0.006809191 -0.0059272484 0.049012356 -0.030732434 -0.0762214 -0.03160399 -0.01277036 0.016737863
-0.019238504 -0.039795328 0.003074592 -0.0042101764 0.010191628 0.036868334 -0.045971364 0.015000608
0.0012817762 -0.02457469 0.031271316 -0.046545703 0.100020275 -0.047365557 -0.034497693 0.029992038
0.07338046 -0.023395136 0.07521893 -0.023511838 -0.10999681 0.022408763 0.0047958046 0.04039442
0.0050776047 -0.0033225347 0.0037079002 -0.020623399 -0.015780266 0.019139491 0.057023972 -0.004846133
-0.022274986 -0.02049869 -0.04985818 0.0030646096 0.01778537 0.015804164 -0.03203317 -0.06828748
0.032275163 -0.028057402 0.030993968 0.034363996 -0.05856978 -0.06109705 -0.0292221 0.008995458
-0.012329479 -0.05833658 -0.060533293 -0.021400683 0.033567015 -0.007921282 -0.02368079 -0.015823182
0.005046787 0.019076474 0.016859654 -0.021024663 -0.009953276 -0.030635173 -0.01588854 -0.023122512
0.0076629478 0.024554003 -0.04060365 -0.022752231 0.045472194 0.012844239 -0.06591217 -0.051762775
-0.024112923 -0.054020066 -0.066475414 0.017820628 -0.021414408 -0.046040356 0.0039694924 6.349262e-05
-0.011202929 0.022839963 -0.026522923 0.0049925614 0.008168798 0.011928086 -0.011929227 0.015530518
-0.05781621 -0.002594502 0.005920124 -0.04022438 0.012545716 0.0075393612 0.0015196712 -0.011118632
-0.009145754 0.009770776 0.031033304 -0.0072194277 0.0010298813 -0.00082624506 0.03134788 -0.011402496
0.0077652535 0.036790103 0.0016356587 -0.07395011 0.03548298 0.056227643 -0.05068382 -0.042950638
0.01890089 0.008536149 -0.019601813 -0.0067610997 0.022267891 0.020213684 -0.029414587 0.048270937
0.023799041 -0.021493258 0.03213366 0.11047125 -0.015003524 -0.011062508 -0.037528906 0.016377969
-0.030429315 0.010082126 0.038891964 0.1025886 -0.0100936955 0.022140287 -0.0131414635 0.0005858455
-0.027902588 0.005413043 -0.020617664 0.028330872 -0.0010501487 0.013036337 0.0068116495 -0.022735005
-0.022341013 -0.008333911 -0.0046724826 -0.05653529 -0.0333019 0.0464913 0.0016591245 -0.01527463
-0.0067731068 0.009458512 0.015276821 -0.011829323 0.017516416 -0.025458103 0.005301589 -0.028668033
0.045147777 0.009939307 0.004134224 -0.06147232 -0.014664515 -0.04067075 0.031757705 0.03832403
0.019896545 -0.016515283 0.0134611325 -0.007228929 -0.01496912 -0.056760333 -0.014235323 -0.043719694
0.0022671197 -0.047637578 0.028778363 -0.037834235 -0.03429598 0.015710507 -0.0071765324 0.055079
0.0034007009 -0.0073791198 -0.037167132 0.010851791 -0.020494552 0.008293138 -7.9570236e-05 0.03025949
-0.00172947 0.017694801 -0.027032219 -0.0007600626 -0.01051945 0.027941804 0.043687593 -0.038809057

network_body.linear_encoder.seq_layers.2.weight f4 [256, 256]
00000000: 8901 3abe f47f a33d e2c9 5f3d d2b2 86bc
00000010: 79a1 3e3e 3d93 28bc d707 bf3d e7bd f43d
00000020: e6eb 013e 6c02 8cbd ae9a c23c a9e8 733c
00000030: aec4 2dbe f61f f6bd cf11 fe3c 3ea7 adbb
00000040: b0b8 163e 2f02 50bd 38ea 083d bbc6 93bd
00000050: cb45 c8bc 73c1 fbbc e81a 583e ff8a 52bd
00000060: 7b3e 75bd 1a6b 4cbc edd1 0f3e 03db 5abd
00000070: ad6f 4b3d 8f22 fabd abaf a53d 603b 7f3e
00000080: 98ce 89bd 5fd8 93bd 30b5 223d 17a6 cd3c
00000090: 656f 48bb 2238 40be 4a05 d1bc a003 5b3e
000000a0: e660 8bbc e40b 6bbd 2135 fabc 2a2c 03be
000000b0: 9e08 2bbd d708 ec3d b703 f63d cefd 083d
000000c0: 75d6 fcbd e00c 803c da19 463e d4ba f3bd
000000d0: dc1e 32bd 88f9 0dbe 3414 9abd ee4b 0dbe
000000e0: 6608 b6bd 32e5 b33c 49a4 263c 25c3 bcbb
000000f0: cbad 253e bf55 21be a7c8 d23d b3e2 503c
00000100: 76d5 80bd ab85 33bd 056d eebd 679b a63d
00000110: 564b e93b 5757 47bd 7273 063e a6d2 553d
00000120: 8017 4c3d 7b1b 7bbd 554b b2bc 4c74 623d
00000130: 01b9 1cbe 5502 9d3e 5cea 82bc d04d 2cbb
00000140: 43dc c13d 4044 963d 6da7 0bbe 31a7 50bd
00000150: 8ae5 4b3d 0bd5 9fbc 57c3 ae3c 5b34 873d
00000160: 3913 01bd e881 493d f8f9 16be b1a3 3f3e
00000170: dbd2 993d f6c3 2abb cafc db3d 8b1e b3bd
00000180: 5e1f 953d 8489 efbc 1211 1b3d ee58 333e
00000190: c8a3 55bd 58cd a93d e009 2fbe e13c 093d
000001a0: d6e0 403e 70d5 2b3d bc6c 383d 34f5 893d
000001b0: 59c4 cebd 439b 6a3d 67f8 c0bd 4228 bc3d
000001c0: fe5d 17be 3992 febc a5a8 923d c438 0c3e
000001d0: 6165 863d 674d 7b3e 07d7 183e 1515 763c
000001e0: 2f38 163e 8b5a e23d b835 2f3e 24a6 d03d
000001f0: 68f7 28bd d6f6 063d 2d04 afbd b258 a83b
00000200: 073a 413d 433a 093e 852b 173e 0d63 193e
00000210: feef f23d d906 f43d 91ca cc3d b534 aa3d
00000220: 5fdd dd3c 1eea 553d e77b b8bc 11a6 0ebd
00000230: 730a 06be 727e 273e 952b cb3c ffc5 a73d
00000240: 8a7d acbd 883b 72be b674 a83d 7a82 663d
00000250: e844 5f3c e773 88be 0dec 38be fce0 12be
00000260: 7619 b63c 878a abbd 18a3 b93d 23ca a13d
00000270: 041a a63c df88 aa3c 95be 393d e868 afbc
00000280: 3afe 3cbc 31d3 ce3b d92a b5bd 266d 763e
00000290: 971c 1bbe c604 5d3d b3bd 03be f218 80bd
000002a0: e6ac 87be 0ba4 2e3c 610a e03c 6e11 7c3d
000002b0: 1d95 f2bd e685 aabd adb6 d63c 1c60 eabd
000002c0: d8ab 49bd cec0 863d 8115 9e3d 7e67 aebd
000002d0: f60c a53d fa13 4bbd 1b60 3c3c 4b65 723d
000002e0: 0b00 f5bd 7363 f33d d0c6 1dbd 18c7 a3bd
000002f0: c7e8 b0bc 2930 f03d d684 83bd 8e3f d13c
00000300: 7bfb 803e 4e94 3b3c 906f 2cbe b5a6 9fbd
00000310: 0b48 473d 130a bfbd 12cc b93d c07e 433e
00000320: 96d9 59bd cab2 463e c5f6 3e3c 4a40 a63d
00000330: cfd2 123e 3624 6d3d 3516 123c 99ac c13c
00000340: 8295 ef3d 00fd f1bc 24f6 bf3d 4a40 dabd
00000350: fb44 883d 75ff 33be 0ee7 a3bd 55b8 dcbd
00000360: c7cf a2bd 418f 16be 9d9e 61bd deb2 e33d
00000370: 5097 d3bd 1105 91bd e82c abbd f30c 323d
00000380: b299 083e ab9e a13c 70ff b4bc 70fb 003e
00000390: 771f 843d 43fd 633d 5682 06be 1ef1 d33d
000003a0: 3dcc b73b 7e4d 8fbd 97a6 813d 9b72 4dbe
000003b0: bf05 c83d aab4 193d 21fe 973d e362 4cbe
000003c0: d190 913d 9877 02be 2a98 a83d 1434 eb3d
000003d0: b2ba 003d 5bb6 273e 2860 f03d aee4 e7bb
000003e0: e6f6 403e 3bd9 273e 0178 2b3e fd7e e3bc
000003f0: 804a 02be bd2d 52bc d00b a73d 9d72 b9bd
-0.18164648 0.079833895 0.05463589 -0.01644269 0.18616284 -0.010289011 0.09327667 0.119502835
0.12687644 -0.068363994 0.023755398 0.0148870135 -0.16969559 -0.12017815 0.031014351 -0.005299478
0.1471889 -0.050783332 0.033426493 -0.07215639 -0.024447342 -0.030731892 0.21104014 -0.05140209
-0.05987404 -0.012476707 0.14044924 -0.053431522 0.04966705 -0.12213623 0.08090147 0.24924994
-0.06728858 -0.07219004 0.039723575 0.025103612 -0.0030583974 -0.18771413 -0.025515217 0.21388102
-0.017013978 -0.057384387 -0.030542912 -0.12809816 -0.041756265 0.115251236 0.12012427 0.033445172
-0.12345592 0.01563114 0.19345799 -0.11900869 -0.04348646 -0.1386472 -0.07523385 -0.13798496
-0.088883206 0.021959875 0.010171005 -0.0057605677 0.16179578 -0.15755366 0.10292178 0.012749362
-0.062907144 -0.043828648 -0.116418876 0.081351094 0.0071195764 -0.04866728 0.13129976 0.052202843
0.0498271 -0.061305504 -0.021764437 0.05528669 -0.15304948 0.30665842 -0.015980892 -0.0026291497
0.0946584 0.073372364 -0.13638087 -0.050940696 0.049779452 -0.019510766 0.02133338 0.06601783
-0.031512473 0.049196154 -0.14743793 0.18714787 0.075109206 -0.0026056743 0.10741575 -0.0874606
0.072813734 -0.029240377 0.037858076 0.17514393 -0.052158147 0.08291119 -0.17093611 0.033505324
0.18835768 0.041951597 0.045025572 0.06736222 -0.10096044 0.057276975 -0.09422379 0.09187366
-0.14781949 -0.031075584 0.07161073 0.1369353 0.06562305 0.24541245 0.14925776 0.015019675
0.1466987 0.11052426 0.17110336 0.10187939 -0.04125157 0.032950245 -0.08545718 0.0051375264
0.04717448 0.13401131 0.14762695 0.14979191 0.11862181 0.119153686 0.09999574 0.08310834
0.027083097 0.052225225 -0.022520019 -0.034826342 -0.13089924 0.16356829 0.024801055 0.08192062
-0.08422382 -0.23655522 0.08225386 0.056276776 0.013627268 -0.26650926 -0.18058796 -0.14343637
0.022228938 -0.08376031 0.09064311 0.07899883 0.020276077 0.020817218 0.04534777 -0.021412328
-0.011535222 0.006311797 -0.08846063 0.24065074 -0.15147625 0.05395963 -0.12865333 -0.06254758
-0.264991 0.010659228 0.027348699 0.06154006 -0.11844847 -0.0832632 0.026210153 -0.11444113
-0.04923615 0.06579743 0.07718945 -0.08515833 0.08059113 -0.049579598 0.011497523 0.05917863
-0.11962899 0.11884203 -0.03851968 -0.079969585 -0.021595372 0.11727936 -0.06421821 0.025543
0.25191864 0.011448933 -0.16839433 -0.07795469 0.04865269 -0.093280934 0.090721264 0.1909132
-0.05318602 0.1940414 0.011655514 0.08117731 0.1433823 0.05789586 0.008916427 0.023641871
0.11698438 -0.029539585 0.093731195 -0.106567934 0.06653782 -0.17577918 -0.080030546 -0.10777346
-0.07949787 -0.14703085 -0.055082906 0.111181006 -0.10331595 -0.070810445 -0.083581746 0.04346938
0.1333988 0.01972898 -0.022094458 0.12595916 0.06451314 0.05566145 -0.13135657 0.10348724
0.005609064 -0.06997202 0.063306026 -0.2006325 0.09766721 0.03752581 0.07421518 -0.19959597
0.071077 -0.12740934 0.08232148 0.114845425 0.031428047 0.16378157 0.1173709 -0.0070768213
0.18844184 0.1639146 0.16744997 -0.027770514 -0.12723732 -0.012828288 0.0815655 -0.09055064
