Project/Assets/MyProject/Chaser/CVR 4/Models/ver 2/ThiefBrain.onnx (onnx, 546224 bytes, 6 tensors)

action_model._discrete_distribution.branches.0.bias f4 [7]
0.03197595 -0.012824638 -0.024610564 0.031204067 0.008294912 0.009759279 -0.014460363
00000000: 37f9 023d 6e1e 52bc 189c c9bc ac9f ff3c
00000010: 62e7 073c 62e5 1f3c 29eb 6cbc

action_model._discrete_distribution.branches.0.weight f4 [7, 256]
-0.03113053 -0.06643653 -0.011292679 0.0595189 -0.03147926 0.010001488 0.0075121177 -0.07302701
0.047388263 -0.078875475 0.010345945 -0.07427564 -0.001672016 -0.023069348 0.024931733 0.040408768
-0.05600555 0.04321012 -0.01691373 -0.033981398 0.0120447455 0.05521834 -0.06447441 0.043713275
0.011250189 -0.056186516 -0.0094280755 0.0021173146 0.018964963 -0.00057847734 -0.0029006742 -0.008076221
0.009563009 -0.01983649 -0.09833545 -0.061395332 0.0063055586 0.009276801 -0.025290068 0.016977748
-0.011121749 0.040679265 0.017532839 -0.0361978 -0.062159438 -0.028420951 -0.07193483 -0.017559607
0.05563094 0.0032523433 0.028165849 0.016640855 -0.05842424 0.009844843 -0.074357614 -0.017658755
0.027655685 -0.06448037 -0.05692363 0.039572597 -0.0032073888 -0.035453506 0.04538521 0.011296792
-0.025018647 0.0013390777 0.024606608 0.01541329 0.05265872 0.01982007 -0.006889109 -0.0055427533
-0.023396915 -0.08249127 0.012740146 -0.046368275 -0.034004476 0.0069423867 -0.0034800027 0.009625755
0.01773016 0.022979315 0.015041677 0.03176099 0.041516904 0.029889178 0.01139869 -0.028387556
0.02126517 -0.03302254 -0.008389555 0.011950799 0.011529108 0.024837567 -0.020396244 0.01620628
-0.0028862397 -0.009978038 -0.014803864 0.054909963 -0.06748387 0.009750122 -0.021196151 -0.04756344
-0.04961969 -0.057635576 -0.047134943 -0.065272905 -0.040734198 -0.004301296 -0.04384861 -0.0033675937
0.025976185 0.049575396 -0.017957512 -0.06325375 -0.06762023 -0.002794147 -0.013738987 -0.061260916
0.008050413 0.009246237 -0.018496824 -0.075345814 -0.004016445 0.08677362 -0.027173927 -0.047585525
-0.0035051007 -0.028430102 -0.00076084613 0.018535497 -0.006724553 0.0016388454 -0.018515496 -0.005207576
-0.020297222 0.0007526696 0.003437045 -0.008843965 -0.06929793 -0.0010065315 0.0017169723 0.010514038
-0.025685206 -0.0016532693 0.010645001 0.057428878 -0.027355166 0.017304078 0.031871308 0.053843677
-0.013278557 -0.029694242 -0.019395182 0.034698762 0.032113057 -0.090295896 0.07853067 0.0035563693
0.030683273 0.02007704 0.02395808 0.04297113 0.02140008 0.052189242 0.028133657 -0.036090795
-0.011430596 0.011195506 -0.07490343 0.03714188 0.005834675 0.05891383 0.006581737 0.0020431096
-0.044284396 -0.0928725 0.0016135721 -0.006213516 -0.05180934 0.047848914 -0.007425545 -0.008975064
-0.044554744 0.022095403 -0.01442639 -0.086502716 -0.037822697 -0.032016315 0.09511206 -0.059581924
0.056577373 -0.098103695 -0.06580755 -0.0282864 -0.048899304 0.0707478 -0.074246585 0.013855459
0.019369395 0.042305887 -0.014045531 -0.08031439 -0.060303155 0.002944592 -0.083386466 0.03954974
0.029947776 -0.022865066 0.0013433986 -0.008184161 -0.07924632 0.004776174 0.0035121823 0.040327236
-0.027621074 -6.514352e-05 0.0035529707 -0.007469149 -0.00019605391 -0.036952373 -0.0066517307 0.012206165
-0.05378511 -0.024561808 -0.03939982 -0.015291637 -0.0492322 -0.051130317 -0.024333725 -0.03100971
-0.030364 0.023485202 0.0013353034 0.0049660145 -0.019356294 -0.04613723 0.021752119 0.013913181
-0.0077694487 -0.08271073 0.009953473 0.020830985 -0.028650982 -0.0051373737 -0.031191984 0.01773076
0.033573166 -0.0066750664 -0.05055268 -0.01435836 -0.026146132 0.029236685 -0.015840476 -0.0061851786
00000000: 7405 ffbc e00f 88bd ee04 39bc 17ca 733d
00000010: 66f0 00bd 48dd 233c 3628 f63b 2f8f 95bd
00000020: 321a 423d 7789 a1bd 0a82 293c d41d 98bd
00000030: 8c27 dbba eefb bcbc a23d cc3c aa83 253d
00000040: 1366 65bd 18fd 303d aa8e 8abc 1430 0bbd
00000050: 5357 453c a02c 623d 290b 84bd b10c 333d
00000060: b652 383c d523 66bd 3778 1abc a5c2 0a3b
00000070: 695c 9b3c f5a4 17ba 3d19 3ebb 2052 04bc
00000080: 2bae 1c3c 2280 a2bc 1964 c9bd ac79 7bbd
00000090: dc9e ce3b b9fd 173c 1e2d cfbc eb14 8b3c
000000a0: ff37 36bc 4d9f 263d 07a1 8f3c 2544 14bd
000000b0: e59a 7ebd 0ed3 e8bc 9152 93bd 2ad9 8fbc
000000c0: 45dd 633d 4425 553b 11bc e63c 6752 883c
000000d0: 424e 6fbd 444c 213c ce48 98bd 18a9 90bc
000000e0: 2d8e e23c 490e 84bd c128 69bd e016 223d
000000f0: 0e33 52bb b237 11bd d8e5 393d 2e16 393c
00000100: e8f3 ccbc fe83 af3a cc93 c93c 0688 7c3c
00000110: acb0 573d b35d a23c 09be e1bb fc9f b5bb
00000120: e3aa bfbc 2ff1 a8bd 0cbc 503c a9ec 3dbd
00000130: 4748 0bbd f67c e33b c210 64bb 58b5 1d3c
00000140: d73e 913c 1e3f bc3c 5e71 763c d017 023d
00000150: a10d 2a3d 26da f43c 92c1 3a3c 058d e8bc
00000160: 4b34 ae3c a542 07bd 5874 09bc 49cd 433c
00000170: 95e4 3c3c 2778 cb3c 0616 a7bc 08c3 843c
00000180: 1127 3dbb ed7a 23bc e88b 72bc 45e9 603d
00000190: fc34 8abd fabe 1f3c 8da3 adbc e2d1 42bd
000001a0: 043e 4bbd 4813 6cbd 9210 41bd cdad 85bd
000001b0: e7d8 26bd e3f1 8cbb 9a9a 33bd d9b2 5cbb
000001c0: 02cc d43c 920f 4b3d a21b 93bc 2f8b 81bd
000001d0: 7a7c 8abd 021e 37bb 7d19 61bc baec 7abd
000001e0: e1e5 033c 877d 173c a786 97bc e84e 9abd
000001f0: 629c 83bb 5eb6 b13d db9b debc 0ae9 42bd
00000200: d5b5 65bb 3fe6 e8bc 8573 47ba c1d7 973c
00000210: a459 dcbb 87ce d63a cfad 97bc 50a4 aabb
00000220: 5c46 a6bc cd4e 453a 0c40 613b 47e6 10bc
00000230: 13ec 8dbd 98ed 83ba 080c e13a 1243 2c3c
00000240: c869 d2bc 83b2 d8ba 5f68 2e3c 8b3a 6b3d
00000250: f117 e0bc 48c1 8d3c 7d8b 023d 308b 5c3d
00000260: 4e8e 59bc 5741 f3bc a5e2 9ebc 4a20 0e3d
00000270: fb88 033d 0eed b8bd b0d4 a03d fa11 693b
00000280: 7d5b fb3c 9b78 a43c bc43 c43c 7f02 303d
00000290: 384f af3c 63c4 553d 8e78 e63c f1d3 13bd
000002a0: 6547 3bbc 5b6d 373c f866 99bd 1522 183d
000002b0: cd30 bf3b a14f 713d 9dab d73b b1e5 053b
000002c0: 8e63 35bd f033 bebd 7f7e d33a c09a cbbb
000002d0: 0836 54bd 39fd 433d fc51 f3bb 260c 13bc
000002e0: 097f 36bd 6b01 b53c aa5c 6cbc 5628 b1bd
000002f0: f9eb 1abd 8a23 03bd 1dca c23d 2d0c 74bd
00000300: adbd 673d 97ea c8bd 1cc6 86bd e1b8 e7bc
00000310: a34a 48bd 39e4 903d 980e 98bd 0202 633c
00000320: 91ac 9e3c f048 2d3d 3a1f 66bc df7b a4bd
00000330: 7100 77bd 0efa 403b 86c6 aabd e8fe 213d
00000340: 0a55 f53c 854f bbbc fa14 b03a dc16 06bc
00000350: e54b a2bd 7481 9c3b a42c 663b 2c2e 253d
00000360: 9745 e2bc a99d 88b8 f5d8 683b c3bf f4bb
00000370: d293 4db9 5f5b 17bd c3f6 d9bb 5efc 473c
00000380: c74d 5cbd d835 c9bc b561 21bd c689 7abc
00000390: b4a7 49bd 066e 51bd 8557 c7bc 1308 febc
000003a0: ecbd f8bc 0a64 c03c 5905 af3a f3b9 a23b
000003b0: 1791 9ebc 64fa 3cbd 8031 b23c 1cf4 633c
000003c0: dc96 febb 3e64 a9bd e413 233c bea5 aa3c
000003d0: 77b5 eabc 6a57 a8bb 5586 ffbc 1940 913c
000003e0: 0484 093d 84ba dabb 5410 4fbd 543f 6bbc
000003f0: 6a30 d6bc c681 ef3c e3c3 81bc 0aad cabb

network_body.linear_encoder.seq_layers.0.bias f4 [256]
-0.034197863 0.016643943 0.0012447698 -0.00040580385 -0.056771804 0.01926205 0.0052677444 -0.009997356
-0.01547759 0.03634083 0.011882207 0.010433921 -0.018585423 -0.0033992927 -0.0048365244 0.016997702
0.01530544 -0.02027576 0.016323 0.021220839 -0.037393015 0.011994041 -0.023569677 0.0018627816
-0.01268104 -0.018529437 -0.0027132505 0.039590575 0.012210094 0.001913015 0.0043073557 -0.0911333
-0.04409179 -0.014316265 0.044439968 -0.03371992 -0.0088222725 0.03171433 0.0017872147 -0.02264159
0.027948417 -0.010657548 0.013790736 -0.0044544316 0.0076583833 -0.032251872 -0.013392424 0.01744829
-0.026369195 -0.010086986 -0.0066287303 0.027096745 0.03090008 -0.0028652044 0.039674923 -0.016159676
-0.033192854 0.015291018 0.0122284265 -0.009684059 -0.024906427 -0.017765494 0.0005433417 -0.007867392
0.038163684 0.003518972 0.032935888 -0.01979498 0.06840651 0.025589803 -0.031101586 -0.02488385
-0.010698102 0.033308502 0.0054416372 0.012154 0.008163065 -0.028415646 -0.027409596 0.051753234
0.03295537 0.028414663 0.019184414 0.01723417 -0.024901722 0.03932077 0.023732742 0.025363505
0.0052319444 -0.0062468117 0.034653727 0.061476365 0.03279639 -0.016668852 -0.0064661093 0.014812858
-0.022772377 0.010545048 0.032435164 0.061370295 -0.048962697 0.027005577 -7.559485e-05 0.049431045
-0.0290606 0.016487058 0.0456837 -0.008085842 0.045116495 0.022146562 0.0023519648 0.014566538
0.005950095 0.021924838 0.0092503065 -0.0030676478 -0.035480317 -0.08933809 0.0028616735 0.020035546
-0.03727008 0.0032355352 -0.004464212 0.044566102 -0.07317547 0.03395289 0.009433916 0.012320633
-0.0327996 -0.015692174 -0.043228563 -0.022278113 -0.0073457737 -0.021160781 -0.00055512565 -0.0059777554
-0.040014092 -0.005473977 0.037124075 -0.02065367 0.01769265 0.0039226445 0.042927492 0.019258209
0.0070525114 0.03358123 -0.017662622 0.014121936 0.04148535 -0.047303498 0.012573918 0.0416821
-0.012431926 -0.020240797 0.024690142 -0.00142833 0.039913382 -0.02065128 0.020455701 0.002167672
-0.012502477 0.014956561 0.012094411 -0.07373392 0.014415854 0.0033160564 0.027445754 0.03730344
0.0016902226 0.032916926 -0.016632235 0.0048525548 -0.02320373 0.05670317 -0.0054549864 -0.022304388
-0.019452604 -0.011437123 0.0016771116 0.036294643 0.0003508591 -0.042969085 0.0163863 -0.005603012
0.02203963 0.030762207 0.058695022 -0.014298468 -0.030280758 0.023625707 -0.004756649 0.017038183
-0.0069134566 0.0033870623 0.01996272 -0.006590974 0.019000256 -0.0978234 -0.0013225836 0.030593287
0.06463468 -0.08328083 0.00053467415 -0.015213714 0.041808 0.05453424 -0.008405931 0.014717143
0.038754553 -0.0955325 -0.0036349315 -0.011521869 -0.0146505395 0.038951807 0.014287223 -0.0036532248
-0.00682669 0.049422786 -0.011502747 -0.005686318 0.0015756608 -0.0034903148 -0.011857565 -0.096351944
0.038632855 0.029301886 -0.0690105 -0.020716643 -0.02297355 0.018046068 0.03304822 0.00910189
-0.009098363 0.043859366 -0.0054730186 -0.018023124 -0.005409043 -0.020790331 0.019027838 -0.024733936
-0.018825095 0.015351568 -0.040239725 0.023598723 0.043091975 -0.0604042 0.041164096 0.028787695
0.04503384 0.053974215 -0.016254341 0.0023291719 0.017434351 0.018154308 0.052696176 0.060366992
00000000: 0f13 0cbd e158 883c 8b27 a33a 12c2 d4b9
00000010: 8d89 68bd 72cb 9d3c 0b9d ac3b f3cb 23bc
00000020: b895 7dbc 1fda 143d 97ad 423c 09f3 2a3c
00000030: 7540 98bc abc6 5ebb b57b 9ebb c43e 8b3c
00000040: abc3 7a3c 5a19 a6bc d0b7 853c 53d7 ad3c
00000050: 6b29 19bd a782 443c 3215 c1bc 9428 f43a
00000060: 23c4 4fbc 0ccb 97bc cad0 31bb ba29 223d
00000070: d90c 483c 22be fa3a b824 8d3b 18a4 babd
00000080: 9899 34bd c48e 6abc af06 363d e61d 0abd
00000090: 4b8b 10bc e3e6 013d f940 ea3a db7a b9bc
000000a0: 14f4 e43c ff9c 2ebc 8af2 613c 7bf6 91bb
000000b0: 2df3 fa3b 8a1a 04bd e66b 5bbc b7ef 8e3c
000000c0: 3604 d8bc e343 25bc d235 d9bb fef9 dd3c
000000d0: 2a22 fd3c 27c6 3bbb 2c82 223d 4c61 84bc
000000e0: 3bf5 07bd 2e87 7a3c bd59 483c e3a9 1ebc
000000f0: 9008 ccbc f188 91bc 0b6f 0e3a 3ce6 00bc
00000100: 8651 1c3d 8e9e 663b c8e7 063d 1529 a2bc
00000110: b618 8c3d b5a1 d13c c1c8 febc 37d9 cbbc
00000120: 1847 2fbc 7f6e 083d c34f b23b 9221 473c
00000130: 60be 053c eec7 e8bc 178a e0bc 33fb 533d
00000140: 36fc 063d dec5 e83c a228 9d3c ad2e 8d3c
00000150: b2fe cbbc d10e 213d 2b6b c23c 20c7 cf3c
00000160: bb70 ab3b 0eb2 ccbb 11f1 0d3d a4ce 7b3d
00000170: 8255 063d 1e8d 88bc a8e1 d3bb a1b1 723c
00000180: 238d babc 23c5 2c3c bcda 043d 6b5f 7b3d
00000190: 1c8d 48bd cd3a dd3c ad88 9eb8 3578 4a3d
000001a0: 7f10 eebc de0f 873c d51e 3b3d 7b7a 04bc
000001b0: 13cc 383d b56c b53c 6c23 1a3b 7da8 6e3c
000001c0: 04f9 c23b b89b b33c 998e 173c 970a 49bb
000001d0: cf53 11bd e3f6 b6bd ea8a 3b3b 9621 a43c
000001e0: 83a8 18bd 460b 543b 8648 92bb f28a 363d
000001f0: 05dd 95bd 3012 0b3d b690 1a3c 7bdc 493c
00000200: e058 06bd e08c 80bc 6f10 31bd 9780 b6bc
00000210: d1b4 f0bb 6059 adbc da85 11ba 0ce1 c3bb
00000220: d1e5 23bd 0c5f b3bb 6a0f 183d e331 a9bc
00000230: 2df0 903c 8789 803b bdd4 2f3d 64c3 9d3c
00000240: c118 e73b 798c 093d 34b1 90bc b15f 673c
00000250: 8bec 293d 50c1 41bd d602 4e3c daba 2a3d
00000260: 47af 4bbc 07d0 a5bc fb42 ca3c cd36 bbba
00000270: 377c 233d e02c a9bc b792 a73c 800f 0e3b
00000280: 30d7 4cbc 5d0c 753c a327 463c cf01 97bd
00000290: 7930 6c3c 3252 593b ebd5 e03c 7ecb 183d
000002a0: 768a dd3a e6d3 063d 5340 88bc 2e02 9f3b
000002b0: c015 bebc 9541 683d bebf b2bb b1b7 b6bc
000002c0: 115b 9fbc c562 3bbc 87d2 db3a b1a9 143d
000002d0: 83f3 b739 5a00 30bd 903c 863c 7999 b7bb
000002e0: 748c b43c 0601 fc3c 316a 703d 1f44 6abc
000002f0: 5a0f f8bc b38a c13c aadd 9bbb a993 8b3c
00000300: 478a e2bb 7af9 5d3b dc88 a33c 19f9 d7bb
00000310: 6da6 9b3c a257 c8bd 8b5a adba c69e fa3c
00000320: 305f 843d 248f aabd 6029 0c3a f142 79bc
00000330: de3e 2b3d 4c5f 5f3d 08b9 09bc 2c20 713c
00000340: 18bd 1e3d 8ba6 c3bd 0838 6ebb 39c6 3cbc
00000350: d108 70bc ee8b 1f3d f514 6a3c f16a 6fbb
00000360: 6db2 dfbb 8c6f 4a3d 0576 3cbc 4b54 babb
00000370: 6786 ce3a c4bd 64bb 3b46 42bc 2b54 c5bd
00000380: 7c3d 1e3d 820a f03c 6155 8dbd f3b5 a9bc
00000390: 0733 bcbc 59d5 933c 925d 073d 1820 153c
000003a0: 4d11 15bc e1a5 333d 0257 b3bb 3ba5 93bc
000003b0: 573e b1bb 7c50 aabc 45e0 9b3c d39e cabc
000003c0: 1637 9abc 2585 7b3c 69d2 24bd 1c52 c13c
000003d0: 3681 303d 656a 77bd af9b 283d 2cd4 eb3c
000003e0: 6775 383d 1114 5d3d d327 85bc 05a5 183b
000003f0: 7cd2 8e3c 58b8 943c f2d7 573d 6143 773d

network_body.linear_encoder.seq_layers.0.weight f4 [256, 266]
-0.01868488 -0.018988948 -0.051258814 -0.14367011 0.021510344 -0.024795927 -0.062424105 -0.025892781
-0.07217915 -0.08468028 0.03781981 0.00149851 -0.02650046 0.047883634 -0.118638426 -0.044606507
-0.068744846 0.03365291 -0.010880394 -0.03918256 -0.14066122 -0.10685392 -0.08613798 -0.07018877
-0.09457116 0.01591221 -0.11626279 -0.10077326 -0.13375044 0.18333012 -0.060927033 -0.015266632
-0.057719767 0.002176777 -0.062371656 -0.03555572 -0.075436465 -0.1128089 -0.09224624 0.010495096
0.015952934 -0.03460849 0.012444186 -0.072640836 -0.042948283 -0.08670825 0.022838483 -0.08556144
-0.067642175 -0.025795633 0.019513704 0.034106407 0.040045157 -0.023507873 -0.018288855 -0.1315956
-0.110522605 0.124546714 -0.08967344 -0.040603463 -0.09593852 0.05634343 0.029479304 -0.20485869
0.0030911183 -0.008952872 -0.03624385 -0.052223746 0.10999274 0.08496814 0.0671194 -0.006057452
-0.10900211 0.075602986 -0.0633759 -0.013591998 0.09524713 0.05165623 0.102538325 -0.066573165
-0.098652124 -0.0455281 0.0058393944 -0.02727824 -0.033456206 0.14474754 -0.14304778 -0.17913766
-0.0039027694 -0.019922039 0.03421857 -0.19765171 0.08925686 0.08639932 0.020317836 -0.08128952
-0.032073162 0.023943055 -0.030948402 -0.07531126 -0.112216964 0.010135565 0.042656973 -0.08470555
-0.078043565 -0.054845046 -0.10771022 -0.0281414 -0.04378171 0.12516695 0.062140882 -0.09853044
0.047874305 -0.02782393 0.06036912 -0.014825551 -0.06275274 -0.037012108 0.12348341 -0.14366369
-0.024355268 0.014948938 0.025258116 -0.056189336 -0.1777579 -0.014083546 -0.013990942 -0.09473423
0.030294927 -0.010133673 0.0164049 0.012980041 0.01345919 0.008974601 -0.034855034 -0.15071005
0.022679474 -0.12686838 -0.0077680564 -0.04975996 -0.10132963 -0.06272453 -0.0036472671 -0.09782851
-0.009061043 -0.018924182 0.1527491 0.07845957 -0.10074742 0.01641974 -0.036476027 0.01143017
-0.045946624 -0.15510681 -0.071633555 -0.036177244 -0.18718034 -0.028695485 -0.08942396 -0.100131065
-0.14213008 0.012223215 0.1495055 0.023426177 -0.14686213 -0.028081095 -0.12443036 -0.1738314
-0.023556152 0.07535438 0.0009726066 0.073936775 -0.054105166 0.010917714 0.0030309113 -0.13335888
-0.03750222 -0.1377799 0.0789728 -0.055787336 0.00017263234 0.018985352 -0.09560108 -0.11064971
0.01031698 -0.06966276 -0.037115738 0.076982275 -0.046318196 0.09841744 -0.14790946 -0.07450339
0.009591777 -0.07724226 -0.07506265 0.082084835 -0.06866553 0.06834574 0.028503897 -0.10340616
-0.13415863 -0.010626214 -0.124971874 0.027035449 0.06102024 -0.018553434 -0.08845254 -0.07467098
-0.18773295 -0.024172666 0.048061322 0.093977116 0.18734121 0.015331625 -0.03967092 -0.0959583
-0.07072362 0.012678615 -0.010127138 0.024894135 0.0055336016 0.11724347 0.026366081 -0.038297422
-0.0025062375 -0.046776544 -0.034862407 0.12525798 0.023399947 -0.100248694 -0.08376454 -0.034238014
-0.17970781 -0.08743374 0.018809693 -0.118689984 0.043615915 -0.10859594 0.11946912 -0.04796911
-0.16433163 -0.038030803 -0.078085974 -0.02722543 0.11506307 0.05578014 -0.066536166 -0.05477893
-0.20482197 -0.053200297 -0.11899423 -0.069429636 -0.039881058 -0.043132216 0.08609361 -0.16154876
00000000: 0911 99bc b68e 9bbc c3f4 51bd 421e 13be
00000010: 7636 b03c d420 cbbc 6bb0 7fbd 191d d4bc
00000020: aad2 93bd db6c adbd f2e8 1a3d a769 c43a
00000030: 7e17 d9bc a121 443d b4f8 f2bd 50b5 36bd
00000040: 19ca 8cbd a2d7 093d ae43 32bc e47d 20bd
00000050: 7f09 10be 3ad6 dabd 1c69 b0bd 21bf 8fbd
00000060: 86ae c1bd 535a 823c 301b eebd 3662 cebd
00000070: e0f5 08be e4ba 3b3e a08e 79bd e520 7abc
00000080: 906b 6cbd 42a8 0e3b 6c79 7fbd e0a2 11bd
00000090: 6f7e 9abd 5a08 e7bd 99eb bcbd a0f3 2b3c
000000a0: baaf 823c a2c1 0dbd b3e2 4b3c b8c4 94bd
000000b0: 8aea 2fbd 1894 b1bd c517 bb3c d63a afbd
000000c0: fb87 8abd 5d51 d3bc 34db 9f3c 29b3 0b3d
000000d0: 6406 243d 9593 c0bc 82d2 95bc ffc0 06be
000000e0: ad59 e2bd 5912 ff3d b5a6 b7bd d14f 26bd
000000f0: 6a7b c4bd 5ec8 663d 957e f13c 7ac6 51be
00000100: 5c94 4a3b 11af 12bc 6e74 14bd 91e8 55bd
00000110: e043 e13d c703 ae3d e575 893d 977d c6bb
00000120: 803c dfbd bdd5 9a3d 39cb 81bd f9b0 5ebc
00000130: ed10 c33d 7c95 533d 9dff d13d 8357 88bd
00000140: 200a cabd ac7b 3abd 6458 bf3b 9e76 dfbc
00000150: 6009 09bd b338 143e 1e7b 12be dd6f 37be
00000160: 9bc5 7fbb 8b33 a3bc c528 0c3d 3665 4abe
00000170: 4dcc b63d 20f2 b03d 9771 a63c 1f7b a6bd
00000180: 265f 03bd 3a24 c43c 8187 fdbc ca3c 9abd
00000190: 02d2 e5bd a40f 263c 14b9 2e3d 1a7a adbd
000001a0: 4ed5 9fbd 33a5 60bd 2d97 dcbd cb88 e6bc
000001b0: 7354 33bd c42b 003e 7087 7e3d 54ca c9bd
000001c0: d917 443d 03ef e3bc 9c45 773d dee6 72bc
000001d0: 8284 80bd 029a 17bd dfe4 fc3d 931c 13be
000001e0: b384 c7bc 64ec 743c 1cea ce3c ca26 66bd
000001f0: 2b06 36be acbe 66bc 443a 65bc 0504 c2bd
00000200: 112d f83c b507 26bc 9263 863c 3daa 543c
00000210: ef83 5c3c 340a 133c 27c4 0ebd bc53 1abe
00000220: 4eca b93c c9e9 01be 2e8b febb 1ad1 4bbd
00000230: e985 cfbd b875 80bd fd06 6fbb 505a c8bd
00000240: c574 14bc e306 9bbc 436a 1c3e 69af a03d
00000250: aa54 cebd b182 863c e367 15bd 9c45 3b3c
00000260: 8732 3cbd 52d4 1ebe 9db4 92bd 972e 14bd
00000270: 34ac 3fbe cb12 ebbc e923 b7bd 8411 cdbd
00000280: 8c8a 11be e143 483c f817 193e 41e8 bf3c
00000290: 0763 16be 530a e6bc 58d5 febd dc00 32be
000002a0: d5f8 c0bc 6653 9a3d 86f6 7e3a 2a6c 973d
000002b0: 619d 5dbd 36e0 323c 41a2 463b 3b8f 08be
000002c0: ee9b 19bd 2d16 0dbe 7ebc a13d 4381 64bd
000002d0: a404 3539 2b87 9b3c 80ca c3bd 519c e2bd
000002e0: 8d08 293c 59ab 8ebd ac06 18bd e2a8 9d3d
000002f0: 26b8 3dbd 158f c93d 9475 17be 3c95 98bd
00000300: d426 1d3c 3131 9ebd 72ba 99bd 181c a83d
00000310: 83a0 8cbd daf8 8b3d 0181 e93c 9cc6 d3bd
00000320: e160 09be 9219 2ebc 41f1 ffbd 7279 dd3c
00000330: 5cf0 793d 5ffd 97bc 9b26 b5bd 19ed 98bd
00000340: 113d 40be c105 c6bc f3db 443d 1377 c03d
00000350: 60d6 3f3e 7f31 7b3c fa7d 22bd c985 c4bd
00000360: 8cd7 90bd f7b9 4f3c 4cec 25bc c9ee cb3c
00000370: 3753 b53b 581d f03d aefd d73c c2dd 1cbd
00000380: b03f 24bb c398 3fbd e2cb 0ebd a143 003e
00000390: 3fb1 bf3c 304f cdbd be8c abbd 293d 0cbd
000003a0: 5305 38be 7610 b3bd c916 9a3c bc13 f3bd
000003b0: 9aa6 323d 8c67 debd 3aac f43d 427b 44bd
000003c0: 8d46 28be 30c6 1bbd 8aeb 9fbd dd07 dfbc
000003d0: 30a6 eb3d b779 643d 1d44 88bd df5f 60bd
000003e0: dabc 51be 8ee8 59bd 3fb3 f3bd 2031 8ebd
000003f0: 525a 23bd 68ab 30bd d951 b03d 0a6d 25be

network_body.linear_encoder.seq_layers.2.bias f4 [256]
-0.018969364 0.006430787 -0.10518932 -0.08873212 -0.044427454 -0.04713895 -0.07174656 0.017052736
-0.04283481 -0.008813743 -0.038761776 -0.0070291236 0.007954755 -0.0342998 -0.08495473 -0.011076527
0.015395762 -0.005465354 -0.031699464 -0.085044466 -0.08601397 -0.03100272 -0.0068586376 -0.012926226
0.016238043 -0.04176049 -0.062396355 -0.0213649 -0.06490883 0.0011156779 -0.055555556 -0.048925605
-0.05731541 -0.06722537 0.03402636 -0.011293733 -0.021173185 -0.041829687 0.00854932 -0.053974673
-0.021041235 -0.08926823 -0.06842664 -0.0023789764 -0.03833652 -0.04736465 -0.037024412 -0.029246699
-0.019815201 0.0151692405 -0.032871563 0.0048265588 0.002313507 -0.06982054 0.003460558 -0.029589437
0.0061260564 -0.062076785 -0.037079852 0.029479135 -0.02458719 -0.017917523 -0.05042941 -0.042024795
0.03164754 -0.041672703 -0.03815185 -0.11643616 -0.034728196 -0.026695566 -0.023919128 -0.033423766
-0.029068679 -0.014560399 -0.06129576 -0.00900049 -0.038948923 -0.041529775 -0.08188348 0.029492462
-0.021963915 -0.031833332 -0.012987269 -0.012103076 -0.09575223 -0.038622227 -0.06278254 -0.026914196
-0.03546584 0.017850306 -0.04261913 -0.046933662 -0.086210154 -0.008915485 -0.003710113 -0.019945392
-0.034455538 -0.0021596253 -0.037225235 -0.057515815 0.0065572453 -0.054036375 -0.052002493 -0.053473644
0.0055414527 -0.002746094 -0.057094224 -0.016605511 -0.017218044 -0.024238847 -0.022722183 -0.09207214
-0.025961649 -0.03254541 -0.023308882 -0.026206799 -0.007558723 -0.05058722 -0.062026177 -0.02795369
-0.116933815 -0.06415906 -0.018785238 -0.010118128 -0.018133253 -0.053930268 -0.04743509 -0.019735917
-0.024912588 -0.03182751 0.0042370344 -0.055664305 -0.038173188 -0.04685945 -0.035231818 0.0031792126
0.0037882878 0.008636652 -0.08093787 -0.045474563 -0.021485463 -0.06459799 -0.029360248 -0.01219478
-0.0076784077 0.016229367 -0.09037396 -0.015377157 -0.066607915 -0.07677232 -0.09600388 -0.05880191
-0.06658717 -0.12306677 -0.07707587 -0.04234096 -0.11870881 -0.006653263 -0.05517043 0.013525892
-0.08406603 -0.03032075 0.023066778 -0.023564322 -0.02965463 -0.044077195 -0.031522095 -0.028783994
-0.0053590867 -0.10299274 -0.0020968819 0.004376642 -0.03970324 -0.0038437978 -0.056367222 -0.027146427
-0.016928364 0.029663406 -0.053918824 -0.0103733465 -0.034899883 -0.02521501 -0.060754582 0.006784639
-0.039314598 -0.07211621 -0.020252781 0.009808875 -0.04160073 -0.044834565 -0.026845476 -0.037824214
-0.09046355 0.008196125 -0.052055314 0.0073361252 -0.0048317118 -0.09293574 -0.06074874 -0.031328972
-0.0057785697 -0.025336912 -0.044085402 0.009622786 -0.019453282 -0.10340504 -0.04513018 -0.059745785
-0.035599504 -0.022350226 0.0057811327 0.003061761 0.01972947 -0.043079033 -0.017705422 -0.06592503
-0.046148315 -0.043638345 -0.07366159 -0.00017268443 -0.04335609 -0.00443334 -0.029686246 -0.014319074
-0.043022543 -0.06537314 -0.018170899 -0.01644938 -0.006601629 -0.09173555 -0.04613419 -0.01248831
-0.043451075 -0.010388778 -0.010823135 -0.04359388 -0.031052684 -0.033081092 -0.07758625 -0.036429353
-0.00842829 0.0036228695 -0.016873643 -0.030020535 0.00429463 -0.052348424 -0.028136797 -0.029499259
-0.032416247 -0.04350023 -0.053819895 -0.052287333 -0.05199878 -0.049749553 -0.04269806 -0.034531653
00000000: a465 9bbc 5ab9 d23b 806d d7bd 30b9 b5bd
00000010: 90f9 35bd c614 41bd dcef 92bd 2eb2 8b3c
00000020: 8e73 2fbd 8467 10bc abc4 1ebd 9054 e6bb
00000030: a954 023c f27d 0cbd bffc adbd 527a 35bc
00000040: 823e 7c3c b616 b3bb 4cd7 01bd cb2b aebd
00000050: 1828 b0bd 6bf9 fdbc 6cbe e0bb 85c8 53bc
00000060: a505 853c 0c0d 2bbd 5293 7fbd 7105 afbc
00000070: ecee 84bd f03b 923a 398e 63bd 3766 48bd
00000080: 90c3 6abd 74ad 89bd 395f 0b3d 5909 39bc
00000090: 6373 adbc 9b55 2bbd 7212 0c3c 8c14 5dbd
000000a0: ab5e acbc 43d2 b6bd 4423 8cbd 9ae8 1bbb
000000b0: c106 1dbd 6f01 42bd e9a6 17bd c696 efbc
000000c0: 7d53 a2bc 6888 783c 55a4 06bd 1c28 9e3b
000000d0: 359e 173b 12fe 8ebd 87ca 623b 8c65 f2bc
000000e0: 16bd c83b 3a44 7ebd 0be1 17bd 3a7e f13c
000000f0: 136b c9bc c5c7 92bc 128f 4ebd 3122 2cbd
00000100: daa0 013d ffb0 2abd 1d45 1cbd 1576 eebd
00000110: 273f 0ebd a9b0 dabc 0cf2 c3bc 5ce7 08bd
00000120: 7021 eebc bd8e 6ebc 4311 7bbd cb76 13bc
00000130: e888 1fbd 201b 2abd 87b2 a7bd 2d9a f13c
00000140: abed b3bc ab63 02bd 8ec8 54bc fb4b 46bc
00000150: bf19 c4bd 5732 1ebd 2294 80bd 297b dcbc
00000160: a144 11bd ce3a 923c 6691 2ebd 833d 40bd
00000170: f38e b0bd 4112 12bc 5e25 73bb 8564 a3bc
00000180: 4021 0dbd 8088 0dbb 7d79 18bd b495 6bbd
00000190: 29de d63b 3f55 5dbd 9100 55bd 2e07 5bbd
000001a0: 1395 b53b d0f7 33bb a2db 69bd 4808 88bc
000001b0: db0c 8dbc 8c90 c6bc df23 babc 5190 bcbd
000001c0: 86ad d4bc 564e 05bd 45f2 bebc a4af d6bc
000001d0: 2aaf f7bb 8b34 4fbd 290f 7ebd 23ff e4bc
000001e0: ff7a efbd d365 83bd 80e3 99bc 81c6 25bc
000001f0: 308c 94bc fce5 5cbd 4c4b 42bd 38ad a1bc
00000200: 7c15 ccbc 905d 02bd d2d6 8a3b 4100 64bd
00000210: 7d5b 1cbd b2ef 3fbd 3d4f 10bd 565a 503b
00000220: ec44 783b be80 0d3c c1c2 a5bd 8943 3abd
00000230: 4802 b0bc f34b 84bd e784 f0bc 9dcc 47bc
00000240: 279b fbbb 73f3 843c fc15 b9bd 79f0 7bbc
00000250: bb69 88bd ce3a 9dbd af9d c4bd 46da 70bd
00000260: db5e 88bd 6e0a fcbd f4d9 9dbd b76d 2dbd
00000270: 9b1d f3bd 9d03 dabb 64fa 61bd b49b 5d3c
00000280: d02a acbd 3963 f8bc 8af6 bc3c f709 c1bc
00000290: 44ee f2bc 4a8a 34bd 501d 01bd 69cc ebbc
000002a0: 479b afbb dced d2bd d76b 09bb ef69 8f3b
000002b0: dd9f 22bd 3ae8 7bbb 51e1 66bd 2f62 debc
000002c0: 5aad 8abc ac00 f33c fcd9 5cbd f8f4 29bc
000002d0: 2ef3 0ebd b58f cebc ccd9 78bd ad51 de3b
000002e0: 5808 21bd aab1 93bd 29e9 a5bc 67b5 203c
000002f0: 8765 2abd 73a4 37bd 0beb dbbc 90ed 1abd
00000300: f444 b9bd 0a49 063c f437 55bd e163 f03b
00000310: 5653 9ebb 1855 bebd acd3 78bd cf52 00bd
00000320: 285a bdbb 5b8f cfbc e592 34bd e4a8 1d3c
00000330: 7d5c 9fbc 06c6 d3bd 6cda 38bd ffb7 74bd
00000340: c9d0 11bd d217 b7bc a86f bd3b d3a7 483b
00000350: b39f a13c a473 30bd f60a 91bc b403 87bd
00000360: 0406 3dbd 1fbe 32bd e3db 96bd a012 35b9
00000370: 2896 31bd 8d45 91bb 9230 f3bc 8d9a 6abc
00000380: 6838 30bd 5ae2 85bd 23db 94bc dac0 86bc
00000390: 7a52 d8bb d9df bbbd 34f7 3cbd c59b 4cbc
000003a0: c1f9 31bd b135 2abc 8553 31bc 7f8f 32bd
000003b0: 3362 febc 0a80 07bd 8ae5 9ebd f236 15bd
000003c0: cf16 0abc aa6d 6d3b 983a 8abc a0ed f5bc
000003d0: f8b9 8c3b 4d6b 56bd 247f e6bc 6ea8 f1bc
000003e0: e6c6 04bd 4c2d 32bd 4072 5cbd 3e2b 56bd
000003f0: acfc 54bd 30c6 4bbd 29e4 2ebd 1071 0dbd

network_body.linear_encoder.seq_layers.2.weight f4 [256, 256]
-0.012121706 -0.091434576 0.07818809 0.051056467 -0.022489594 0.10206182 0.12038595 -0.051276077
-0.066576116 -0.15751894 -0.11471044 0.07971236 0.0029144462 0.036725383 -0.13928793 -0.05626582
0.05010997 0.062319946 -0.19191559 0.0010499663 -0.016885981 0.057590704 0.0148198195 -0.032370105
-0.13607877 0.17299691 -0.120196044 -0.08481826 -0.15628688 -0.05030245 -0.095205404 -0.10101996
0.16202468 -0.0696945 -0.14951225 0.094496824 0.033250682 -0.02874024 0.091611415 0.05611467
-0.052351195 0.037574064 -0.0792311 -0.189684 0.22683194 0.20906562 -0.20039558 -0.13209517
-0.014071255 0.04988635 0.17774677 0.119631074 0.027726013 0.057876658 -0.0572333 0.05819545
0.1039728 0.11032535 -0.016441118 -0.041798543 0.0767968 0.07422092 -0.026881645 -0.03690517
-0.15689735 -0.026175605 -0.093736075 -0.02980404 -0.093520276 -0.09460797 0.02588622 0.14465895
-0.012820867 -0.124373496 0.007885239 -0.07632298 -0.03424065 -0.0020421816 0.024124302 -0.004820511
0.044621583 -0.05173014 -0.059037443 -0.02521422 0.22996037 0.08961803 -0.00044159734 -0.018277392
-0.15047558 -0.07014259 0.03825193 -0.20217651 -0.26554263 -0.02242465 -0.0346583 0.020556241
-0.026288725 0.11828202 -0.079822995 0.054720964 0.059891127 0.016315883 -0.053031433 -0.053906575
0.042205505 -0.10448177 0.043371547 -0.027596492 -0.041313928 -0.056909464 0.12324322 -0.22121555
-0.081272475 0.020207632 -0.1576239 0.0022775682 0.07318724 -0.012899148 -0.0463717 -0.033480864
0.0809234 0.049364515 -0.00962456 -0.057685938 -0.117260635 -0.053580552 0.033327486 0.06641302
0.0027200475 -0.123603545 -0.03122111 -0.028821928 0.017419977 0.07092222 0.13626066 0.1639592
0.03178337 -0.07326807 -0.00353514 -0.07753299 0.012372333 0.08990793 -0.0061845975 0.01688374
0.014971204 -0.00028322972 0.10347781 0.008687769 -0.113019645 0.042566102 0.106637605 -0.118851565
-0.12490973 0.019185401 -0.058339834 0.04116328 -0.09231568 0.016716441 0.05940933 0.083284125
0.00838931 0.073335215 -0.09660781 0.14258067 -0.02268944 -0.0025738077 -0.1225014 -0.0748812
0.007084704 -0.06600003 0.015133651 -0.031213379 0.09982579 0.17491211 0.05975118 0.0032319978
0.09074627 0.045805883 -0.026133329 -0.09438349 0.13602218 -0.06663243 -0.13948661 0.05099242
0.028995926 -0.041051555 -0.045697603 -0.032533187 0.105405085 -0.08362124 -0.07646943 0.06168361
0.019312201 0.010499739 0.08156512 0.0019498938 -0.008489378 0.0009388858 -0.001977762 -0.17280807
-0.016544536 -0.003071076 -0.14820334 -0.16693617 -0.049771484 -0.19634308 -0.050466612 -0.0048859357
-0.06868348 -0.034136932 -0.12858564 0.06024935 -0.03780493 -0.1699512 0.08890941 0.024924513
0.08156048 -0.12361291 -0.0027893903 0.07882302 0.041830916 0.009171504 -0.095626995 0.015918305
0.06454237 -0.08844335 -0.04834581 0.21538931 -0.021943588 0.052448742 -0.041474946 0.01700749
0.03204817 -0.00059991697 0.10365522 0.106624134 0.031890295 0.13450909 0.032503888 0.06265653
0.07904519 0.018571647 0.09168408 0.1305467 0.08127167 -0.03965714 -0.07831803 -0.09286222
0.024699757 -0.09527795 0.0040922356 0.17027713 0.041748635 -0.007535243 0.012377852 0.059374053
00000000: 1f9a 46bc 0d42 bbbd 1421 a03d 9620 513d
00000010: 193c b8bc ca05 d13d e98c f63d dd06 52bd
00000020: 0f59 88bd a54c 21be 4fed eabd 3c40 a33d
00000030: 4b00 3f3b 5b6d 163d 7fa1 0ebe fd76 66bd
00000040: 1d40 4d3d 3343 7f3d 8585 44be 069f 893a
00000050: 7854 8abc 3be4 6b3d d4ce 723c 8496 04bd
00000060: 3c58 0bbe 1a26 313e 5829 f6bd 32b5 adbd
00000070: ab09 20be f109 4ebd 0dfb c2bd 8ee3 cebd
00000080: cce9 253e fdbb 8ebd bd19 19be 8d87 c13d
00000090: de31 083d a770 ebbc c49e bb3d 7fd8 653d
000000a0: 356e 56bd 43e7 193d ea43 a2bd 863c 42be
000000b0: a246 683e 4c15 563e 8034 4dbe f543 07be
000000c0: 1f8b 66bc a155 4c3d 4003 363e 2301 f53d
000000d0: aa21 e33c 1310 6d3d 776d 6abd 5a5e 6e3d
000000e0: b1ef d43d 42f2 e13d 86af 86bc f334 2bbd
000000f0: a447 9d3d 2301 983d e536 dcbc e029 17bd
00000100: b3a9 20be 396e d6bc b3f8 bfbd 9a27 f4bc
00000110: 8f87 bfbd d3c1 c1bd 570f d43c 7a21 143e
00000120: 9d0e 52bc 88b7 febd 1731 013c 394f 9cbd
00000130: ec3f 0cbd 1fd6 05bb 54a0 c53c 61f5 9dbb
00000140: 1fc5 363d fce2 53bd 3fd1 71bd 0d8e cebc
00000150: bb7a 6b3e a889 b73d 3186 e7b9 78ba 95bc
00000160: 4516 1abe eba6 8fbd 0eae 1c3d 5c07 4fbe
00000170: 34f5 87be e6b3 b7bc ddf5 0dbd 9065 a83c
00000180: 745b d7bc d83d f23d 3d7a a3bd 1723 603d
00000190: 6650 753d e3a8 853c 7d37 59bd 24cd 5cbd
000001a0: aedf 2c3d 8afa d5bd 5da6 313d 0a12 e2bc
000001b0: cb38 29bd e619 69bd f166 fc3d 5486 62be
000001c0: 2f72 a6bd 7a8a a53c 2968 21be 4143 153b
000001d0: 31e3 953d f356 53bc 40f0 3dbd 3b23 09bd
000001e0: 2bbb a53d 7232 4a3d 55b0 1dbc 1748 6cbd
000001f0: 5826 f0bd 4877 5bbd 6782 083d 8d03 883d
00000200: d342 323b db23 fdbd 6ac3 ffbc f71b ecbc
00000210: 57b4 8e3c ab3f 913d ea87 0b3e ece4 273e
00000220: 472f 023d 920d 96bd cfad 67bb 9ec9 9ebd
00000230: 53b5 4a3c a621 b83d 2aa8 cabb c54f 8a3c
00000240: c849 753c 737e 94b9 2dec d33d 2557 0e3c
00000250: d876 e7bd cb59 2e3d d164 da3d 7368 f3bd
00000260: acd0 ffbd b42a 9d3c c0f5 6ebd d49a 283d
00000270: 0110 bdbd ebf0 883c 3357 733d de90 aa3d
00000280: 5173 093c c630 963d 51da c5bd ab00 123e
00000290: 34df b9bc 54ad 28bb 04e2 fabd 515b 99bd
000002a0: ce26 e83b 062b 87bd 22f3 773c 33b3 ffbc
000002b0: 7771 cc3d 291c 333e a7bd 743d edcf 533b
000002c0: 2ed9 b93d f39e 3b3d 9015 d6bc 224c c1bd
000002d0: 6649 0b3e 9576 88bd 94d5 0ebe 6edd 503d
000002e0: dd88 ed3c ad25 28bd 692d 3bbd 8541 05bd
000002f0: 9fde d73d 9d41 abbd 019c 9cbd f4a7 7c3d
00000300: 9f34 9e3c 1907 2c3c 9d0b a73d 9493 ff3a
00000310: 0817 0bbc 8f1f 763a 579d 01bb 99f4 30be
00000320: 6888 87bc 1b44 49bb 9ec2 17be 51f1 2abe
00000330: 2fdd 4bbd 290e 49be 14b6 4ebd 331a a0bb
00000340: eda9 8cbd 2bd3 0bbd f4ab 03be 06c8 763d
00000350: 58d9 1abd b007 2ebe 2316 b63d 7e2e cc3c
00000360: 2e09 a73d c428 fdbd 34ce 36bb f76d a13d
00000370: e556 2b3d 1344 163c 16d8 c3bd 1b67 823c
00000380: ca2e 843d c921 b5bd 4206 46bd 048f 5c3e
00000390: 0ac3 b3bc 7ed4 563d a2e1 29bd 4b53 8b3c
000003a0: f144 033d bf43 1dba 3049 d43d c15d da3d
000003b0: 669f 023d c0bc 093e cc22 053d 1152 803d
000003c0: 72e2 a13d 9123 983c ddc4 bb3d 09ae 053e
000003d0: c371 a63d 866f 22bd 3465 a0bd 8c2e bebd
000003e0: 2557 ca3c 1621 c3bd 2918 863b 215d 2e3e
000003f0: 9e00 2b3d 33ea f6bb 79cc 4a3c 3532 733d
