Project/Assets/MyProject/Chaser Vs. Runner 2/brain4/ChaserBrain.onnx (onnx, 566884 bytes, 6 tensors)

action_model._discrete_distribution.branches.0.bias f4 [7]
0	0x3c761f0e	0.015022052
1	0xbc2a1a9f	-0.0103823235
2	0x3ca3daf3	0.020001864
3	0x3cb4f9e0	0.022091806
4	0x3bcd6133	0.0062676906
5	0xbca2e11e	-0.019882735
6	0xbcb12a11	-0.021626504

action_model._discrete_distribution.branches.0.weight f4 [7, 256]
0	0x3c19127e	0.009342788
1	0x3b272713	0.0025505468
2	0xbc2c52b5	-0.010517766
3	0x3c0eca87	0.0087152785
4	0x3d1f4375	0.03888269
5	0x3ce5f079	0.028068768
6	0xbc6a4b95	-0.014300247
7	0xbd29b738	-0.041434497
8	0x3c1b488b	0.009477745
9	0xbd87d35a	-0.06632109
10	0xbc137072	-0.008998977
11	0x3cdccdcf	0.026953606
12	0x3d509fd7	0.050933685
13	0x3b991ce7	0.004672635
14	0x3c1f7dbe	0.009734569
15	0x3cacb7a1	0.021083655
16	0x3cef4c09	0.029211061
17	0x3c0e7355	0.0086944895
18	0x3c20d901	0.009817363
19	0x3ccd40fe	0.025055405
20	0xbca647ee	-0.02029797
21	0x3cd2139a	0.025644112
22	0x3c9cd7c1	0.019145848
23	0x3c8ad13c	0.016945474
24	0x3bf77ebd	0.00755295
25	0x3ca896e0	0.020579755
26	0xbcc7a9b1	-0.024372907
27	0x39dc0153	0.00041962657
28	0xbaef98f3	-0.0018279835
29	0x3d1c7ab3	0.038202953
30	0xbb1688e0	-0.0022969767
31	0xbc9d3dc6	-0.019194495
32	0x3cb273c6	0.02178372
33	0xbc40c237	-0.011765054
34	0xbb201037	-0.0024423727
35	0xbc3ed804	-0.011648182
36	0xbc0d7c9d	-0.008635667
37	0x38eaaa9e	0.000111897694
38	0xbc0a1ade	-0.008429257
39	0x3ccedc37	0.025251491
40	0x3d091b65	0.03347339
41	0xbd521ed4	-0.05129893
42	0xbba60d7c	-0.0050675254
43	0x3d390b65	0.045176882
44	0xbbda336a	-0.006658961
45	0x3b52f5a2	0.0032189866
46	0x3c0e51d2	0.0086865
47	0xbcec68c6	-0.028858554
48	0x3ab888d8	0.0014078869
49	0x3b8b1607	0.004244569
50	0xbd4ccaab	-0.049997967
51	0x3ba2ee81	0.0049722795
52	0x3d7cdf1b	0.061736207
53	0xbca68871	-0.020328732
54	0x3c949bca	0.018140692
55	0xbcbf99a3	-0.02338869
56	0xbba7f8ff	-0.005126118
57	0x3cd998b4	0.026562072
58	0x3c16f5e6	0.0092139
59	0xba9d644b	-0.0012008039
60	0xbc525ba7	-0.012839234
61	0x3c9f111c	0.019417338
62	0xbc3bafa3	-0.011455449
63	0x3d1d9c7b	0.03847931
64	0x3c0a7c55	0.008452495
65	0x3aa55935	0.0012615087
66	0x3cbca3a9	0.023027258
67	0xbd248461	-0.04016531
68	0x3d2f28ca	0.04276351
69	0xbd44ef67	-0.048079874
70	0x3c86f7c5	0.016475568
71	0x3c426d18	0.01186683
72	0x3c80935f	0.015695272
73	0xbb1a779e	-0.0023569833
74	0x3ceba358	0.028764412
75	0xbc384896	-0.011247775
76	0x3ce79d95	0.028273383
77	0xbcdc2073	-0.026870942
78	0x3b6ca20a	0.0036107325
79	0x3cedd0f7	0.029030306
80	0xbcaf07b0	-0.02136597
81	0xbd507e43	-0.050901663
82	0x3c954364	0.01822061
83	0xb8882080	-6.491039e-05
84	0x3c800119	0.015625523
85	0xbc208f6b	-0.0097998185
86	0x3c2ad65f	0.010427087
87	0xbc4e6e2a	-0.012599507
88	0x3b877d98	0.004134845
89	0x3d610cd9	0.054943893
90	0xbd39a19f	-0.04532015
91	0x3d02143e	0.031757586
92	0x3cce8677	0.025210602
93	0x3ccff0fa	0.025383461
94	0x3ca52379	0.020158516
95	0xbcf56b2b	-0.029958328
96	0xbcc76d5b	-0.024344137
97	0xba910ac2	-0.0011065828
98	0x3caff58a	0.021479387
99	0xbd0d9e8d	-0.034575034
100	0x3c78e9c1	0.01519245
101	0x3c33252e	0.010934157
102	0xbce9097a	-0.028446902
103	0x3c72f54f	0.014828994
104	0x3d03feae	0.032225303
105	0x3c1d2db4	0.009593416
106	0x3bdd1bcf	0.0067477
107	0xbaf8d4b1	-0.0018984285
108	0xbbf97cc4	-0.00761375
109	0x3aff61f2	0.0019484146
110	0xbb546592	-0.0032409173
111	0xbb1992a3	-0.002343335
112	0xbc39ca33	-0.011339712
113	0x3c12ef93	0.008968252
114	0xbc8953e3	-0.016763633
115	0x3c883e84	0.016631372
116	0xbc3f0ecb	-0.011661242
117	0x3cbd59e8	0.02311416
118	0xbbdffdd0	-0.0068356767
119	0x3bbfeba9	0.0058569503
120	0xbc94a2cf	-0.01814404
121	0xbc8b1363	-0.016977018
122	0xbb77edaa	-0.0037830868
123	0xbd3eb572	-0.04655976
124	0x3b997c5c	0.0046840142
125	0x3c643936	0.013929656
126	0x3d29c73d	0.041449774
127	0xbc81fd04	-0.015867718
128	0x3c1a62e8	0.009422995
129	0x3c8a424f	0.016877322
130	0xbd0320f2	-0.03201384
131	0x3d37b0ff	0.04484653
132	0x3c8f01fa	0.017456997
133	0x3d02e60f	0.031957682
134	0xbcb876ec	-0.022517644
135	0xbcc9b939	-0.024624454
136	0xba392921	-0.00070633186
137	0xb9933278	-0.00028075627
138	0xbd1305b6	-0.03589412
139	0xbc4b16fe	-0.0123956185
140	0x3c003c06	0.007826811
141	0xbcd3cab6	-0.025853496
142	0xbc2566d2	-0.010095315
143	0x3c3993c1	0.011326731
144	0x3c6385cb	0.013886879
145	0xbc782b4c	-0.0151470415
146	0xbbf2e4af	-0.007412515
147	0xbc65e661	-0.014031977
148	0xbd6601cd	-0.05615406
149	0xbb5d7e06	-0.003379704
150	0x3ac61747	0.0015113138
151	0x3c2e4a58	0.010637842
152	0x3d256295	0.04037722
153	0x3d11ff4e	0.03564387
154	0xbc7614ca	-0.015019605
155	0xbba2deb1	-0.0049703945
156	0x3d08d436	0.033405505
157	0xbc879343	-0.016549712
158	0xbbee8178	-0.0072786175
159	0xbc1bf454	-0.009518702
160	0x3c49c30a	0.012314567
161	0xbccfb33f	-0.025354026
162	0x3d16e003	0.036834728
163	0x3d3e9409	0.046527896
164	0x3cddf790	0.027095586
165	0xba044852	-0.0005046177
166	0x3c05d143	0.008167568
167	0xbc18cb28	-0.00932578
168	0xbdc71660	-0.097210646
169	0xbc3345fa	-0.010941977
170	0xbd10b225	-0.035326142
171	0xba051011	-0.00050759414
172	0xbcdb1e05	-0.026747713
173	0x3d4fbf0f	0.050719317
174	0x3cc64819	0.0242043
175	0xbc68c5ad	-0.014207286
176	0xbcb9e3e8	-0.022691682
177	0x3c04e314	0.00811078
178	0x3d24248c	0.040073916
179	0xba11555f	-0.00055440323
180	0xbb450009	-0.0030059835
181	0x3ca37944	0.019955285
182	0xbcabc7a6	-0.020969223
183	0xbd59c7a5	-0.05316891
184	0xbc98b54b	-0.018641135
185	0xbd1c4852	-0.038154908
186	0x3ca240d6	0.019806307
187	0x3d56b6b1	0.05242032
188	0x3c635c43	0.013876977
189	0xbc31abb9	-0.0108441645
190	0xbc3024d4	-0.010750968
191	0xbc2b196a	-0.010443071
192	0x3a8c18cc	0.0010688542
193	0xbd1ca763	-0.03824557
194	0xba85b0d4	-0.0010199794
195	0x3d23a9a5	0.039956708
196	0xbd28c6f3	-0.041205358
197	0xbc2bac82	-0.010478141
198	0x3d0c7717	0.03429326
199	0x3b06cca7	0.002056876
200	0x3acaeb38	0.0015481478
201	0xbc6c8497	-0.014435909
202	0x3b95d37e	0.004572331
203	0xbc0cf171	-0.008602486
204	0x3c8bf3d9	0.017084049
205	0xbc45ac65	-0.012065028
206	0xbc4c0a6f	-0.012453659
207	0x3cfc0a5b	0.030766657
208	0x3c94a3d2	0.018144522
209	0xbc69658f	-0.014245405
210	0xbc5c6b59	-0.013453328
211	0x3c4fc3e0	0.012680978
212	0xbcc7b17e	-0.024376627
213	0xbd016de8	-0.031598955
214	0xbc738a90	-0.014864579
215	0x3d8a2f2d	0.06747279
216	0xbcc8fe73	-0.024535393
217	0xbc136ee3	-0.008998605
218	0xbc193def	-0.009353145
219	0x3d596f49	0.053084645
220	0x3c89a29b	0.01680117
221	0xbc897bf5	-0.01678274
222	0xbd71d22f	-0.059038337
223	0x3ce28f33	0.027656173
224	0xb7e415be	-2.7189843e-05
225	0xbd5191ad	-0.051164318
226	0x3c643373	0.013928282
227	0xbd742544	-0.05960585
228	0x3c28a902	0.010294201
229	0x3b3aee27	0.0028523298
230	0xbbf8198f	-0.007571406
231	0x3d51126e	0.051042967
232	0x3c1b64bb	0.009484465
233	0x3b00641a	0.0019590915
234	0x3c889d6a	0.016676623
235	0xbccfaec3	-0.025351888
236	0xbaeab41e	-0.0017906462
237	0xbcc8f791	-0.024532111
238	0xbbc14dd8	-0.0058991723
239	0x3cb4190d	0.021984601
240	0xbd66d418	-0.056354612
241	0xbd0e22a9	-0.034701023
242	0x3c913dfe	0.017729755
243	0x3b96e1c6	0.004604551
244	0xbc404d03	-0.011737111
245	0xbb8cc45e	-0.0042958697
246	0x3c4ab565	0.012372349
247	0x3cacda8f	0.02110031
248	0xbc8594cf	-0.016306309
249	0xb984f890	-0.00025362195
250	0x3b838154	0.00401322
251	0xbd19e0b3	-0.037567805
252	0xbd1bb34e	-0.038012795
253	0xbc84f9f9	-0.016232478
254	0xbb9f68e0	-0.004864797
255	0x3d27ac6f	0.04093593

network_body.linear_encoder.seq_layers.0.bias f4 [256]
0	0xbcae4e9d	-0.02127772
1	0x3b373a04	0.0027958164
2	0xbc272aad	-0.010203046
3	0x3c9f9d86	0.019484293
4	0x3cc52eae	0.02407011
5	0x3ccea7da	0.025226522
6	0xbbc34a4d	-0.005959785
7	0x3c0ef81c	0.008726146
8	0xbcb2e0f0	-0.021835774
9	0x3b8cc71f	0.004296198
10	0x3c4341d5	0.011917551
11	0x3bd5db2e	0.0065263724
12	0xbbe6957c	-0.007036863
13	0x3b67fc49	0.0035398176
14	0x3c011309	0.0078780735
15	0xbba1f543	-0.0049425676
16	0xbcf86a06	-0.030323993
17	0xbb2995c5	-0.0025876623
18	0xbc019fd6	-0.007911643
19	0xbbbe82a2	-0.0058139125
20	0x3d212d27	0.0393497
21	0x3c7f2ee0	0.015575141
22	0xbb9034d9	-0.004400831
23	0x3c2dcd27	0.010607994
24	0xbc00ff04	-0.0078733
25	0x3c814859	0.015781568
26	0x3a0bea8d	0.000533738
27	0xbb2a12a3	-0.002595105
28	0xbbc4781e	-0.0059957644
29	0xbc5b4d63	-0.01338515
30	0xbc2662ed	-0.010155422
31	0x3c641b1e	0.013922481
32	0x3b5d2d8d	0.0033749074
33	0x3cb9eb6a	0.022695262
34	0x3c90ae3c	0.017661206
35	0x3c30a32f	0.0107810935
36	0xbaa20cbd	-0.0012363415
37	0x3bb710cf	0.0055867205
38	0x3b8bf8eb	0.0042716167
39	0x3ca7e60f	0.020495443
40	0xbc15d3d7	-0.009144745
41	0x3ad613c2	0.0016332793
42	0xbbe7e643	-0.00707701
43	0x3ba9d574	0.0051829163
44	0x3c4de739	0.012567335
45	0xb87aca60	-5.979312e-05
46	0x3aa06f98	0.0012240289
47	0x3d055e75	0.032560784
48	0x3c9266a4	0.017871208
49	0x3c44e69b	0.012017871
50	0x3b9e018c	0.0048219617
51	0x3c5ff3bf	0.013668953
52	0x3b260905	0.0025334966
53	0xbcc65bfb	-0.024213782
54	0x3c0c52f2	0.008564698
55	0xbb606197	-0.0034237856
56	0x3b691907	0.0035567896
57	0xba831a5b	-0.0010002361
58	0xbc0f7ad0	-0.008757308
59	0x3bc38e0d	0.0059678615
60	0xbcb3a989	-0.021931427
61	0x3c27eeda	0.010249818
62	0x3c96702a	0.01836403
63	0xbc172bac	-0.009226721
64	0xbc24bcaa	-0.010054747
65	0xbb521926	-0.0032058447
66	0x3cc55d72	0.02409241
67	0xbae17b7c	-0.0017202939
68	0xbc006aa4	-0.007837925
69	0xbc0eb077	-0.008709065
70	0xbc44ded7	-0.01201602
71	0x3caf5b4e	0.021405842
72	0x3c85080c	0.016239189
73	0xbccf7fc9	-0.025329487
74	0x3c089213	0.008335608
75	0xbd0ab1c5	-0.03386094
76	0x3b0508cf	0.002029944
77	0xbbc7766f	-0.0060871164
78	0xbaf91389	-0.0019003014
79	0xbc859996	-0.016308587
80	0x3c62354f	0.013806655
81	0xbc714af9	-0.0147273475
82	0xbb1f48d2	-0.002430488
83	0xbba0a4b7	-0.004902448
84	0xbc53419e	-0.012894062
85	0x3b63cb7c	0.0034758737
86	0xbb77bf72	-0.003780332
87	0xbb9328b0	-0.0044909343
88	0x3bc4f5c5	0.0060107433
89	0x3bcfa391	0.0063366373
90	0x3c1a4b6f	0.009417399
91	0xbc32f87f	-0.010923504
92	0xba1633f1	-0.0005729786
93	0x3cbd6cd4	0.023123182
94	0xbc0170ad	-0.007900399
95	0xbc5f82ef	-0.013642057
96	0x3c63a8bb	0.013895209
97	0xbc3ba56b	-0.011453013
98	0x3c8ab8b6	0.01693378
99	0xbad14d88	-0.0015968541
100	0x3c687c84	0.014189843
101	0xbb94ff52	-0.004547038
102	0xbc22270d	-0.009897006
103	0x3c73b0a8	0.014873661
104	0x3c4812f6	0.012211552
105	0xbc0564ca	-0.008141706
106	0x3c0f7568	0.008756019
107	0xbb59cfd2	-0.0033235443
108	0xbb438f28	-0.0029839966
109	0x3c8938ae	0.01675066
110	0xbb0622ee	-0.0020467597
111	0x3b3058a0	0.0026908293
112	0x3c8718bf	0.016491292
113	0xbc0287e8	-0.007966973
114	0xb94264a3	-0.00018538772
115	0x3b977482	0.004622043
116	0xbabb6a1d	-0.0014298592
117	0x3c74c28a	0.01493896
118	0x3cb9005d	0.022583181
119	0x3c7620ac	0.015022438
120	0x37019aad	7.725012e-06
121	0x3c087b01	0.008330108
122	0xbc722594	-0.014779467
123	0x3c91dda6	0.017805886
124	0xba986f6f	-0.001162989
125	0xbc688680	-0.014192224
126	0x3aa4bcd7	0.0012568486
127	0x3bd60675	0.0065315315
128	0xbb52e234	-0.0032178285
129	0x3c6d0b31	0.014468
130	0x3c4c7ff5	0.012481679
131	0x3c3694a3	0.011143836
132	0xbc376e09	-0.011195668
133	0x3b71d0da	0.0036898167
134	0xbca08afb	-0.019597521
135	0x3d2441ae	0.0401017
136	0xbc5bf020	-0.0134239495
137	0xb9de362c	-0.000423835
138	0xb93c47c4	-0.00017955812
139	0x3bdb9316	0.0067008836
140	0x3ccb7b56	0.024839085
141	0x3c702880	0.014658093
142	0x3ca12d4d	0.019674921
143	0xbb947a57	-0.0045311856
144	0x3c553c89	0.013014921
145	0x3bfa6754	0.007641712
146	0x3c18c403	0.009324077
147	0xbaba9df0	-0.0014237743
148	0x3c0858d1	0.008321957
149	0xbc81ca30	-0.01584348
150	0xbc277a89	-0.010222086
151	0x3c963484	0.018335588
152	0x3b619253	0.0034419491
153	0xbc04babb	-0.008101161
154	0xba99118a	-0.0011678201
155	0xbcb72fdd	-0.02236169
156	0x3bd54603	0.00650859
157	0x3cd42261	0.0258953
158	0x3c3a550b	0.011372815
159	0xbc9409b0	-0.018071026
160	0x3c8f7179	0.017510163
161	0x3b85a858	0.004078906
162	0x3c4ac88d	0.012376917
163	0x3c1c4893	0.009538787
164	0xbc788fbf	-0.0151709905
165	0x3c0e4e7c	0.008685704
166	0xbc8f5f83	-0.017501598
167	0x3ceff886	0.02929331
168	0x3be82278	0.007084187
169	0x3b049a2f	0.0020233502
170	0xb9e77022	-0.000441433
171	0x39fb101e	0.0004788646
172	0x3b9a188c	0.0047026332
173	0x3b7fc656	0.003902813
174	0x3b6e2838	0.003633989
175	0xbc5d555e	-0.013509123
176	0x3cb954bf	0.022623418
177	0xbbc6d920	-0.006068364
178	0x3b0ebd2e	0.002178024
179	0x3c5c9862	0.013464065
180	0xbc8e677e	-0.017383333
181	0x3c4147c4	0.011796895
182	0xbbb3c0a3	-0.0054856106
183	0x3c84e737	0.016223533
184	0x3ab4e39b	0.0013800742
185	0xbc2614a7	-0.01013676
186	0xba6eaa86	-0.00091043895
187	0xbc1861b7	-0.009300641
188	0xbc2b36e8	-0.010450102
189	0x3ce00180	0.027344465
190	0xbc073a61	-0.008253665
191	0x3c8736e1	0.01650566
192	0x3b2b8e4b	0.0026177343
193	0x3c879ca9	0.016554194
194	0x3c0b47fc	0.008501049
195	0xbc018f45	-0.007907693
196	0xbc1a84ed	-0.009431106
197	0x3c8ff79a	0.01757412
198	0x3b6eb129	0.0036421514
199	0x3cc6b64c	0.024256848
200	0x3b1e6a95	0.0024172415
201	0x3cd9feed	0.026610816
202	0xbbb79ea6	-0.005603629
203	0xbc2cece3	-0.010554525
204	0x3c5a36b3	0.013318705
205	0xbbe893f0	-0.0070977136
206	0xbb81a235	-0.003956104
207	0xbc9548bb	-0.018223157
208	0xbb9f56cc	-0.004862642
209	0x3c184b22	0.009295257
210	0xbc8b9c5b	-0.01704233
211	0x3c0848ba	0.008318121
212	0xba4f83f5	-0.00079160865
213	0xbb27d37c	-0.0025608232
214	0xbb655611	-0.0034993927
215	0x3c0acda7	0.008471883
216	0xbb014335	-0.0019723896
217	0x3c8adb7a	0.016950358
218	0x3bec70be	0.0072155884
219	0x3c21a51b	0.009866024
220	0x3bd6beb0	0.0065534934
221	0x3c3d022c	0.011536162
222	0x3cac5607	0.021037115
223	0xbaa8e1ac	-0.0012884638
224	0x39520f8a	0.0002003295
225	0x3c7a6266	0.015282249
226	0x3c2cd0c5	0.010547821
227	0xbb826e0f	-0.003980405
228	0xbbd570ff	-0.0065137143
229	0xbaaa76af	-0.0013005341
230	0x3b68c1c6	0.0035515889
231	0xbc1e75d4	-0.009671647
232	0xbaf55c65	-0.0018719552
233	0x3c710af9	0.014712089
234	0xbc358fbe	-0.011081634
235	0x3c967c51	0.018369826
236	0x3af3ede9	0.0018610331
237	0xbb8c7e72	-0.0042875344
238	0x3b0f287d	0.0021844201
239	0x3c1f572b	0.009725372
240	0x3c1482d0	0.009064391
241	0xb73aa315	-1.1124434e-05
242	0x3c9fdabb	0.019513479
243	0x3c83daae	0.016095486
244	0x3c61a82b	0.0137730045
245	0xb933e1b4	-0.00017154851
246	0xbc69b61e	-0.0142646115
247	0xbc11ec8b	-0.008906494
248	0x3c31ec71	0.010859595
249	0x3bd39987	0.006457511
250	0xbcc4f53e	-0.024042722
251	0x3cea0b06	0.02856971
252	0x3c237879	0.009977453
253	0x3ae4e736	0.0017463926
254	0xbc2905d9	-0.010316336
255	0x386e8a9c	5.6872712e-05

network_body.linear_encoder.seq_layers.0.weight f4 [256, 286]
0	0x3cb3ef37	0.021964652
1	0xbd28f39c	-0.04124795
2	0xbd7091c4	-0.058732763
3	0x3e1b10bd	0.15143104
4	0xbd5f72ab	-0.054552715
5	0xbb209ff6	-0.0024509407
6	0x3ceeac9a	0.029135037
7	0x3c9a5ad8	0.018842146
8	0xbdc3d189	-0.0956145
9	0xbe1441ab	-0.14478175
10	0x3dfbe0dd	0.12298749
11	0xbc8341e7	-0.016022636
12	0xbc53dc7e	-0.012930987
13	0xbcdce995	-0.02696685
14	0xbc63a563	-0.013894412
15	0x3dc60923	0.096697114
16	0xbd82908c	-0.063752264
17	0xbc9ccde5	-0.019141147
18	0xbce643f4	-0.028108574
19	0x3c43ce4d	0.011951041
20	0xbd50a9f3	-0.050943326
21	0x3d03f3ad	0.03221481
22	0xbcc40566	-0.023928355
23	0xbd8a036f	-0.06738936
24	0x3c671a92	0.014105456
25	0x3c533f60	0.012893528
26	0x3cab13b6	0.020883422
27	0xbd9fac12	-0.07796492
28	0x3d7631cf	0.060106095
29	0x3d7e1e43	0.06204058
30	0xbdcc2d79	-0.09969611
31	0xbe5a66e8	-0.21328318
32	0x3c91db3e	0.017804738
33	0xbd4f559f	-0.050618764
34	0xbcf530f8	-0.029930577
35	0x3bd941e2	0.0066301683
36	0x3ceed243	0.029152995
37	0x3d6c5a8a	0.057703532
38	0xbc9cac39	-0.01912509
39	0xbd438ae8	-0.047739893
40	0x3cab90b9	0.020943033
41	0xbbf73450	-0.007544078
42	0x3c2a21ed	0.010384065
43	0x3e413730	0.18868709
44	0xbcaee2b9	-0.021348344
45	0xbd304493	-0.043034147
46	0xbd52842e	-0.051395588
47	0xbc182a27	-0.009287394
48	0xbcb9a579	-0.022661911
49	0x3d912b2b	0.07088312
50	0xbd82d78b	-0.06388768
51	0xbd8f220d	-0.069889165
52	0xbd0b9669	-0.03407899
53	0xbc8b7ae8	-0.01702638
54	0x3d4834e9	0.048878584
55	0x3d0456e1	0.032309417
56	0xbd29e29d	-0.04147588
57	0x3a1fdf86	0.0006098676
58	0xbddb2dae	-0.10702072
59	0x3d4ee550	0.05051166
60	0x3c4f090a	0.012636432
61	0x3d0a8ab1	0.033823673
62	0xbda22b7a	-0.07918449
63	0xbd231fbd	-0.03982519
64	0xbd10d779	-0.03536174
65	0x3c8bcc15	0.017065087
66	0x3d25c979	0.040475342
67	0x3d0e29f0	0.034707963
68	0x3e129612	0.1431506
69	0xbcd85008	-0.02640535
70	0x3d83912c	0.06424174
71	0xbb909db0	-0.004413329
72	0xbde32a60	-0.11092067
73	0xbd5f043c	-0.054447398
74	0xbd06f67e	-0.032949917
75	0x3d15d081	0.036575798
76	0xbd8a98c3	-0.06767418
77	0xbd2f119d	-0.042741407
78	0xbd117e28	-0.035520703
79	0xbd0151e8	-0.031572253
80	0xbd99e165	-0.07513694
81	0xbda59a3b	-0.08086058
82	0x3ce5a482	0.028032545
83	0x3c617249	0.013760158
84	0xbd5fe137	-0.05465814
85	0xbdf6b999	-0.12047119
86	0x3c13fa4c	0.009031843
87	0xbd9a75d8	-0.07542008
88	0x3d88935e	0.06668733
89	0x3d4986fd	0.049201
90	0x3d0ea31c	0.034823522
91	0xbbdbd8b5	-0.006709183
92	0x3cbf2243	0.023331767
93	0xbd3d54d8	-0.04622349
94	0x3e43204b	0.19055288
95	0xbd181e79	-0.037138436
96	0x3d2e7830	0.04259509
97	0xbd3dd117	-0.04634198
98	0x3bad17aa	0.005282362
99	0xbda26512	-0.07929434
100	0xbd914bbc	-0.07094523
101	0x3e37833b	0.17921154
102	0xbcf6ef5a	-0.030143429
103	0x3ddd0f0f	0.10793888
104	0xbb7688d0	-0.0037618168
105	0x3da4b68e	0.08042632
106	0x3d7cd6a7	0.061728146
107	0xbe40a272	-0.18811968
108	0x3e2d86fa	0.1694602
109	0xbe4ed5ee	-0.20198795
110	0xbdda3a35	-0.10655633
111	0x3a839d16	0.0010041322
112	0xbdf4d180	-0.119540215
113	0xbd8da316	-0.06915872
114	0xbd0183e7	-0.031619933
115	0x3e490cff	0.19633864
116	0xbe3bd54f	-0.1834309
117	0x3cd8b935	0.026455501
118	0x3d23cbe1	0.039989356
119	0x3d844982	0.06459333
120	0xbd9fec76	-0.07808773
121	0xbd2513b2	-0.040301986
122	0x3ce30d3b	0.02771627
123	0xbdc514ff	-0.09623145
124	0x3bbacffe	0.005701064
125	0x3d066015	0.032806475
126	0x3be6f248	0.007047925
127	0x3be9c03f	0.007133513
128	0xbc514aa6	-0.012774145
129	0xbc5a8bf7	-0.013339034
130	0x3c21b1d1	0.009869055
131	0x3e68b63b	0.22725765
132	0x3e21fc5f	0.15818928
133	0x3e3b7d32	0.18309477
134	0x3c230a2b	0.009951155
135	0xbe357bc0	-0.17722988
136	0xbe2b9878	-0.16757381
137	0xbd1efd54	-0.03881581
138	0x3b6ab4a2	0.0035813232
139	0x3bd76eef	0.0065745036
140	0x3d21199c	0.039331064
141	0xbdace748	-0.08442551
142	0x3d84bffb	0.0648193
143	0x3e11da6c	0.14243478
144	0x3d140789	0.03614
145	0xbda0d6c4	-0.07853463
146	0x3d9abfba	0.075561
147	0xbd8f74bf	-0.070046894
148	0xbdcbf29a	-0.09958382
149	0xbd23a405	-0.039951343
150	0x3cd11412	0.025522266
151	0x3c4f9a1a	0.012671018
152	0x3c9793a8	0.018503025
153	0xbd3d7ecf	-0.046263512
154	0xbd63dcd1	-0.05563051
155	0xbbb0be25	-0.0053937607
156	0xbd4767d0	-0.048682988
157	0x3b690e43	0.003556148
158	0xbda21482	-0.07914068
159	0xbd2f4a81	-0.04279566
160	0x3af8a6e1	0.0018970632
161	0xbd92251a	-0.07135983
162	0x3de4da4b	0.111744486
163	0xbbb35045	-0.0054722154
164	0xbe85ab37	-0.2610719
165	0x3d9840c7	0.0743423
166	0xbe068aee	-0.13138935
167	0xbd47ec1c	-0.048809156
168	0x3e2a568f	0.16634582
169	0x3c92e6d8	0.01793234
170	0x3d494e83	0.04914714
171	0xbd7430a3	-0.059616696
172	0xbd5b2868	-0.05350533
173	0xbd1f3f49	-0.038878713
174	0xbdb83319	-0.08994121
175	0x3d8b25a3	0.06794288
176	0x3df21cb4	0.11821881
177	0x3b606990	0.0034242608
178	0xbe5468bd	-0.2074308
179	0xbd9c6301	-0.07636071
180	0x3e0b240b	0.13587968
181	0xbe1b59da	-0.15170994
182	0xbda7b53b	-0.08188864
183	0x3d23ff56	0.04003843
184	0xbdc1a3e1	-0.094550855
185	0x3de4ed77	0.11178105
186	0x3ca5dfa2	0.020248238
187	0x3ce11e8f	0.027480392
188	0xbd4fa52c	-0.05069463
189	0xbd8ac36a	-0.067755535
190	0xbbf5e94c	-0.007504618
191	0xbcf5cf75	-0.03000615
192	0x3dec6e65	0.115444936
193	0x3cf603b9	0.030031072
194	0xbd81623e	-0.06317566
195	0x3d07e0ff	0.033173557
196	0x3c534230	0.012894198
197	0xbc28e041	-0.010307373
198	0xbd33e4f3	-0.043919515
199	0x3dc24a85	0.0948687
200	0xbd61f26a	-0.055162825
201	0xbd96eb80	-0.07369137
202	0x3bc74537	0.006081249
203	0xbd233259	-0.039842937
204	0x3a812f53	0.0009856023
205	0x3c6b5168	0.0143626705
206	0x3e1aa69a	0.15102616
207	0x3db2bd9d	0.08727572
208	0xbcd2d4f9	-0.025736319
209	0xbe2c2168	-0.16809618
210	0x3d4654f6	0.04842087
211	0x3ce7ea42	0.028309945
212	0xbca65e9e	-0.020308789
213	0xbd8f0493	-0.06983294
214	0x3b2b9ae9	0.0026184863
215	0xbde5daf9	-0.11223406
216	0xbc64acbb	-0.013957198
217	0x3c241a39	0.010016018
218	0xbdcb55ac	-0.0992845
219	0x3befd62e	0.0073192334
220	0x3ce5e2a0	0.028062165
221	0x3d426562	0.047459967
222	0x3d520191	0.051271025
223	0x3dae9c57	0.08525913
224	0xbc3ebccb	-0.011641691
225	0xbdb268d2	-0.08711399
226	0xbd41d3e3	-0.04732121
227	0xbbf8f366	-0.0075973747
228	0x3d8e1833	0.069382094
229	0x3de104f2	0.10987271
230	0xbd17d651	-0.037069622
231	0xbce8301b	-0.028343251
232	0x3ba5d50f	0.005060799
233	0x3db62da3	0.08895423
234	0x3dff69bf	0.12471341
235	0xbd776a20	-0.060403943
236	0x3dd1e59a	0.10248871
237	0xba12c4fa	-0.000559881
238	0x3dc0a59b	0.09406587
239	0x3cc896a3	0.024485892
240	0xbd2fb23d	-0.04289459
241	0xbddc8919	-0.10768337
242	0x3d4ec15b	0.050477367
243	0x3ce94b28	0.02847822
244	0xbdb1636d	-0.08661542
245	0xbd940830	-0.07228124
246	0xbd340892	-0.043953486
247	0xbc71ad4c	-0.01475079
248	0xbdb2d7ba	-0.08732553
249	0xbcf65e68	-0.030074313
250	0x3d98ca2d	0.07460437
251	0x3dd530ec	0.10409722
252	0xbd88cff9	-0.06680293
253	0x3e269194	0.16266471
254	0x3c30ed40	0.010798752
255	0xbe2991d0	-0.1655953

network_body.linear_encoder.seq_layers.2.bias f4 [256]
0	0xbcff6da2	-0.031180207
1	0xbca7175b	-0.020396879
2	0xbc9647e3	-0.018344825
3	0x3c08d36e	0.00835119
4	0xbc40a8ad	-0.011758965
5	0x3bcf65f4	0.0063292924
6	0x3ba72fe7	0.005102146
7	0xbbfa59c0	-0.0076400936
8	0xbbcfc73b	-0.006340889
9	0x3b1ad383	0.0023624606
10	0x3b764656	0.0037578545
11	0xbac1c776	-0.0014784175
12	0x3cb44559	0.022005724
13	0xbd0ee4a5	-0.03488602
14	0xbcb9050a	-0.02258541
15	0xbc1f95a9	-0.009740272
16	0x3c282805	0.010263448
17	0xbb9b1ee6	-0.004733908
18	0xbc99a451	-0.01875511
19	0xba0a5349	-0.00052766927
20	0xbbe83cf4	-0.0070873443
21	0xbbf891ee	-0.0075857555
22	0xbafef215	-0.0019450808
23	0xbc9088e5	-0.017643401
24	0xbc898712	-0.01678804
25	0x3ba47132	0.0050183767
26	0xbbd140e5	-0.00638591
27	0x3aac5e56	0.0013150673
28	0xbbad708d	-0.005292958
29	0x3b71a3ef	0.0036871394
30	0x3c28064f	0.01025541
31	0xbb821370	-0.0039696023
32	0xbcd3d93d	-0.025860423
33	0x3a4873f1	0.0007646671
34	0xbcbd332a	-0.023095686
35	0xbc9f6550	-0.01945749
36	0x3c298b38	0.010348134
37	0xbcbef0d0	-0.023308188
38	0x3bf32249	0.0074198586
39	0x3cc1299e	0.023579415
40	0x3bebd270	0.007196717
41	0xbb361543	-0.002778367
42	0xbceaa4db	-0.028643062
43	0xbd1199ef	-0.035547193
44	0x3c7df20e	0.015499605
45	0xbc87b80b	-0.01656725
46	0x3bda2d3e	0.0066582253
47	0xbc7d2fd6	-0.0154532995
48	0xbc443f0c	-0.011977922
49	0x3c3751aa	0.011188904
50	0xbccbce74	-0.024878718
51	0x3bef5315	0.0073036053
52	0x3d16e161	0.03683603
53	0x3cddbad4	0.027066626
54	0x3c37a1ea	0.011208037
55	0x3c9317bd	0.017955655
56	0xbbdd0119	-0.0067445156
57	0xbc8f6823	-0.017505711
58	0xbc9a2cdb	-0.018820217
59	0xbc9878fa	-0.018612374
60	0xbc444a57	-0.011980615
61	0xbc1e9ac7	-0.0096804565
62	0xbca3a24d	-0.019974852
63	0x3c66892b	0.014070789
64	0xbbf1b4a8	-0.007376272
65	0xbc3f082e	-0.011659665
66	0xbcecb214	-0.028893508
67	0xbd2ca713	-0.042151522
68	0xbb81d116	-0.0039616926
69	0xbc715edc	-0.014732089
70	0xbcb04c31	-0.021520706
71	0xbba1bd7f	-0.00493592
72	0xbca9299c	-0.020649724
73	0x3c3e52d7	0.01161643
74	0xbab16a7b	-0.0013535762
75	0xbc9e1ca2	-0.019300763
76	0xbc7e91a1	-0.01553765
77	0x3b932ba4	0.0044912864
78	0xbbad2b9d	-0.00528474
79	0x3b7ec4e3	0.0038874678
80	0x3cdba845	0.026813636
81	0xbc371aca	-0.011175821
82	0x3cb7550b	0.022379419
83	0x3c1928a7	0.009348071
84	0x3c2b5eb7	0.0104595935
85	0xbc8c257d	-0.01710772
86	0xbc90efab	-0.017692408
87	0x3bac2a9a	0.005254102
88	0x3bea2654	0.0071456823
89	0x3cad680f	0.021167783
90	0xbc83cd5f	-0.01608914
91	0x3b70ce6f	0.0036744138
92	0x3b976893	0.0046206205
93	0xbd2db99d	-0.042413343
94	0xbc224e3a	-0.009906346
95	0xbc8ea239	-0.017411338
96	0x3a58a9ec	0.00082650664
97	0xbc9c0e2a	-0.019049723
98	0x3caa6639	0.020800697
99	0x3a9e1d44	0.0012063165
100	0x3ccb5f5a	0.02482574
101	0xbd23ed9d	-0.040021528
102	0x3cf77bb5	0.030210355
103	0xbc815450	-0.015787274
104	0xbd61cf31	-0.055129234
105	0xbbe6bf6e	-0.007041863
106	0xbbbe5054	-0.0058079157
107	0x3b984ec7	0.004648063
108	0xbb85717f	-0.0040723677
109	0x3be59d1c	0.0070072543
110	0xbc4f9a79	-0.0126711065
111	0xbd0992ad	-0.033587147
112	0xba8c8416	-0.0010720517
113	0xbb01289c	-0.0019708043
114	0xbd34c936	-0.044137202
115	0x3c59abbf	0.013285576
116	0xbcfac9df	-0.030613838
117	0xbb97a190	-0.004627414
118	0xbd1c1bcc	-0.038112447
119	0xbc792844	-0.015207354
120	0x39fd6ab7	0.0004833543
121	0x3affbf92	0.0019512048
122	0xbc343cc8	-0.0110008195
123	0x3c363381	0.011120678
124	0xba98b693	-0.0011651091
125	0xbca29069	-0.01984425
126	0x3c3bb136	0.011455825
127	0xbb311eb6	-0.0027026362
128	0xbba1f455	-0.0049424567
129	0xbbc9e5c7	-0.006161425
130	0xbbbc08f2	-0.005738371
131	0xbbc2d52d	-0.0059458227
132	0x3ca1d957	0.019756956
133	0xbc40c1bf	-0.011764943
134	0xbc60f82b	-0.013731043
135	0xbb8532c3	-0.004064889
136	0xb948c2b1	-0.00019146015
137	0xbcedc154	-0.02902285
138	0x3c059fba	0.008155758
139	0xbb906e84	-0.0044077057
140	0xbc87ff5a	-0.016601253
141	0xbb834f41	-0.0040072505
142	0x3c4f835a	0.012665594
143	0xbc80575f	-0.015666662
144	0xbd0a8432	-0.033817478
145	0xbcf09e0c	-0.029372238
146	0x3719e4a3	9.172744e-06
147	0xbbc7434d	-0.006081021
148	0x3c288c00	0.010287285
149	0xbae46ce5	-0.0017427473
150	0x3c236657	0.00997313
151	0xbcb625e4	-0.022234865
152	0x3c15d29e	0.009144453
153	0x3cfe3280	0.03102994
154	0xbcaf5e10	-0.021407157
155	0xbce329d1	-0.0277299
156	0xbbde10bd	-0.0067768977
157	0xbd59a43c	-0.05313514
158	0xbd025f80	-0.031829357
159	0x3c04c6e0	0.008104056
160	0xbabd25f0	-0.0014430862
161	0xbbb1719a	-0.0054151537
162	0x3c156585	0.009118442
163	0x3c102530	0.008797929
164	0xbb3c7dce	-0.002876151
165	0xbb1bdd27	-0.002378294
166	0x3c9fda37	0.019513233
167	0xbc42dc57	-0.011893353
168	0x3c3fbfe3	0.011703464
169	0xbce85b8b	-0.028363964
170	0xbca893f0	-0.020578355
171	0xbcad5a26	-0.02116115
172	0xb9b3501a	-0.0003420122
173	0x3d022fa8	0.03178373
174	0xbc53de70	-0.012931451
175	0xb9b9b9cd	-0.00035424382
176	0xbc084fca	-0.008319804
177	0xbce7ccaf	-0.028295843
178	0x3d11694d	0.035500813
179	0xbc8d8b50	-0.017278343
180	0xbc862dee	-0.016379323
181	0xbc083f0d	-0.008315814
182	0xbc36ed9b	-0.011165048
183	0xbc8ce240	-0.017197728
184	0xba30d6b1	-0.00067458587
185	0xbd3c5831	-0.045982543
186	0x3c9d6134	0.01921139
187	0x3b987470	0.0046525523
188	0xbcb1c408	-0.02169992
189	0xbc74a096	-0.014930865
190	0x3b8575f9	0.0040729013
191	0xbcdd4d9f	-0.027014552
192	0xbccc56e6	-0.02494378
193	0xbd221310	-0.03956896
194	0xbb2f0e68	-0.0026711468
195	0xbba6e94f	-0.0050937305
196	0xbd1a812d	-0.037720848
197	0x3c61d49f	0.013783603
198	0xbc991597	-0.018687053
199	0xbc8459ef	-0.016156165
200	0x39c87d2c	0.00038240233
201	0x3c99e69c	0.018786721
202	0xbc272b74	-0.010203231
203	0xbb978922	-0.004624502
204	0x3cab7c67	0.020933343
205	0x3ccebf96	0.02523784
206	0xbc9bfcf8	-0.019041523
207	0xbcb7d475	-0.022440175
208	0xbcbbf20c	-0.022942565
209	0x3c286468	0.010277845
210	0xbcd3aa97	-0.02583818
211	0x3b95d48c	0.0045724567
212	0xbd1234df	-0.035694953
213	0xbc27ee05	-0.010249619
214	0x3b4f4456	0.0031626425
215	0x3c251115	0.010074873
216	0xbc1eee30	-0.009700343
217	0xbd290a07	-0.04126933
218	0xbcf4ec89	-0.029897945
219	0x3b6a9fbd	0.0035800778
220	0xbbd0659c	-0.006359769
221	0x3c41ca25	0.01182798
222	0xbcfbaabb	-0.03072106
223	0xbac0d53f	-0.001471199
224	0xbcb84509	-0.022493856
225	0x3ad86f35	0.0016512634
226	0xbbd42149	-0.0064736945
227	0xbc8afca2	-0.016966168
228	0xbcf34529	-0.029696064
229	0xbcd56e79	-0.026053654
230	0x3d148678	0.036261052
231	0xbc864360	-0.016389549
232	0xbcb0dde7	-0.021590186
233	0xbc7b6166	-0.015343046
234	0xbbccc7bd	-0.0062493966
235	0x3c86aa70	0.016438693
236	0x3c000042	0.0078125615
237	0xbd35f184	-0.04441978
238	0xbd1e2e34	-0.03861828
239	0xbbb9e941	-0.005673558
240	0xbbb7a140	-0.0056039393
241	0xba0a7f00	-0.00052832067
242	0x3be0d7ef	0.006861679
243	0x3c58cbd1	0.013232187
244	0xbb7501d9	-0.0037385134
245	0x3b9e79b1	0.004836284
246	0x3b928670	0.0044715926
247	0xbbbeacdc	-0.0058189463
248	0xbc5e6fba	-0.013576442
249	0x3bacdd64	0.0052754153
250	0xbc25ad44	-0.0101121105
251	0x3be29c89	0.006915633
252	0xbc8690f0	-0.016426533
253	0xbc80d4ba	-0.015726436
254	0xbb94e0c5	-0.004543396
255	0xbc2c4d06	-0.010516411

network_body.linear_encoder.seq_layers.2.weight f4 [256, 256]
0	0xbd23ec6c	-0.04002039
1	0x3c432d10	0.011912599
2	0xbd68e51b	-0.056859117
3	0xbdb2e356	-0.08734767
4	0x3daa366b	0.08311161
5	0xba922651	-0.0011150335
6	0x3dbf2fe7	0.093353085
7	0xbc8775ca	-0.016535658
8	0xbbbfa7a7	-0.005848843
9	0xbdbde8a6	-0.0927289
10	0xbd7023b2	-0.05862779
11	0x3b552668	0.0032524113
12	0xbe0df2bd	-0.13862129
13	0xbdb5f8dd	-0.088853575
14	0xbd81585d	-0.06315682
15	0x3dad14dc	0.08451244
16	0x3d65ea42	0.05613161
17	0xbd2c42a1	-0.04205573
18	0x3d11fb6c	0.035640165
19	0x3d02fa97	0.031977262
20	0x3bc61e5c	0.0060460996
21	0xbd7ce934	-0.061745837
22	0x3da8de0b	0.08245476
23	0xbd8098d1	-0.062791474
24	0xbe31cf39	-0.17364205
25	0xbd0a104d	-0.033706952
26	0xbd8442c5	-0.06458048
27	0xbd98924d	-0.0744978
28	0xbb5c2dae	-0.0033596563
29	0x3e04b0e6	0.12958106
30	0x3be78b1c	0.0070661437
31	0xbd2f66de	-0.04282271
32	0xbdb598c5	-0.08867029
33	0xbd25029b	-0.040285688
34	0xbd37b95b	-0.044854503
35	0xbdd6e854	-0.10493532
36	0xbcb6de7a	-0.022322882
37	0xbbca338c	-0.0061706956
38	0x3d8c33b8	0.06845802
39	0xbe233a90	-0.15940309
40	0xbdd77341	-0.1052003
41	0xbdc86a2a	-0.09785874
42	0xbd14762f	-0.03624552
43	0xbd07db97	-0.0331684
44	0x3dc8d270	0.09805763
45	0xbe576f71	-0.21038605
46	0x3cb93d72	0.022612307
47	0x3d1ede07	0.03878596
48	0x3cc88457	0.024477167
49	0xbcc8f008	-0.024528518
50	0xbcf85793	-0.030315196
51	0xbd686a17	-0.0567418
52	0xbd1c685c	-0.038185462
53	0x3d0f66b8	0.03501007
54	0x3dae8d6d	0.085230686
55	0xbe078ef2	-0.13238123
56	0x3d40ccf1	0.047070447
57	0xbc164ef0	-0.009174094
58	0xbd806092	-0.06268419
59	0xbd09a257	-0.033602085
60	0xbb4a484e	-0.003086585
61	0xbd99511b	-0.07486173
62	0x3cae9aef	0.021314112
63	0x3dcd7918	0.100328624
64	0x3d1d4941	0.03839994
65	0xbdd39944	-0.103319675
66	0x3da1e6f3	0.07905378
67	0xbdd1323d	-0.1021466
68	0x3de3a986	0.111163184
69	0xbd94d6a5	-0.07267503
70	0xbda23700	-0.07920647
71	0xbd9b4184	-0.075808555
72	0xbd084b80	-0.033275127
73	0xbb51e4de	-0.0032027285
74	0x3d587c6f	0.052853044
75	0x3dc84851	0.09779418
76	0x3e4be23c	0.1991052
77	0xbd858735	-0.06519929
78	0x3c4cf1e5	0.012508844
79	0x3d55c3d9	0.052188728
80	0x3d0d4a2c	0.034494564
81	0xbc2a4f71	-0.010394917
82	0xbd10766b	-0.035269182
83	0x3daaefa1	0.08346487
84	0x3caea14f	0.021317152
85	0x3def7550	0.116922975
86	0x3d7541fd	0.059877384
87	0x3dbdcf27	0.09268027
88	0x3dab1aef	0.083547466
89	0xbe02d6bb	-0.12777226
90	0xbd0152c3	-0.03157307
91	0x3d81a938	0.06331104
92	0x3d3a25fb	0.045446377
93	0xbdb1c5c2	-0.086802974
94	0x3e080bad	0.13285704
95	0xbd765557	-0.06013998
96	0x3d879a35	0.066212095
97	0x3c3092ce	0.010777188
98	0xbe34cb05	-0.17655571
99	0x3d7dcc1b	0.06196223
100	0x3d015f7b	0.031585198
101	0x3d30997f	0.043115135
102	0x3ae96cc0	0.0017808899
103	0xbdb54720	-0.08851457
104	0x3c3efeaf	0.011657401
105	0xbd815bbf	-0.06316327
106	0x3dfdfc9e	0.124016985
107	0x3d24b14c	0.040208146
108	0x3d1be359	0.038058612
109	0xbdbebe14	-0.09313598
110	0x3d94acd3	0.07259526
111	0xbd183c81	-0.037167076
112	0xbdc6d93c	-0.09709403
113	0x3d65b473	0.056080293
114	0x3d634b07	0.055491474
115	0xbd8c7509	-0.0685826
116	0x3db6925e	0.08914636
117	0xbe240fb3	-0.16021614
118	0x3c3609aa	0.0111107025
119	0xbdeba830	-0.115066886
120	0xbd9877a9	-0.07444698
121	0xbe117951	-0.14206435
122	0x3e85a939	0.2610567
123	0x3dcd01fb	0.10010143
124	0xbc49c14a	-0.01231415
125	0x3cbc066c	0.022952281
126	0x3cdd40c9	0.027008431
127	0xbd790b95	-0.06080206
128	0xbd8e2b87	-0.06941896
129	0xbcb29cf6	-0.02180336
130	0x3d1a9731	0.037741844
131	0xbd03e102	-0.032197006
132	0xbc7ea90c	-0.015543234
133	0xbdcb6bcb	-0.09932669
134	0x3dcff67b	0.10154434
135	0xbd72ad22	-0.059247144
136	0x3cb26aff	0.021779535
137	0xbdad98f7	-0.08476441
138	0x3d8c5600	0.06852341
139	0x3d26c0e0	0.040711284
140	0xb7c48f25	-2.3431678e-05
141	0xbc08ed8b	-0.008357416
142	0x3cec6097	0.028854651
143	0x3d90b243	0.07065251
144	0x3cf4f0e7	0.029900027
145	0x3d36f259	0.044664714
146	0xbbfdf6c3	-0.0077503636
147	0x3c844ebd	0.016150827
148	0xbdc92854	-0.09822145
149	0xbca9e742	-0.020740155
150	0x3de735d6	0.11289565
151	0x3ce73bdf	0.028226791
152	0xbc6fcbab	-0.014635961
153	0x3d554b1b	0.05207358
154	0xbda2f13c	-0.07956168
155	0xbd703bb8	-0.058650702
156	0x3c0e1df5	0.0086741345
157	0x3c936828	0.017994002
158	0xbd378dfd	-0.044813145
159	0xbd02acbe	-0.03190302
160	0xbc457e16	-0.012053987
161	0xbd2d7320	-0.04234612
162	0x3cc89cd2	0.02448884
163	0x3c14c934	0.009081174
164	0xbca2621e	-0.019822177
165	0xbd81b429	-0.06333191
166	0x3cda9e26	0.02668674
167	0x3d87d9fd	0.06633375
168	0x3db5b801	0.088729866
169	0xbd93d54e	-0.07218419
170	0x3cc46823	0.023975438
171	0xbdb9944c	-0.090614885
172	0x3d7581cc	0.059938237
173	0xbda686fe	-0.081312165
174	0xbdc9e147	-0.09857421
175	0xbd459fce	-0.048248105
176	0x3b7d0dab	0.0038612883
177	0xbdf1d484	-0.11808112
178	0xbd81f9e8	-0.06346494
179	0xbd344f17	-0.04402074
180	0x3daa370b	0.0831128
181	0x3cd8a709	0.026446836
182	0x3c46dd0c	0.012137663
183	0xbdb428f4	-0.08796874
184	0x3d3fb191	0.0468002
185	0xbd5b4c1b	-0.053539377
186	0xbe3aa2f8	-0.1822623
187	0xbcd95e71	-0.026534291
188	0xbc9d0cf7	-0.019171221
189	0x3d390869	0.045174036
190	0x3d369522	0.044575818
191	0xbda37672	-0.07981576
192	0x3bb42612	0.0054977024
193	0xbc2ed584	-0.010671023
194	0x3d4a76bb	0.049429636
195	0x3d9c8da4	0.07644203
196	0x3c0983a3	0.008393201
197	0xbd529228	-0.051408917
198	0x3c6270c3	0.01382083
199	0xbe2a7fdd	-0.16650338
200	0xbe7af143	-0.24506097
201	0xbe172b53	-0.1476262
202	0x3d402569	0.046910677
203	0x3d69fcb5	0.057125766
204	0xbd4c8946	-0.0499356
205	0x3d6f4c93	0.058422636
206	0xbe1d3f14	-0.15356094
207	0x3d7a1170	0.061051786
208	0x3bbe0591	0.0057990034
209	0x3d3d1155	0.046159107
210	0x3d0dac98	0.034588426
211	0x3d837c5a	0.064202026
212	0xbc80f42e	-0.015741434
213	0x3c0c1162	0.008549066
214	0x3c4aecd4	0.012385566
215	0x3e17a424	0.14808708
216	0xbd3a7cdb	-0.045529228
217	0x3be61467	0.007021475
218	0xbbbff58c	-0.005858129
219	0xbdc18e75	-0.09451
220	0xbe3d76d6	-0.18502364
221	0x3d4112d8	0.04713711
222	0xbace1964	-0.001572412
223	0xbd19608d	-0.037445594
224	0xbc2cf007	-0.010555274
225	0xbe13492c	-0.14383382
226	0x39c4307a	0.0003742015
227	0xbcecc3ba	-0.028901923
228	0xbdc12a12	-0.094318524
229	0x3b918f64	0.0044421423
230	0xbc01ba7b	-0.007917996
231	0x3d30f851	0.043205563
232	0x3cad4b72	0.02115414
233	0xbd2b4440	-0.041813135
234	0xbd10ffed	-0.03540032
235	0xbd5c47a3	-0.053779256
236	0x3d8ce0db	0.06878825
237	0xbc1e4b79	-0.009661549
238	0xbdf5caca	-0.120015696
239	0xbdf84e2d	-0.12124286
240	0xbddb183b	-0.10697981
241	0xbda6a1df	-0.08136343
242	0x3c04b972	0.008100854
243	0xbd8c7106	-0.06857495
244	0xbd21b48f	-0.039478835
245	0xbd458012	-0.04821784
246	0x3caf30e5	0.02138562
247	0xbdb297de	-0.087203726
248	0x3de369f6	0.11104195
249	0x3d5de7ad	0.05417602
250	0xbc3787a0	-0.011201769
251	0xbe1bb605	-0.15206154
252	0xbdc2aa50	-0.09505141
253	0xbd9cb017	-0.07650774
254	0xbce0f9a7	-0.027462794
255	0xbdd6c2a4	-0.104863435
