Project/Assets/MyProject/Train_Moon/TrainModel/rubyrun.onnx (onnx, 726448 bytes, 6 tensors)

action_model._discrete_distribution.branches.0.bias f4 [7]
00000000: 3685 b7bc a4c0 473d bf13 04be c582 51bd
00000010: e7a8 c63c cb7c 433d b0fe 063d
-0.022402387 0.0487677 -0.12898158 -0.051150102 0.02425046 0.047726434 0.032957733

action_model._discrete_distribution.branches.0.weight f4 [7, 256]
00000000: 8c30 883d 4055 163d 92e7 ff3c cb65 36bd
00000010: fe65 29bb f127 cebb cc56 973c 8638 39bc
00000020: f61e 4cbd 16a9 a1bc 578e 423d b867 65bc
00000030: fd2f a6bc a785 c13a c145 013d 805b 773c
00000040: bb96 1dbd 6aca fcbd b8ef 2cbc cf48 60bd
00000050: 0a11 433d 5caa 873c 23f1 4b3d 7b07 67bc
00000060: 657b e53c 4782 8fbc 39a0 9d3d c321 14bd
00000070: 7b99 a43c 31f1 fb3c e240 083c 71c9 aa3c
00000080: 3302 d23c 8646 09bd dfaa 8d3c 7d60 2a3b
00000090: ebca 86bd 3373 d03c 84b5 3fbc e299 493b
000000a0: 19f1 a3bc c314 d6bc a62d 0a3d bcc3 1d3d
000000b0: 8f3c 8f3d 0043 34bd e3d4 173c 835b e7ba
000000c0: 518b b83c 4034 433a a610 bd3d 1e9a 6cbc
000000d0: e7ba 32be 4215 7a3c c459 063c 3676 d4bd
000000e0: be89 23bd 867d 973c b420 5bbc 32dd 923c
000000f0: 1438 8e3c f30b 4b3d 2d4b f23c dba4 8a3d
00000100: e4fd fb3c 59d3 f53c 8b01 72bd 7757 5cbd
00000110: 0d94 f13b 8c5c 283d f3b5 b63c 56c2 a73c
00000120: c526 d2bd 525b 5d3d dd4b 15bc 916e b2bc
00000130: ff79 5abd 1690 653a 4e82 19bd 377a ad3b
00000140: 9921 1abe 58a3 7dbc cc05 33bd 62f2 72bd
00000150: 5f5e 2cbc 522a babd 0424 0bbd 6be3 de3c
00000160: 6ffe 02bd ac9c 323d 6ad5 4c3d 062d a13c
00000170: 6c8c 613d b285 d03d 3bd2 1c3d c3ad 9f3d
00000180: 550c 9f3d 27a8 89bd a11e 4ebc be4d a6bc
00000190: fe84 4f3d 9548 0f3b 2510 9c3c 558f 97bd
000001a0: c21b 003d 3f9d 523d 8a9a afbc a64b 73bd
000001b0: db00 54bd 6546 f63c c65c eebb 1c1c 00bd
000001c0: 55e0 05bc ef7a 2bbd b929 e83c 7103 433c
000001d0: 429c 8ebc b411 24bb e28d 913c 1fa4 5bbd
000001e0: ce1d 1fbd 30fa f1ba a1b1 51bc 4b20 9b3c
000001f0: 4958 23bd 48b4 733b f363 80bc 1302 3b3c
00000200: 681b 62bc c460 3d3d 845e 1ebe b7f2 e83c
00000210: 4157 d3bc ef66 f4bb 2f91 113c 48c9 9bb8
00000220: 9785 fd3b 101d 1f3b 6f8b 25bc d0f3 fe3b
00000230: 3fee 9a3b dc48 5e3d 1539 a13a 94df 39bc
00000240: 56b7 9a3d 8dc3 db3c 5acd 50bd 1a08 e13a
00000250: 97c2 383d 8f9d 353c 2240 26bd 7ce5 e13c
00000260: 476a d83c 2d7f 0bbd c6f3 4d3d 2c92 963b
00000270: d7da c8ba 287a 0bbd aa14 a13c 2798 cf3c
00000280: 9c4a 053d f955 31bc b681 fd3b 7970 d0bc
00000290: 8c29 85bc d05b e4bc ff6a 88bc 6055 7e3c
000002a0: 1c81 223d 408f 0b3b be37 983d a2ff 1d3b
000002b0: c7ce 51bd 9065 1b3d d966 163c d842 0739
000002c0: 16ce 97bc 3c20 a43c e29e 20bd 2426 a1bc
000002d0: 73d0 80bd 3f5d 0c3d 371e a8bd 5b82 b13c
000002e0: d877 823d 2804 c3bd cdc3 20bd 0176 a5bd
000002f0: fff0 9e3c a446 153d c10d 2bbd 1081 b83c
00000300: c5fe 693c 815c e03a 5eaf 283d 108e f53c
00000310: 686d 543d bc9f 8d3c 613d 1abd b30d ef3c
00000320: 4655 643d a2f0 853d f96f a23c f1b1 93bb
00000330: 138b 65ba d59d 8a39 e228 1e3c 9325 6fbd
00000340: 8f0f ae3c 5fba 623d 464e 85bc f133 cdbc
00000350: d71b 433c ab04 ae3c 6bc1 3c3d 38f0 013d
00000360: b35b 53bd 2e96 6c3c da5b 7b3c 9e5f 2bbe
00000370: bf2b 53bc 2729 463d 261d 8a3c 6f75 a2bd
00000380: 09b1 133d dd9d 7a3c 7004 2abc dfef 353d
00000390: c44f 803c aafd b7bc 94aa c63d 3f54 063d
000003a0: 7e92 9e3d de85 dcbd 292a 573c 2777 233c
000003b0: f13c 66bc c7be 14bd dc29 e2bc ba3a 80bb
000003c0: 6ca7 eb3c 7791 143d 52d5 773b a806 ffbc
000003d0: 6aa3 83bc 1831 843c 5914 dd3c 70a1 c53b
000003e0: d19d 8f3c 8ba0 1f3d ab09 773d d7ae 053d
000003f0: 99f2 133d 7d4e 2c3d 7e26 2c3d 39b6 923d
0.066498846 0.036702394 0.031238351 -0.04453067 -0.0025848146 -0.0062913825 0.018474005 -0.01130498
-0.049834214 -0.019733947 0.047499027 -0.014001779 -0.020286554 0.0014764563 0.031560663 0.015097499
-0.038473826 -0.12343295 -0.0105552 -0.054756936 0.04762367 0.016560726 0.049790513 -0.014100905
0.02801294 -0.017518176 0.07696576 -0.03616501 0.020092716 0.030754657 0.0083162505 0.020848008
0.025635814 -0.033514522 0.017293392 0.0025997453 -0.06581672 0.025445556 -0.011700992 0.0030761887
-0.020012425 -0.026132947 0.03373494 0.038516745 0.069939725 -0.04400921 0.009267065 -0.0017651174
0.022527369 0.00074464455 0.09231691 -0.014441041 -0.1745411 0.015263857 0.008200113 -0.103741094
-0.039926283 0.018492471 -0.013374496 0.01792774 0.017360725 0.049571943 0.029576862 0.06769725
0.030760713 0.030008005 -0.059083503 -0.05379435 0.0073723854 0.041103885 0.022303557 0.020478409
-0.10261301 0.054042168 -0.0091123255 -0.021781238 -0.053339 0.0008757127 -0.037477784 0.00529411
-0.15051879 -0.015480839 -0.0437067 -0.059313186 -0.010520547 -0.09090103 -0.033969894 0.02720805
-0.031980928 0.043606445 0.050008215 0.01967479 0.055065557 0.1018175 0.03828643 0.07796814
0.07766024 -0.06721526 -0.012580545 -0.020300742 0.05066394 0.002186333 0.019050667 -0.07400385
0.031276472 0.051419493 -0.021435995 -0.059398316 -0.05175863 0.030062864 -0.007274243 -0.031276807
-0.008171161 -0.041865285 0.028340207 0.011902676 -0.017408494 -0.0025034966 0.01776785 -0.053623315
-0.038846783 -0.0018461403 -0.012798698 0.018936297 -0.039879117 0.0037186313 -0.01567266 0.011414069
-0.0138004795 0.04623486 -0.15465742 0.028436048 -0.025798442 -0.0074585597 0.008884712 -7.4284675e-05
0.0077368724 0.0024278797 -0.010104044 0.0077805296 0.004728108 0.054268703 0.0012300337 -0.011344809
0.075545 0.026826644 -0.05097709 0.0017168552 0.04510745 0.011084928 -0.040588506 0.027575247
0.026417864 -0.03405683 0.05028131 0.0045950618 -0.0015324008 -0.034052044 0.019663174 0.025341107
0.032541856 -0.01082372 0.00773641 -0.025444256 -0.016255163 -0.02787581 -0.016652582 0.015523285
0.03967391 0.00212951 0.07432507 0.0024108668 -0.05122259 0.037938654 0.009179794 0.00012899505
-0.018530887 0.020034902 -0.039214022 -0.019671507 -0.062897585 0.034268614 -0.08208888 0.021668604
0.06370515 -0.09522277 -0.03924923 -0.08079148 0.019402025 0.03644432 -0.041761164 0.02252248
0.014281933 0.0017117412 0.04118287 0.029974967 0.05186215 0.017288081 -0.03765619 0.029181337
0.055745386 0.06540038 0.019828783 -0.0045072963 -0.00087563804 0.00026439005 0.009653302 -0.058385443
0.021247653 0.05535352 -0.016272675 -0.025049182 0.011908493 0.02124246 0.046082895 0.03172323
-0.051601123 0.0144401025 0.015341723 -0.16735694 -0.012888848 0.04837909 0.016859602 -0.07932555
0.036057506 0.015296427 -0.010377035 0.044418212 0.015663035 -0.022459824 0.09700504 0.032795187
0.07742785 -0.10767721 0.01313261 0.009977139 -0.0140526155 -0.036314752 -0.02760785 -0.0039132508
0.028766356 0.03627154 0.0037816358 -0.031131104 -0.016069133 0.016136691 0.026987242 0.0060312077
0.017531307 0.038971465 0.060311954 0.032637443 0.03612003 0.04206704 0.042028897 0.071636625

network_body.linear_encoder.seq_layers.0.bias f4 [256]
00000000: 49fa 4fbb 0129 2f3d e573 ea3c bf92 c83c
00000010: e44d fbbc 1c0f c7bb d8f8 5dbc 9418 4cbc
00000020: 550c 263d c8bb abbc 9f45 a7bc ac99 8fbc
00000030: 19bd e83c 18ef 253d 4534 38bd a9ce 063d
00000040: 18db 2e3d e347 92bc 0c80 afbc 542d 803c
00000050: 325e a6b8 4dfa d2bc 061e 43bd 6c33 883a
00000060: 3cd7 ae3c 7959 a0bc b68b e639 d4a7 8cbd
00000070: 7151 6b3b 248e 893d 2a32 ca3b 6037 db3c
00000080: 3959 3b3c 952a 00bd 2685 0a3d d081 43bd
00000090: fd22 a8ba 0981 9b3b bc75 fd3c d2e5 e3bc
000000a0: 2d0b 183c 197c 803c d1c1 b5bd f8c4 43bd
000000b0: 916b 883c 8de8 663d 5a99 a2bc 2ae4 22bc
000000c0: dda3 fa3c 3a61 903c 81d2 453b 6bc4 ecbd
000000d0: 3ed3 97bc 7de0 3a3d cc96 55bc 457e 643b
000000e0: e223 373c 9c8d 46bd 14d6 46bc 9124 e5bc
000000f0: 5602 85bd 444a 1dbd 2d29 783d 3f72 0abd
00000100: ac01 af3d d7f8 da3c 0b61 d43b bf0a 6abd
00000110: 3a23 b0bc b1c9 543c 28a7 05bc fe0e 44bc
00000120: 6d59 81bd 8489 893c dbf4 1b3c 9a97 47bd
00000130: 101f b2ba 0b85 e0bc 66f2 e9bb 7cfd 3dbc
00000140: 3742 573c c52a 96bc 401c e7bc ca14 4f3d
00000150: 05b9 033d 5fc1 823d 4e8f 7c3d 72cb 05bc
00000160: f74d 4abd d100 7a3c ab9c c8bc c378 28bd
00000170: 9199 b1bc f2cf a23c 99cc 80bd 97bc 0f3c
00000180: f0bc 0bbd 1aba 27bd e27a 9c3c 23e9 02bd
00000190: db60 723d 3769 a3bc 92bd 23bd 47fa 533c
000001a0: c1cd 85bd 881b d0bd 4331 eebc 9eec e3bc
000001b0: f455 14bd 152c 963d 9380 843c 391d edbc
000001c0: 3ba6 0d3d 727f a6bc 8626 063d 98b0 54bd
000001d0: 69fe 9c3c ea20 b33d 48d6 6c3c 86b7 53bc
000001e0: ebec 4abd aed5 4dbd d9e3 b73b f438 17bb
000001f0: c6f3 d5bd 962a 163d 7939 9b3c 8fea b5bc
00000200: ce93 68bd 65e9 19bc 2a81 c8bc f48a c7bc
00000210: 8c8e e8bc 18f4 4a3d f9d6 09bd 9397 9e3b
00000220: c13b 93bd 819a d0ba dbc1 1abd 1c33 f63c
00000230: 536d ea3a f164 ffbb 7a0c dcbb b047 06bc
00000240: 09cc afbc c37e f7ba 5337 40bc 262b b43d
00000250: 04e2 00bd b16f 51bc fe9c 4bbc 1337 483d
00000260: c55e 403b fb96 7fbd c421 8ebd 73f4 7d3c
00000270: 08f0 fe39 b5c9 a0bc f96a 07bd 1106 333c
00000280: 966f 72bc cd31 f0bb c4d5 0a3d 82a6 ffbc
00000290: 5c83 1e3d b014 1a3d b235 7cbc dd3a 78bc
000002a0: 4240 7e3b 330a e4bc 24e4 103d 3f8c 8ebd
000002b0: cd0a b93c c7cc 463c 4a40 d23c 42e5 b43c
000002c0: a5af b53c 88cb 12bd 0910 d3bc f3fd 5abd
000002d0: bf9a 02bd 77c6 79bc 98ce d43d f79a 723c
000002e0: ad3c 19bc ff1e 563d 59ee a33c fd5b 6b3c
000002f0: cb90 dcbc e5c3 f53c 3727 1dbd b5bf 12bc
00000300: 17d2 59bc 328a c1bc 4345 c6bc 4bfa 5abd
00000310: 9029 cdbc 8037 03bc feaf 853d fba8 c6bc
00000320: 9928 f3bb 2f53 b5bc 153a c5bc b4d8 563d
00000330: eaa5 32bd eba8 4fbb 6641 d03c b189 81bc
00000340: 0f7a 9ebc 30b9 0e3d 3102 983c 2fd5 d9ba
00000350: f3c6 d4bc 0278 423d f5c8 6bbc 92fd 75bc
00000360: 9e26 13bd 0570 173d 4a4f 04bd 44f7 d03b
00000370: 27d0 88bb a4de 5a3c de7b d2bc 4722 d7bc
00000380: 176d 04bd c9df f63a fa46 cc3a f647 3fbd
00000390: ede6 3d3a 97cf 943c 8e05 123c 306c ac3d
000003a0: fd6a 123d 9c68 87bd 1e04 343c 7b62 953d
000003b0: 2ae0 aeba 58ac 833c 0f4e eb3c 01b0 76bb
000003c0: cedf 293c d817 54bd dfdd 5cbd 18f8 af3b
000003d0: 1a72 0c3d 2a2d ae3c 7138 afbd 94e1 50bd
000003e0: 823b 8b3d 279c 45bc 3677 6bbd eb0e 13bd
000003f0: 77ca 4cbd 36f6 5b3b 620c 043d d40f d0bc
-0.0031734875 0.042763714 0.028619716 0.024484036 -0.03067679 -0.006074799 -0.0135480985 -0.012457032
0.040539104 -0.020963565 -0.02041894 -0.017529331 0.028410481 0.04051122 -0.044971723 0.03291193
0.042689413 -0.017856544 -0.021423362 0.015646614 -7.933042e-05 -0.025754118 -0.047636054 0.0010391301
0.021342866 -0.019573914 0.0004397311 -0.06867948 0.0035906697 0.06716564 0.006170531 0.026759803
0.011434847 -0.03129061 0.033818386 -0.04773122 -0.001282781 0.004745607 0.03093993 -0.027819548
0.009280008 0.015684174 -0.08874858 -0.047795266 0.016652854 0.05637412 -0.019848514 -0.009942094
0.030595714 0.017624486 0.0030185285 -0.11560901 -0.018533345 0.045624245 -0.013036441 0.0034865302
0.011177989 -0.048474893 -0.012136001 -0.027971538 -0.06494586 -0.038400903 0.060586143 -0.03380036
0.08545241 0.026729984 0.006481295 -0.057139155 -0.021501172 0.01298754 -0.008157529 -0.011966465
-0.06315885 0.016789205 0.009518827 -0.048728563 -0.001358958 -0.02740719 -0.007139492 -0.01159608
0.013138345 -0.018330941 -0.028211713 0.050556935 0.03215887 0.06384539 0.061660103 -0.008166181
-0.04939076 0.015258984 -0.024488768 -0.041130792 -0.021679671 0.019874547 -0.06289024 0.008772991
-0.03411573 -0.040948965 0.019101564 -0.031960618 0.0591744 -0.019947631 -0.03997571 0.012938089
-0.06533385 -0.10161501 -0.029076224 -0.027822789 -0.036214784 0.07332627 0.01617459 -0.028944599
0.034582358 -0.020324443 0.032751583 -0.051926225 0.019164281 0.08746512 0.0144553855 -0.012922173
-0.04954235 -0.05025261 0.0056118784 -0.0023074718 -0.10446887 0.036661707 0.018948304 -0.022206573
-0.056781583 -0.0093940245 -0.024475653 -0.02435825 -0.028388284 0.049549192 -0.03365228 0.0048398464
-0.071891315 -0.0015915186 -0.03778253 0.030053668 0.0017885364 -0.0077940156 -0.0067153545 -0.008195803
-0.021459596 -0.0018882382 -0.01173194 0.087972924 -0.031465545 -0.012782977 -0.012427567 0.048880648
0.0029353362 -0.062399846 -0.06940034 0.015500176 0.00048625492 -0.019627431 -0.033061 0.010926739
-0.014797112 -0.0073301555 0.03389527 -0.031207327 0.038699493 0.037617385 -0.015393661 -0.015150753
0.0038795625 -0.027836895 0.03537382 -0.069603436 0.022588158 0.012133784 0.025665421 0.022081975
0.02217848 -0.035838634 -0.025764482 -0.05346484 -0.03188586 -0.015245072 0.10390967 0.014807454
-0.009352845 0.052275654 0.020011114 0.014365193 -0.026924511 0.030000636 -0.038367476 -0.008956839
-0.013294718 -0.023625467 -0.024202948 -0.053461354 -0.025044233 -0.008008838 0.065277085 -0.024250498
-0.007420611 -0.022134392 -0.024075547 0.052452758 -0.04361526 -0.0031686376 0.02542181 -0.015812727
-0.019345311 0.034844577 0.018555732 -0.001661932 -0.025973773 0.04747773 -0.014391174 -0.015014069
-0.0359255 0.036972065 -0.03230218 0.0063771326 -0.0041752043 0.013358746 -0.02569383 -0.026261462
-0.0323306 0.0018835004 0.0015585118 -0.046699487 0.00072441885 0.018165393 0.008912457 0.08419073
0.035746563 -0.066117495 0.01098731 0.07294174 -0.0013341953 0.01607339 0.028723745 -0.0037641528
0.010368301 -0.05178055 -0.05392253 0.0053701513 0.034288503 0.02126177 -0.08555687 -0.050996378
0.067984596 -0.012061155 -0.057486735 -0.0359029 -0.049997773 0.0033563501 0.03223837 -0.025398172

network_body.linear_encoder.seq_layers.0.weight f4 [256, 442]
00000000: f54a 9c3d b595 5c3c 94b8 43bc 4d16 bdbc
00000010: a2f4 893b ea9d a1bc 08f7 3f3c 2b4a 43bd
00000020: eff7 c63d 00f3 6a3d be5e 553c b059 39bd
00000030: bb5d 033e 31cb c63d 8f23 993e f68d f33d
00000040: 83e2 c53d 7076 463d 5a45 7b3c 34dc ee3d
00000050: ac7d 92bd 6e81 153e 0581 b63c 8262 4f3e
00000060: 768e f5bc 7857 463a 956a f43d 2751 b13d
00000070: 5eb5 ab3e e42a 3d3c 23b5 793d 7de9 6abc
00000080: b2e7 94bd 9e0d e63d 92c1 1dbd 7aa2 4a3e
00000090: cb93 de3c 7725 0e3e 0991 5a3d cf0a 42bd
000000a0: 48f2 b03d ff86 2a3d 8008 4c3e bcf9 e53d
000000b0: bde1 a4bb 2b17 81bd ae9b 96bd 3ad5 713d
000000c0: 76d0 48bd 567b 503e 423c c33d 0595 003e
000000d0: a365 50bd 6701 9cbd fd85 8e3d ae56 953b
000000e0: 2b94 203e 9dfc 61bd 28fe cd3d 3704 be3d
000000f0: 04a8 123d 6ffb aa3d 567e 5ebd 85df 113e
00000100: 3733 dc3d 7e8c 053e a7ac f43b 48be 1bbd
00000110: 90c8 2a3d 1cb4 ecbc 3aa3 4a3e 2921 173d
00000120: 4181 263e 978f a4bc dabf 17bb 2c02 f23b
00000130: c7a9 b7bc 68dc 3e3e aa2f bb3d b512 433e
00000140: 1bd8 263d 1fa9 abbc 519a f13d 73b2 63bd
00000150: 9489 093e a3a7 a73d 0750 863d 313c 7e3c
00000160: 72dd 943c 9415 56bc ad7b 2f3d bb65 303e
00000170: 5aaf 073e 4a80 f53d 01f5 f7bc 853a cebd
00000180: 52de cc3d 2b6a 9c3c 8359 293e 1118 7c3d
00000190: eb60 52bb f69f e0bc 6be7 e5bc a35a 8a3c
000001a0: f0c8 8f3d 9de9 aa3e c33c 883d 9418 f33d
000001b0: 32d9 7c3c 53e8 08be fb72 af3d bac8 3cbd
000001c0: 2d54 633e d84f b9bd 08fe 0cbd 98f9 78bd
000001d0: c95d e8bd db04 a6bd 71bd 473d 0c93 b13e
000001e0: c47e 23bd 4574 a63d 98be 0cbd d919 863d
000001f0: 0173 a13c 6f0a 05bd eeeb 793e 8b41 89bd
00000200: eeb1 9f3d 72af 983c d7ad 8ebd 75aa c23d
00000210: 67fc ac3c 0f0f 403e e12d 79bc 77ea a93d
00000220: b62c 103d 9cd1 1c3e 3e94 aa3b 592a 703d
00000230: 747e c33d 9825 d6bc 35ec b8bb 9877 50bc
00000240: e153 2bbe 7886 5d3c 728b 0e3e 9254 633e
00000250: e0a9 0d3e 0235 ad3d 9133 d23c 8975 163e
00000260: f5d4 de3d 5e53 e23c 52e6 c63d 0d17 d4bd
00000270: d2b9 723d fd5a 8b3d 026a c4bd 1d4a efbb
00000280: f6c7 043d 52d2 573e cdf9 d83c 0722 3b3e
00000290: 296a 8cbc 30e1 f83d 1a51 813d 0dd6 82bc
000002a0: da47 653d 9946 3bbd 5068 403a d357 28bd
000002b0: 22ad 1bbe 4371 563d d2e6 5c3b fc36 4e3e
000002c0: c36f 863b 8773 ee3d 20da 93bc 063a 8d3d
000002d0: cbb7 f83d 8bbf 8bbb fb36 153e 8a7a 2ebd
000002e0: 8657 043c c5b7 5dbb 530e 48bc 2f40 ae3c
000002f0: 3a3d 5ebb c58a 973d 688c 51bc dc99 323d
00000300: 426a 863d 2ddc d63d 9dcd ea3c 75c5 7b3c
00000310: 0b38 42bd 9b0d ac3c f201 6cbd 4718 873c
00000320: fce7 d8bd e41e e73c b4cd 4b3d e65a 8a3d
00000330: 4fea a13d 0c9b f73d 9efc a53a e46c b9bd
00000340: d7fa 553d 0994 e6bc 3868 87bd b8bd 333d
00000350: 11ae d7bb 6533 3b3b efdd 56be dcb0 453d
00000360: baa8 47bb 0a4d 1e3e 77ea 7b3d d691 1d3e
00000370: 9b1f 1bbd 3533 133c e2bb 843d 3875 743d
00000380: 12ea c9bd 17a5 fb3d e170 3ebc 3df8 043d
00000390: fd8d 06be a92b 733d e873 663d c076 323e
000003a0: ab4a 16bc d188 363c 89c2 a63d 1a73 e33d
000003b0: 76a5 883d 1189 803c c141 06be b438 563d
000003c0: fea2 4d3c 41b6 ee3a c296 66bd 8534 823d
000003d0: b75b f53b 3056 6f3e 0308 b53c a0ea ed3d
000003e0: 7ace 19bd 24da 193e 378e 2cbd 1a69 93bc
000003f0: ab0a 95bd 10ba 203e 1a58 34bc 23a5 06bd
0.076314844 0.013463427 -0.011945862 -0.023081923 0.0042100707 -0.01972862 0.011716612 -0.047678154
0.09715258 0.05736065 0.013023077 -0.04525155 0.12828724 0.097067244 0.29909942 0.11892311
0.09662344 0.048452795 0.015336359 0.11663094 -0.07152876 0.14600155 0.022278318 0.20252421
-0.029975157 0.00075661344 0.119343914 0.08658057 0.3353681 0.01154587 0.06096376 -0.0143378945
-0.07270755 0.11233066 -0.03851468 0.19788542 0.027170083 0.13881479 0.053360973 -0.04737359
0.086399615 0.04163265 0.19925117 0.11229274 -0.005031793 -0.06303247 -0.07353912 0.05904124
-0.04902693 0.20359549 0.09532978 0.12556846 -0.05087818 -0.07617455 0.0695915 0.004557452
0.15681522 -0.05517255 0.10058242 0.09278148 0.035804763 0.083487384 -0.054319702 0.14245422
0.10751956 0.13041875 0.007466871 -0.038023263 0.041695178 -0.028894477 0.19788828 0.03689686
0.16260244 -0.020088 -0.0023155124 0.007385513 -0.022419823 0.18638766 0.091399506 0.19050105
0.040733438 -0.020954667 0.11797012 -0.055590104 0.13431388 0.08186271 0.06558233 0.01551728
0.018172 -0.013066668 0.042842556 0.17226307 0.13250485 0.1198736 -0.030268194 -0.100697555
0.10003342 0.019093594 0.16538052 0.06154639 -0.0032101225 -0.027420025 -0.02806445 0.016888922
0.07020748 0.33381358 0.066522144 0.11869922 0.015432643 -0.13369875 0.08566853 -0.046089865
0.2220008 -0.09048432 -0.03442195 -0.060784906 -0.11346013 -0.08106395 0.04876465 0.346825
-0.039915815 0.081276454 -0.034361452 0.06547899 0.019708158 -0.032480653 0.24406406 -0.067019545
0.07797609 0.018638346 -0.06966751 0.09505168 0.021116449 0.18755744 -0.015208692 0.08296674
0.03519889 0.15314335 0.00520566 0.058634136 0.095456034 -0.026140973 -0.0056433924 -0.012723826
-0.16731216 0.013520829 0.13920382 0.2220023 0.13834333 0.08457376 0.025659354 0.14693274
0.10880462 0.027627643 0.09711899 -0.10355959 0.059259243 0.06804464 -0.09590532 -0.007302536
0.03241726 0.21076325 0.026486302 0.18274699 -0.017140465 0.12152326 0.06314297 -0.015971208
0.055976726 -0.045721624 0.00073397625 -0.04109938 -0.15202764 0.05235411 0.0033706916 0.20138162
0.0041026785 0.11643129 -0.018048346 0.06895833 0.12144431 -0.004264777 0.14571755 -0.04259733
0.008077508 -0.003383146 -0.012210446 0.02127084 -0.0033911006 0.07399515 -0.012789823 0.043603763
0.06563236 0.10491214 0.028662497 0.015366902 -0.047416728 0.021002581 -0.057619043 0.016491069
-0.105911225 0.028212972 0.04975672 0.06755619 0.07906019 0.1209012 0.0012663787 -0.09053972
0.052241173 -0.02814676 -0.06611675 0.0438821 -0.0065820296 0.002856457 -0.20983098 0.04826437
-0.003046556 0.15459076 0.0615029 0.15387663 -0.03787194 0.008984377 0.06481148 0.0596821
-0.098590985 0.12287348 -0.011623592 0.0324633 -0.13140102 0.05936781 0.05626288 0.17428112
-0.009173076 0.011141018 0.081425734 0.11105938 0.06672184 0.015690358 -0.1311102 0.05230017
0.012551067 0.0018212275 -0.056296118 0.063576736 0.00748774 0.23372722 0.022098547 0.11617017
-0.037550427 0.1502462 -0.042127814 -0.017994452 -0.072774254 0.15695977 -0.011007333 -0.03287233

network_body.linear_encoder.seq_layers.2.bias f4 [256]
00000000: 1af5 e1bd fed6 9dbc 0935 30bd 2b34 30bd
00000010: 30c8 13bd bda9 52bd 8907 3ebd 72a4 19bb
00000020: b3e9 3ebc 9aef 243d 5fab 80bd 467d e93c
00000030: 7c55 68bd 1f1d e43a 264b 12bd 0812 78bd
00000040: c0db d5bb 0316 f0bc 97b5 9e3c 8cfc 43bd
00000050: 7f88 9abc 4baa d7bb 18b8 44bc a599 f3bb
00000060: 631b c9bd d372 9abd ed80 27bd 2d5d 733d
00000070: 80ba 48bc dbab 18be 3670 c7ba b3af b1bc
00000080: 1611 cabc 1803 26bd 05c8 2abe 9503 fa3c
00000090: 3378 4ebd 5447 313d 9392 a6bc 143c 07bd
000000a0: 0c85 e6bd aa9d a2bd f3bd bc3b 8f1e 84bd
000000b0: 869a 9bbd 5e52 39bd 379d 13bd 54a3 5cbd
000000c0: a5e6 5fbd 8621 763b e8d9 13bc 5985 4fbd
000000d0: e755 5c3c 2bbb 883b deb6 afbc 368f 803c
000000e0: 8e22 703c 2dda 803d d7c7 263d 0d59 bcba
000000f0: 80c1 5ebc 2b65 263c 7e08 a4bd 9ab0 c5bc
00000100: ba67 31bd f7ce 39bd d49b 943c 7887 413b
00000110: 3202 95bc f875 2abd f8cc 9bbd d379 03bd
00000120: 1b9b 5b3d abac abbd 5598 433c 1791 81bd
00000130: a392 903d 5c3d 52bc 662e ca3c a2d8 153d
00000140: 5485 c53c 2b3e 8a3c 8ca2 31bd 12a5 46bc
00000150: c761 103b e2dc c8bd c64b 673c ba4b 2abd
00000160: fa0d aaba 38dc 4bbd 13eb 27bd c4b1 eabc
00000170: 37ef 7bbd e61e a9bd 02c8 70bc 87d4 82bd
00000180: 32a2 53bc e201 5abd e8ab c0bc e2a5 763d
00000190: a797 8ebd c9ed 87bc 0520 b3bd ee28 08bd
000001a0: 731b 393b 5e57 bcbd 04a5 43bd 6d9f b3bd
000001b0: 143d b1bc bf35 52bd f789 0cbb b1a7 8abd
000001c0: d2ce 343c 0b54 40bd 34e8 08be fbf3 aa3d
000001d0: 627e 053d 1f6f 9d3c 4589 12bd 855f 1b3b
000001e0: f12d d3bc 6d13 86bc 29a0 5b3b b5e8 41bd
000001f0: e1a8 cabc 03f8 20bd 583e 27bc 9289 febc
00000200: 2dd8 1ebe 3bc6 65bd 1633 0cbd c551 3cbd
00000210: c3c1 1d3d 42aa 953d 9de4 44bd cbbf 8bbc
00000220: d5c2 0fbd 4e93 e83c 2cda 5bbd c9fb e7bc
00000230: 38d4 883b 69fa e8bc 62fe 00bd 28e8 05bd
00000240: 1268 703c 3369 443c fe0e 71bd 7c92 f7bd
00000250: dfec d9bc 42bd 21bb 33e8 29bd a365 84bb
00000260: 1d7e 41bd 5a07 5c3a 81e9 3e3c 9625 a7bc
00000270: eb0a fbbd 1ca4 8b3d 6bc5 293d b943 9bbd
00000280: 766c fc3b 9e78 a9bd 5bef 74bd 7b4e 173d
00000290: 348e 153d 51ee 7dbd 1aa6 abbc b65d 34bb
000002a0: 92bd c63c 110b 7dbd 8a90 e43b 929e 223c
000002b0: 5fbc 6dbc 2f2b 6b3c 325c 36bd 4255 d5bb
000002c0: ac85 2fbc ba59 143c 37c3 533d 8a7f ca3c
000002d0: eee0 fbbd 8ca2 f83a c22a 00bd 1470 fdbb
000002e0: 551b 2dbd 469e 80bd cd14 183c 19ad c0bd
000002f0: 5384 a5bd 4235 28bc 896e d5bd 9305 cbbc
00000300: a80b b3bd 66c0 88bc e7d8 d8bd 7214 b3bc
00000310: 3c59 ddbd 309c b93c 8e7c 29bc 7a5b 46bd
00000320: fede 0dbd 0085 6a3a 11ba a6bd a700 fc3c
00000330: 868e 763c dea4 3b3b 0126 d6bc f037 f93c
00000340: fb1e 26bd b624 77bd 46f7 ae3d dae7 993c
00000350: e731 4b3b 4aaf 4d3d 1489 85bd 12f1 8bbd
00000360: 30ef 4b3b 7f85 843c 021a a9bc 5366 133d
00000370: f4ba 91bb c888 12bd eef2 91bd 8af4 9a3b
00000380: c977 933b 0571 2b3c e423 333d 526b 8dbd
00000390: d0c9 083c 0c2d 02bd 69f5 0d3b 1046 123b
000003a0: 93db 8bbd a83c 93bd b9b8 1dbc 6cf9 0cbd
000003b0: 7856 bbbd 8d09 69bb 71f7 b43d cd0e 47bd
000003c0: 9d10 193d 0dea 363d 3ea9 bcbc 34cd 51bc
000003d0: 9d03 a6bc 1e58 3f3d b813 45bb 82ec 1a3d
000003e0: 657f 4abd 782a 23be a45a 98bd 075c e0bd
000003f0: 6a7f 04bd 4517 c7bc 135f 883c c1da f83b
-0.110330775 -0.019267555 -0.04301933 -0.0430185 -0.036079586 -0.051431406 -0.046393905 -0.0023443964
-0.011652398 0.040267564 -0.062826864 0.028502118 -0.05672215 0.0017403698 -0.0357162 -0.06056407
-0.0065264404 -0.029307371 0.019373698 -0.04784827 -0.018863915 -0.00658158 -0.012006782 -0.0074340873
-0.09819677 -0.07541432 -0.040894438 0.05941503 -0.012251496 -0.14909308 -0.0015215937 -0.021690225
-0.02466635 -0.040530294 -0.16677864 0.030519286 -0.0504076 0.043280914 -0.020333564 -0.03301628
-0.112558454 -0.07940228 0.0057599484 -0.06451141 -0.075978324 -0.045244567 -0.036038604 -0.0538667
-0.05466332 0.0037556603 -0.009024121 -0.05066428 0.013448215 0.004172703 -0.021449503 0.015693288
0.014656676 0.06291614 0.040717926 -0.0014369801 -0.013595939 0.010155956 -0.08009432 -0.024132062
-0.043311812 -0.045363393 0.01814071 0.0029530209 -0.018189523 -0.04161641 -0.07607454 -0.032098603
0.053614717 -0.08382543 0.011938174 -0.06326502 0.07059219 -0.012832012 0.024680328 0.03658355
0.024111427 0.016875347 -0.043367907 -0.012124317 0.0022030936 -0.09807755 0.014117187 -0.041576125
-0.0012974136 -0.049770564 -0.04099567 -0.028649218 -0.06150743 -0.082578465 -0.014696123 -0.063881926
-0.012917088 -0.05322445 -0.023519471 0.060216792 -0.06962519 -0.016592877 -0.087463416 -0.03324216
0.002824512 -0.091963515 -0.047764793 -0.087706424 -0.02163557 -0.051320788 -0.0021444538 -0.06770266
0.011035638 -0.04695515 -0.13369828 0.08347317 0.03259123 0.019218026 -0.03577544 0.0023708057
-0.025778743 -0.016366685 0.003351221 -0.047341067 -0.02473873 -0.039299022 -0.010207735 -0.031071458
-0.15512152 -0.05609725 -0.034228407 -0.04597642 0.038514864 0.07307865 -0.048069585 -0.017059227
-0.035097916 0.028390553 -0.05367486 -0.028318303 0.004175689 -0.028439717 -0.0314926 -0.032692105
0.01467325 0.011987972 -0.05885219 -0.120884866 -0.026602207 -0.0024679457 -0.041481208 -0.0040404364
-0.04723941 0.00083934295 0.011652351 -0.020403665 -0.12257942 0.06818411 0.041448038 -0.075812764
0.0077033592 -0.08274959 -0.05979858 0.03694008 0.03651257 -0.061994854 -0.020953227 -0.0027521676
0.024260316 -0.061778132 0.006975238 0.009925501 -0.014510243 0.0143535575 -0.044521518 -0.0065104077
-0.010713022 0.009054596 0.051699843 0.024719018 -0.12298761 0.0018969341 -0.031290777 -0.007734308
-0.042262394 -0.06280188 0.009282303 -0.09408016 -0.080818795 -0.010266604 -0.104214735 -0.024782931
-0.08742458 -0.016693305 -0.10588246 -0.021860335 -0.10808036 0.022657484 -0.010344638 -0.048427083
-0.03463649 0.000894621 -0.08140958 0.03076203 0.015048629 0.0028632204 -0.026141169 0.03042218
-0.04055689 -0.060337745 0.085432574 0.018787313 0.0031005086 0.050215997 -0.06520286 -0.0683309
0.0031117909 0.016176937 -0.020642284 0.035986256 -0.0044473354 -0.035774976 -0.07126413 0.0047288584
0.0045003635 0.010463958 0.0437354 -0.06905235 0.008348897 -0.03178124 0.0021661168 0.0022319593
-0.0682899 -0.07189304 -0.009626561 -0.034417555 -0.09147352 -0.0035558671 0.08836258 -0.0485981
0.03736936 0.044656802 -0.02302992 -0.012805272 -0.020265395 0.046714894 -0.0030071568 0.037823208
-0.0494379 -0.1593417 -0.07439163 -0.10955053 -0.032348074 -0.024303088 0.016646897 0.007594437

network_body.linear_encoder.seq_layers.2.weight f4 [256, 256]
00000000: c4e0 88bd e1b9 c0bd 9139 85bc d5e5 f63a
00000010: 3956 863d 50d2 40bd e58d 203d 2bbf 3abd
00000020: ae65 0ebe 8389 103e 9ca1 aebd 2a16 1dbc
00000030: 637c 9b3d 9ff9 d7bd 7f11 17be 7e72 66bd
00000040: 73ab 113e 7af4 5e3d 083c 7a3c 518b 393b
00000050: ecf4 f4bd 3608 aabc 6b96 00ba b72a c3bd
00000060: 4127 d53c 1b57 563d 7a84 f4bc 88a4 763d
00000070: 111e 8f3d 07fb c0bc 3c05 8bbd 9cb5 aa3d
00000080: 0b06 4ebd e57a a0bc 1bab 51bd 8e49 1fbe
00000090: 7cc7 adbc 0678 47bd d2d2 3e3d beed 2dbd
000000a0: 4ccd abba 782f 43be fabf edbc bcf1 adbc
000000b0: ecb0 e8bc bcc9 633d c5ba 2cbd c68b e5bd
000000c0: 0a7d f9bd 1580 9a3d e3c8 8cbd 116e 123d
000000d0: e6b9 dd3c 051a 09be 0e26 6e3e dfa2 bdbd
000000e0: 1ef9 73be b24b 6b3d 871a 2b3d ab4f 9abd
000000f0: 4b50 4b3e f034 48be 3c61 efbc e8bc 003d
00000100: 8e74 f7bc 3321 1f3d 8445 81bc d578 b6bb
00000110: 5d87 413d 1816 cbbd 6357 aabd fbca 81bd
00000120: ac59 8fbd 5618 a93b e7c1 2c3e a93a 0cbe
00000130: 1a22 c43d af7f 0e3c 1c76 eb3d 29ec e1bd
00000140: 8f5d 5c3d 3d5e 1e3d 3f9e 37bd 36b1 f5bd
00000150: fe72 953a 0f28 a73d 757f bb3c c71d 18be
00000160: 07bb 963c 206a f7bd 0be8 073e fa9f bdbd
00000170: d084 a1bd 44d5 0a3d 967b b738 1a62 35be
00000180: 6115 eabd 770d 9fbd 05ac 483d dcc8 163c
00000190: 55de cebd a5df 243e 1d1e 693c a722 54be
000001a0: 2d19 acbd 9d0d 773d 5119 a1bd 665a 803d
000001b0: 4e83 8cbd c3ec 683d ef9b 7dbd 9201 a0bd
000001c0: cf50 39be 42a0 c1bd 2d08 4bbd 96e4 5cbd
000001d0: a5f0 4ebe 2bea c93c 4bda 9cbd a5cb c7bd
000001e0: d2c5 13bd 2e4b 50bc 8d61 e83b ab73 e4bc
000001f0: 540d 3c3d 9c6b fe3d 2bfe 823d 08b4 f03c
00000200: db45 2abe f7c5 a83c 7b61 ebbd eee9 da3c
00000210: 4ef9 113c d76c 8dbd ea5b 223e df5c 903d
00000220: d6b7 d6bc 1183 d6bc 7275 e6bc 00e6 83bd
00000230: 8b13 323e 3489 3b3d 0a97 033d 8923 0bbe
00000240: 94e6 1abe 6edf 6a3c 6978 d1bd 54ec 48bc
00000250: 53ab a4bd 2eda e43d 0acb 5abd 0479 4cbd
00000260: ae67 e73c a254 c4bc 2cb2 9ebd 1e7b 20be
00000270: 72be d2bd db38 86bd 6095 b3bb 4820 963d
00000280: e0f8 0a3e 11a2 2dbd 73d2 d93d 4562 48bd
00000290: 5e9c fdbd 3a48 233d 240b 5a3d 89e1 d2bd
000002a0: 70c9 9dbb 5712 72ba eb26 14bd 6682 c33d
000002b0: 27e2 04be dd1b 0fbd 7ae9 1b3d 4620 463d
000002c0: 89d7 0ebe 8cb2 1a3e bf2b 4dbd 8aa5 f4bb
000002d0: 8943 82bd 5a96 f9ba 4605 54bd 6e5c f43d
000002e0: 316e 13be 43f8 6c3d 8de7 2b3d 31e3 b33d
000002f0: 6299 8ebc 9d1c 36bc 5289 393d 95ff 103c
00000300: 9568 d53c 655a 9ebc 0386 c53c 79b3 253e
00000310: dd6c fd3d df63 e9bd 88a8 71bd 8be5 d3bd
00000320: 3252 8f3c e1e7 8f3d d656 0c3c 648e 89bd
00000330: f57d 143d e720 873d 4449 cd3d c93d 983b
00000340: a250 c13d d4b5 efbd 2f86 fcbd 24f6 023c
00000350: 5806 ff3c cff2 a7bd c9ba 6a3d ed48 cabc
00000360: 1ee3 bb3d c932 97bb 1d11 8b3c 1aa0 1abe
00000370: 3f72 eb3d d96a 193e 1961 a8bd f226 8bbd
00000380: c13c c53d e463 9bbd 5b2c 8abd 2a17 b53d
00000390: def5 15be 901e f5bd 43a3 13bd 0f38 803a
000003a0: 5028 02be 0709 173d 74cf 9abd 3e54 9c3c
000003b0: 1bd6 1b3d c705 31bd 2963 0fbe 7d8c 04bd
000003c0: d4ae debd b9d4 bcbc 1aef eebb 0d96 d6bc
000003d0: f1fa e83c c0d0 cbbd bfb3 a03c 217a 9bbd
000003e0: a5d9 f4bd c0c8 743d bee6 1f3d 9d32 193c
000003f0: f197 f73c b2f5 4fbd 47d8 383d 5d68 23bc
-0.06683496 -0.094104536 -0.016262801 0.0018836806 0.065594144 -0.04707557 0.03919782 -0.04559247
-0.13905975 0.14114957 -0.08526918 -0.009587804 0.07592084 -0.10545658 -0.14752768 -0.056261532
0.14225559 0.05443237 0.015273102 0.0028311799 -0.11960778 -0.020755868 -0.00049052265 -0.095296316
0.026019694 0.052329164 -0.029848326 0.060215503 0.069881566 -0.0235572 -0.06788108 0.083354205
-0.05029873 -0.01958985 -0.05118857 -0.15555403 -0.021213286 -0.048698448 0.046587773 -0.042463057
-0.0013107448 -0.19061077 -0.029022206 -0.021233432 -0.028404675 0.05561231 -0.042170305 -0.112083
-0.121820524 0.07543961 -0.068742536 0.0357495 0.027066182 -0.13388832 0.23256704 -0.09259581
-0.238255 0.057445236 0.041773345 -0.07534727 0.19854848 -0.19551444 -0.02922117 0.031430155
-0.030206945 0.03885002 -0.015780218 -0.0055686035 0.047248233 -0.099163234 -0.08317449 -0.063375436
-0.069995254 0.005160372 0.16870843 -0.13694252 0.09576817 0.008697434 0.11497137 -0.11031372
0.053800162 0.03866409 -0.04482865 -0.11996691 0.0011402068 0.081619374 0.022887925 -0.14855109
0.018399728 -0.120807886 0.13272111 -0.09259029 -0.0788666 0.033894792 8.74914e-05 -0.17713204
-0.11429859 -0.0776624 0.048992176 0.009203162 -0.10101 0.16100939 0.014228371 -0.20716344
-0.084032394 0.060315717 -0.07866157 0.06267242 -0.06860982 0.05686642 -0.061916288 -0.078127995
-0.18097232 -0.09454395 -0.049568344 -0.053928934 -0.20208986 0.024647793 -0.076588236 -0.09755639
-0.036077328 -0.012713237 0.007091707 -0.027887186 0.04591115 0.124228686 0.06396135 0.02938272
-0.1662821 0.02060221 -0.11493202 0.026722874 0.0089095365 -0.06905525 0.15855375 0.07048964
-0.026210707 -0.026185544 -0.028132174 -0.064403534 0.17390268 0.045785144 0.032126464 -0.13587774
-0.15127021 0.014335496 -0.102280445 -0.012263376 -0.0804049 0.11174427 -0.05341629 -0.049920097
0.02824768 -0.023966137 -0.07748827 -0.15671965 -0.10290231 -0.06553813 -0.0054804534 0.07330376
0.13571501 -0.042390887 0.10635843 -0.048921842 -0.1238334 0.039863802 0.05323328 -0.10296924
-0.004815273 -0.00092343 -0.036169928 0.09546356 -0.12976895 -0.034938682 0.038064457 0.048370622
-0.13949408 0.15107173 -0.050090548 -0.007466023 -0.063605376 -0.0019042001 -0.05176284 0.11931692
-0.14397503 0.05785395 0.04196887 0.08783568 -0.017407123 -0.01111522 0.045296974 0.008849998
0.026050845 -0.019330213 0.024111753 0.16181745 0.1237428 -0.11396002 -0.058998615 -0.10346516
0.017495248 0.07026649 0.008565625 -0.06716612 0.036252934 0.065980725 0.1002374 0.0046460372
0.094392076 -0.11704603 -0.12330281 0.007993255 0.031130955 -0.08200609 0.05730704 -0.024692977
0.091741785 -0.0046142084 0.016975934 -0.15100136 0.114964 0.14982165 -0.08221645 -0.067945376
0.096307285 -0.07587412 -0.067467414 0.08842309 -0.14644572 -0.1196872 -0.03604437 0.0009782332
-0.1271069 0.036873844 -0.075591 0.019083139 0.038045984 -0.0432184 -0.1400267 -0.032360543
-0.108731896 -0.023050653 -0.0072916867 -0.026194597 0.02843997 -0.09951925 0.01961696 -0.075916536
-0.11955575 0.059761763 0.039038412 0.009350446 0.030223818 -0.050771423 0.045128133 -0.009973613
