Project/Assets/MyProject/Chaser/Chaser Vs. Runner 2/brain4/RunnerBrain.onnx (onnx, 645644 bytes, 6 tensors)

action_model._discrete_distribution.branches.0.bias f4 [7]
00000000: 0fb8 653b 3d9a 25bc 6598 4a3b c85d 0ebc
00000010: 14f4 fb38 d119 55bc cb64 903c
0.0035052334 -0.010107574 0.0030913588 -0.008689351 0.00012014076 -0.013006643 0.017626187

action_model._discrete_distribution.branches.0.weight f4 [7, 256]
00000000: 9801 5e3d 02d1 e73c a217 883a dc20 3bbc
00000010: 6cc8 673b 1946 013b cd3f 523c c84b f93c
00000020: 80c9 1e3d 317f 44bd 7d6e c3bc e0de 1fbd
00000030: 7d68 bb3a 57b9 4cbd ae79 d1bc 134a e1bc
00000040: 639d 09bd 5762 aebc a531 d63c ee4a 6d3c
00000050: 0cdb 993c 1e9f d73c 9928 ce3b b817 203d
00000060: d83b 333c dabd af3c 202d 923c 3a8b 9abc
00000070: 5e03 d2bc dc42 c93c b224 53bd c806 debc
00000080: b367 e2b9 5bca 9ebb d9a3 bd3c 5bdd 6d3c
00000090: 1c86 6cbc 8f04 0bbc 391c c63c 990d 9b3c
000000a0: 5e87 573b f77d 9d3c 3368 aa3b 2c45 23bc
000000b0: 4960 143c e6f3 033d 3c52 a4bc 3404 3a3c
000000c0: d5ac c93c eb23 c8bb 8a89 563b 2c65 0bbd
000000d0: 95b0 273c 602f cb3c 9503 483b a59d e0bc
000000e0: 8830 a9b9 72fb e83a fe73 72bd 98a1 1cbc
000000f0: 4c71 813c ba3b 5e3c a088 f33c 849c a4bc
00000100: 57a8 6dbc 6625 9e3c 3b8b 56bc 01ac 483c
00000110: 04c9 8dbc 771d d9bb 264e c7bb 103a 543c
00000120: c8f0 393d 8716 59bd b282 883b a9b6 623c
00000130: 6203 a63b b34e fd3c 1708 483d b51b 86bb
00000140: 41da 04bd e97b c23c de1b ae3c d5ca 2cbd
00000150: 668f 60bc c3f1 2d3c 3437 973b fe47 5d3d
00000160: f346 a0bd a155 96bd 90e8 f9bc 967b cfbc
00000170: b55a f13b 2e92 1dbd d56a 283c 53cc cc3c
00000180: e3b8 cd3b b1c0 18bd 1644 9dbc f307 edbc
00000190: b6c6 4b39 8238 543d 3cc6 823d 2197 19bc
000001a0: 54d4 c9bc d32f 063d 9c97 1abd 5c20 a73c
000001b0: f0c1 e1bb 97e6 ba3c 2bee 2ebd aaf5 863d
000001c0: 2e41 6e3c d561 c3bb 3fdb f4bc 2fe3 853b
000001d0: 04be 483c 157a cabc 3e26 99bc ec0b e8bc
000001e0: 632f 2dbc 724e e83c b2bf 43bd d4dd 86bb
000001f0: 1451 173c daba 09bd 384f 02bd a34d 3f3d
00000200: ba09 a5b9 b411 dd3b 381a a3bc 0e1e 8e3c
00000210: 260a c4bb 17dc 283d 6c41 cc3c 3bb8 ee3b
00000220: bf17 a5bb 60c9 a1ba 26c5 86bb 1241 103d
00000230: b1c3 7e3c 8567 9fbc d695 ef3c 1515 07bd
00000240: 1c46 033b d459 90bc 86b5 59bb 118a d43c
00000250: 6ba8 d338 5a11 52bc 12b3 8dbb 67bb e13c
00000260: 39ad d9bc b64f 7ebc a90e 97bc 4179 333b
00000270: 5ad4 63bd d8d6 7ebc 5155 4fbc 4d96 02bd
00000280: c79d b33a 5dc4 183c 0978 42bc 9e56 13bb
00000290: 5693 34bb 76c3 033d 4493 653c 8822 eb3b
000002a0: dce7 dabb 153c f03b a659 36bc 6297 68bc
000002b0: 5d1a e6bc f536 16bc f6e5 f9bc 0287 ea3b
000002c0: e7bb 8c3c 8a44 b83b 6075 f13c 79fc dabb
000002d0: 2342 9c3c 398e c1bc c363 6b3c 0255 63bc
000002e0: 0164 0c3d 1ac5 a83c cc71 5cbd 0788 743c
000002f0: 52fe 36bc 8cfe 063c 3166 9bbc 2218 e1b9
00000300: 4d84 443c ba11 7abc ceed 0bba 2218 163d
00000310: f4f6 823c 4ab5 1e3c a5bd b2bb 678d 61bb
00000320: bae3 f53c e7b0 e73b 905a 13bd 1997 203c
00000330: eeb2 b93c a1b0 1c3b 5b03 17bd a07a 463c
00000340: 268d 00bc ede8 223d 2474 41bc f75b b1bc
00000350: fde2 fa3b 73d8 cebc a5ba af3c 4a01 973c
00000360: 8c61 d23b 205e 3abd 0b72 3fba 7ad6 923c
00000370: 9944 2abc 72c0 2fbb c7ee 7f3c b27c debc
00000380: d91b a3bc 880f 89bb ad1d 65bd 2b6b 963b
00000390: f908 c83c d96a 09bc 89cd 90bc 7e90 efbc
000003a0: b1ee e9bc 49c6 8bbd 4acc 31bd 7f9c 69bc
000003b0: d08d a73c c3ec 193c 08fd b9bc 42c6 d13b
000003c0: a82a dcbc 6860 38bc bb80 ea3c a0c4 f7bc
000003d0: e03d b2bc 57ad 613c 4fdf 023d e094 91b9
000003e0: eee4 b7bc 4173 1f3b fd7d 0cbb b1cc 0abd
000003f0: 9663 d13c 05ad 843c 59c0 7b3a d989 e93a
0.05420074 0.028297905 0.001038302 -0.0114214085 0.0035367263 0.001972562 0.012832594 0.030431643
0.038766384 -0.04797286 -0.023856396 -0.03903091 0.0014298108 -0.04998144 -0.025570717 -0.027501142
-0.03359736 -0.021287126 0.02614672 0.014483197 0.018781208 0.02632099 0.0062914607 0.03908512
0.010939561 0.021452833 0.017843783 -0.018865217 -0.025636371 0.024568014 -0.051548667 -0.027102843
-0.0004318334 -0.0048459 0.023149418 0.014518107 -0.014436271 -0.008484974 0.02418338 0.018927382
0.0032887082 0.019225104 0.00520041 -0.009965222 0.009056159 0.03221502 -0.020058744 0.011353541
0.024618546 -0.0061077974 0.0032735788 -0.034032032 0.0102349715 0.024802864 0.0030519713 -0.02741892
-0.0003227035 0.0017775132 -0.05919265 -0.009560011 0.015801094 0.013564045 0.029728234 -0.020094164
-0.014505467 0.019304942 -0.013094719 0.01224804 -0.017307766 -0.006625827 -0.006082314 0.012953296
0.045395643 -0.053 0.0041659707 0.013837495 0.005066321 0.030921316 0.04883584 -0.0040926584
-0.032434706 0.023740726 0.021253522 -0.042185623 -0.013706064 0.0106167225 0.004614735 0.054023735
-0.078260325 -0.07340551 -0.030506402 -0.025327485 0.0073655494 -0.038469486 0.010279377 0.024999773
0.0062781437 -0.03729314 -0.019197505 -0.028934455 0.00019433614 0.051811703 0.063854665 -0.009374411
-0.024637379 0.032760452 -0.037742242 0.020401172 -0.006889574 0.022815032 -0.042707603 0.065898255
0.014541907 -0.00596259 -0.029889701 0.0040859203 0.0122523345 -0.024716416 -0.018694993 -0.028325997
-0.01057038 0.028357718 -0.047790237 -0.0041157994 0.009235639 -0.03362546 -0.03181383 0.0467049
-0.000314785 0.006746495 -0.019909963 0.017348316 -0.005982655 0.04122552 0.02493354 0.0072851456
-0.005038231 -0.001234334 -0.0041128574 0.035218306 0.015549586 -0.019458542 0.029246252 -0.03297909
0.0020030802 -0.017620958 -0.0033219769 0.025944741 0.00010092634 -0.01282152 -0.0043243254 0.02755518
-0.026571857 -0.015521934 -0.018439608 0.0027385505 -0.055622436 -0.015554152 -0.012654618 -0.03188162
0.0013703638 0.00932416 -0.011869439 -0.0022482048 -0.002755364 0.032168828 0.014012162 0.0071757473
-0.006680472 0.007331381 -0.011129772 -0.014196249 -0.028088743 -0.009168376 -0.030505162 0.0071572075
0.017179443 0.005623405 0.029474914 -0.006682929 0.019074505 -0.023627387 0.014367047 -0.013875248
0.03427506 0.020601798 -0.053819463 0.01492501 -0.011169033 0.0082394 -0.018969627 -0.00042933325
0.011994434 -0.015263015 -0.0005337865 0.03664411 0.015986897 0.009686777 -0.0054547363 -0.0034416558
0.030015815 0.007070649 -0.03597504 0.0098016495 0.022668328 0.002390899 -0.036868434 0.012114197
-0.007846152 0.039772917 -0.011807475 -0.021650298 0.0076564536 -0.025249695 0.021451304 0.018433232
0.00642032 -0.04549992 -0.00073030655 0.017924536 -0.0103923315 -0.0026817587 0.015620894 -0.027159069
-0.01991074 -0.0041827597 -0.055936504 0.004590412 0.024418341 -0.008387291 -0.017676132 -0.029243704
-0.0285562 -0.06824929 -0.043407716 -0.014258503 0.020453364 0.009394827 -0.022703663 0.006401808
-0.026875809 -0.011253454 0.028625837 -0.030245125 -0.02175802 0.013774238 0.031951245 -0.00027767476
-0.02244803 0.0024330171 -0.00214374 -0.033886615 0.025560182 0.016195783 0.0009603552 0.0017817571

network_body.linear_encoder.seq_layers.0.bias f4 [256]
00000000: b820 afbc 9219 80bb 72a9 85bc 3d48 b6bb
00000010: e366 35bc a4e5 8a3b df25 1b3c 5e7c 5ebc
00000020: 76a6 453c cc01 643c cc25 c1bb 109e 8ebc
00000030: 21e1 bebc 6d2b f43b c27e 39bc 573c 62bc
00000040: 9333 3dbc 38f4 013d 145d 193c 474c 0b3c
00000050: 20fa 1d3c 6ddf 87bc 816e 703b d656 18bc
00000060: 61f1 1c3c 87e9 9ebc 17ed 48bc 94b5 8bba
00000070: 5bc4 07bc 44c1 8ebc b761 a33b 7188 253b
00000080: 91d7 d33c c5a8 433c c732 063b 9efd 3cba
00000090: 9f70 7b3a 1b45 dfbb 3d4c 5eb9 c80e eabb
000000a0: 3d1e c4bb 0c26 29bc d95b 69bc 1a09 153d
000000b0: febb b3bc d68a 8538 ac0e 11bc 6776 1a3b
000000c0: 8083 7f3c 63a8 0ab8 98dc 8d3c 1197 8ab8
000000d0: 1ca7 9cbc 8896 3e3b 8ee9 cfbd 6205 b4bb
000000e0: 8de0 c53b 7016 513c 7707 133c df6a 93bb
000000f0: 73f8 063c 1501 1f3c b192 7e3c 9e2f a5bc
00000100: 4dc0 bd3c f589 633d d2fb 923c 576f b13b
00000110: feaf 83bc 63ec 3dbb 11f2 74bc 2595 ab3b
00000120: fb66 d23a 986f bf3b 2e57 96bb 1cd8 003b
00000130: 0b9c 103d 9871 ceba e5d9 f53b e779 453d
00000140: bbf4 e33b c71d 603c 5532 9fbc 40f1 52bb
00000150: b038 873c 7f91 ac3b 646b 263c 3a4e 63bc
00000160: fcfd ca39 3b90 1bba 2a9f c9bc 5379 95bc
00000170: 11cf 12bb b186 533c a726 c0ba 71c5 a9bc
00000180: 21ca ef3c 9303 8abc 08fe aa3a 8f63 4bbc
00000190: f8af ee3b 411e d53b d6df 653c 79e9 c13c
000001a0: 07b4 dfbb 26af 573c 3c94 0c3b 2a8b c1bb
000001b0: f1f7 dd3c f71c 2fbb 018d 253d f94b 80bc
000001c0: 9882 adbc 3d90 4cbc 4ed0 7bbc 2538 86bc
000001d0: becd ab3c f7cb adba ba6c 393b d9ca e23b
000001e0: 3dfe 123d a831 fbbb d1fd a7bc ee67 763c
000001f0: 0c74 64bc 48b1 ffbb 47a6 063d 4e7e ed3b
00000200: 8c67 6eba 98c1 b1bc 9df4 83bc f322 0cbc
00000210: a094 3abc 1421 98bb d0ea 783c b6c8 653c
00000220: f3d5 493c a1e0 1cbb 69df 4bbc aa25 b4bc
00000230: e14e 2dbc 6be4 9a39 1a37 3cbb cb47 843c
00000240: 58bf 32bc dbcd d9bb e43c 313c 0ced 763b
00000250: 06d1 84bc 4fde 543c a118 93bc f4dd 66bc
00000260: 4bb5 b33c fb79 7f3c 04c2 733b 0690 db3a
00000270: 7e43 073c 088d 94bc 6557 21bc 94f0 9e3b
00000280: 0805 67bc a1de 3f3c 1dd2 a33c a48f 0dbd
00000290: abb3 e9b9 a905 a43c 2347 83bb 65a1 1bbb
000002a0: 971d a9bc 008b dabb 67f7 30bc bfb0 043d
000002b0: 11bc 28bc 475e babc 0004 123b 8ad6 383c
000002c0: ad27 643c df64 e1bb 145b 7a3c 2944 1f3d
000002d0: a324 113c 28f3 acbb ae09 a9bb 799a ac3c
000002e0: 431b cbba a2ce 0f3d bf9d 89bc f538 d5bc
000002f0: fc3a 34bc 681f 343d 9a1c 90bb a57b dbbb
00000300: 4c36 aabb 49f4 e3bb c59e d33b bbc7 84bc
00000310: 9dbb 96bc 59e4 8dbb 38b1 33bc f924 fd3b
00000320: 967c 3dbc 3e84 b63c 8251 bbbb ff05 7bbc
00000330: 58f4 d7bb 068a c43b 2022 173c 9894 b93a
00000340: 314a 44bc b670 b5ba d430 03bc c2f7 433c
00000350: b06a 4d3b 16a8 d7bc db2d 47bb b0e6 873c
00000360: a67c 83bc 3123 b93c 3b43 9abc 705d 9bbb
00000370: b018 31bc f41d a1bc dc51 1dba f51e b9ba
00000380: 52f8 683c dc71 db3b b336 ebbb e489 81bc
00000390: 9dce b2bc d68c cabc 43b2 e43b 55c6 0ebb
000003a0: 0826 46bc c7ec 6a3c 57d8 0eba d33c 97bb
000003b0: bb9b 493c c868 aebb e6f4 b83c 4ec7 81bc
000003c0: 458f 6e3a 84c9 bcbb a5cc 003d 0e89 c6bb
000003d0: f7e5 03bc 8011 6fbc b625 e73b 4d00 ec3c
000003e0: fd1d d83b 4533 da3c 73c9 e43b 5bad adbc
000003f0: 2785 fbba 79e1 763c 00a5 c2bb d755 a03c
-0.021377906 -0.003909298 -0.01631615 -0.0055628107 -0.011071893 0.004238801 0.009469478 -0.013579456
0.012063613 0.013916444 -0.0058943983 -0.017409354 -0.02330071 0.007451466 -0.011321725 -0.013808331
-0.011547941 0.031727046 0.00936057 0.008502073 0.009642154 -0.01658603 0.003668696 -0.009298047
0.009579034 -0.019398464 -0.012263558 -0.0010658973 -0.008286561 -0.01742614 0.0049860138 0.0025258327
0.025859626 0.011942093 0.0020477043 -0.0007209423 0.0009591672 -0.006813658 -0.00021199971 -0.0071428753
-0.00598505 -0.0103240125 -0.01424309 0.036385633 -0.021940228 6.3677944e-05 -0.008853596 0.0023569108
0.015595317 -3.3058586e-05 0.017317101 -6.608491e-05 -0.019122653 0.0029081423 -0.10151969 -0.0054938057
0.0060387314 0.012761697 0.008973948 -0.004498824 0.008237946 0.009704848 0.015537904 -0.020164307
0.023162985 0.055551488 0.017942343 0.005414884 -0.01607513 -0.0028980009 -0.014950291 0.0052362853
0.0016052419 0.0058421604 -0.0045880293 0.0019660061 0.035305064 -0.0015750406 0.0075027817 0.04821196
0.0069566644 0.0136789745 -0.01943318 -0.0032187253 0.016506523 0.005266368 0.01015744 -0.013873631
0.00038717675 -0.0005934273 -0.024612028 -0.018246328 -0.0022401253 0.012910531 -0.0014659957 -0.02072403
0.029271187 -0.016847407 0.0013045678 -0.012413873 0.0072841607 0.0065038507 0.014030417 0.023670899
-0.006826881 0.013164317 0.002145066 -0.005906482 0.027095767 -0.0026720145 0.040417675 -0.015661227
-0.021180436 -0.012485561 -0.015369488 -0.016384194 0.020972129 -0.0013259639 0.0028293566 0.006921154
0.03588699 -0.0076658316 -0.020506771 0.015039427 -0.013943683 -0.007803116 0.03287342 0.0072477227
-0.0009094409 -0.021698758 -0.016107852 -0.008553254 -0.011387974 -0.004642615 0.015192702 0.014024904
0.012319076 -0.00239376 -0.012443402 -0.021990616 -0.010577888 0.00029543354 -0.0028719367 0.016147515
-0.010909878 -0.0066468543 0.01081774 0.0037677912 -0.016212951 0.012992456 -0.01795608 -0.014091004
0.021937033 0.015593047 0.00371945 0.0016751296 0.0082558375 -0.018133655 -0.009847497 0.0048504565
-0.014100321 0.011710794 0.01999765 -0.034560814 -0.00044575086 0.02002223 -0.004006283 -0.0023747322
-0.020643992 -0.006669402 -0.010801173 0.03239512 -0.010298745 -0.022750033 0.0022280216 0.011281619
0.013925475 -0.00687848 0.015280504 0.038883362 0.0088588325 -0.00527801 -0.0051586246 0.021069752
-0.0015495796 0.03510917 -0.016798852 -0.026028136 -0.011000391 0.043975264 -0.004397941 -0.006698089
-0.005194461 -0.0069566113 0.006458136 -0.01620852 -0.018400008 -0.0043301997 -0.010967545 0.0077253547
-0.011565348 0.022279855 -0.0057165036 -0.015321254 -0.0065904073 0.005997899 0.009224445 0.0014158664
-0.011980579 -0.0013842795 -0.008007247 0.011960926 0.0031344108 -0.026325267 -0.0030392322 0.016589493
-0.016050648 0.022599788 -0.018830886 -0.004741363 -0.010809109 -0.019667603 -0.00060012727 -0.0014123606
0.01421936 0.0066969227 -0.0071781515 -0.015812822 -0.021827037 -0.024725359 0.0069792583 -0.0021785696
-0.012094028 0.014338679 -0.0005449107 -0.004615405 0.012305195 -0.0053225495 0.022577714 -0.015842106
0.00091003283 -0.005761327 0.031445164 -0.0060588187 -0.008050433 -0.014591575 0.007054056 0.028808737
0.0065953718 0.026635775 0.0069820224 -0.021200826 -0.0019189463 0.015068405 -0.0059400797 0.019572182

network_body.linear_encoder.seq_layers.0.weight f4 [256, 363]
00000000: 2d12 99bc 3337 b33d 158b 863d 8b67 bb3d
00000010: fc5e 06be 802e 703d 1073 9cbd 5dda c7bc
00000020: caab 80bb 1dc8 5d3a 7ce4 96bc 141e a6bd
00000030: a7a5 9b3d b737 a6bd bfb5 29bd a68a e6bd
00000040: 07f8 afbd 5ab5 543d 2aba 3e3c ece3 443b
00000050: 0d78 aabd 4284 d8bc b373 5c3d bc1e c4bc
00000060: b1e2 38bd 0948 febd 33b7 b9bc 0c4c 2fbd
00000070: 5865 eb3b 8766 973c e4ed 0dbd 5870 d93d
00000080: fd6f 64bd ab1b ab3c 8c58 bcbd dff4 bbbb
00000090: 82d3 a5bd 199d 73bd 40b7 363d 36d5 e8bd
000000a0: 11b0 debc 19ef cbbd 5ebd 243d e835 2fbd
000000b0: 7f23 75bd d31b 023e 7e61 9b3d a340 513d
000000c0: 61c2 4bbd 2958 f83c 30cf 493d 74cc 3ebc
000000d0: f047 a5bd e6df bebd d1fb b8bd c431 1bbd
000000e0: 78ca 493c 5ffc 733d 7342 6cbd de4f 653d
000000f0: 3f2a 79bd 4c21 863d 8cd2 a8bd c6a3 82bd
00000100: 017a 2c3d 5773 4dbb 4846 7abd d2f5 99bd
00000110: 9d6f f83c f9a5 bebd 4680 e43d dcae ce3c
00000120: 0d67 c6bd 88a0 763d 8149 c9bc dc8b fdb9
00000130: a154 c4bb f18a 05bd 3354 57bc 682c 6dbd
00000140: a3a1 05bd 8154 153d 911e 78bd 5670 bfbd
00000150: ec63 9fbd 39b3 01bc d989 8e3d 0f9e 173e
00000160: 1589 363d a6db f03c 2c7f 10bd d759 b9bc
00000170: 5f30 743d 2bad 9abd c78d 573b 3b3c a7bd
00000180: 8167 96bc 2922 41be d6ac 99bd a549 a73d
00000190: b713 723d 56fe ba3d 46b2 38bd e752 5ebd
000001a0: 2afe e1bc 1c0c 063d b388 f93c 2bb0 ec3c
000001b0: f63a 5c3d db42 9fbd 261d ccbc 0c78 bdbc
000001c0: 1fa8 c53c af1b 8b3d e5c4 d63c c162 b83c
000001d0: 8169 293c 1eea 813d c1c9 cfbc 4aff 02be
000001e0: 5738 673c 56e0 243d b0dd c63d 0d26 36bd
000001f0: a074 073d 0a28 343d 6882 8f3d 5815 08be
00000200: 74cb b63d e834 d63d d978 a23c bf7d e63d
00000210: 7725 50bd 3312 673d f16f 4f3c 4588 90bc
00000220: 3e5e ecbc cc0d a4bd 496d 9cbc 4c7f 5a3b
00000230: 12e8 f73d b411 003d ac8f e43c 1db0 8bbd
00000240: 2339 9cbc 6288 033e 390c 98bd 6cd2 403e
00000250: d773 73bc 97a9 f4bb 5b4f a3bd 61fd c9bd
00000260: 5114 093e 3873 51bd 4a30 72bc df9b 573d
00000270: b955 20bc f593 1bbc 198e 03be 4457 5ebd
00000280: 9c96 9bbd 23b7 bd3c 0e76 6cbc 4b94 c13c
00000290: 7f21 c6bc 00d3 54bd 3c78 74bc 029b 1fbd
000002a0: 3b09 f73b f8c6 863d fd37 b5bd fb9b 70bc
000002b0: 2e23 7bbd c187 ccbc 99a5 20bb dc09 643d
000002c0: 384e d73b 73fd 2ebd f80f 6cbd e14e 653d
000002d0: 90e1 e63c e369 97bd b862 08be de10 9fbd
000002e0: a1f6 02b7 6b79 84bd addf 8f3c 5c60 c0bd
000002f0: 8862 52bd e396 913c d690 abbd a866 74bb
00000300: a22b edbc 534c 32bd ddcb e7bb 1899 25bd
00000310: 9893 a63a 96d9 873d 7979 15bd a9c6 6bbb
00000320: 9a3d 10be e813 8cbd d956 12be 64b7 1dbd
00000330: 772f c73c 4bf2 08be 8bc4 113e ce94 2ebb
00000340: 9921 05bd 48b3 ddbd 20f0 d23a 3727 f5bd
00000350: 5fb6 04be 56de c33c 4687 26be 6c51 683d
00000360: 3aec b1bd 45f9 afbd 141f 113d ca09 c03d
00000370: 1110 143e 7f8e c1bc 9386 01bd 5b5e 8a3c
00000380: fe54 c43d 0f71 f73d e5e1 233c 683a 67bd
00000390: 362f 5abd 8315 1f3c a984 edbd 015b 5abd
000003a0: dd04 1b3c 4957 473d 2df6 2d3e 3ea0 c8bd
000003b0: ef78 5ebd b218 62bd 8dbe cdbc e417 42bd
000003c0: 9b9a 133d 77c0 7b3a a2ed b3bd 8476 f03b
000003d0: a418 08bd 49fd c8bc f800 7a3d 08a1 a83a
000003e0: be58 32bc 8005 27be d4ee cabd d776 753c
000003f0: 2bcc 9fbc 772e 2ebd 39b2 dcbb d9d3 51bd
-0.018685425 0.08750763 0.065694965 0.09150609 -0.13122171 0.058638096 -0.07639134 -0.024396116
-0.003926729 0.00084603 -0.018419497 -0.08111206 0.07599955 -0.081160955 -0.041433092 -0.11256914
-0.08592229 0.051930763 0.011641065 0.0030043079 -0.08323679 -0.026430253 0.053821277 -0.023940437
-0.045138065 -0.12416083 -0.022670364 -0.042797133 0.007183712 0.018481506 -0.0346507 0.10617131
-0.055770863 0.020887217 -0.091965765 -0.005735978 -0.080969825 -0.059475992 0.044608355 -0.11368792
-0.027183564 -0.09957714 0.040219657 -0.04277602 -0.059848305 0.12705927 0.075869545 0.051087033
-0.04974592 0.030315476 0.049269855 -0.011645425 -0.080703616 -0.09320049 -0.09032405 -0.037889257
0.012316339 0.05956685 -0.05768056 0.05598437 -0.060831305 0.065493196 -0.08243284 -0.063788936
0.04210854 -0.0031349265 -0.06110218 -0.0751759 0.030326659 -0.093090005 0.11157279 0.025229864
-0.09687624 0.06021169 -0.024571182 -0.00048360124 -0.005991534 -0.032603208 -0.013142633 -0.057903677
-0.032624852 0.036457542 -0.060576025 -0.09347598 -0.077827305 -0.007916265 0.06959886 0.14806388
0.044564325 0.029401612 -0.03527753 -0.022625847 0.059616443 -0.075525604 0.0032890902 -0.08165785
-0.018359901 -0.18860687 -0.07503669 0.081683435 0.059100833 0.09130542 -0.04509189 -0.05427828
-0.027587015 0.032726392 0.030460691 0.028892597 0.053767167 -0.077764235 -0.024916243 -0.023128532
0.024128018 0.067923896 0.026216934 0.022508027 0.0103400955 0.063434824 -0.025364758 -0.12792698
0.014112554 0.040253006 0.09710252 -0.04446988 0.033070207 0.043983497 0.07007295 -0.13289392
0.08925524 0.1045931 0.019833015 0.11254453 -0.05081698 0.05641384 0.012660966 -0.017643103
-0.028853532 -0.08010444 -0.01909508 0.0033340035 0.12104811 0.031266883 0.02790054 -0.068207
-0.019070214 0.12844995 -0.07424206 0.1883027 -0.014859161 -0.0074665057 -0.0797412 -0.09862781
0.13386656 -0.05113527 -0.014782021 0.052638885 -0.009786063 -0.009495725 -0.12847175 -0.05428244
-0.07597086 0.023158615 -0.014432443 0.023630282 -0.024185894 -0.051959038 -0.014921244 -0.038966186
0.007538942 0.06580919 -0.088485695 -0.014685626 -0.061312847 -0.024967076 -0.0024512766 0.055673465
0.0065706037 -0.042722177 -0.057632416 0.055983428 0.028183728 -0.07393243 -0.13318908 -0.07766889
-7.806027e-06 -0.06468471 0.017562712 -0.09393379 -0.051363498 0.017772144 -0.08377235 -0.0037292633
-0.02895147 -0.04352982 -0.007073863 -0.040429205 0.0012708781 0.06633298 -0.0364928 -0.0035976565
-0.14085999 -0.06839734 -0.14290942 -0.038504973 0.024314625 -0.13373677 0.14235131 -0.0026638987
-0.032502744 -0.10825211 0.0016093291 -0.1197037 -0.12960194 0.023909729 -0.1626254 0.056718275
-0.08687635 -0.08592466 0.03543003 0.09376867 0.14459254 -0.023627518 -0.03162248 0.016890695
0.095865235 0.12082111 0.010002588 -0.056452185 -0.05326768 0.009709719 -0.115975685 -0.053309444
0.009461609 0.048667226 0.1698844 -0.09796189 -0.05431455 -0.055199333 -0.025115276 -0.047386065
0.036036115 0.00096035696 -0.08785559 0.007338347 -0.033226624 -0.024534838 0.06103608 0.0012865374
-0.010885416 -0.16310692 -0.09908834 0.014981947 -0.019506535 -0.04252478 -0.006735113 -0.051227424

network_body.linear_encoder.seq_layers.2.bias f4 [256]
00000000: bc9f 3f3c beb6 6aba b427 fa3a 63e0 063c
00000010: 736f b4bc 6260 583b f32b 09bb 720b 6cbb
00000020: e1e4 f1bc 893c 05bc cf20 f13b d997 ffba
00000030: e010 f8bb 427b 6dbc 25ea e3bc 4ce5 88bd
00000040: 54e1 bfbc 05cd b2ba fdf1 063d e95e 533b
00000050: 7f5c 48bc 89f1 61bc 9e27 2dbb 2638 c3bc
00000060: 4f90 8eba fdd9 e33c 398d c33c 166c de3c
00000070: a04c e03c 0507 3b3b b2b0 f03b e37d a0bb
00000080: 0621 49bc 0f73 88bc 26b2 8e3c 1c56 acbc
00000090: f8c4 9b3c 739e f9bb 4acf 9dbc 8464 95bc
000000a0: 0479 3dbc ce15 27bc 2b46 813c 176b b5bc
000000b0: b9bd c7bb ccfa b5bc 2d2a 68bc 64aa 933b
000000c0: 9a40 47bd 0140 083a 8479 a3bc a897 30bc
000000d0: 6ae4 ba3b 9f4b 9bbb 6a20 5cbc 8a16 e83b
000000e0: 1d92 bcbc c15a 9abc 2cd5 f7bc 3b2a 4ebc
000000f0: b8e4 7a3a 5c54 02bc 4af5 2f3c a08a b6bc
00000100: 7782 15bc 0fb0 40bd b0ba b1bb f1b6 cabc
00000110: 1356 e7bb 1427 4cbb d4b1 0b3a 124f 58bc
00000120: e628 81bb ffcd 92bc 3660 39bd 2661 28bb
00000130: d111 afbc 3fe9 4dbc 362a 3fbc 974f f5bc
00000140: 8ec4 9cba 6980 31bc 61f2 a5bc 2401 1ebd
00000150: ccd4 943b 88c1 ebbb 233f 24bc e26c 563c
00000160: 9fb2 1bbb 4852 14bc ceef cb3b a2e8 d03b
00000170: 9a47 0e3b f96f a3bc 8cc2 d53c 200d 813c
00000180: 25f8 c33c c6b9 04bc e4c7 fabc c255 0ebc
00000190: 8fb0 20bc 20e2 f83b 358b 87bb 7dc4 cd3c
000001a0: 858b f4bc 59e6 0ebc bb53 ddbc 257e b23c
000001b0: db82 873c b445 91bc 0304 9dbc 634f f0bb
000001c0: 25f7 83bc ca03 08bd be68 ffbc bb57 dab9
000001d0: 628c 91bc 1952 19bc 298d 94bc 2f2c 11bd
000001e0: 062a 49bd e817 0d3a a1cb f53b 5d5c 473c
000001f0: 906b da3b eee3 173b 4dbb 3bbc 4778 043c
00000200: d690 5cbc 7b10 c5bc 673c 46bc b724 9b3b
00000210: b854 3bbc 7825 d83b 5c79 02bd 086c eab9
00000220: 6253 02bd 2cc1 89bc 2e05 b33a af0c 66bc
00000230: 7191 6d3b 02e8 21bc f4f1 f8bb 42be b93c
00000240: 744f d3bc 893f 14bc f807 95bb b091 483c
00000250: b793 233c 38ae 09bc 5665 2b3c 97dd 84ba
00000260: 5d06 27bc 352f 03bd 3bc5 7dbc 5e17 3c3c
00000270: 0f08 e23a 5ee3 05bc 59af 283b ef62 75bb
00000280: 1098 a8bc f195 75bc d51e a6bc 519e 7d3b
00000290: 54f2 89bc 5a5d 5d3b 3f95 0fbc 2f4c ffbc
000002a0: 41d0 94bc 55ba 9bbc bdcc 573a 8dfc 95bc
000002b0: bbe9 75bb fcd8 123c 6f72 bfbb 7349 363c
000002c0: dac9 f9bc c7a7 0c3b d462 c8bc ba04 8fbb
000002d0: b0c3 3abc cb02 45bc cf5d a6bc 9e9e 3cbc
000002e0: e1c8 aabc 47bf 8ebc dab6 11bd 6ef1 27bc
000002f0: 75d9 8b3b 2f4c 5dbc 9158 7cb7 c9ac acbb
00000300: 1fa5 213c fe8e 15bc 7bd5 72bc acca fe3a
00000310: af5d 0d3b a257 0cbc 1885 adbb 844f 67bc
00000320: e865 7d3c 43c0 303b 18dc aabc 7539 bbbb
00000330: 650a 53bc 9b10 6b3b 47ed d0bc 3c9d d73b
00000340: 0da0 163c 4928 abbc 8e33 173c 0201 453b
00000350: 3699 b0bc 3426 de3c 6c26 9abc 3035 973b
00000360: 1f7d 82bb f148 03bd e814 43bb 3b8a 29bc
00000370: 421b 913b 27c5 fbbc 53f8 f8bc e1af 04bd
00000380: 5ef8 c23a ca0c e8bb 36a6 9bbb 4d9b 50bc
00000390: dcdc 39ba 704c 5bbc b273 f93b 407f f2bc
000003a0: 6b73 b73b 5676 8aba b7a7 fbbc 2451 36bc
000003b0: 7c89 0bbb c769 463c 5fc9 26bc d642 bdbc
000003c0: 6f24 343c 04b9 193c 9ed5 cebb 1f44 d2bc
000003d0: e89b 9f3c a607 1d3c ce7a b9ba 5006 9c3b
000003e0: fe18 f7bc 96b3 8c3c 0761 c8bb 3693 003c
000003f0: 2ac2 9a39 e324 e73b dcc8 913c 9fc1 c53b
0.0116957985 -0.00089536223 0.0019085319 0.008232209 -0.0220258 0.0033016433 -0.0020930737 -0.0036017564
-0.029528083 -0.0081321085 0.0073586474 -0.001950021 -0.007570371 -0.014494719 -0.02782161 -0.0668436
-0.023422875 -0.0013641423 0.03294562 0.0032252616 -0.012229084 -0.013790497 -0.0026421319 -0.023830485
-0.0010876748 0.027813906 0.023871051 0.027151149 0.027380288 0.002853812 0.0073452825 -0.0048978194
-0.01227594 -0.016656427 0.017418932 -0.021037154 0.01901482 -0.0076177656 -0.019263882 -0.018236406
-0.011564497 -0.01019807 0.015780529 -0.022145791 -0.0060956147 -0.022214316 -0.014170212 0.004506396
-0.048645593 0.00051975256 -0.019955404 -0.010778345 0.0057034986 -0.0047392393 -0.0134354625 0.007082765
-0.023018891 -0.018842103 -0.030253015 -0.012583311 0.0009570825 -0.007954683 0.010739634 -0.022282898
-0.0091253435 -0.047042903 -0.005423866 -0.024745436 -0.0070598214 -0.0031151222 0.00053289277 -0.013202446
-0.003941643 -0.017920492 -0.04525777 -0.002569267 -0.0213708 -0.012567817 -0.011667779 -0.029945178
-0.0011960433 -0.010833838 -0.020257177 -0.038575307 0.004541969 -0.0071947016 -0.010024819 0.013087483
-0.002375759 -0.0090528205 0.0062236553 0.0063753882 0.0021710158 -0.019950854 0.026093744 0.015753329
0.023922035 -0.008100932 -0.030612893 -0.008687438 -0.00980772 0.0075953156 -0.004136468 0.025118107
-0.029851684 -0.008721911 -0.027017465 0.021788666 0.016541889 -0.017733432 -0.019166952 -0.0073336824
-0.016109059 -0.03320674 -0.031177875 -0.00041645564 -0.017767135 -0.0093579525 -0.018133717 -0.035442527
-0.049112342 0.00053822855 0.007501081 0.012168017 0.0066656545 0.0023176628 -0.01145823 0.008085317
-0.013462266 -0.02405571 -0.012099362 0.0047346014 -0.011433773 0.0065962635 -0.03185402 -0.00044712448
-0.0318178 -0.016815744 0.001365816 -0.01404111 0.003625002 -0.009881975 -0.0075972024 0.02267373
-0.025794722 -0.009048351 -0.004548069 0.012241766 0.009983948 -0.008403353 0.010461172 -0.001013684
-0.010194388 -0.032027442 -0.015488918 0.011480181 0.0017244833 -0.008171884 0.002573928 -0.0037443002
-0.020580322 -0.014989362 -0.020278374 0.00386991 -0.016839184 0.0033777566 -0.00876361 -0.031164257
-0.01816571 -0.019009748 0.00082321075 -0.018308902 -0.0037523347 0.008962866 -0.005842499 0.01112591
-0.030491758 0.0021462308 -0.024461187 -0.004364577 -0.011399195 -0.012024592 -0.020308403 -0.011512427
-0.02084774 -0.017425193 -0.03557477 -0.010250432 0.0042678663 -0.013506933 -1.50409915e-05 -0.005269621
0.009866028 -0.00912833 -0.0148214055 0.0019439063 0.0021570732 -0.008565815 -0.005295407 -0.014118079
0.015466191 0.0026970066 -0.020856902 -0.0057136365 -0.012880896 0.0035868052 -0.025503768 0.006580023
0.0091934325 -0.020893233 0.0092286 0.0030060415 -0.021557432 0.027117826 -0.01881715 0.0046144947
-0.0039822008 -0.032051984 -0.00297671 -0.010347898 0.004428298 -0.030733658 -0.030391848 -0.032394294
0.0014875045 -0.0070816027 -0.0047500385 -0.012732339 -0.00070901006 -0.013384923 0.007612669 -0.029601693
0.0055984757 -0.0010563831 -0.030719621 -0.011127744 -0.0021291664 0.01211018 -0.010179847 -0.023103159
0.010995015 0.00938249 -0.0063120862 -0.025667248 0.019483522 0.009584343 -0.0014150979 0.0047614947
-0.030163284 0.017175477 -0.006115082 0.007847598 0.00029517832 0.007053958 0.017795973 0.0060350443

network_body.linear_encoder.seq_layers.2.weight f4 [256, 256]
00000000: 13c7 db3c 05f5 763d 5e9f edb8 f074 903b
00000010: 0b34 fcbc 3403 b8bc 04de 3f3d 944f 8d3d
00000020: 62cc 55bd 93e2 beba 5ad6 2d3e d0c3 eb3b
00000030: ad69 8cbd 41d5 583d 8d26 ffbd 3bd0 2dbc
00000040: ed46 b53c 8726 033e 07b1 a53b 85de 25bd
00000050: 3fa3 303d 1503 4abd 2182 993d 8992 c1bd
00000060: 47bf ab3d e226 acbd 2930 92bd 15fc 963c
00000070: 4303 0b3d e35f ccbd 114d 7cbd 0e97 17bd
00000080: 19b2 b9bd 70ab f2bd 1c78 f4bc d0ad 4b3d
00000090: 7f44 16bd cd37 62bb bfe1 0fbe b053 34bd
000000a0: ae6f 013d dd7c 07be a4e0 5d3d 4967 56bd
000000b0: 17fd 8dbd 196a d83b b459 d13d 59b0 b23d
000000c0: aa5d 203d ffe6 933c aec5 0cba cdd8 5e3d
000000d0: 1461 a33c 96ab d439 8fe1 12bd e4ac 1cbd
000000e0: 441d 0a3d 23ec de3c 1695 913d beb9 023c
000000f0: d91d b6bd 953f 2a3e 79d2 103d fec1 37bd
00000100: d166 123e f262 dbbd c48f 0fbd 9930 61bc
00000110: e8bf 40bb fe37 a43c 55c6 d6bc 4a87 263c
00000120: 3620 d8bd aaf5 393d f549 113e fb79 96bd
00000130: 09ff f4bc 43d9 8f3d 0dbb 8c3c a110 0f3c
00000140: e4b0 dabd 56d2 663c 6cfa 17bd b74f c4bd
00000150: 8b80 2ebd 107d aa3d de71 b43c f6ab 2dbc
00000160: bd0d b83b cdae a7bd 8ac2 753d 87b8 8a3d
00000170: 9eb2 a13c 9a8b 34bd 21dd c93c 92fc 07bd
00000180: 8aaf 65bd 4fce 863d 1b1f b83c f562 f83b
00000190: 5814 8c3d 5775 7b3d 1ead 81bd f407 1cbc
000001a0: 1d03 ab3d 17a2 5f3c f256 f63d 9947 8ebd
000001b0: 5731 223d f891 3c3d 921e 8c3c 6046 a1bd
000001c0: 1630 50bd 4f97 153e ca9c 8c3d d9d3 8ebd
000001d0: d063 a7bd 8327 a13a 9ca5 663d e750 d83d
000001e0: 4c0e fb3a 9d4a 163d ee41 7c3d d9ca 71bc
000001f0: 2a2e 203a 0f64 d63d 8539 afbd 0426 3b3d
00000200: 417d 103d 67ab 973c 49aa 3c3e 70a2 f43b
00000210: de23 6e3d 6bcc a4bc dd75 003d faa7 dc3c
00000220: 3ac4 603a 2632 ccbc 998e 89bd 9ca7 d33c
00000230: e3ef a93d 0c94 3d3d ae0a 57bd 9a62 843d
00000240: 1fb3 84bd 8df8 e0bd 0c3c 543d 5bc3 8bbc
00000250: fdc5 383d 7331 d93c 7653 af3c 209a 8f3d
00000260: e701 1bbc d4f2 1dbc 2c45 a03d 03f2 6f3d
00000270: 673c 1a3d 21da 953d 0200 e73c 44a3 0bbe
00000280: b6f9 e53c e91c 0abd 8287 663d d712 2b3d
00000290: c35d 033d 363d c43c f66e 183d f674 523d
000002a0: ba09 1b3d 7b29 6c3d 3cc5 e1bd 69b1 183c
000002b0: a06f e7bc e4fd 4bbd 0653 1e3c 38b5 84bc
000002c0: c154 0c3e b001 143d 9b62 8dbd 99d5 963c
000002d0: 0108 d03c d7c1 f93d e33a 38bc 7676 74bd
000002e0: bed3 113e 5fa3 4f3c 5bd6 a5bd 45ee e0b9
000002f0: c4f3 313c 5dd2 0f3e c471 003c fbc5 a73d
00000300: c744 e4bc aa89 953c d263 5abd 9fa2 ba3d
00000310: dfda 0e3d ff3c 1ebd 719d 0e3d 96e9 a93c
00000320: 5f1a 8ebc b33a 6f3d e7d2 27bd dd64 b9bb
00000330: cece 643d 2f1f f93d d861 6b3d a641 5c3d
00000340: 9fda 123e 1487 463d 8f89 833d f51d 42bd
00000350: ea3a 903d 059f f9bc 2367 aabd 5b3d 463d
00000360: 1d20 37bd 2d84 313d c0ca 3cbd 7b37 743d
00000370: 1778 46bc 8c34 26ba a55e bc3d 1163 62bd
00000380: fb4b 57bc cd54 4b3d f4b4 a83d db53 5e3d
00000390: dca4 ebbc ec1a 13bd 340f 01be cebf c13d
000003a0: 2dff 78bc d4de d1bd 104b c43d 7c95 4abd
000003b0: 1648 05be 33e0 963c 6a14 a33c 768e c73d
000003c0: f3be 4c3c 478a 05be 127c f83c cc41 073e
000003d0: 9228 01bc eb84 b1bd 9508 373d c2dc c1bd
000003e0: 25b5 933d d259 a93d 24fb 123e 37d4 8b3c
000003f0: 3b24 c8bc b167 f6bd 8b1a b33d 68a8 4a3e
0.026828324 0.060292263 -0.00011330725 0.0044084713 -0.030786535 -0.022462465 0.04684259 0.06899944
-0.052196868 -0.0014563374 0.169763 0.0071949735 -0.068560936 0.05293775 -0.12458525 -0.010608728
0.022128547 0.12807666 0.0050565037 -0.040495414 0.043124434 -0.049319346 0.07495523 -0.094517775
0.08386093 -0.08405854 -0.07138092 0.018430749 0.033938657 -0.099792264 -0.061596934 -0.03700929
-0.090671726 -0.11849105 -0.029842429 0.049726307 -0.036686417 -0.0034518123 -0.14050959 -0.044025123
0.031600647 -0.13231225 0.054169312 -0.052344594 -0.06933039 0.0066044447 0.10222188 0.08725042
0.039151825 0.018054483 -0.0005370033 0.054405976 0.019943751 0.00040563633 -0.03585964 -0.03825082
0.033719316 0.027212208 0.07108514 0.007978855 -0.08892412 0.16625817 0.035356972 -0.04486274
0.14297034 -0.10712232 -0.035049215 -0.013744497 -0.002941126 0.02004623 -0.026217619 0.010164091
-0.10553019 0.0454003 0.14188369 -0.07347485 -0.029906766 0.07023861 0.017179037 0.008731992
-0.106782705 0.014088234 -0.037104055 -0.09585517 -0.042603057 0.08324635 0.022026952 -0.010600081
0.005616872 -0.081876375 0.05999998 0.06773477 0.019738492 -0.044078447 0.024641575 -0.033199854
-0.05607561 0.06582319 0.02247577 0.007580156 0.06839818 0.0613912 -0.063318476 -0.009523381
0.08350203 0.013649485 0.12028302 -0.0694725 0.039597835 0.046037644 0.01710442 -0.07874751
-0.05082711 0.14608501 0.06865843 -0.069740005 -0.081733346 0.0012295101 0.05631028 0.10562306
0.0019154041 0.03669225 0.061586313 -0.014757835 0.00061103946 0.104683034 -0.08555893 0.04569055
0.0352757 0.018514348 0.18424334 0.007465653 0.058139674 -0.020117005 0.031362403 0.026935566
0.0008574162 -0.024926256 -0.067166515 0.025836758 0.08297708 0.046283767 -0.05250042 0.06464119
-0.06479477 -0.10984907 0.051815078 -0.017060926 0.04511069 0.026512837 0.021402102 0.07011819
-0.009460903 -0.009640414 0.078256935 0.05858041 0.03765526 0.073169954 0.028198246 -0.136365
0.028073173 -0.033718977 0.056281574 0.041766014 0.03207184 0.023954969 0.037215196 0.051381074
0.037851073 0.057656746 -0.110239476 0.009319642 -0.02825147 -0.049802676 0.009663349 -0.016199693
0.13704206 0.03613442 -0.06903573 0.018412398 0.025394442 0.12195175 -0.011244508 -0.059683286
0.1424093 0.012673228 -0.08097526 -0.00042902134 0.010861341 0.14045091 0.007839624 0.08192059
-0.027864827 0.01825412 -0.053317852 0.09113049 0.0348767 -0.03863239 0.034818117 0.020741265
-0.01734656 0.05840559 -0.040972617 -0.005657776 0.055861287 0.12164151 0.057466358 0.053773545
0.1434121 0.048468664 0.064227216 -0.04739185 0.07042487 -0.030471334 -0.08320453 0.048398357
-0.04470836 0.043338943 -0.046091795 0.059623223 -0.012113593 -0.00063402276 0.091977395 -0.05527026
-0.013140674 0.04964142 0.08237639 0.05427919 -0.028765135 -0.035914347 -0.12603456 0.09460412
-0.015197557 -0.10247579 0.095846295 -0.049458966 -0.1301578 0.018417453 0.019907195 0.09743969
0.012496698 -0.1304103 0.030332599 0.13208693 -0.007883208 -0.0866793 0.04468592 -0.09465934
0.07212285 0.08269085 0.14353615 0.017068965 -0.024431339 -0.12031496 0.08745297 0.19790804
