Project/Assets/MyProject/PoliceThief1/model/0428(chase)/policeAgent.onnx (onnx, 819340 bytes, 10 tensors)

action_model._discrete_distribution.branches.0.bias f4 [3]
-0.011117082 0.014571422 -0.0029026116
00000000: 6c24 36bc f9bc 6e3c be39 3ebb

action_model._discrete_distribution.branches.0.weight f4 [3, 128]
0.004312889 0.01254343 -0.005764649 0.007867387 -0.039422598 -0.016415348 0.010330199 -0.077643804
0.032056615 0.03944111 0.018760394 -0.055060383 -0.082684346 -0.014672862 -0.04635027 -0.04568805
-0.009266782 0.05731453 -0.026955081 0.012111691 -0.061669827 0.023631243 0.012268743 -0.028170815
-0.022844875 -0.00062025676 -0.05147827 0.01503931 -0.03655158 0.011701439 -0.025342043 0.05137006
0.0509127 -0.028392984 -0.029142896 -0.02738969 0.010784084 0.015305979 0.010155152 0.01854701
-0.036088772 -0.032441236 0.0013645551 0.018031457 -0.037116177 -0.03736003 -0.01728569 -0.07426672
0.057311654 0.060082685 0.012507098 -0.0020051233 -0.054956514 0.03975732 0.017584737 -0.007842751
0.010625391 -0.0064484663 -0.0022222784 -0.035661 0.035045683 -0.06531187 -0.013028031 0.015831294
-0.07107359 0.0019642145 -0.0014926139 0.028339531 -0.053225968 0.0100695435 -0.0006608761 0.05254367
-0.036733907 0.067011245 0.00020888227 -0.06263897 -0.067355864 0.0035787972 -0.0007338096 -0.03823037
-0.018247249 0.011906061 -0.049496803 0.010795304 0.0013146419 0.0763238 -0.041240793 -0.018409465
0.03895095 0.06849066 -0.018978763 0.081034385 0.004784657 0.005349162 0.009229595 0.0038473532
-0.019613897 0.01540624 0.00037717912 0.006658306 -0.018691016 -0.020640967 -0.07342628 0.03502611
-0.03994478 -0.025533034 0.02874372 0.00045442293 -0.042469144 0.0088730985 -0.09131576 -0.0014925017
-0.043612774 -0.061527085 -0.06361664 -0.02211878 -0.07116829 0.011792214 0.003142176 0.022680424
-0.022615952 0.024625158 0.0462263 -0.028403671 0.036441687 -0.034762718 -0.00052155973 0.0653832
-0.021912 0.022256384 -4.681885e-05 -0.010323245 -0.01970782 0.03135523 0.01651708 0.088167176
0.021076031 0.012986329 -0.023401307 0.0690958 -0.024030259 0.033954527 0.068739966 0.033103604
-0.06902068 0.028705783 0.018384885 0.006796192 0.06788001 0.033919416 0.047928482 0.05005114
0.07998199 -0.054216485 0.0573259 -0.065235764 0.021282386 -0.0644166 -0.001910594 -0.007267852
-0.02326932 -0.009759621 0.036791023 0.04184341 0.02153395 -0.05541459 -0.02644985 0.028303407
0.07801424 -0.0006482668 -0.0357239 -0.011762453 0.028237108 0.028636651 0.005348898 -0.044970468
-0.07200676 -0.0049159187 -0.03555768 -0.0032040717 -0.0032598309 -0.02056354 -0.048957624 0.029624246
0.000618129 -0.001603271 0.040267732 0.03558871 -0.040528666 -0.027752047 -0.0017623252 -0.035714105
0.014042684 0.007145049 0.022452626 -0.032168396 0.07865713 -0.029919086 -0.0066543845 -0.046757236
0.019498091 -0.08712836 -0.04406935 0.010797935 0.048613247 -0.00022141889 -0.04053434 0.10876231
-0.032345846 0.004711274 0.017539721 -0.009266102 0.026971014 -0.05086082 0.051265605 -0.0032039278
-0.028788123 -0.027648468 -0.008882582 -0.0783224 -0.014707003 -0.0443601 -0.03927677 0.013502957
0.009697138 0.022893487 0.052451417 -0.0009241809 0.030605095 0.0071437727 -0.041491944 -0.0025962838
0.070725866 0.017531177 0.044966005 -0.0061301333 0.030510664 0.002819782 -0.011858979 0.0028230636
0.033553258 0.022980563 -0.015084912 0.03647552 0.035736006 0.009942411 0.03453993 -0.037829358
-0.04413527 0.013826803 -0.017478932 0.04888609 -0.061516065 0.02120159 -0.042773377 -0.03570084
00000000: 2353 8d3b f582 4d3c 61e5 bcbb 36e6 003c
00000010: 9779 21bd 7b79 86bc ff3f 293c b703 9fbd
00000020: cc4d 033d 008d 213d 66af 993c ff86 61bd
00000030: 6956 a9bd 7266 70bc c8d9 3dbd 6523 3bbd
00000040: b3d3 17bc a4c2 6a3d e7d0 dcbc 1d70 463c
00000050: 8099 7cbd 4f96 c13c d602 493c 7bc6 e6bc
00000060: 2d25 bbbc ba98 22ba e1da 52bd 7067 763c
00000070: 1cb7 15bd 64b7 3f3c 1e9a cfbc 6969 523d
00000080: d689 503d 6798 e8bc 15bd eebc 5860 e0bc
00000090: baaf 303c eec5 7a3c cb61 263c e6ef 973c
000000a0: d2d1 13bd 1ae1 04bd dfda b23a b5b6 933c
000000b0: 2207 18bd d506 19bd b89a 8dbc 2619 98bd
000000c0: a0bf 6a3d 4319 763d 92ea 4c3c 6368 03bb
000000d0: 151a 61bd 92d8 223d de0d 903c e27e 00bc
000000e0: 1f16 2e3c a84d d3bb a5a3 11bb 4511 12bd
000000f0: 108c 0f3d 3bc2 85bd 8673 55bc a1b0 813c
00000100: 088f 91bd 0dba 003b d0a3 c3ba 4e28 e83c
00000110: 7903 5abd bafa 243c a53e 2dba 0838 573d
00000120: 4b76 16bd 313d 893d 6807 5b39 dc48 80bd
00000130: dff1 89bd 418a 6a3b 215d 40ba 7397 1cbd
00000140: 417b 95bc a411 433c 29bd 4abd c9de 303c
00000150: 1050 ac3a a74f 9c3d 1bec 28bd 72cf 96bc
00000160: 088b 1f3d d544 8c3d 5a79 9bbc 5bf5 a53d
00000170: 9dc8 9c3b 0648 af3b ba37 173c e023 7c3b
00000180: 53ad a0bc 746a 7c3c 20c0 c539 eb2d da3b
00000190: e71d 99bc 3f17 a9bc 8460 96bd 8a77 0f3d
000001a0: 239d 23bd a72a d1bc f377 eb3c 9d3f ee39
000001b0: 20f4 2dbd 7960 113c c203 bbbd 0ca0 c3ba
000001c0: 4fa3 32bd d303 7cbd 7149 82bd 7232 b5bc
000001d0: aec0 91bd 2134 413c f7ec 4d3b 4ccc b93c
000001e0: 1745 b9bc b3ba c93c ca57 3d3d d1ae e8bc
000001f0: e143 153d 5a63 0ebd 48b9 08ba a1e7 853d
00000200: cb80 b3bc 0553 b63c 5b5f 44b8 d422 29bc
00000210: 4b72 a1bc 576e 003d d44e 873c fe90 b43d
00000220: a4a7 ac3c 9dc4 543c 19b4 bfbc 1982 8d3d
00000230: 1bdb c4bc e713 0b3d 8ac7 8c3d a597 073d
00000240: b75a 8dbd 6428 eb3c e69b 963c 97b2 de3b
00000250: ad04 8b3d 16ef 0a3d a850 443d 6d02 4d3d
00000260: 99cd a33d 1b12 5ebd 90ce 6a3d 549a 85bd
00000270: 6658 ae3c daec 83bd e56c faba 2927 eebb
00000280: 4d9f bebc d1e6 1fbc 2fb2 163d ff63 2b3d
00000290: f767 b03c 69fa 62bd 5bad d8bc 8cdc e73c
000002a0: eec5 9f3d 73f0 29ba 3953 12bd 4eb7 40bc
000002b0: 8251 e73c 6997 ea3c cf45 af3b f432 38bd
000002c0: 4878 93bd b715 a1bb eea4 11bd 67fb 51bb
000002d0: e3a2 55bb de74 a8bc ca87 48bd 8cae f23c
000002e0: ef09 223a d924 d2ba c7ef 243d 78c5 113d
000002f0: 6301 26bd 4358 e3bc d2fd e6ba f448 12bd
00000300: 4913 663c 0421 ea3b 92ee b73c 02c3 03bd
00000310: fd16 a13d df18 f5bc 060d dabb 8484 3fbd
00000320: 76ba 9f3c 5b70 b2bd 1082 34bd d2e9 303c
00000330: af1e 473d ae2c 68b9 5607 26bd c6be de3d
00000340: 147d 04bd 0861 9a3b 76af 8f3c d9d0 17bc
00000350: 51f2 dc3c 6f53 50bd e2fb 513d fdf8 51bb
00000360: 12d5 ebbc 0a7f e2bc 4088 11bc 7f67 a0bd
00000370: a4f5 70bc f0b2 35bd aee0 20bd 823b 5d3c
00000380: bfe0 1e3c 1f8b bb3c 4cd7 563d bb44 72ba
00000390: 89b7 fa3c 4f16 ea3b 75f3 29bd 6a26 2abb
000003a0: b9d8 903d 8b9d 8f3c 462e 383d 49df c8bb
000003b0: 80f1 f93c 17cc 383b 2a4c 42bc 2603 393b
000003c0: 246f 093d bc41 bc3c b526 77bc 5b67 153d
000003d0: eb5f 123d 7fe5 223c be79 0d3d f5f2 1abd
000003e0: 2fc7 34bd d189 623c fa2f 8fbc c83c 483d
000003f0: 45f8 7bbd f5ae ad3c 2333 2fbd 0b3b 12bd

action_model._discrete_distribution.branches.1.bias f4 [3]
0.0043974123 -0.005854127 0.0014654163
00000000: 2b18 903b fad3 bfbb 3613 c03a

action_model._discrete_distribution.branches.1.weight f4 [3, 128]
0.0012138688 0.05599174 -0.022437144 0.05203813 0.0463097 -0.111098476 0.045143086 -0.007760709
0.12821893 -0.029644687 -0.0688594 0.057152003 0.024421552 -0.042345263 0.13854119 0.0050310823
-0.0046986 0.0027826175 -0.0073327124 -0.0076411976 -0.06294101 0.055328235 0.0026663076 -0.011002759
-3.6466834e-05 -0.003968985 0.045332056 -0.061349306 0.0064077224 -0.0081795165 0.08311219 0.0057464456
-0.0072626607 0.017963044 0.06700644 -0.03873319 0.06354447 -0.049368944 -0.0076888264 -0.033011418
0.03698372 -0.01119755 -0.04402724 0.031606194 0.021285463 -0.0025728217 -0.01179725 0.011234021
0.04536825 -0.0028981704 -0.033176027 0.036130052 -0.03838463 -0.013631385 0.019021966 0.036997065
0.02791747 0.08110423 0.0041291257 -0.0069071013 0.013610353 0.012827866 0.015942676 0.021230686
0.012599433 0.03311821 -0.036812473 0.05517081 -0.009949914 0.023171596 0.011668432 -0.019245729
-0.04562632 -0.008631081 -0.03113062 0.016820675 -0.06669515 0.10438295 0.005257843 -0.0020232233
-0.004692731 0.0050641703 0.005619633 -0.05044557 0.09005045 0.033868436 -0.07751881 -0.0019644268
0.023832893 -0.026183061 0.023166396 -0.011440747 0.009773531 -0.03609802 0.047951035 0.0039384514
-0.06373246 0.09499349 0.10858788 0.08208791 -0.11507202 0.022462545 -0.03491111 0.02462417
-0.07840237 0.1930285 0.034491092 -0.021329828 0.0116933845 -0.05054672 -0.0076839733 -0.0046702866
0.0073184264 0.053318035 -0.034692764 0.05357778 -0.062209573 0.020938715 0.041761216 -0.07267764
0.009301448 0.002055092 0.02737274 -0.0035222105 0.0074580032 -0.06100709 -0.04920787 0.03388637
0.01062312 0.007766666 0.005380147 -0.053533323 -0.0028253358 0.057586614 -0.010824718 0.041113075
-0.04758187 -0.10722972 0.06110852 -0.06654315 -0.009901401 0.027322222 -0.104419515 -0.07271492
0.00029662895 0.044346426 0.004544153 0.031007769 0.0154885305 -0.051378846 0.01367292 -0.020155117
0.053753853 0.033493154 -0.103013106 0.07078648 -0.018736145 0.0875418 -0.12961504 0.052405294
-5.2643503e-05 0.005542592 -0.056874026 0.089228384 -0.081852384 0.025227612 -0.02471024 0.06615766
-0.022211744 -0.012863659 0.1709704 0.0090611195 0.043385565 0.0153276995 -0.024765493 0.0032960528
-0.06873909 0.004941293 0.022120412 -0.05602803 -0.007305364 0.0035477325 -0.016781433 0.00929694
-0.04762412 -0.07737461 0.011478283 -0.020058695 -0.026409322 0.024400383 1.7202012e-05 -0.038231127
-0.03771 0.02581026 0.050165296 0.0076785237 -0.0067963903 -0.031945907 0.019482445 0.051772565
0.012182104 0.062375344 -0.039939728 -0.03848176 -0.05606102 -0.06353611 0.05928105 -0.020656774
0.043689407 -0.032250345 0.056989048 0.052198578 -0.057602506 -0.033659823 -0.022313273 -0.018435627
-0.060932126 0.06635088 0.02497414 0.020343559 -0.06989326 -0.010040662 0.006162686 0.043992884
0.08524424 -0.066789635 -0.058180872 -0.012749358 0.08286175 0.029402252 -0.005487944 0.037644055
0.0029257298 -0.11727967 -0.14079225 0.041786507 0.036298472 0.04087207 -0.021276174 -0.0024448491
0.07701646 -0.04121075 0.049355034 0.014850667 0.026703674 -0.0004163926 -0.05937023 0.064029805
0.030505309 0.02513621 -0.014620563 0.010304096 0.07394427 0.047260575 0.037710406 -0.07122329
00000000: ae1a 9f3a 9857 653d 1ace b7bc ef25 553d
00000010: 3daf 3d3d 9987 e3bd f5e7 383d 8c4d febb
00000020: d34b 033e 6ad9 f2bc 2806 8dbd 3818 6a3d
00000030: b50f c83c 3a72 2dbd bedd 0d3e c7db a43b
00000040: b7f6 99bb 935c 363b 4047 f0bb 0363 fabb
00000050: 37e7 80bd dc9f 623d 38bd 2e3b eb44 34bc
00000060: f7f3 18b8 420e 82bb 1bae 393d 6949 7bbd
00000070: dff7 d13b 6103 06bc b936 aa3d ae4c bc3b
00000080: 9dfb edbb 3c27 933c ac3a 893d b2a6 1ebd
00000090: 9a23 823d 1737 4abd 8df2 fbbb fb36 07bd
000000a0: 3e7c 173d ee75 37bc e855 34bd 7f75 013d
000000b0: da5e ae3c c99c 28bb 4149 41bc e60e 383c
000000c0: 0fd4 393d 3bef 3dbb 96e3 07bd 1bfd 133d
000000d0: 3439 1dbd 2c56 5fbc f4d3 9b3c 3c8a 173d
000000e0: 2eb3 e43c f919 a63d 9e4d 873b f754 e2bb
000000f0: f5fd 5e3c f82b 523c 379a 823c faeb ad3c
00000100: da6d 4e3c f6a6 073d adc8 16bd cafa 613d
00000110: f704 23bc 5cd2 bd3c f32c 3f3c 38a9 9dbc
00000120: aae2 3abd 6169 0dbc a405 ffbc 83cb 893c
00000130: 7897 88bd bac6 d53d fc49 ac3b 0e98 04bb
00000140: 7bc5 99bb 57f1 a53b e624 b83b 04a0 4ebd
00000150: 5f6c b83d a1b9 0a3d 2fc2 9ebd 9dbd 00bb
00000160: 333d c33c dc7d d6bc 74c7 bd3c f971 3bbc
00000170: 2921 203c 84db 13bd 4e68 443d 200e 813b
00000180: 2a86 82bd f28b c23d 5363 de3d b51d a83d
00000190: e1aa ebbd 5f03 b83c f4fe 0ebd a1b8 c93c
000001a0: 6c91 a0bd 43a9 453e 8846 0d3d e4bb aebc
000001b0: 9c95 3f3c 140a 4fbd d7c9 fbbb 3409 99bb
000001c0: 69cf ef3b 0364 5a3d 001a 0ebd 6074 5b3d
000001d0: 77cf 7ebd ab87 ab3c cf0d 2b3d 04d8 94bd
000001e0: 1a65 183c b9ae 063b cc3c e03c e3d4 66bb
000001f0: 4462 f43b 92e2 79bd 318e 49bd 6fcc 0a3d
00000200: 980c 2e3c 847f fe3b f24b b03b c245 5bbd
00000210: 4529 39bb f1df 6b3d 285a 31bc 2f66 283d
00000220: 35e5 42bd 419b dbbd ed4c 7a3d c647 88bd
00000230: 7c39 22bc dad2 df3c e6d9 d5bd 8feb 94bd
00000240: dd84 9b39 99a4 353d 1ee7 943b 0104 fe3c
00000250: 9bc3 7d3c a072 52bd 6204 603c 581c a5bc
00000260: 002d 5c3d 1e30 093d 89f8 d2bd 81f8 903d
00000270: 8b7c 99bc 1e49 b33d ceb9 04be efa6 563d
00000280: 88cd 5cb8 a29e b53b bdf4 68bd 5fbd b63d
00000290: 39a2 a7bd 23aa ce3c 216d cabc ab7d 873d
000002a0: 67f5 b5bc 19c2 52bc dd12 2f3e 1775 143c
000002b0: 10b5 313d 0821 7b3c 01e1 cabc 9702 583b
000002c0: 14c7 8cbd 92ea a13b de35 b53c a67d 65bd
000002d0: d661 efbb 1381 683b 3779 89bc 3152 183c
000002e0: 8211 43bd 9476 9ebd 690f 3c3c 2252 a4bc
000002f0: 5d58 d8bc 50e3 c73c 0a4d 9037 3e98 1cbd
00000300: cd75 1abd 0a70 d33c 207a 4d3d 209c fb3b
00000310: 41b4 debb b6d9 02bd a699 9f3c 780f 543d
00000320: 7397 473c 4a7d 7f3d d797 23bd 0d9f 1dbd
00000330: 3da0 65bd 381f 82bd b0d0 723d 6538 a9bc
00000340: aaf3 323d f018 04bd 596d 693d 2dce 553d
00000350: 9bf0 6bbd e2de 09bd 53ca b6bc 5006 97bc
00000360: f793 79bd f8e2 873d 9196 cc3c 89a7 a63c
00000370: 3324 8fbd 9781 24bc 5bf0 c93b e231 343d
00000380: 8894 ae3d 01c9 88bd 114f 6ebd afe2 50bc
00000390: 6cb3 a93d fedc f03c 36d4 b3bb a730 1a3d
000003a0: 9abd 3f3b 5330 f0bd d82b 10be 5428 2b3d
000003b0: b5ad 143d 7969 273d 5f4b aebc c339 20bb
000003c0: ceba 9d3d 9acc 28bd 8128 4a3d 3650 733c
000003d0: aac1 da3c 454f dab9 332e 73bd 0f22 833d
000003e0: 45e6 f93c 74ea cd3c 168b 6fbc 83d2 283c
000003f0: 1870 973d 4e94 413d 3a76 1a3d 84dd 91bd

action_model._discrete_distribution.branches.2.bias f4 [3]
0.014181146 -0.023286285 0.007898826
00000000: 0a58 683c e1c2 bebc 146a 013c

action_model._discrete_distribution.branches.2.weight f4 [3, 128]
-0.06528527 -0.034461074 0.022525154 0.07848578 0.021649232 -0.024961004 -0.012472955 0.0134712225
-0.13548186 -0.086891085 0.05193381 -0.0061837835 0.012678101 -0.0020841272 -0.01378077 -0.008446813
0.09875993 0.032654747 -0.0663896 -0.040027797 -0.081736796 -0.07502081 -0.026022043 0.0060623656
0.0655322 -0.024630284 -0.01251474 0.0065734624 0.0876354 0.008376859 -0.03808754 -0.091427006
-0.041966468 -0.029060053 0.04024489 -0.013628482 -0.024035819 -0.10445769 -0.07677831 -0.063000716
0.11065582 -0.005989815 -0.02329892 -0.0104188835 -0.004513594 0.012044799 -0.020220015 0.07449046
-0.073519334 -0.022142878 -0.014005017 -0.075083636 0.041579027 -0.00977272 0.022723254 -0.028509548
0.0024919736 0.034098938 -0.046375204 0.050448082 0.024106156 0.021874858 -0.0013968034 0.07721533
0.057122488 0.008324985 -0.01431853 -0.024772156 0.034554336 -0.09466817 0.032886364 0.013421221
0.01758645 0.0046398235 -0.023557782 -0.003995413 -0.025505487 -5.1925457e-05 0.059771106 0.08010898
0.058831166 -0.0017060599 0.0129809575 0.036242623 -0.08161161 -0.015998365 0.057065375 -0.007057317
-0.010566948 -0.025002556 -0.0071554324 -0.09062289 -0.009904901 -0.0043284274 0.055463683 -0.030913752
0.003604943 -0.08334174 -0.03530508 -0.008287818 -0.022827165 0.025388263 0.08433764 -3.0407222e-05
0.13714048 -0.06447433 -0.034343485 0.04678468 0.00898306 -0.0017878313 0.0721148 -0.037787132
0.0089404015 0.11342193 0.04098207 0.012577736 0.019707752 -0.016035467 0.001811276 0.007247322
0.006322183 -0.035326425 0.016468506 0.036984287 -0.05161937 0.014408264 0.078132465 -0.07379517
0.012147279 0.002819152 -0.028250223 -0.036286045 0.010778118 -0.0062544257 -0.004811476 -0.06107511
0.19628741 -0.07522552 -0.01980294 -0.01496858 0.028180918 -0.002636773 0.012460452 -0.070797205
-0.04165998 0.014446949 0.026172694 -0.02043583 0.024670329 0.043372158 0.009336093 -0.012435967
0.034173924 0.0885144 -0.020471074 -0.008179792 -0.042789858 -0.038164552 0.030808667 0.09542813
0.033972807 -0.019135859 0.0020398234 -0.012493995 0.01211881 0.120257944 -0.007671721 0.04120877
-0.059172872 0.08497534 0.06393611 -0.0049739773 0.06397405 -0.04479355 -0.036238763 -0.07874374
0.0804672 0.021747245 0.032657247 0.11866756 -0.030596672 -0.07356359 -0.021566752 -0.009652509
-0.02868109 -0.03050409 0.035312448 -0.033025023 -0.02852827 -0.01247462 -0.006179157 -0.033342756
-0.053348467 -0.006636918 -0.0061547547 0.028824704 -0.046775285 0.13839976 -0.016307954 -0.03364391
0.018671667 -0.01983055 0.021346595 -0.0050262976 -0.027081424 0.04658029 -0.02217715 -0.07807713
-0.036638334 -0.029220104 -0.016023932 -0.021444812 0.111800194 -0.008427104 -0.053998806 0.0018704336
0.0382342 0.01676482 -0.011431891 0.010148752 0.0052546887 -0.00013753308 -0.025353208 0.04960965
0.044959616 0.0023226533 0.051724475 0.07559206 0.0065352228 -0.019597806 -0.033692677 -0.023894584
-0.042556334 0.02859273 -0.06690214 0.03658109 0.002370489 0.0013882389 0.00859731 -0.11602809
-0.04944516 -0.08117156 -0.003022783 0.069458336 -0.003142528 -0.011792192 0.04489092 0.008266612
-0.019371161 0.053988677 0.02830804 -0.05580067 0.0686279 -0.0038912245 -0.077768736 0.12730555
00000000: 49b4 85bd 0e27 0dbd ac86 b83c 27bd a03d
00000010: bb59 b13c 057b ccbc 5d5b 4cbc 67b6 5c3c
00000020: c2bb 0abe f4f3 b1bd 8cb8 543d 56a1 cabb
00000030: cfb7 4f3c da95 08bb bdc8 61bc 8064 0abc
00000040: a542 ca3d fcc0 053d 45f7 87bd 30f4 23bd
00000050: 9f65 a7bd 83a4 99bd 2e2c d5bc cfa6 c63b
00000060: bf35 863d 73c5 c9bc a00a 4dbc 3366 d73b
00000070: 307a b33d 183f 093c ae01 1cbd 153e bbbd
00000080: 08e5 2bbd 590f eebc d3d7 243d ff49 5fbc
00000090: c4e6 c4bc eaed d5bd f23d 9dbd 8506 81bd
000000a0: 859f e23d 3646 c4bb 60dd bebc f7b3 2abc
000000b0: c5e6 93bb 8c57 453c 72a4 a5bc 748e 983d
000000c0: 4e91 96bd fb64 b5bc 4c75 65bc 73c5 99bd
000000d0: c54e 2a3d c21d 20bc 1e26 ba3c db8c e9bc
000000e0: 6150 233b 54ab 0b3d edf3 3dbd a6a2 4e3d
000000f0: 467a c53c e732 b33c f214 b7ba 1223 9e3d
00000100: 45f9 693d 8565 083c 4598 6abc faee cabc
00000110: d988 0d3d 63e1 c1bd dab3 063d aee4 5b3c
00000120: 7511 903c a909 983b 40fc c0bc f4eb 82bb
00000130: e2f0 d0bc 89ca 59b8 8cd2 743d 2d10 a43d
00000140: f3f8 703d df9d dfba 15ae 543c 2573 143d
00000150: fd23 a7bd 010f 83bc 62bd 693d 1141 e7bb
00000160: fe20 2dbc 29d2 ccbc 1e78 eabb 7e98 b9bd
00000170: 2a48 22bc 7bd5 8dbb e32d 633d d63e fdbc
00000180: e840 6c3b 13af aabd 0f9c 10bd a1c9 07bc
00000190: 0900 bbbc 0cfb cf3c 36b9 ac3d 0313 ffb7
000001a0: 8e6e 0c3e 1e0b 84bd c1ab 0cbd 4ba1 3f3d
000001b0: af2d 133c aa55 eaba edb0 933d aec6 1abd
000001c0: c37a 123c c249 e83d d1dc 273d d912 4e3c
000001d0: 2772 a13c d05c 83bc 5668 ed3a f17a ed3b
000001e0: 512a cf3b 71b2 10bd f6e8 863c d67c 173d
000001f0: d56e 53bd a410 6c3c ea03 a03d ec21 97bd
00000200: 6205 473c 86c1 383b 036d e7bc ada0 14bd
00000210: b496 303c edf1 ccbb 96a9 9dbb e529 7abd
00000220: 91ff 483e d60f 9abd c639 a2bc c63e 75bc
00000230: abdb e63c b6cd 2cbb ec26 4c3c 20fe 90bd
00000240: a8a3 2abd e5b2 6c3c 1e68 d63c 0b69 a7bc
00000250: 6e19 ca3c 01a7 313d 6af6 183c 3ac0 4bbc
00000260: f5f9 0b3d 0a47 b53d f4b2 a7bc 8904 06bc
00000270: 6b44 2fbd 6f52 1cbd 7562 fc3c d36f c33d
00000280: 1227 0b3d cec2 9cbc 8fae 053b 9db3 4cbc
00000290: f98d 463c cc49 f63d 0f63 fbbb 87ca 283d
000002a0: 415f 72bd 8d07 ae3d eff0 823d bffc a2bb
000002b0: d404 833d 7179 37bd 196f 14bd 6644 a1bd
000002c0: fdcb a43d 4727 b23c 9bc3 053d fa07 f33d
000002d0: dfa5 fabc 82a8 96bd c2ac b0bc 8f25 1ebc
000002e0: 9bf4 eabc b7e3 f9bc c9a3 103d 3f45 07bd
000002f0: 1eb4 e9bc 5962 4cbc 877a cabb 6a92 08bd
00000300: ec83 5abd 817a d9bb d3ad c9bb c921 ec3c
00000310: 7197 3fbd abb8 0d3e 4298 85bc 32ce 09bd
00000320: 53f5 983c ad73 a2bc 0edf ae3c a4b3 a4bb
00000330: ddd9 ddbc f9ca 3e3d dbac b5bc e7e6 9fbd
00000340: 1412 16bd 005f efbc 9f44 83bc 08ad afbc
00000350: 80f7 e43d d611 0abc da2d 5dbd 5629 f53a
00000360: 779b 1c3d 6056 893c d34c 3bbc f346 263c
00000370: 862f ac3b c136 10b9 88b1 cfbc 7d33 4b3d
00000380: 9327 383d a837 183b 0bdd 533d 03d0 9a3d
00000390: 6c25 d63b 948b a0bc 5501 0abd 93be c3bc
000003a0: 8d4f 2ebd 4d3b ea3c fd03 89bd 0ed6 153d
000003b0: 355a 1b3b 91f5 b53a bbdb 0c3c 23a0 edbd
000003c0: 0287 4abd 463d a6bd e219 46bb 2c40 8e3d
000003d0: dff2 4dbb 0a34 41bc 8bdf 373d af70 073c
000003e0: 45b0 9ebc 3b23 5d3d 43e6 e73c 3e8f 64bd
000003f0: c98c 8c3d ea03 7fbb 3745 9fbd 635c 023e

network_body.linear_encoder.seq_layers.0.bias f4 [128]
-0.022783266 -0.01412806 -0.045131985 0.009464202 0.026286578 -0.011468811 0.04973762 0.020072823
0.008623817 0.01665669 -0.012112244 0.009990478 0.0038091615 0.0059184977 0.0012898921 0.037911788
0.025575818 0.00026512146 0.018781511 0.012948141 -0.009921431 0.027085768 0.025534859 0.02854087
0.0023022052 -0.02943223 -0.028672315 -0.011613696 0.01441197 0.01069996 -0.0008854778 0.008741918
-0.012734392 0.03176355 0.0054545593 0.010153571 -0.020869324 0.013424932 -0.0034978075 -0.029410541
-0.0047259554 -0.00018857139 -0.010337444 0.026367819 -0.0047102408 -0.028803641 0.00516456 0.01822164
0.009776941 -0.0050820066 0.018698797 -0.0028411245 0.0036212374 0.0077233016 -0.0004824455 0.022113185
0.042447235 0.02412538 0.0032172112 -0.011500069 0.01950599 0.008416255 -0.020977767 0.018407598
0.012848756 0.037443038 0.0026797613 0.016599476 -0.0011897435 -0.0013522969 0.023802612 -0.015846863
0.03459379 0.003085127 -0.0032615606 0.02247058 0.030336834 0.00037024976 0.031552088 -0.022339793
0.014771109 -0.025042469 0.030862836 -0.023735907 -0.029004805 0.014359676 -0.006115223 0.004431266
-0.004579408 -0.02588892 -0.015657935 0.036618736 0.064828515 -0.034180786 0.008567229 0.01910869
0.0005167603 -0.0010196462 0.012677735 0.0069287047 0.02242156 0.020869786 0.014323015 0.030688696
0.009122617 0.015384811 -0.0071942536 -0.04218242 0.05934207 1.6989844e-06 -0.006339018 0.0026862232
0.015514137 -0.020052284 0.013348531 -0.025240833 0.014131798 0.037498433 0.014530545 -0.018533817
0.006391797 -0.011607749 0.009481916 0.015568965 0.011562623 -0.011707423 0.01875504 0.016214743
00000000: f9a3 babc 6179 67bc 51dc 38bd be0f 1b3c
00000010: f356 d73c aee7 3bbc adb9 4b3d c36f a43c
00000020: e94a 0d3c 9c73 883c 6f72 46bc 1aaf 233c
00000030: 20a3 793b f5ef c13b 9911 a93a 6449 1b3d
00000040: 6184 d13c 0000 8b39 afdb 993c 7124 543c
00000050: 7f8d 22bc f9e2 dd3c 7b2e d13c 8bce e93c
00000060: 98e0 163b dc1b f1bc 34e2 eabc 5f47 3ebc
00000070: 2f20 6c3c e34e 2f3c 691f 68ba 433a 0f3c
00000080: e9a3 50bc 7f1a 023d 29bc b23b 2a5b 263c
00000090: 25f6 aabc 3ff4 5b3c 793b 65bb 60ee f0bc
000000a0: 30dc 9abb 3fbb 45b9 625e 29bc 5301 d83c
000000b0: 5d58 9abb 9df5 ebbc 783b a93b 8c45 953c
000000c0: 762f 203c f686 a6bb 382e 993c 2932 3abb
000000d0: 4852 6d3b c013 fd3b bdf0 fcb9 b626 b53c
000000e0: 27dd 2d3d 97a2 c53c d9d7 523b c96a 3cbc
000000f0: 07cb 9f3c 55e4 093c 91d9 abbc 88cb 963c
00000100: 9783 523c df5d 193d ef9e 2f3b a0fb 873c
00000110: 2bf1 9bba 8e3f b1ba b2fd c23c 48d1 81bc
00000120: 38b2 0d3d d82f 4a3b e8bf 55bb 3914 b83c
00000130: f484 f83c 151e c239 c33c 013d f101 b7bc
00000140: 8602 723c dd25 cdbc 0fd4 fc3c ce71 c2bc
00000150: 7c9b edbc d944 6b3c 3562 c8bb 2734 913b
00000160: dc0e 96bb 0015 d4bc 1245 80bc 87fd 153d
00000170: d0c4 843d 2701 0cbd 905d 0c3c d489 9c3c
00000180: 3277 073a a6a5 85ba 46b6 4f3c 300a e33b
00000190: 6bad b73c 1df7 aa3c 14ab 6a3c dc66 fb3c
000001a0: 0777 153c 9310 7c3c c6bd ebbb 79c7 2cbd
000001b0: ac10 733d a908 e435 89b7 cfbb 590b 303b
000001c0: 022f 7e3c b044 a4bc ccb3 5a3c ddc5 cebc
000001d0: 0f89 673c f597 193d 8611 6e3c 3bd4 97bc
000001e0: 4872 d13b 6e2e 3ebc 0a5a 1b3c f914 7f3c
000001f0: 2871 3d3c 7ed0 3fbc 2ba4 993c c8d4 843c

network_body.linear_encoder.seq_layers.0.weight f4 [128, 1453]
-0.028354531 -0.006588056 -0.017422564 0.035126366 0.0013918693 0.04149559 -0.013001294 -0.022789441
-0.00083234493 0.047540244 0.04137258 0.026451305 -0.0109253535 0.019256009 -0.011871725 0.08438947
0.026488807 -0.04607061 -0.030177133 0.017064067 -0.027560113 0.0052926703 0.00712654 -0.021433722
0.014132158 0.007181751 0.012729719 -0.019012593 -0.002479664 -0.028429205 0.026660582 0.004128619
-0.035486583 -0.050243147 0.009320433 -0.044748526 0.07102099 -0.0029403195 0.0032257405 -0.08841673
-0.032080747 0.034799468 -0.032855116 -0.055903442 0.09615142 0.061149634 -0.115056865 0.032938737
0.0034037244 -0.058618136 0.18295896 -0.109594576 -0.026414806 -0.06466941 -0.074572176 -0.012049587
-0.08769351 0.02316265 0.0764275 0.048153087 -0.0637714 -0.030087937 -0.05022281 0.0029855003
0.199258 -0.03835665 -0.028728656 -0.05474124 0.0074937204 -0.02951177 -0.06078776 -0.048584197
0.013051902 0.0011661561 -0.01882021 -0.10656132 -0.017223908 0.061957758 0.118120275 0.027813597
-0.019017115 -0.059965387 0.07655029 -0.025671875 -0.07786731 0.032102697 0.0332314 0.0064311023
0.07298357 -0.08764714 0.008674476 0.02415035 0.04328025 0.09035437 0.03860485 -0.08112619
0.031593464 -0.02215428 -0.014715304 -0.0487098 0.03956838 0.05734985 0.022299906 -0.08582572
0.014680382 -0.007916644 -0.0018022461 0.036583923 0.007697714 -0.08031635 -0.018063722 -0.030010808
0.04961656 -0.017603353 0.062463146 -0.008873265 -0.022755938 0.015496203 0.031092605 0.05172266
0.05435339 -0.032651287 -0.0030357137 -0.002669189 -0.079426385 -0.009071426 -0.03857602 0.07177223
0.02369657 -0.018114887 -0.005517068 0.08886025 0.021519052 -0.0053788577 0.06330718 -0.006185472
0.0049394052 -0.006526497 -0.027856676 0.058753125 0.0087431045 0.0857816 -0.026071405 0.03181218
-0.038845032 -0.013874331 0.02286984 -0.12718268 0.08015422 -0.07660028 0.003998698 -0.0978237
-0.011030912 -0.0125969425 0.060057603 -0.057538 -0.0223399 0.05199802 -0.041982003 -0.03968776
0.004798726 0.010392609 -0.010640915 0.033929754 0.029483728 -0.0332365 -0.030925926 -0.0028597547
-0.021552928 0.023258189 -0.0029465687 0.00078330014 -0.06912251 -0.0501688 -0.027588038 0.08030323
0.003539942 0.06491231 -0.025056906 -0.0087385615 0.0072763897 0.026899172 -0.019147014 0.19667374
0.0021960167 -0.009209655 0.036065437 0.012964388 -0.013852197 0.018042332 -0.065221995 0.019881587
-0.019653443 0.017286802 -0.03345893 0.0056911637 -0.046938628 0.16311388 0.012724544 -0.008054414
-0.016402574 -0.0076908204 0.0084516015 -0.05199584 -0.029222572 0.117466435 0.054011002 0.016202535
-0.17835994 -0.0045942627 0.08848112 0.10167059 0.04607795 -0.004174841 -0.0710285 0.032630634
-0.010569114 -0.016806643 -0.0035569025 -0.0039829207 0.035044536 -0.052053366 -0.1225795 -0.004693626
0.00874434 0.0852985 0.11636972 0.051151987 -0.005357106 0.013431542 0.027199447 0.023107944
-0.031257167 -0.006928667 -0.031475604 -0.05497421 0.009241202 0.042826433 -0.046830427 -0.024471274
0.015359678 0.010760714 -0.03922865 -0.018773843 0.020002369 -0.013935623 0.058585547 -0.054615553
0.02044582 -0.01661473 0.052392125 0.021582155 -0.06452257 -0.015099489 -0.045317642 0.02417279
00000000: c347 e8bc 9fe0 d7bb c4b9 8ebc aae0 0f3d
00000010: 626f b63a 48f7 293d 6103 55bc ecb0 babc
00000020: b931 5aba 8fb9 423d 4b76 293d 68b0 d83c
00000030: 4100 33bc c7be 9d3c a081 42bc 63d4 ac3d
00000040: 0eff d83c 89b4 3cbd 0936 f7bc f1c9 8b3c
00000050: bfc5 e1bc 236e ad3b c085 e93b c695 afbc
00000060: 918a 673c e554 eb3b 5090 503c 4cc0 9bbc
00000070: dc81 22bb 5de4 e8bc 4b67 da3c 5e49 873b
00000080: 615a 11bd c2cb 4dbd bbb4 183c 3b4a 37bd
00000090: 7473 913d 60b2 40bb f266 533b d513 b5bd
000000a0: 1a67 03bd e389 0e3d 1693 06bd 02fb 64bd
000000b0: 09eb c43d 0a78 7a3d efa2 ebbd c5ea 063d
000000c0: 0511 5f3b 9219 70bd 9859 3b3e 1f73 e0bd
000000d0: dd63 d8bc 6571 84bd 4cb9 98bd a26b 45bc
000000e0: a898 b3bd 99bf bd3c 0586 9c3d 2c3c 453d
000000f0: 949a 82bd fa7a f6bc 6fb6 4dbd 62a8 433b
00000100: 4a0a 4c3e dd1b 1dbd 5c58 ebbc 5a38 60bd
00000110: e28d f53b abc2 f1bc 96fc 78bd 3900 47bd
00000120: a5d7 553c b5d9 983a d72c 9abc d23c dabd
00000130: 2719 8dbc 6bc7 7d3d 0be9 f13d 57d9 e33c
00000140: c8c9 9bbc 449e 75bd 66c6 9c3d d34d d2bc
00000150: e578 9fbd 1e7e 033d a61d 083d ffbb d23b
00000160: 6978 953d 5880 b3bd 641f 0e3c f4d6 c53c
00000170: a246 313d b60b b93d 1f20 1e3d 7d25 a6bd
00000180: 2668 013d e57c b5bc 7518 71bc ed83 47bd
00000190: 7412 223d ade7 6a3d 4bae b63c 65c5 afbd
000001a0: fc85 703c d0b4 01bc 5839 ecba 06d9 153d
000001b0: 1b3d fc3b e67c a4bd 5ffa 93bc 3ad9 f5bc
000001c0: bc3a 4b3d e834 90bc 5bd9 7f3d 2c61 11bc
000001d0: a96a babc c9e3 7d3c ebb5 fe3c 24db 533d
000001e0: a9a1 5e3d 5bbd 05bd d3f2 46bb 8fed 2ebb
000001f0: 4daa a2bd 51a0 14bc e401 1ebd 52fd 923d
00000200: 4f1f c23c ac65 94bc 85c8 b4bb 5dfc b53d
00000210: b948 b03c 2141 b0bb 32a7 813d 80af cabb
00000220: bcda a13b 3adc d5bb af33 e4bc 1ea7 703d
00000230: 3d3f 0f3c 43ae af3d b393 d5bc 7d4d 023d
00000240: f81b 1fbd 2951 63bc 8859 bb3c 2d3c 02be
00000250: e527 a43d 9ce0 9cbd 8307 833b cb57 c8bd
00000260: 00bb 34bc 6863 4ebc f6fe 753d f7ac 6bbd
00000270: 2a02 b7bc e0fb 543d 52f5 2bbd a28f 22bd
00000280: a23e 9d3b c345 2a3c 3b57 2ebc edf9 0a3d
00000290: dc87 f13c ff22 08bd 5e58 fdbc b96a 3bbb
000002a0: c48f b0bc f587 be3c 381b 41bb 6256 4d3a
000002b0: 1a90 8dbd cd7d 4dbd 4f00 e2bc 0576 a43d
000002c0: 5ffe 673b bff0 843d 2444 cdbc 2f2c 0fbc
000002d0: c86e ee3b a75b dc3c 33da 9cbc d764 493e
000002e0: 0ceb 0f3b 18e4 16bc 5ab9 133d 9668 543c
000002f0: 53f4 62bc 83cd 933c 1c93 85bd b6de a23c
00000300: 4200 a1bc 0d9d 8d3c 3b0c 09bd f17c ba3b
00000310: b842 40bd 5307 273e 9b7a 503c a9f6 03bc
00000320: b15e 86bc 4703 fcbb 9678 0a3c 97f9 54bd
00000330: 2d64 efbc 3e92 f03d a43a 5d3d 2ebb 843c
00000340: fda3 36be 788b 96bb 9735 b53d ac38 d03d
00000350: 3cbc 3c3d 1bcd 88bb 6477 91bd b3a7 053d
00000360: 142a 2dbc 16ae 89bc ec1a 69bb 2983 82bb
00000370: dc8a 0f3d e935 55bd f60a fbbd fdcc 99bb
00000380: 6c44 0f3c fbb0 ae3d 3f53 ee3d bf84 513d
00000390: aa8a afbb f80f 5c3c 60d1 de3c df4c bd3c
000003a0: 8407 00bd df09 e3bb 90ec 00bd a32c 61bd
000003b0: 6968 173c c56a 2f3d 43d1 3fbd fb77 c8bc
000003c0: 29a7 7b3c b54d 303c 39ae 20bd 9acb 99bc
000003d0: 02dc a33c 3d52 64bc 66f7 6f3d 8fb4 5fbd
000003e0: fe7d a73c 9d1b 88bc 2099 563d 0fcd b03c
000003f0: 6924 84bd d963 77bc fe9e 39bd 0406 c63c

network_body.linear_encoder.seq_layers.2.bias f4 [128]
-0.0018304924 -0.02604667 -0.06903531 -0.07050783 -0.0073927096 -0.0016223097 0.007060521 0.01642636
0.05619386 -0.0014705814 -0.04146846 -0.006651872 -0.010551205 -0.029034272 0.030926244 -0.0027364567
-0.0016025166 -0.033932872 -0.03715664 -0.013352103 -0.012474662 0.0055791135 -0.0049904496 0.0032315257
0.0053810985 -0.032283332 0.019505866 -0.006421559 -0.021165127 0.013683787 -0.007629333 0.014996254
-0.0358781 -0.06739376 0.0039239773 0.023938341 0.00084284134 0.03261567 -0.0037295185 -0.013923082
-0.027072985 -0.014577643 0.033449594 -0.10002435 0.041330405 -0.04981734 -0.046915807 -0.02903764
0.021791859 -0.015617663 -0.010846779 -0.004482087 -0.06781706 0.0044252207 -0.0223074 -0.045685858
0.010074393 -0.0011151697 -0.032025207 -0.040364414 -0.0565753 0.016184334 -0.05616666 -0.0039820527
-0.0041458756 -0.049205333 -0.03534073 -0.040914707 0.011730689 0.008255284 0.008344123 -0.021353403
-0.021682784 -0.00947252 0.0022158185 -0.04101204 0.007254089 0.042809527 0.00979082 -0.019056711
-0.05345877 -0.0061955014 -0.03799079 -0.047985923 0.013156482 -0.0011124082 -0.0037078785 -0.054229397
-0.02840712 0.0036415579 -0.09414788 -0.0013897357 0.03311972 -0.04621883 -0.03530365 -0.05553817
-0.027656056 0.051103562 0.04295668 0.027333813 -0.011315469 -0.08343155 -0.026796855 -0.08791491
0.0044508916 0.02995941 0.0067289746 -0.05214473 -0.04757046 -0.020385826 -0.016846104 0.0073930593
0.019857405 -0.008685958 -0.016247164 -0.016391335 -0.027549978 -0.04308466 0.013029112 0.01948923
-0.042138416 -0.011465734 0.01223843 -0.029555723 0.05408792 -0.063510455 -0.035893474 0.012911859
00000000: 22ed efba d35f d5bc 6262 8dbd 6966 90bd
00000010: 8b3e f2bb aea3 d4ba f15b e73b 9390 863c
00000020: 882b 663d 86c0 c0ba d5da 29bd f2f7 d9bb
00000030: f6de 2cbc 48d9 edbc 0959 fd3c 2056 33bb
00000040: 890b d2ba 32fd 0abd 9031 18bd c7c2 5abc
00000050: 8662 4cbc ffd0 b63b ed86 a3bb 01c8 533b
00000060: ed53 b03b 873b 04bd c4ca 9f3c f16b d2bb
00000070: 7d62 adbc f631 603c 7cff f9bb d9b2 753c
00000080: eaf4 12bd bd05 8abd b594 803b 571a c43c
00000090: 20f2 5c3a 0298 053d f06a 74bb a31d 64bc
000000a0: 2ac8 ddbc 11d7 6ebc 7102 093d 91d9 ccbd
000000b0: 124a 293d 440d 4cbd ca2a 40bd 58e0 edbc
000000c0: d784 b23c 3ae1 7fbc b0b6 31bc 79de 92bb
000000d0: ace3 8abd 7101 913b 02be b6bc 1821 3bbd
000000e0: 110f 253c e32a 92ba dd2c 03bd 2855 25bd
000000f0: 80bb 67bd 0295 843c 030f 66bd e17b 82bb
00000100: 20da 87bb 888b 49bd 71c1 10bd 2e96 27bd
00000110: 1332 403c 2c41 073c cab5 083c 55ed aebc
00000120: 18a0 b1bc a132 1bbc 4437 113b 3efc 27bd
00000130: b6b3 ed3b 0b59 2f3d ad69 203c d21c 9cbc
00000140: 95f7 5abd a203 cbbb 3b9c 1bbd e38c 44bd
00000150: 498e 573c 3ace 91ba e1ff 72bb a51f 5ebd
00000160: 0cb6 e8bc 34a7 6e3b 9bd0 c0bd cb27 b6ba
00000170: 8ba8 073d f54f 3dbd 8f9a 10bd fe7b 63bd
00000180: f48e e2bc f851 513d 58f3 2f3d 29eb df3c
00000190: 8464 39bc 29de aabd 1485 dbbc bb0c b4bd
000001a0: c9d8 913b 706d f53c bb7e dc3b b695 55bd
000001b0: 3ed9 42bd 2d00 a7bc d700 8abc 7a41 f23b
000001c0: ffab a23c 8c4f 0ebc c618 85bc 1f47 86bc
000001d0: 7eb0 e1bc 8a79 30bd 0e78 553c e1a7 9f3c
000001e0: 5599 2cbd c6da 3bbc b283 483c d81e f2bc
000001f0: 4b8b 5d3d c511 82bd 0905 13bd 438c 533c

network_body.linear_encoder.seq_layers.2.weight f4 [128, 128]
-0.02541024 -0.08038195 0.1302959 0.08489912 -0.043860104 0.055045895 0.07044271 -0.13483454
-0.113173984 0.1099079 0.0667339 -0.06553806 0.049490105 -0.13715981 -0.008146141 0.08939984
-0.100425035 0.0009923155 0.017395696 0.020563627 0.12968947 -0.0063612736 -0.008962718 -0.06432676
-0.0057966565 -0.0096141305 -0.020231048 0.0028599966 -0.01612427 -0.27101734 -0.04810884 -0.014226765
1.8122031e-05 -0.13798074 0.0067929905 -0.009079158 -0.0045329155 -0.20298347 0.08375083 -0.07876229
0.08997028 0.03608504 0.16779765 0.0431775 -0.023019603 0.0821689 -0.023861283 -0.026468573
-0.009571596 -0.15722583 -0.24933921 -0.17479959 -0.0005221263 0.02202276 0.13169953 0.105540596
0.06832956 -0.00085803284 -0.025862917 -0.12993906 -0.105508655 -0.04084132 0.004484621 0.12760244
-0.07638658 0.20319916 0.2270902 -0.085692264 -0.22709346 0.028256075 0.0015948694 -0.15570548
-0.12851804 0.028774507 0.043677643 0.07217702 -0.06428469 -0.04259116 0.0588403 0.036266122
-0.077552974 0.06585939 -0.05092413 -0.033154674 -0.06668586 0.088479884 0.059551004 -0.0023066963
0.060601357 -0.024670877 0.1443773 -0.012288165 -0.07583349 -0.25381535 -0.04032983 0.05559182
0.21171924 0.00835891 0.024029698 0.014223393 -0.11795568 0.059952084 0.010860534 -0.08890433
-0.0074791037 -0.033944916 0.0596833 0.10018433 -0.0003071822 0.07558089 0.0054656495 0.058697674
0.037061743 0.07497218 0.13770929 0.05999779 -7.316695e-05 -0.11743006 -0.0013193754 0.1264776
0.008966732 0.045089547 0.035207372 -0.017573249 0.02566881 -0.28134695 0.0041127633 -0.0026283187
-0.040108863 -0.012668885 0.013231073 -0.05213786 -0.038670138 0.027848665 -0.018262448 -0.011642979
-0.04863445 0.06484868 -0.14971924 0.055494465 -0.16982715 -0.030597217 -0.08993714 0.27553108
-0.00077460695 -0.16304453 -0.15658398 0.03690884 -0.029143503 0.10830181 -0.13466182 -0.15166059
0.047121704 -0.026514808 0.066752106 0.052603472 -0.037515298 -0.055184383 0.08156903 -0.013798625
0.023146603 0.05675337 -0.1115432 -0.14228128 -0.059754524 -0.03202766 0.119999744 -0.2451307
-0.008012883 0.048796598 -0.028651888 -0.23256044 0.011792339 0.019732906 -0.038396854 0.13366498
-0.056042366 -0.06085789 -0.09388975 -0.028689098 0.11627494 0.035122894 -0.053830657 -0.024672253
0.019925084 0.15442847 -0.07759265 -0.14401862 -0.0931113 0.0003854777 -0.013471512 -0.09221157
-0.07469713 0.070518054 0.07517084 -0.06007007 0.05141555 0.1024312 0.0068302657 -0.08386035
0.028825453 -0.099581435 0.08899269 0.037156064 0.13924123 -0.090004444 0.08561883 -0.0912899
-0.16270897 -0.15984955 0.008893491 -0.083604574 -0.036957156 -0.1540974 -0.17239729 -0.1681599
-0.099124 -0.076014504 0.043374427 -0.05743067 -0.21044417 0.048211716 -0.09156505 -0.02492853
0.028757041 -0.043951903 0.050008062 -0.19890715 -0.12877259 0.033792812 -0.2148278 -0.03192245
0.030303838 0.0997952 0.01480654 -0.009276831 -0.115378164 -0.058706455 -0.16849114 -0.082144305
-0.010441507 -0.1637643 0.01674417 -0.01943627 0.03992393 -0.15411165 0.019730944 -0.010942792
-0.06774263 -0.053372573 -0.071003154 -0.21802346 -0.02886518 -0.15895529 0.053527236 -0.089025326
00000000: 2329 d0bc 4b9f a4bd 4a6c 053e 97df ad3d
00000010: a7a6 33bd ce77 613d 4444 903d 1112 0abe
00000020: c3c7 e7bd 6517 e13d c8ab 883d d238 86bd
00000030: 23b6 4a3d 9f73 0cbe 6477 05bc 4317 b73d
00000040: a4ab cdbd 9510 823a 6b81 8e3c 0d75 a83c
00000050: 51cd 043e 3b72 d0bb 5dd8 12bc c0bd 83bd
00000060: e1f1 bdbb 9684 1dbc 95bb a5bc c86e 3b3b
00000070: 0c17 84bc c9c2 8abe c60d 45bd 6117 69bc
00000080: c404 9837 d34a 0dbe bc97 de3b c0c0 14bc
00000090: da88 94bb e6da 4fbe 8e85 ab3d 204e a1bd
000000a0: 5742 b83d e8cd 133d 26d3 2b3e e4da 303d
000000b0: 9b93 bcbc 2b48 a83d bd78 c3bc 9fd4 d8bc
000000c0: 2fd2 1cbc cfff 20be c752 7fbe aafe 32be
000000d0: 4edf 08ba 1369 b43c 3edc 063e ab25 d83d
000000e0: 5ef0 8b3d 9ced 60ba 78de d3bc bf0e 05be
000000f0: ec14 d8bd 3a49 27bd baf3 923b 37aa 023e
00000100: 9170 9cbd 7113 503e 558a 683e 6d7f afbd
00000110: 308b 68be 4979 e73c f00a d13a 4271 1fbe
00000120: 3c9a 03be 84b8 eb3c 54e7 323d 8cd1 933d
00000130: b1a7 83bd 1174 2ebd 8702 713d c98b 143d
00000140: 18d4 9ebd 4ae1 863d d295 50bd 32cd 07bd
00000150: 9992 88bd f134 b53d c1eb 733d f12b 17bb
00000160: 2139 783d 941a cabc a5d7 133e 4d54 49bc
00000170: 974e 9bbd 16f4 81be e430 25bd 40b4 633d
00000180: eecc 583e cff3 083c eed9 c43c 3c09 693c
00000190: bf92 f1bd 5190 753d 62f0 313c 7913 b6bd
000001a0: 4513 f5bb d309 0bbd 7a76 743d 712d cd3d
000001b0: 4c0d a1b9 27ca 9a3d 3119 b33b f96c 703d
000001c0: 0ece 173d 048b 993d aa03 0d3e 3ec0 753d
000001d0: 3571 99b8 2c7f f0bd e4ee acba 5883 013e
000001e0: 33e9 123c d1af 383d 9b35 103d c6f5 8fbc
000001f0: 6547 d23c b50c 90be 5cc4 863b df3f 2cbb
00000200: 3149 24bd 2891 4fbc 24c7 583c 828e 55bd
00000210: 9464 1ebd e222 e43c 219b 95bc 32c2 3ebc
00000220: eb34 47bd 62cf 843d 0050 19be 2a4e 633d
00000230: 2be7 2dbe 04a7 fabc f730 b8bd 6912 8d3e
00000240: fe0e 4bba 25f5 26be 8d57 20be b92d 173d
00000250: 5bbe eebc 57cd dd3d cae4 09be ea4c 1bbe
00000260: b002 413d 9535 d9bc 54b5 883d bd76 573d
00000270: a4a9 19bd 0509 62bd aa0d a73d a113 62bc
00000280: f29d bd3c 3976 683d c370 e4bd 2fb2 11be
00000290: 29c1 74bd 702f 03bd 6dc2 f53d 8b03 7bbe
000002a0: 7848 03bc f1de 473d 5db7 eabc 5324 6ebe
000002b0: a834 413c e7a6 a13c 0546 1dbd 79df 083e
000002c0: ae8c 65bd 1f46 79bd 4549 c0bd 6605 ebbc
000002d0: 8e21 ee3d 06dd 0f3d 897d 5cbd 771d cabc
000002e0: ee39 a33c 7f22 1e3e e5e8 9ebd 9e79 13be
000002f0: 23b1 bebd f119 ca39 9eb7 5cbc 6bd9 bcbd
00000300: cffa 98bd c56b 903d 2bf3 993d 090c 76bd
00000310: 1d99 523d 73c7 d13d 6cd0 df3b fabe abbd
00000320: 5b23 ec3c 5af1 cbbd cd41 b63d f530 183d
00000330: 4195 0e3e 4054 b8bd ed58 af3d 33f6 babd
00000340: 2e9d 26be 9aaf 23be 01b6 113c e038 abbd
00000350: 6360 17bd b5cb 1dbe ea88 30be 1c32 2cbe
00000360: 8601 cbbd 7ead 9bbd 62a9 313d 6c3c 6bbd
00000370: ad7e 57be a679 453d 7586 bbbd eb36 ccbc
00000380: e393 eb3c e906 34bd 41d5 4c3d 51ae 4bbe
00000390: f6dc 03be 556a 0a3d d2fb 5bbe 1dc1 02bd
000003a0: c13f f83c 6d61 cc3d 2197 723c d9fd 17bc
000003b0: 634b ecbd 2e76 70bd f188 2cbe 463b a8bd
000003c0: db12 2bbc d4b1 27be 122b 893c d038 9fbc
000003d0: 4687 233d 72cf 1dbe caa2 a13c 6549 33bc
000003e0: a6bc 8abd 339d 5abd 1a6a 91bd 8b41 5fbe
000003f0: ac76 ecbc 2dc5 22be 603f 5b3d e952 b6bd
