Project/Assets/MyProject/Chaser/Chaser Vs. Runner 2/brain2/RunnerBrain.onnx (onnx, 440754 bytes, 6 tensors)

action_model._discrete_distribution.branches.0.bias f4 [7]
00000000: 4ea6 a03c 77d4 69bd 3dc6 3cbd 47fd 223d
00000010: 1855 823c 6115 81bd 7c4f d73b
0.01961055 -0.057087388 -0.046087492 0.039792325 0.015909716 -0.06302906 0.0065707546

action_model._discrete_distribution.branches.0.weight f4 [7, 256]
00000000: 34da a63b 6263 29bc e479 1a3d d4f7 9ebb
00000010: 1312 87bc 620b 963c 2c84 8cbb 7f57 9d3c
00000020: 5000 f03c 60d0 c63c c746 1f3d b9b2 58bd
00000030: 1671 efbb 33d6 03bd 0f1a 03bd a30d 2ebd
00000040: b8e9 c93c 2109 1d3d 8804 8fbc 3ed2 25bd
00000050: 95c6 523d d08a 633d 8d56 503d 589d 333d
00000060: d79b 38bc cd07 18bb e443 883c f534 0ebc
00000070: 7605 4e3d 7e57 f7bc cc59 15bd 0adc 77bd
00000080: f46e 183d 53e1 e2bc d74f 0d3c bd3d d73b
00000090: ab80 febc 83ee 49bd 5461 32bc 3dcc 8d3c
000000a0: e628 0d3d fd1c 2f3c ddf6 883d b02d 4c3d
000000b0: c440 3f3c 80f0 82bd 0784 e73c aa81 35bd
000000c0: db2b 37bc 94a3 533b c4aa 1bbd dcf1 9bbb
000000d0: 03f7 91bd 4c75 48ba 6bde cbbb 4104 86bd
000000e0: 933b cebc 5837 3d3d 9e30 4e3d 4972 2d3b
000000f0: 667e 32bd 02a9 b6bd 6fa2 093d 985c 4bbb
00000100: bf4c 45bc 3141 5abd 7645 0f3c 4a09 04bd
00000110: b24c 8ebc d079 9e3b 762b 263d d95a 09bc
00000120: 1ff4 febb e068 0c39 340d d03c 0d30 733d
00000130: 385d 5ebd b22b 333d 7581 babc 303c 393c
00000140: c7e9 f33c 5205 6eba 2cf5 523d 4263 5bbb
00000150: ef60 d63c b974 263d bc85 1b3d 9f6c c33c
00000160: 1af5 69ba 9a3a 973c ce29 01bc 9147 93bc
00000170: 9cc6 02bc db79 f0bb 25b9 923c e8fc a5bc
00000180: a890 373d bb52 133d 4e0f 9dbc 72a1 073d
00000190: bb9d e2bc 6946 b4bc 0753 d83a 8d09 bcbc
000001a0: 8078 543c e005 143d 5ff5 533c c7af a73c
000001b0: 6ef4 053d 5327 96bc 445c 163c c0c4 883c
000001c0: 9f22 ce3c 28c3 593c dde5 b2bc a180 363d
000001d0: f772 4e3d 8b8b dc3a 0f59 e8bc 3b79 4bbd
000001e0: a866 323d 448b 8cbc 348c 433c 8748 173c
000001f0: 83bb 603b 00f6 3cba 1fda 423d 495d 6bbc
00000200: 9fa5 1c3d 6aea 26bc 5084 13bd 9685 1f3d
00000210: 1228 acbc 00f2 c5bc 1267 0dbd 0664 febc
00000220: a7fd 26bd d0b9 273b debd d53c f422 583c
00000230: 1bff 5f3c efe7 903c ad0a 9e3b 68c6 1a3d
00000240: a93a d73c b4e4 0d3d 74e9 5ebc a626 cbbc
00000250: a68d 4d3d 4982 bc3c 0ec4 353d 9226 393d
00000260: 555f 1abc cc91 dcb7 a1b3 c63b 967b 333d
00000270: 08c9 013c 58f6 063d de7c f53b 3c59 103d
00000280: 86d7 21bc b1ed 0a3d abdf 233d e5d3 e23c
00000290: 0ece c33b 2758 99bc f993 26bd d7b3 4d3d
000002a0: e9ba af3c 96b2 1e3d d3d9 45bd 7c6e 04ba
000002b0: f60b 753c 1341 ed3b a99c 4bbd 5a6f 473d
000002c0: 8492 0abd a0cf c23b 94b2 95bc 830e a7ba
000002d0: 9368 93bd 8899 133d 438b eabc 954b 0d3c
000002e0: e076 753d 46af 0d3d f6cc 523d ac94 3b3d
000002f0: e903 4fbc 67b6 2b3d 13ff 4cbd 5822 1f3d
00000300: 0b1b 1c3c db24 91bd 45e0 2c3d de7a dcbb
00000310: c2c5 e93c 5f98 08bd ce4c 563d 82ab 53bc
00000320: a180 89bc b06f c93b 026b 96bc b4d5 293d
00000330: 0f2c e8bc b4dc 783d 278f 243d ceff 3339
00000340: fb01 50bb 77ef f9bc d693 62bc ff83 c0bb
00000350: 2c18 4f3d 3a78 2739 1d68 313d 6e76 07bd
00000360: 8cc3 783d d297 2c3d 5f79 033d 9ea3 143b
00000370: f16f 4f3d 4b24 563d 6d8e 90bc ad5c 463d
00000380: 0bf3 383d 5e58 353d 431a 003c e764 d2bc
00000390: 4cdc 36bd 3db1 4dbc b233 8cbc eed9 c53c
000003a0: de58 edbc 4555 2abd d66f 97bb ef44 1a3d
000003b0: b2e3 1fbc 6ba1 4c3d 27ae 843c 2bb9 0cbd
000003c0: befc 63bd 7959 2bbc 050f 90bd 588f 99bb
000003d0: a737 8b3d 6a4b 063d e745 54bd 48c0 c73c
000003e0: 5dd5 35bd b772 893c 7b40 983c 9a1b 473d
000003f0: d7b6 703c 9547 e9bc caf5 173d b7be daba
0.00509193 -0.010338636 0.0377139 -0.0048513208 -0.01648811 0.018315975 -0.004288217 0.01920676
0.029297024 0.024269283 0.038885858 -0.05290482 -0.007307182 -0.0321867 -0.032007273 -0.042493474
0.024647579 0.038338784 -0.017458215 -0.040483706 0.051458914 0.055552304 0.05086379 0.043851227
-0.011267624 -0.002319801 0.016633935 -0.008679618 0.050298177 -0.030193087 -0.03646259 -0.06051258
0.03721519 -0.027695334 0.008624992 0.006568639 -0.031067213 -0.049299728 -0.010887463 0.017309302
0.034462832 0.010688064 0.066877104 0.04984826 0.011673156 -0.06393528 0.028261198 -0.04431311
-0.01117989 0.0032293545 -0.03800465 -0.0047590565 -0.07127192 -0.0007646873 -0.0062215826 -0.0654378
-0.025174892 0.046195358 0.050339334 0.0026465824 -0.043577574 -0.089189544 0.033602174 -0.0031030532
-0.0120422235 -0.053284828 0.008744588 -0.03223542 -0.017370556 0.0048362985 0.04056879 -0.008383476
-0.0077805663 0.0001339051 0.02539692 0.059371997 -0.05428812 0.043742843 -0.022766808 0.011305854
0.02977456 -0.0009079772 0.051503345 -0.003347591 0.026169268 0.04063866 0.037969336 0.023855506
-0.00089247676 0.01846056 -0.007883502 -0.017978461 -0.0079819225 -0.007338745 0.01791055 -0.020262197
0.04481569 0.03596757 -0.019172337 0.03311295 -0.027663102 -0.02200623 0.0016504236 -0.022953773
0.012968183 0.036138415 0.012936919 0.02046956 0.03270381 -0.018329298 0.009177271 0.01669538
0.025162993 0.013291158 -0.021838123 0.044556264 0.050402608 0.0016826255 -0.028362779 -0.04967616
0.043554932 -0.01715625 0.0119352825 0.0092336 0.0034291453 -0.0007208288 0.047571298 -0.014365503
0.038243886 -0.010187725 -0.036014855 0.038945757 -0.0210152 -0.024163246 -0.034522124 -0.031053554
-0.040769245 0.002559293 0.026091512 0.013191927 0.013671662 0.01768872 0.00482305 0.03778687
0.026273089 0.034641936 -0.013605464 -0.024798702 0.050183915 0.023011344 0.044376425 0.0452028
-0.009422143 -2.6293936e-05 0.006063894 0.043819033 0.007921465 0.032949775 0.007491692 0.03524135
-0.009878045 0.033918086 0.04000823 0.02768893 0.0059754914 -0.018718792 -0.04066846 0.050220337
0.02145143 0.03874453 -0.048303436 -0.0005051864 0.014956465 0.0072404235 -0.04970995 0.048690178
-0.033831134 0.005945161 -0.01827363 -0.0012745414 -0.0719768 0.03603509 -0.028630858 0.008623977
0.05992782 0.034590982 0.051464997 0.04579608 -0.01263521 0.041922 -0.050047945 0.038851112
0.009527932 -0.07087108 0.042206068 -0.006728514 0.028536681 -0.033348437 0.05231934 -0.012919309
-0.016784968 0.0061473474 -0.018361572 0.04146357 -0.028341321 0.060757354 0.040175583 0.00017166065
-0.0031739462 -0.030509694 -0.013829192 -0.00587511 0.05056016 0.00015971149 0.04331218 -0.033071928
0.060733363 0.042136975 0.03209817 0.0022680531 0.050643865 0.052280705 -0.017646039 0.048428226
0.04515366 0.044273727 0.007818761 -0.02568288 -0.044643685 -0.012554464 -0.017114494 0.024151769
-0.02897304 -0.041585226 -0.004621486 0.037663396 -0.009758877 0.049958628 0.016196324 -0.034356277
-0.055660956 -0.010458344 -0.07034115 -0.0046862774 0.06797724 0.032786764 -0.051824477 0.024383679
-0.044392932 0.016778333 0.018585434 0.048610307 0.01469203 -0.028476516 0.037099637 -0.0016688918

network_body.linear_encoder.seq_layers.0.bias f4 [256]
00000000: e27e 0fbc 0212 e23b 184b bd3b 858e 9fbb
00000010: c144 b03c 39c7 c53c 75ae 553c cba6 2b3d
00000020: 8161 5dbb b7d2 883c 5a28 f53b 1307 f63c
00000030: ae9a 123d e946 2dbc 1060 023c de0c 843c
00000040: 80fa 7b3c 0ea3 babb 7a5f c43b 4792 ef3c
00000050: 75be 913b ab1b 2039 989f bdbb 1698 403c
00000060: 4881 15bc 95df 093d 5175 923c 8a7f b53b
00000070: 7358 dfbc 2c38 423d df6a 67bb 0e5a 073d
00000080: 7319 0a3d 5721 4abc f525 403d 4693 363d
00000090: 9c61 2b3c b723 413c f343 593c e20a e43c
000000a0: ede6 be3b 7f43 173d 8007 613c 59b8 b13c
000000b0: 224c 3abc 8db5 b23c 1658 a9bb ed98 f73b
000000c0: 8a28 d0bb 71c5 763c 63a2 8a3c 6608 8b3c
000000d0: 9e0c 52bb 96e8 633c 6b87 d73c 0f66 8cbc
000000e0: d473 513c 6530 bc3a 7e1f 343c f0a8 b5ba
000000f0: 835d 68ba 2aee 08b9 1e27 d63c b971 e1bb
00000100: 6e5a dd3c 0f81 d53c b0dd 9a3b 6632 0c3d
00000110: 56f7 563c 2abd 233d 9005 d63c 6d57 963c
00000120: e1e8 b73c b21b e53c ab8e c93b a67b 173c
00000130: aa02 4cbc e85d c53c ac7e 333d b8ae 75bc
00000140: 1c15 243c e250 803c dc12 743c 639c 0e3c
00000150: f188 853b 0a83 b03d c1b6 b63c 4d0f 1b3d
00000160: 6d06 083c 3728 00bc d2d6 94b9 68a7 89bc
00000170: 04d2 b53c 380f c53c 3778 783d 7c1c 1d3d
00000180: 564b 153d 8c64 abbc 5789 cc3b 9419 af3c
00000190: 7fcc c93b 95a1 9e3c a0f0 d93c 7500 773d
000001a0: 4be8 16bc 3cf8 9f3a f897 953c eb2e c5bb
000001b0: 30a5 22bc 7699 cb3b 215f db3c 3deb e53b
000001c0: 509c 383b 0a66 32bd 6b87 ef3b e368 ddbb
000001d0: 8ad0 9b3c fb75 95bc dfa0 0e3c 9d4c 853c
000001e0: e434 f0bb b783 083d 58bf 3a3b 604e b2ba
000001f0: 18e1 8d3c 1353 50bb 0b3c 1cbc cb03 053c
00000200: b371 073d 3dc2 283c 95d3 f5ba 0b3d 083c
00000210: 9d17 9c3c 13c6 133d 53fb 97b9 0b07 113c
00000220: 9cb3 9bbc d8e3 2c3c 381e 7e3a 614a 833d
00000230: 250c 22bc 2308 083c c37c d43c de38 cb3b
00000240: 8c02 373a 37d2 953c 1045 a03b 3723 0c3d
00000250: dea7 1a3d 3173 b4ba 1f65 a73c 7ac5 48bb
00000260: 5b56 023d 121d 0fbc e1dd b63c 0cd6 c63b
00000270: 0dc2 2b3b 9201 e83c b967 3239 6d4c 0f3c
00000280: a977 8f3c d78b ae3c d34a 9a3c 6a39 d0bc
00000290: 975f 0ebb 9b2c 88ba 0c65 213c 3734 e43c
000002a0: 7e89 483c 462d 833c c730 52bb 3aad 25ba
000002b0: 86e2 88bc 3365 88bb c854 013b ef30 9aba
000002c0: 8c0b e83c 2d0a 663c ecef cf3c ba4f 183b
000002d0: 8a5d 013c 2dfc 003b 6c32 bf3c c1f8 613b
000002e0: 23cb 693c 95e9 ca3c f615 9c3c e9e1 133c
000002f0: b0e8 ad3c a032 083d 2d1d ee3c 0a20 9bbb
00000300: dd0d 343c c552 433d a5f6 7b3d 1982 c03c
00000310: dd29 8a3c cf3f 09bb 487d c33c cb61 ec3b
00000320: 0a05 b13b 7454 99bb 255a 163c 76e6 023c
00000330: be7c a7bb 7b6a 203c 35d0 0ebc 0223 98b9
00000340: 84da 8c3c b062 003d c839 603d d943 053d
00000350: 53fb ddbb e32a 503c 871c 823c 2a67 f0b9
00000360: 0336 223c 848a 4abb 83a3 af3c 2898 f63c
00000370: f89c 013c 90b1 c63c 747c bd3c 82a6 953c
00000380: 3a37 633c ad7e 7e3c 8a95 9b3c 7216 9ebc
00000390: 35cf 143c bd3d 233c 9244 2ebb 25bf c73c
000003a0: a49e 973b e22d 423c ebd1 e53b 875b aa3b
000003b0: a411 793c 7d00 463d 1d9a d53a c868 513c
000003c0: 9903 f63c 7bf5 74bc 10ba 0cbd bf89 013c
000003d0: 0584 263d b208 983c f29a 213d 86db b53c
000003e0: 5edf f73c 14ea 8c3c 74bd e63c dfc7 063d
000003f0: 102a 0c3c b6c1 933c a219 083b 0f4b e7bc
-0.008758279 0.0068991194 0.005776774 -0.0048692846 0.02151716 0.024142848 0.013042082 0.041907113
-0.003378004 0.01670204 0.007481617 0.03003267 0.035792045 -0.010575988 0.007957473 0.016119417
0.015379548 -0.005695707 0.005992827 0.029244555 0.004447753 0.00015269096 -0.0057868473 0.01175501
-0.009125061 0.03366049 0.017878206 0.0055388855 -0.027263856 0.04741685 -0.0035311503 0.033044867
0.033715677 -0.01233705 0.0469112 0.044574045 0.010460284 0.0117883 0.013260829 0.02783722
0.0058258683 0.036929604 0.013734698 0.02169435 -0.011370691 0.021815086 -0.0051679714 0.007556072
-0.006352489 0.015061722 0.016923135 0.016971778 -0.0032050977 0.013910433 0.02630969 -0.01713851
0.012783963 0.0014357684 0.010993836 -0.0013859551 -0.0008864032 -0.00013058694 0.0261417 -0.006880012
0.02702066 0.026062516 0.0047261342 0.03422775 0.013120493 0.039975323 0.0261257 0.018352235
0.022449913 0.027967308 0.0061510406 0.009245789 -0.012451807 0.02409263 0.043821976 -0.0149952695
0.0100147985 0.015663568 0.014897075 0.008704278 0.0040751626 0.08618744 0.02230394 0.03785639
0.008302313 -0.007822088 -0.00028388813 -0.016803458 0.02219487 0.024055108 0.06066152 0.038357243
0.0364488 -0.020921968 0.006241958 0.021374501 0.006158411 0.019364158 0.026603997 0.06030317
-0.009210656 0.0012204717 0.01826094 -0.006017556 -0.009927079 0.0062133623 0.02677876 0.007016568
0.0028169341 -0.043554343 0.0073098443 -0.0067568882 0.019020338 -0.018244734 0.008705347 0.016271884
-0.007330524 0.033328738 0.0028495397 -0.001360368 0.017319247 -0.0031787797 -0.0095358 0.00811858
0.033067416 0.010300216 -0.0018755073 0.008315335 0.019054228 0.03607757 -0.00028988215 0.008851777
-0.019006543 0.010552369 0.0009693834 0.06410671 -0.009890591 0.008302721 0.025938397 0.0062018475
0.00069812755 0.018288715 0.0048910454 0.03421327 0.037757747 -0.001376724 0.02043396 -0.0030635283
0.031820636 -0.008734958 0.022322597 0.006067997 0.0026208193 0.028321061 0.00017014043 0.008746249
0.017513113 0.021306915 0.018834507 -0.025418002 -0.0021724456 -0.001038927 0.009850752 0.02785693
0.012239812 0.016012799 -0.003207253 -0.0006320063 -0.016709577 -0.0041624545 0.0019734371 -0.0011763851
0.028325818 0.014040512 0.025382958 0.002324088 0.007895837 0.0019681558 0.023339473 0.0034480544
0.014269623 0.024769584 0.01905344 0.009026029 0.021229118 0.033251405 0.029066646 -0.004734044
0.010989633 0.047686357 0.061514515 0.023499535 0.016865665 -0.0020942574 0.02386345 0.0072138063
0.005402212 -0.004679257 0.009176766 0.0079895165 -0.005111306 0.009791012 -0.008716633 -0.00029017782
0.01719404 0.031344116 0.054742604 0.032535408 -0.006774345 0.0127055375 0.015882744 -0.0004585323
0.009900573 -0.0030905316 0.021440273 0.03010185 0.007910959 0.02425459 0.023130633 0.018267874
0.0138681475 0.015533132 0.018992204 -0.019297812 0.009082605 0.00996345 -0.0026591164 0.024383137
0.0046270657 0.01185176 0.0070135496 0.005198899 0.01520196 0.04834031 0.001629654 0.012781329
0.030031012 -0.014951105 -0.03435713 0.007906376 0.040653247 0.018558834 0.039454408 0.022199403
0.030257877 0.01720146 0.02816651 0.032905456 0.00855495 0.018036705 0.0020767231 -0.028234033

network_body.linear_encoder.seq_layers.0.weight f4 [256, 163]
00000000: a966 0bbe 7921 913d 5e2c 9dbd 4d2c 033e
00000010: 3fe1 a43a 4a21 96bc 5b83 28bd c0a4 563d
00000020: 550f aabd 40ca 0b3e 7734 1a3d 0a46 d43d
00000030: 704c 37be ee6a 0c3c c07c 63be 4811 afbd
00000040: cff9 453e e415 d63c db1d d0bd b6e4 ff3d
00000050: 1561 89bd eb70 56bd c4b5 ccbd 35e5 34bd
00000060: 3fcd 42be bee8 f63c 98b6 c93d c82b b6bd
00000070: f971 183e ecf0 1a3e 5c60 cf3d 3a06 b03d
00000080: 87ab 09be 5f0a 9abe cc59 32be afc4 27bd
00000090: 5434 0ebd 29f5 a4bd 0afa 1bbd 0a44 a8bb
000000a0: 1c97 06bc 0b4d 263e 46ec b0bd d156 733d
000000b0: 6a3c 113d a90a 8a3c 401b efbd 30a3 6bbd
000000c0: 98b1 063d 73be e0bc f548 0d3e 268b 3ebe
000000d0: 62d1 54bd 91aa 86bc c502 a4bd 526f fe3c
000000e0: f55f 0dbe ad10 4ebd ebf5 89bc 5daf a1bc
000000f0: b07e 2dbd 6e6b f63c d04d 7a3b cfd1 31be
00000100: 4477 6c3d 04fa c23c 2978 043d 4065 29bd
00000110: 7e93 08bd 8589 11bd 2484 e43d c7c2 f4bd
00000120: ecba 063e 0f3b 5e3d f1f0 23be b1e8 f1bd
00000130: c452 babd 2fa3 e53c 1cf5 33be af43 7f3d
00000140: 9b31 053d 26cc fb3c 407d 433e cd62 2e3d
00000150: 23bd c3bb 4c94 81bd 9d1d 30bd 688b 8abd
00000160: 1dd1 50bd 4363 053a 4efc bebd 98b2 063e
00000170: 4364 eb3d 41af d3bd 0aec 38bd 882f 9a3d
00000180: 1400 293e 64bf 3f3d 14b7 81bd 6676 77bd
00000190: b4e6 403c d9b2 32be c2d0 42bd 035a fb3d
000001a0: 2adb 3fbc 8dd6 ae3d 390f 1abe f7a2 003d
000001b0: 4239 38be cf3d 8fbd 4fe6 8cbd 6b13 c4bd
000001c0: 9506 5d3e ae0b 743c 220d c93b d84d ed3d
000001d0: a470 99bd 620a 22bd 8707 babd 3c24 b93d
000001e0: 7e24 da3c 605c 533d 1ca3 263e efae 4e3d
000001f0: 6161 6a3d 4f14 65bd 5be0 84bc ec93 da3d
00000200: be6e 7b3b 84d5 59bd 737f 1b3d e495 1c3e
00000210: 8ac1 98bd b569 dd3d 6dec 2bbd d1de 6cbc
00000220: 091d 45bd 4111 8bbd 6a79 893d be98 643d
00000230: 580c bcbd 8f67 22bd 765e 8bbc 1102 bb3d
00000240: e6bd 853c ec7a 363d b533 0dbe 9f07 c0bd
00000250: d3fb 773d c1dc a9bd 62f9 c93c 34b9 86bc
00000260: 1ea5 00be 3dad 15be 4b81 e93c a134 543d
00000270: 51c8 4c3d 71e0 99bc ec75 15bd 2e6b 103d
00000280: 6da0 0cbe f39f afbd 0b1a adbe 4738 83bd
00000290: a6aa e1bc 2609 673c 42b9 e23d c23c f93d
000002a0: a6f1 093e a97a f8ba b152 81bd 8a2c 55bc
000002b0: 83d3 9abc 7893 e73d 92bd ebbd a7f0 cc3d
000002c0: 5092 80be 39a9 2dbd 3c26 22be 9bbe 763e
000002d0: 8a07 223d 1735 cebc ff16 91bd c056 953a
000002e0: 09a5 173d fb09 043a e347 2c3d 9e01 c73d
000002f0: ce2c febd 8f16 84bd 8eac 033d 736b 323e
00000300: 2359 763d 3c5b 913d 736b 773c 745c e9bd
00000310: f3d4 913d bf8b 2a3d dcd7 c53d 701c 5d3d
00000320: 9876 cc3d 53e0 35bd 7e3c bfbd 1fe8 2fbd
00000330: 8c97 bb3d 8412 62bd b9ca 37bd 1ddd 413e
00000340: ca31 49be f2ae 243d 8939 553d 8ebe 01bd
00000350: fb3c f93d a4a1 e13c 0444 163b dd30 6abd
00000360: 7980 ca3b 8e45 a13c a2b2 7c3d 3586 87bd
00000370: 08c7 42bd bb68 dc3c ace7 463d 0d49 90bd
00000380: d044 b23c 30a3 1f3c f466 b8bc b54e 49be
00000390: b3e0 a13d 2fd8 0ebe 9b79 62bd 6279 a53c
000003a0: f21b 09bd 756e 443e 92af e5ba 603d dabd
000003b0: cb69 3b3e 3131 813d afe6 443e 1d7e 3bbe
000003c0: cc80 4e3d 3dac b9bc 31f7 8a3d c525 a13c
000003d0: 5437 aa3d 8f69 edbd ec3d 7b3c 1b75 47bd
000003e0: 8a5c 94bc 141a a43d a311 f83d 2ee9 cebd
000003f0: e4f2 b53d 39fc c03d c674 b0bd 9627 bfbd
-0.1361338 0.070864625 -0.07674478 0.12809868 0.0012579336 -0.01832642 -0.041140895 0.05240321
-0.083037056 0.13651371 0.03764769 0.103649214 -0.17900252 0.008570416 -0.22215557 -0.08548218
0.19333576 0.026133485 -0.101619445 0.12494795 -0.0670797 -0.05235378 -0.099956065 -0.0441639
-0.19023608 0.030140277 0.0984928 -0.08895069 0.14887227 0.15130967 0.10125801 0.085949376
-0.13444339 -0.30086038 -0.17417067 -0.040959056 -0.034717873 -0.08054573 -0.038080253 -0.005135064
-0.008214738 0.16240327 -0.086388156 0.059408966 0.035458006 0.016850786 -0.116751194 -0.057528675
0.03288421 -0.027434563 0.13797362 -0.18607768 -0.051957496 -0.016438754 -0.08008341 0.031058941
-0.13806136 -0.050308872 -0.016840896 -0.01973694 -0.042357147 0.030080523 0.0038193353 -0.17365192
0.057730928 0.023800857 0.032341156 -0.041356325 -0.033343785 -0.03553154 0.11158016 -0.11951213
0.13157243 0.05425554 -0.1600988 -0.118119605 -0.090978175 0.028031914 -0.1757397 0.062320407
0.03251801 0.030736994 0.19090748 0.042574693 -0.0059734746 -0.063271135 -0.04299699 -0.06764871
-0.050980676 0.00050883385 -0.09325467 0.13154066 0.11493733 -0.103361614 -0.04514698 0.07528597
0.16503936 0.046813384 -0.063337475 -0.060415648 0.011773754 -0.17451037 -0.04756237 0.12273028
-0.011709968 0.08537016 -0.1504487 0.031405415 -0.17990592 -0.06994211 -0.068798654 -0.09574016
0.21584542 0.014895363 0.0061355988 0.11587113 -0.074921876 -0.039560683 -0.09083467 0.09040114
0.026628729 0.051601768 0.16273159 0.0504598 0.057221774 -0.05592757 -0.016220262 0.10672745
0.0038365568 -0.05318214 0.037963342 0.15291554 -0.0745879 0.10811178 -0.04197352 -0.01445742
-0.048123393 -0.067904 0.06712611 0.05580973 -0.09182042 -0.039649542 -0.017012816 0.091312535
0.016325902 0.04455082 -0.13789256 -0.093764536 0.060542893 -0.082940586 0.024655048 -0.016445734
-0.12562987 -0.14616866 0.028504035 0.051808003 0.049995724 -0.01878378 -0.036489412 0.035258465
-0.13733073 -0.0857543 -0.33808932 -0.064072184 -0.027547192 0.014101302 0.110704914 0.12169792
0.13471088 -0.0018957454 -0.063146 -0.013011107 -0.018899685 0.11307424 -0.11510767 0.10006838
-0.25111628 -0.04239771 -0.15834898 0.24096148 0.03955797 -0.0251718 -0.07084464 0.0011393651
0.037022624 0.00050368876 0.042060744 0.09717105 -0.124108896 -0.06449615 0.032146983 0.17423801
0.0601436 0.0709748 0.0151013015 -0.11394587 0.07120695 0.04163718 0.096603125 0.0539822
0.099835575 -0.044403385 -0.0933771 -0.042945977 0.09159765 -0.05519344 -0.044871066 0.18932004
-0.196479 0.040205903 0.052056823 -0.031675868 0.12169834 0.027542897 0.0022928724 -0.057175506
0.006179866 0.019686487 0.061693795 -0.06617395 -0.047553092 0.026905408 0.048560783 -0.07045183
0.021761328 0.009743497 -0.02251003 -0.1965893 0.07904186 -0.13949655 -0.055291753 0.020199481
-0.033473916 0.19182761 -0.0017523638 -0.106562376 0.18302076 0.06308211 0.19228624 -0.18309827
0.0504158 -0.022665137 0.06785429 0.01967133 0.08311334 -0.11592399 0.015334588 -0.048695665
-0.018110532 0.080127865 0.12112739 -0.10103069 0.08884218 0.09423108 -0.08616023 -0.09333722

network_body.linear_encoder.seq_layers.2.bias f4 [256]
00000000: df25 a1bc 0980 823c a7b7 0d3d 9632 80bd
00000010: 4db1 efbc 9ee1 92b9 bc7f 39bd 753c 573c
00000020: c041 b53c 5593 9dbc 507f 163c a67e 2abc
00000030: d8cf 34bb b149 bd3a b519 3fbd 9268 143b
00000040: 0198 863c 412a e0bc 80f3 32bc 91d8 c7bc
00000050: ceda c13a 3620 f73b db8c 9f3c 34b9 cb3c
00000060: 4f35 a0bc f14d 3f3c cf7c 6e3c 6783 843c
00000070: 72f9 583c a7c6 29bc 4b0c e2bc b988 e53c
00000080: bdb4 c13b ff43 8ebc 5d46 86bc 72d2 f1bb
00000090: dacd 0cbd 820a 2d3b a08c 5b3c 6c73 043c
000000a0: 3eaa 97bc 7e07 c43b 93b4 a53b 4ec6 e53c
000000b0: ce64 b93b c896 7e3c 0a6f 833c 969b 94bb
000000c0: ba84 b6bc 89ae f6bb 4544 e53c ee13 13bc
000000d0: 7017 053c 070d 75bd d617 dd3c a447 a53c
000000e0: 25f9 09bd 4ef0 253c 91d3 013d b5d2 0bbd
000000f0: 826a b0bc 60a2 f53a e3eb d63c 72e8 7abc
00000100: 2ee9 863b cf21 19bc 491c 023c 4cc1 603b
00000110: 5595 04bb af74 133d 286b 073d ef1b b03b
00000120: 5d3d 94bd 1aa9 c9bc f926 b13c cee0 363c
00000130: f951 e53b ef39 54bc 9f2d 723c 851e bd3c
00000140: 6373 7f3c 3d50 d0bc 76df 0f3d 8a02 bbbb
00000150: 297b 923a 119d 913d 747f 93bc e230 e93c
00000160: 311e 08bd d0da 033d c3f0 c13b 7395 7dbb
00000170: 2024 cebb 04f6 293c 587f b4bc dfdf 753c
00000180: b5f1 403c 45ba 0a3d eac6 1c3d a06c c53c
00000190: 227d 7fbc 984f ce3c 8cae 4f3c 83c2 1ebd
000001a0: 1a70 a2bc 9051 783c 3a8b 143b fc4e 723d
000001b0: f729 103d c765 54bc 9e36 dd3a 4fba 8dba
000001c0: c96f ee3b 5f3f 9e3b 05a9 00bd 2bad 433c
000001d0: 3343 88bb f124 563b e554 b73c 22ff f3bc
000001e0: 3205 b6bc 746b 44bc d4f3 c1bc ca15 283d
000001f0: 8b39 dbbc bbf5 e3bc 3197 313d 4843 c13c
00000200: fe72 2d3d 6b55 373c ee0d d23a c1f2 d13c
00000210: a173 f4bc 55bc 49bd 1e14 9c3c 2bbc 0fbd
00000220: 18a8 973c baa7 453c 2a46 1dbd f7b8 56bc
00000230: 326e 703d c13f 303d 66ef 97bb ee1b bf3c
00000240: 704b 8fbb 74ed 80bc 824b ac3b 367f f33b
00000250: c99b ba3b 9597 603c 2a5c c03c 9c6a 3f3c
00000260: b92e 85bd b9ef e83c b519 5ebc eba4 363c
00000270: 8603 143c 4113 11bc 0dde 3f3d 6c29 18bb
00000280: 9f2f afbb 8e15 113d 3118 f23b 6256 973b
00000290: 574e 2e3c 3c3a 0ebc 7fe6 55bc a7da 18bd
000002a0: 391f 553c 4b65 5b3d 965e 4abc f0b2 a3ba
000002b0: 1d6c 423c 7c03 953c a9d8 4d3c dad0 e8bb
000002c0: 5077 a4bc c66f e93b bcbd f0bc 531b b1bc
000002d0: 98f1 70bc 706f 133c ae9f 1f3c 2698 fdbc
000002e0: 2e60 043b c186 883c 55fa 423c 5b33 163d
000002f0: 32ae 6c3c 93e9 703c 2dc3 bb3a 65d2 34bc
00000300: 0651 cfbb 552a 543c 7145 153d 2f12 74bd
00000310: 2af3 4a3c d9f6 15bc c774 ca3c a79f 283d
00000320: 079e b2bc 2ae1 663c 3651 d13b 9d72 bd3c
00000330: 1885 5a3a f846 863b 039b 6b3d 59ad 9abc
00000340: 837a 24bd 5d5c bcbc 2419 02bd 0539 eb3c
00000350: 7a56 c33c c056 48bd 130c 9b3c 9556 b4bb
00000360: 149a c33c 482d b73a a2e6 be3b 7c09 18bd
00000370: 46f0 a43c 52af 00bc 16fa 34bb a589 9f3c
00000380: 08ee 2b3d 9e9b 403c a049 acbc 83d6 46bd
00000390: 2ba4 00bb 4f3d 8bbc 44d4 b7bc f1bf 1f3d
000003a0: 4830 8abc a821 2c3c 05be 04bd 9953 1c3d
000003b0: 0934 75bb d3bc f63b 60a2 03bd dd76 0dbd
000003c0: 2a7d ef3b 4c1a 1e3c b959 863b 9eda 073d
000003d0: ed4b 0b3d 0820 a93c a8a5 843b 52b9 243d
000003e0: 9fc5 80bc 97aa 703d 56fd 523d 9038 0f3c
000003f0: 6b23 70bd 9172 88bc 4c89 8e3c 9905 5bbd
-0.019671379 0.015930193 0.034598973 -0.062596485 -0.029259348 -0.00028015388 -0.045287833 0.013136973
0.022126079 -0.019235292 0.009185627 -0.010406172 -0.0027589705 0.0014441517 -0.046655376 0.0022645337
0.016429903 -0.027363898 -0.010922313 -0.02439526 0.001478994 0.0075416816 0.019476345 0.024868585
-0.01955667 0.0116762975 0.014556124 0.016175939 0.013243066 -0.010362304 -0.027593752 0.028019296
0.0059114383 -0.017366407 -0.016390974 -0.0073798234 -0.034376003 0.0026403968 0.013400227 0.008084159
-0.018513795 0.0059823385 0.0050569265 0.02804866 0.005657769 0.015538879 0.016044158 -0.004535149
-0.022280086 -0.0075281304 0.027986655 -0.00897692 0.008123264 -0.059826877 0.026988905 0.020175762
-0.03368487 0.010128094 0.031695906 -0.034136493 -0.021535162 0.0018740408 0.026235526 -0.015314208
0.0041171527 -0.0093464395 0.007941314 0.0034294901 -0.002023061 0.03599995 0.033061177 0.0053744237
-0.072382666 -0.024616767 0.021625029 0.011161996 0.0069982973 -0.012953266 0.014781385 0.023085842
0.015591475 -0.025428886 0.03512522 -0.00570709 0.0011175621 0.07110036 -0.01800511 0.028465692
-0.033231918 0.032191098 0.0059185936 -0.0038693815 -0.0062909275 0.010373596 -0.022033378 0.015006988
0.011776377 0.033869047 0.038275637 0.024099648 -0.015593799 0.025184438 0.012675893 -0.03875972
-0.019828845 0.015156165 0.0022665993 0.059157357 0.03519627 -0.012963719 0.0016877239 -0.001081297
0.0072765094 0.0048293318 -0.03141119 0.011943142 -0.0041584014 0.0032675827 0.022379348 -0.029784743
-0.022219274 -0.011988509 -0.023675837 0.041036405 -0.026760837 -0.027827134 0.043357078 0.023591653
0.042345993 0.011189799 0.001602588 0.02562845 -0.029840292 -0.049251873 0.019052561 -0.03509156
0.01851277 0.012063915 -0.03839699 -0.0131056225 0.05869884 0.04302955 -0.004636693 0.023328748
-0.0043730065 -0.015738226 0.0052580247 0.007430936 0.0056948406 0.013708015 0.023481447 0.0116831325
-0.06503052 0.028434621 -0.013555934 0.011147718 0.009034043 -0.008854688 0.046842624 -0.0023218049
-0.005346253 0.035420947 0.0073881377 0.004618452 0.010638795 -0.008680876 -0.013055443 -0.037317898
0.013007932 0.053563397 -0.012351653 -0.0012489241 0.0118665965 0.018190138 0.012563863 -0.007104975
-0.020076424 0.00712392 -0.029387347 -0.021619475 -0.014706038 0.008998737 0.00974266 -0.03095634
0.002019893 0.016665818 0.011900504 0.03667007 0.014445828 0.014704126 0.0014325135 -0.01103649
-0.0063267974 0.012949546 0.036443178 -0.059587654 0.012387076 -0.009153091 0.024713887 0.04116788
-0.021803869 0.014091769 0.006387855 0.023125941 0.00083358726 0.0040978156 0.057520878 -0.018881487
-0.0401559 -0.022993261 -0.031762257 0.028713712 0.023844946 -0.048910856 0.018926656 -0.0055034854
0.023877181 0.0013975287 0.0058258334 -0.03711842 0.020134103 -0.0078543 -0.0027614883 0.019474814
0.04197505 0.011755852 -0.0210312 -0.048544418 -0.0019629102 -0.016997008 -0.022440083 0.03900141
-0.016868725 0.010506071 -0.03240778 0.038165662 -0.0037415049 0.007529834 -0.032137275 -0.034537185
0.007308622 0.009649824 0.0041000512 0.033167474 0.034007955 0.020645157 0.004048068 0.040215798
-0.015719233 0.058756437 0.05151113 0.008741513 -0.058627527 -0.016656192 0.017399453 -0.053472135

network_body.linear_encoder.seq_layers.2.weight f4 [256, 256]
00000000: 4e79 443d fc03 873b 3142 86bc d239 913d
00000010: a009 9cbd aeb1 b9bb a1e2 55bd d59e aabd
00000020: 8cb5 3fbd 5127 0c3d 9f45 14be 6f2c acbc
00000030: fdb7 b23d af1f 95bd 0a25 ce3c 82cc 6cbd
00000040: 2b11 01be 5e34 103d f7ca b2bd 40e4 ac3b
00000050: f388 01bb 155c 063e 91ee c3bc 4436 e53d
00000060: a61c 3d3d 8b42 aebd d7e1 13bd be38 fa3d
00000070: f865 2ebd fc7f 9bbd 53e1 05be 054d 1abd
00000080: 53ab af3d 4fe3 d03c 075f 06be e774 1fbe
00000090: 1339 b2bd cfb4 b3bd 439f a93c 4bab 24be
000000a0: cab0 0fbe 688c 183e 2f6b 093d eac8 0f3e
000000b0: 1915 55bb 290b e1bc d161 103b fdae 98bd
000000c0: d14d 003c 505a 53bd 163e 733d b99d 98bb
000000d0: ec11 96bd b35a 80bd 1234 c3bc 0998 783d
000000e0: 9a18 8dbd cc8e adbd d37c dfbb e086 09bd
000000f0: 5996 e33a 2254 973c d134 88b6 555e ae3c
00000100: 853f e7bb 19b6 dd3d bce3 493d df2e 3cbd
00000110: b797 d03c a840 cd3d 79d6 bf3c 5fdb adbd
00000120: e152 933b 628a a7bd 0627 42bc 4848 c2bd
00000130: e7a8 96bd 6a24 363d fa1a 42bd c499 1abe
00000140: 7707 3b3c c45c 9f3c 3e86 ae3d 26d1 1cbd
00000150: f732 5b3d c2f7 93bd f38b 1d3b ef9e 89bb
00000160: 955c d9bd 8538 933d 4ff3 2dbd bb38 cbbc
00000170: 7421 e7bd 8694 7ebd 5147 f63b 9717 ec3d
00000180: 6fd7 023e 8f6a 12bd 80f8 d0bd ef26 bcbc
00000190: 26d6 0e3d ce6d 963b 995f 443c 3d19 453c
000001a0: 9f15 0abe 2821 f6bb a732 d8bd bf45 c93d
000001b0: 8c53 523d 8d0f 9cbd 311d 1cbd ec5c 943d
000001c0: 16f9 603d e309 4ebd c08d 2f3d b86e c03d
000001d0: 61d4 39bc 5fe1 8f3d b7d9 643d 19d7 b23d
000001e0: 45ea 24bc 6ee1 9e3d 24f9 e73d 4eca 0abc
000001f0: e60b 0bbe 9e6e aa3d 6f49 203c 7bd0 633d
00000200: 87ef 0cbe 7123 37bd d2ac 2b3d b6c3 453d
00000210: 8a04 e6bd 58c2 c33d ad07 4e3d 6b93 c0bd
00000220: ae83 c0bd d650 05be 9559 09be 2452 a6bd
00000230: 1947 1abe 4209 873d 002a 6bbc 79b8 0b3b
00000240: 5f1b d93c 60c0 1f3d 9048 dd3b 6acc 2f3c
00000250: 6b57 88bc ab1a e03d 45da 703b f903 e33d
00000260: 53a8 023d b5b6 53bd 3d89 44bd d583 403d
00000270: 876a 38bd 5c7c 6a3d f559 573d 4ab8 b0bc
00000280: 5330 98bc ed7a 7cbc 2c0e 013d 0da6 5b3d
00000290: 15f1 9fbc 371f cebd 599f 973c 2ea5 a8bb
000002a0: 0502 013e d780 bc3c 992c e03c 025b f9bd
000002b0: 5050 50bd 2728 74bd 5956 fa3c 51c6 c8bc
000002c0: 9d02 463c 4d0d 07bc c29c 50bd 6d91 99bc
000002d0: d332 a0bb 2ea2 00bd c384 41bd 414f 383d
000002e0: 2e6d a4bb c602 05be 2a1f 883d 6bcb 13bd
000002f0: 921f cbbd 297d e8bd 34f7 113d db20 423d
00000300: 74eb debc 0eb0 b6bd a582 92bd d88c fbbd
00000310: 3733 34be 8377 3ebe cfe2 67bd c036 a33d
00000320: ff82 043c 790b 3d3d 88b9 403d a19f 143c
00000330: 9e60 9b3d 1b56 4cbd 19af 7d3d 1a8f 823c
00000340: 05ea 6f3d 03ba a9bd c83b 00bd 49d5 b5bd
00000350: c1d1 393d e171 953c 9606 43bd 3b4e aa3a
00000360: 7dd6 1ebe e267 163e a837 023c a74c febd
00000370: d5e0 c93c 71c6 99bc 54af d23c 0da5 953d
00000380: 2c4e 923d 1d75 b9bd 2807 3b3d c69c 43bd
00000390: 6884 babd d728 ae3d 3405 aabb 6e4e 4dbc
000003a0: ec5d 08be bccb a63d 7801 10bd b4ad 7e3c
000003b0: 3b29 0a3e 6694 d4bd be22 a6bc 3ced 183d
000003c0: 7e0c cebd 6461 263d 7057 88bb 22f7 13be
000003d0: 5ee4 0abd 990e 0bbe 97f5 8f3d b1e2 973c
000003e0: 58a7 1f3d a307 7b3d 0a86 c23c ec9e 80bd
000003f0: 4e16 36bd d11d 5ebc 0264 2b3d 5f76 f03d
0.047967248 0.004120348 -0.016388984 0.070911065 -0.07619023 -0.005666933 -0.052218083 -0.08331076
-0.046803996 0.034217183 -0.14479683 -0.021017281 0.08726499 -0.07281434 0.025164146 -0.05781222
-0.12604205 0.03520619 -0.08730119 0.005276233 -0.0019765466 0.13121064 -0.023917468 0.11191991
0.0461699 -0.08508786 -0.03610405 0.12217854 -0.042577714 -0.075927705 -0.13074236 -0.037671108
0.085775994 0.025499014 -0.13122188 -0.15571938 -0.08702292 -0.08774721 0.020705825 -0.16080968
-0.14032283 0.1489731 0.033549484 0.14041486 -0.0032513796 -0.027471142 0.002203096 -0.07455251
0.007831053 -0.0515998 0.05938538 -0.004657474 -0.07327637 -0.062672995 -0.02382854 0.060691867
-0.06889458 -0.08474502 -0.0068203 -0.033575892 0.0017363533 0.018472735 -4.0592645e-06 0.021285215
-0.0070571327 0.10825748 0.04928945 -0.045943137 0.025462968 0.10022098 0.023417698 -0.08489107
0.004495964 -0.08180691 -0.011850124 -0.09486443 -0.07356434 0.04446832 -0.047389008 -0.1509772
0.011415354 0.019453414 0.085216984 -0.038285397 0.0535154 -0.072249904 0.0024039715 -0.0041998546
-0.10613362 0.071885146 -0.042468365 -0.024807325 -0.112856776 -0.06215336 0.007515826 0.11527937
0.12777494 -0.035746153 -0.102036476 -0.022967784 0.034872197 0.0045907265 0.011985683 0.012029943
-0.1348481 -0.0075112768 -0.10556536 0.09827756 0.051349208 -0.076201536 -0.038113777 0.07244286
0.054925047 -0.050302397 0.042859793 0.09396118 -0.011342139 0.07025408 0.05587169 0.08732433
-0.01006562 0.07757841 0.11326817 -0.008471085 -0.13578758 0.0832188 0.009783133 0.055618744
-0.13763247 -0.044711534 0.04191286 0.048282348 -0.112313345 0.095585525 0.05030029 -0.09403118
-0.09400116 -0.13019118 -0.13413079 -0.08121136 -0.15066184 0.06593563 -0.014353275 0.002131967
0.02650231 0.039001822 0.006753035 0.010729888 -0.016643247 0.109425865 0.0036751193 0.11084742
0.031898808 -0.051687915 -0.047982443 0.047000725 -0.045023467 0.057247505 0.052576024 -0.02157225
-0.01857773 -0.015410167 0.031507656 0.053625155 -0.019524137 -0.100645475 0.0185086 -0.005146644
0.12598427 0.023010654 0.027365016 -0.121755615 -0.050857842 -0.059608605 0.030558752 -0.024508627
0.012085584 -0.008242917 -0.050930746 -0.018746102 -0.004888871 -0.031404667 -0.047245752 0.044997457
-0.005017898 -0.12989339 0.06646569 -0.036082666 -0.09918131 -0.113519974 0.035636142 0.047394615
-0.027211882 -0.089202985 -0.07153825 -0.12282723 -0.17597662 -0.18600278 -0.056612786 0.07969427
0.0080878725 0.04615352 0.047051936 0.009071262 0.07586788 -0.049886804 0.061934564 0.015937377
0.058572788 -0.08287432 -0.03130701 -0.088785715 0.045366053 0.018242778 -0.047613703 0.0012993285
-0.15511508 0.14688066 0.00794784 -0.12416964 0.024643341 -0.018771382 0.025718369 0.073068716
0.07143816 -0.09055541 0.04566112 -0.047756933 -0.09107286 0.08503883 -0.0051886085 -0.012530906
-0.13317078 0.08144328 -0.03515765 0.015544344 0.1349229 -0.10379867 -0.020280238 0.03733562
-0.100609764 0.040620223 -0.004160814 -0.14449742 -0.033909194 -0.13579787 0.070292644 0.018540712
0.03897795 0.06128658 0.023745555 -0.06280312 -0.044454865 -0.0135569135 0.04184342 0.117413275
