Project/Assets/MyProject/Chaser/CVR 5/Models/ver3 pre-train/PoliceBrain.onnx (onnx, 651682 bytes, 6 tensors)

action_model._discrete_distribution.branches.0.bias f4 [4]
00000000: 1c28 223d a6ef cfbc be0c b0bc daae ab3c
0.039589033 -0.025382828 -0.021490451 0.0209574

action_model._discrete_distribution.branches.0.weight f4 [4, 256]
00000000: 861f 4dbd 4598 2d3a 62a4 cbbb c07a 48bd
00000010: 4ff5 95bd 7505 bb3c 4acb d63c 4bce 143d
00000020: a14d 0cbc 8342 77bc 4361 59bd 2740 193d
00000030: 88f8 be3c 5528 493c b295 0c3d 28d8 2cbc
00000040: 7dbc aabb 52ee e5bd 8c84 dcbd b967 d7bd
00000050: 8055 6f3d 50ab 58bd 8498 83bd 672e cc3c
00000060: 57cc a63d 401a c0bd 8bd8 c9bd 644d 053d
00000070: 5633 01bc 6def 123b 4a8b 933c f9e8 2b3b
00000080: 1212 2d3d 0d05 003d 7e49 853b 9021 4b3d
00000090: 3bda b03c 7180 383c defa 4abd acc1 0fbe
000000a0: 0e7d a6bd cf66 15bd f9b1 763d 8f4f 563d
000000b0: 13eb d0bc 6ea9 a63d 8989 af3d be24 a6bd
000000c0: 5d55 3ebc eb9b 493d ce51 703d 7b3e 913c
000000d0: fb31 983c 2fc7 9c3c adf2 62bb a745 07bd
000000e0: 8e98 debc 93e8 8abd b441 39bd 1f9b b5bb
000000f0: b658 9fbd 63fc 783d 0d5c 8bbd efb5 023d
00000100: 81ff 5cbd bf9c 503d d4eb 0fbd 179e 78bd
00000110: 0e3a 30bd 1933 05be cd7a f3bd 282f 8f3c
00000120: 6ef9 b33c f18e b8bd 80ef afbc 2cca 8e3c
00000130: 36b9 953c a0c7 0abe 748b 233d 70ee 253b
00000140: 3ff6 f43c 189b f2bd 31f3 613d 14ba 12be
00000150: 1226 d2bb 1646 5b3a e422 8f3d bf07 3abd
00000160: 81fa bbbd 8bcc af3b 269f fc3c 9406 97bd
00000170: 3bc9 07bd 42ee 89bd 3e6e 22bd 8829 8b3c
00000180: 71a8 ffbc ac75 91bd 5dfa 59bd bd3f 683d
00000190: da47 263d dd1c a43c 4c25 1bbc 22f2 51bc
000001a0: d07a 8a3d 37be 383d f707 2e3d b31b c73c
000001b0: 03c0 97bc 768a 043c cb2e adbc 76ad 8e3c
000001c0: c3c8 e03c 7087 cd3c 610f 9b3c 07b3 89bd
000001d0: ca71 8ebd 9194 0cbd 2de8 fd3c 752e 993d
000001e0: c96a 0c3d 7101 743b c806 07be c7f5 423a
000001f0: 7010 41bd f9c7 c73c 90fa 29be 0194 413c
00000200: d1cc c0bd e8f9 fabc d309 543d b379 393c
00000210: c38d 47bd 9117 c0bd bda8 48bd b44b d6bd
00000220: cc9e b7ba 612e 25bd b1d0 bebc e5d8 323d
00000230: 8775 bdbc 9039 e9bc 57b5 5a3d d400 9ebd
00000240: 5510 89bb 0ad4 66bd b594 7fbd 736d dcbd
00000250: cf2d 54bd d06f dc3c a313 4dbd dacb 62bd
00000260: 50de f43c fd38 243d 3b32 193d dfe0 eebc
00000270: b953 eabc 77d0 0bbc 2fe3 0a3c f63d 11be
00000280: 92f1 0f3d 115d a63c 9b91 923c b5e0 ba3c
00000290: 1872 f13c 8cd0 4f3d af79 75bd d354 7d3d
000002a0: 91e7 d13d 3734 c1bc 53af f5bd 4313 3abd
000002b0: b145 2a3d 2f65 9dbc 78df 52bd 3b07 1bbc
000002c0: e3bf bbbd 1cd5 24be 5351 3f3d 2b3e 783d
000002d0: ca25 ddbd 5357 283d 7d79 423d 4c1c 14bc
000002e0: cbc3 14be da9e a8bd 8f18 58bc 7e17 97bd
000002f0: 20c4 aabb a8ae 543d aa59 dbbb a203 2d3c
00000300: f54f 0cbe 99e8 a1bd 477b e4bd 770e 133d
00000310: a0a3 4e3d 22b0 be3c 2e5d 123d 9287 8d3d
00000320: d7df 86bd 74db d13c 4b11 a2bc e6c8 08bd
00000330: cef6 803d 90af 93bd 0f0d 0cbe 597f c53c
00000340: 68f0 d1bd ce6c bebc 141c 8a3d fbf9 c0bb
00000350: 6aeb b4bb 6e7a 6abd 30e0 b23c f06a 153c
00000360: 4a3b 25bc f65b 663c c398 8ebc 1f3a 31bd
00000370: f205 90bc ea3f 983d 3f3b 20bd aa25 1ebd
00000380: 53ba 623c 11ed 7dbd 94ac 153d 788d eabc
00000390: 9397 0fbd 4281 06be b7e5 8bbc c147 29bd
000003a0: 4284 943d 8afb 14be 11ad 743d 1374 f1bc
000003b0: 4a05 c73c 11f8 00be 536d e23c a8c7 043d
000003c0: a9dd 32bd 1152 f0bd 750e c63c 4e34 a53c
000003d0: 805c c4bd 8fa0 7e3d 0a94 053d d093 5338
000003e0: a410 97bd d286 5b3c 5b64 9fbd 8000 4abc
000003f0: ffc5 98bd 7444 853c c165 bb3c 9b75 473d
-0.05007889 0.0006622116 -0.0062146643 -0.04894519 -0.073221795 0.02282975 0.026219983 0.03632955
-0.00856343 -0.015091541 -0.05307127 0.037414696 0.023311868 0.012277682 0.034322448 -0.010549583
-0.005210458 -0.112270966 -0.10767469 -0.105178304 0.05843115 -0.05289775 -0.064255744 0.02492447
0.081444435 -0.09380007 -0.098557554 0.03254451 -0.007885775 0.002242054 0.018010754 0.0026231392
0.04225356 0.031254817 0.004067599 0.049592555 0.021588435 0.011261092 -0.04955565 -0.14038724
-0.08129321 -0.036475 0.06022832 0.052321967 -0.025502717 0.08137785 0.085711546 -0.08112477
-0.011617032 0.04922096 0.058671765 0.017729988 0.01857852 0.019137947 -0.003462951 -0.03302541
-0.027172353 -0.06782641 -0.045228675 -0.0055421735 -0.07780592 0.06078757 -0.06804667 0.031911787
-0.053954605 0.050930735 -0.035137013 -0.06069764 -0.043024115 -0.13007773 -0.11888657 0.01747854
0.021969523 -0.09011639 -0.021476507 0.017430387 0.018276792 -0.13552713 0.039927915 0.0025319122
0.029902576 -0.11845988 0.055163566 -0.14328796 -0.0064132297 0.00083646306 0.06989077 -0.045417544
-0.09178639 0.0053649596 0.030837607 -0.073743016 -0.033150893 -0.06734897 -0.039655916 0.016987577
-0.031208249 -0.07102522 -0.05321728 0.05670141 0.040595867 0.020033294 -0.0094693415 -0.012814077
0.06761706 0.045103278 0.042488065 0.0243052 -0.018524176 0.008089652 -0.021140477 0.017416697
0.02743948 0.025088996 0.018928232 -0.067236 -0.06955297 -0.03432137 0.0309945 0.07479564
0.034281526 0.0037232304 -0.1318618 0.00074371364 -0.047134817 0.024387347 -0.16599488 0.011815072
-0.09414066 -0.030636743 0.05176718 0.011320519 -0.04871918 -0.09379495 -0.048989046 -0.10463658
-0.0014009117 -0.040327433 -0.023292871 0.043663878 -0.02312733 -0.02846983 0.053395595 -0.07715002
-0.004182855 -0.05635456 -0.062397677 -0.10763063 -0.0518015 0.026908785 -0.050067555 -0.05537019
0.029891163 0.04009341 0.03740142 -0.029159961 -0.028604375 -0.008533589 0.008477016 -0.14183792
0.03514249 0.02030805 0.017891696 0.022812227 0.02947335 0.050735995 -0.0599305 0.061848473
0.10249246 -0.023584468 -0.11996331 -0.045428526 0.04157037 -0.019213287 -0.051482648 -0.009462173
-0.09167459 -0.1609692 0.046708416 0.060606163 -0.10798223 0.041098904 0.04747914 -0.00903995
-0.14527814 -0.082334235 -0.013189449 -0.07377528 -0.005211368 0.051924378 -0.0066940384 0.010559948
-0.13702376 -0.079056926 -0.11156326 0.035902467 0.050449014 0.023277346 0.035733394 0.069106236
-0.06585663 0.025617339 -0.019783637 -0.033394717 0.06297074 -0.0721122 -0.13676856 0.024108576
-0.10250932 -0.023245241 0.06743637 -0.005889175 -0.0055212276 -0.057245664 0.021835417 0.009119734
-0.010084936 0.014060011 -0.017406827 -0.04326832 -0.01758096 0.07434066 -0.039119 -0.038610138
0.0138383685 -0.061993662 0.036541536 -0.02863191 -0.03505666 -0.13135245 -0.01707731 -0.041328195
0.07251789 -0.1454908 0.05973536 -0.029474294 0.024294514 -0.1259463 0.02764002 0.03241697
-0.043668423 -0.11734403 0.024176816 0.020166542 -0.095879555 0.06216484 0.032611884 5.044398e-05
-0.07376221 0.013398843 -0.07782813 -0.012329221 -0.0745964 0.016267993 0.022875668 0.04869614

network_body.linear_encoder.seq_layers.0.bias f4 [256]
00000000: 822b f53a 572b 163b 2739 663c 9307 aabc
00000010: 64b0 f7bb c2e4 4cbc d9b7 00bc 4215 14bc
00000020: e3f7 59bc ac08 8c3c 0ad1 53bb 8151 91bb
00000030: a7f1 833c f055 8d3b 8b09 083c efe6 8d3b
00000040: 0c83 973c 7c05 813b 7fa8 65bb b7dc 673a
00000050: b34b 9bbb 90bd 0fbd b1e9 10bb 52ff 153c
00000060: a946 743b 5d5d 9bbb c54c c23c 0e0c e7bc
00000070: 00bb 03ba d740 ab3a 2146 ab3c 95d3 493a
00000080: 2b53 8cbc 54a7 a13b efb9 bebc 61fa 4bbc
00000090: d76e 6ebc 472d 6e3c a7c9 e739 145c 14bb
000000a0: 3e05 033b 5235 c0bb 9601 75bc 2d09 21bd
000000b0: ff02 7cbc 3ae0 45bc 33ca 1f3b 72a9 5b3c
000000c0: b8df 06b9 0ac1 2aba 7d17 25bd bd1b 5dbb
000000d0: ac13 9b3c ace9 633c c6a1 9abb 8320 253d
000000e0: 3b14 2a3d 7128 95bb 3e15 fc3c 7944 11bb
000000f0: 895b ccbc eefd 1bbc e085 b5bc 5a77 c63b
00000100: 4ddd 89bb 0fcb 853c 5279 303c 36cd 15bc
00000110: fe87 22bc f97a 9ebc c27d 8e3c 24b1 bb38
00000120: 928d 5bbc 8073 453c bcea 07bb 0e37 c9bc
00000130: 99d8 b23b ebcd ea3b c273 02bd fa0e b23c
00000140: ed55 913b 85a7 bebc e976 3a3b 3501 46bc
00000150: 922e ab3c 96c5 69bc e87b 8fbb 4bd5 f83b
00000160: 87b1 85bc baa7 05bd 6e02 913c a547 1fbb
00000170: ef76 04bc 2e4b 6bbc e62c 243c f7a8 4abb
00000180: c6d2 6dbc 863b 11bb 8fb5 58bc d53d 8fb9
00000190: 7fa4 79bc b607 0ebc c917 cbbc 8552 09bd
000001a0: 35d7 e33c d11b 55bc 669b 083b 69fc 3b3d
000001b0: b86e db3a 49dc 043c bde7 273c d753 f0bc
000001c0: 011d d5bb 1d35 923c 4669 a03b f244 293d
000001d0: d8aa 17bc 9998 1b3d dc53 933c 735f af3c
000001e0: f3b9 d23c e11f 8d3b c8d9 c83b 2a62 4a3c
000001f0: a81a 06bc 439d 02bd bdb2 d93c 418d c9ba
00000200: 1f22 163c fc25 2cba f893 f9bb 5d6c 2fbc
00000210: b733 47bc caa5 c739 8135 bdbc e48e 16ba
00000220: cef0 83bc adcf ee3c 09ac 953a 50fa 993c
00000230: 05c3 aabb 36de 37bc 77a5 04bc 3774 87bc
00000240: fa9c b83b c357 c03c 7d64 0fbc 0e03 1ebd
00000250: 0a30 053d 768e 8cba a411 70bb 64b3 7cbc
00000260: 7c2f 3b3b 37f8 96bb 81a6 81bb 7f8b 463c
00000270: af00 4fbc ac26 8cbc 7cbd 49bc 2634 dbbc
00000280: 36e4 223a 5f08 12bd 401d 03bd 69a4 ff3b
00000290: 97fc d53c 733a 1a3c 84db fb3c c983 a13c
000002a0: c686 ddbc 091a b13c 7e79 ecbb e7b3 5abc
000002b0: 677d cbbc 31e3 6c3c f1e3 c9bc 25b3 09bc
000002c0: 4a7c 653c 5a67 3d3c d7a4 143c cc16 0dbd
000002d0: 6ba5 273b 5fd4 81ba 50b9 afbc 97d4 183c
000002e0: fd55 75ba 86bc 6cbc dd37 123c b693 c53b
000002f0: ca20 74bc 61a6 ba3a c19e 983c ec45 efba
00000300: 39c6 80bb 3621 3b3d 86ad 133c b02d 38bc
00000310: b9e0 97bb 569a 093c 3132 39bb 0752 df3c
00000320: 8cfe 0b3d 7b15 c4bb 3807 90bb 1219 48bc
00000330: 201f b03b 0607 70bc 8b4b fa3b ee4a 0abd
00000340: 1243 4e3c 533e 0ebc 3e17 aa3a f2e1 12bd
00000350: ed12 ee3a 06db e7bc d61d 50bb 1fd1 faba
00000360: 9210 89bc 39cb 6bbc 9175 933d c453 083c
00000370: 564d 9b3c e55e 54bc 071f 8c3c b194 a1bc
00000380: f9e4 9e3b 646f 33bc c96c 3b3b bd2f a13c
00000390: f381 27bc 0a39 b3ba 4ec1 e43a fb2d 74bd
000003a0: 5eee 8ab8 c10d 50bc 9ef5 53bc 2f46 f23c
000003b0: 1bf1 e8bb 8be0 95bb 7cd0 c83b 8f32 723c
000003c0: ff2d 59bb 641d 9d3c 84d8 b83c f5e2 893c
000003d0: 29f6 173c 6b87 06bc f5ff 813c 6e87 f23c
000003e0: d2bc be3a 36af 8fbc 381f 73bb 8231 b63c
000003f0: d6c3 1cbb e967 1dbc 535e 2c3b 05ad 14bc
0.0018704983 0.0022914016 0.014051712 -0.020755565 -0.007558869 -0.012505712 -0.007856333 -0.009038271
-0.01330373 0.017093979 -0.0032320642 -0.004434765 0.01610644 0.004313223 0.0083030565 0.004330508
0.018495105 0.0039374214 -0.0035043058 0.000884484 -0.0047392487 -0.03509289 -0.0022111947 0.009155111
0.0037273562 -0.0047413544 0.023718247 -0.02820399 -0.00050251186 0.0013065588 0.020907464 0.00076990697
-0.017129501 0.004933277 -0.02328202 -0.012449832 -0.014552793 0.014537162 0.00044209996 -0.002263789
0.0019992138 -0.0058657313 -0.014953991 -0.03931539 -0.015381574 -0.012077386 0.0024381995 0.013407098
-0.00012862578 -0.00065137504 -0.040305603 -0.0033738457 0.018930279 0.013910692 -0.004718992 0.04031421
0.0415232 -0.00455194 0.030771848 -0.0022166057 -0.024945991 -0.009520991 -0.022158563 0.0060567083
-0.0042072893 0.016332177 0.0107711125 -0.009143164 -0.009920118 -0.019345747 0.01739395 8.94985e-05
-0.013400452 0.012051463 -0.0020739278 -0.024562385 0.0054579494 0.0071656606 -0.031848677 0.021735657
0.004435292 -0.023273239 0.0028452224 -0.012085249 0.02089623 -0.0142683 -0.0043787844 0.007593786
-0.016320003 -0.03263066 0.017701354 -0.0024304178 -0.008084997 -0.014361186 0.01002047 -0.0030923465
-0.014515584 -0.0022160723 -0.013226881 -0.00027321154 -0.015236973 -0.008668831 -0.024791615 -0.033525962
0.02781258 -0.01300712 0.0020844578 0.045895014 0.0016741371 0.008109161 0.010248122 -0.029336853
-0.0065037017 0.017847592 0.004895362 0.041325517 -0.009257041 0.037987325 0.017984323 0.021407818
0.025723433 0.004306779 0.006129477 0.012352506 -0.008185066 -0.031888258 0.026574487 -0.001537718
0.009163409 -0.00065669394 -0.007616516 -0.010706988 -0.012158326 0.0003807976 -0.023096802 -0.0005743338
-0.016106036 0.029151762 0.0011419068 0.018796116 -0.0052112364 -0.011222413 -0.0080960905 -0.016534908
0.0056339474 0.023479348 -0.008751986 -0.038577132 0.032516517 -0.0010723609 -0.0036631608 -0.015423629
0.0028562238 -0.0046072262 -0.0039566164 0.012118219 -0.01263444 -0.017108284 -0.012313243 -0.026758265
0.00062138156 -0.035652515 -0.032010317 0.0078015816 0.02612142 0.009413349 0.030744322 0.01971616
-0.027041804 0.02161886 -0.0072166314 -0.013348556 -0.02484007 0.0144584635 -0.024644824 -0.008404528
0.014006684 0.011560285 0.009072504 -0.03444557 0.0025580775 -0.000990521 -0.021450669 0.009328029
-0.00093588216 -0.014449244 0.008924452 0.0060295714 -0.014900396 0.0014240259 0.018630387 -0.0018255091
-0.00392988 0.04568597 0.009013539 -0.0112413615 -0.0046349433 0.008398613 -0.0028258676 0.027260793
0.0341783 -0.005984006 -0.004395392 -0.0122130085 0.005374804 -0.014650112 0.0076384 -0.033762865
0.012589233 -0.008681851 0.0012976897 -0.03586001 0.0018163599 -0.02830268 -0.0031756065 -0.0019135809
-0.016731534 -0.014391714 0.072001584 0.0083207525 0.018957775 -0.012962078 0.017104639 -0.019724222
0.004849073 -0.010951851 0.0028598777 0.019676084 -0.010223853 -0.0013673615 0.0017452629 -0.059614163
-6.624752e-05 -0.012698592 -0.012936978 0.029574482 -0.00710882 -0.0045738867 0.006128369 0.014782562
-0.0033138988 0.019179054 0.02256418 0.016831854 0.009274998 -0.008210997 0.01586912 0.029605594
0.0014552122 -0.017539602 -0.0037097465 0.022240404 -0.0023920438 -0.009607294 0.0026301339 -0.009074454

network_body.linear_encoder.seq_layers.0.weight f4 [256, 372]
00000000: 1ab0 413d 8b27 55bc 3ba9 573d f3c7 fabc
00000010: 62ca 2b3d def1 123d ccdd ffbc 3d04 13be
00000020: 1e95 cfbd 681a 97bb b7b6 c6bd 7779 243e
00000030: ec65 893d 805d 863d 59c6 69bd d1ca 34bd
00000040: 22cf 593d 1f50 d23c 85ef e9bd 31f4 f8bd
00000050: 6e1e a4bd 520d 1f3e e7f6 88bc d802 9cbd
00000060: 1012 833d 5194 e33c e39e de3d 5e10 abbb
00000070: 358e 6b3c fc61 023e 31ea 813d d798 28bd
00000080: 175a 02be 8759 d9bd 6d98 093e 0fcb 53bd
00000090: ae39 98bd de4b 8a3d b7f1 0e3d d828 9ebd
000000a0: 7def 4fbc 52f0 c2bd 28e6 873d 26fd 39be
000000b0: 0415 bf3d 1201 293d 701b 813c 1997 7ebe
000000c0: 6fef ddbb 3ad0 b7bc 61ab 8fbd 98da 78be
000000d0: 1781 f2bc 675c d4bc 64d9 2bba b42f 6fbe
000000e0: ee44 aebd 5964 24bd aceb 833d b2bf 1abe
000000f0: faf0 583d 0a52 a7bd ce0c 84bd 6a69 623c
00000100: 5d26 fb3c 6034 11be 0930 913d adfc 5abd
00000110: cce8 3abd c704 26be e011 6ebd 72f4 263d
00000120: 7fbc 453d 00ef fdbd 2f24 1dbc acf4 21be
00000130: a303 3dbc ffc9 1fbc 6d54 133d 9fa1 31bd
00000140: b6e6 44bc 90e2 fc3c 74ae 12bd 5218 27bd
00000150: cc0c 44bd 97e2 22bc 86c6 863d 1961 4c3d
00000160: 5e81 87bd 7598 1b3d 5a64 a5bd fa6e ba3d
00000170: df9e 2bbd 89c2 0fbd 122f 293d b162 f4bc
00000180: cb1f b73c 6323 a13c 01e1 cb3d 4d8c 7ebd
00000190: 58df 1c3d 5b43 1b3d c0b5 55be ea9c 623d
000001a0: 1c39 d4bc 06e7 39bd 1807 02bc a468 9b3d
000001b0: 9d90 d13d 271a db3d 75a0 dfbd 7d4c 063e
000001c0: 37f0 0dbc 1e58 fd3c 2063 b6bd 5425 1abe
000001d0: 8f32 803d 6852 65bb 230e 0e3d 49b5 cc3b
000001e0: 1776 66bd b3f6 d93d 5215 693d eeac 1b3d
000001f0: 67e9 f83b 6a69 5bbd 3114 493d a5d3 e9bc
00000200: 26c0 b63d 5a56 84bd 7a35 f4bd e501 e03c
00000210: 1825 b03d e7af ec3d ac7b ff3b e815 1abc
00000220: 7882 ca3b a251 e73c 745c e83d 2879 6b3c
00000230: 9f9f 2a3c 8ec9 af3d 0c4c ef3d 4bd0 023e
00000240: 8a87 5fbd 8513 523d 24cf 003e 913e 92bd
00000250: 62d3 ae3d d66b 023e e9f5 d1bc 0aeb b93d
00000260: 78eb 9f3d b9ab 2ebd bee8 92bc d0b3 37be
00000270: 4e4b 99bd 4983 5cbd 69b2 e63d 0946 103d
00000280: 38cd b5bc d5a6 08bd e229 1cbd 5f46 b63d
00000290: 2596 503d 64a2 c5bc 244f 2a3c 82c7 10bc
000002a0: 2d1f 5e3e 1bfd a43d 7404 b03d dc8f bc3d
000002b0: d9bb b9bd 744d 2abc c5b5 88bd 6dcb 66be
000002c0: c583 bf3d ed0a 813d 02a3 fd3d 3d89 1c3d
000002d0: 8b72 d7bb e0e0 ad3d 1590 40bd f1aa dc3a
000002e0: dab2 5d3d c7f5 1f3c 8341 063c b34f a53d
000002f0: 8f36 b43d f1b0 07be 5c75 6bbd 66d0 b63c
00000300: e402 6d3d 5178 16be 91d8 a9bd c481 7f3d
00000310: 755b 8a3d 6b6c e13d b1a0 283d dfd1 dcbc
00000320: b0ca f03c 7c3e 833d c54e 8cbd 2917 d8bc
00000330: 58ce bb3d d5c6 e13d 21fc e73d f738 3dba
00000340: 72a0 1dbc 7549 1a3d cc60 183e bcd3 743d
00000350: f402 fb3b 8862 94bd ffca 7c3c bd08 99ba
00000360: 3fac a93c d187 d33c ed6d 6c3e cf37 ddbb
00000370: 9646 71be 56bc b6bd 1996 793c 062b 513e
00000380: a5dc 19bd f8d3 6cbe 7e4e 7bbd d297 57bb
00000390: 59a3 813e 846e 7e3d 7420 febd 43bf c13d
000003a0: 7e84 8fbc 0458 293e 7514 c6bc f88b b9bd
000003b0: ebc8 debb b36a 8e3d d26e 8d3e 3d90 4e3c
000003c0: db8b 01be 53ca d43d e36f 0bbd 4772 9e3e
000003d0: f3ca e93c 737f 18be 3711 c9bd 9663 f43c
000003e0: fbb3 bd3e 397f f33b 5edb 15be bb64 abbc
000003f0: 5f18 023d 457f 5a3e 2b80 95bd 5924 eabc
0.047287084 -0.013009916 0.052651625 -0.030612921 0.041941054 0.035875194 -0.03123369 -0.14357086
-0.10135864 -0.004611302 -0.09702819 0.1606196 0.06708893 0.065608025 -0.057073925 -0.044138733
0.053176053 0.02567297 -0.11422638 -0.12155951 -0.080136165 0.15532425 -0.016719295 -0.0761773
0.063999295 0.027780684 0.10870149 -0.005220457 0.0143771665 0.1273269 0.063434966 -0.041161384
-0.12729679 -0.10612779 0.13437052 -0.051707324 -0.074328765 0.06752752 0.034898486 -0.07722634
-0.012691376 -0.09518494 0.06635696 -0.18162975 0.0933018 0.041260786 0.015760154 -0.24862327
-0.0067729275 -0.022438157 -0.0701511 -0.24302137 -0.02960257 -0.025922967 -0.0006555526 -0.23358041
-0.08509241 -0.04013476 0.06441435 -0.15112188 0.05296419 -0.081699446 -0.06447755 0.013819078
0.030657941 -0.14180136 0.0708924 -0.053463627 -0.04563217 -0.1621276 -0.058122516 0.040760465
0.048275467 -0.12399101 -0.009591146 -0.15815991 -0.011536512 -0.009752749 0.035969187 -0.043367025
-0.012017896 0.030869752 -0.035810903 -0.040794678 -0.047863767 -0.009941719 0.06580834 0.049897287
-0.06616472 0.03798719 -0.08075781 0.09103198 -0.04189956 -0.035097633 0.041304655 -0.029832216
0.022354027 0.019670194 0.099550255 -0.06214552 0.038298935 0.037906032 -0.20870113 0.055325426
-0.025906138 -0.045386337 -0.007936262 0.07588318 0.10232661 0.106983475 -0.109192766 0.13115115
-0.008663229 0.030925807 -0.08905625 -0.15053302 0.06259643 -0.0034991745 0.03468145 0.006247197
-0.056264963 0.10642757 0.0569051 0.038006715 0.007596183 -0.053567328 0.04909152 -0.028543303
0.08923368 -0.06461783 -0.11924262 0.027344653 0.08600825 0.11556988 0.0077967253 -0.009404637
0.006180104 0.028237168 0.11345759 0.014372148 0.010414033 0.085833654 0.11684427 0.1277477
-0.05457262 0.051288147 0.12579018 -0.0714084 0.08536412 0.12736449 -0.025629954 0.09078033
0.07808584 -0.042644236 -0.017933246 -0.17939687 -0.07485066 -0.05383614 0.11264498 0.03522304
-0.022192582 -0.03336223 -0.03812588 0.08900141 0.05092444 -0.024125285 0.010394845 -0.008836629
0.2169158 0.080560885 0.08594599 0.092071265 -0.09069032 -0.010394443 -0.06675295 -0.22538538
0.09351305 0.06300912 0.12384607 0.038216818 -0.006574934 0.08490157 -0.047012407 0.0016835612
0.054125644 0.009763188 0.00819433 0.08071842 0.08799469 -0.13251092 -0.05748497 0.022316169
0.057864085 -0.14694335 -0.0829326 0.062379614 0.06755725 0.11007007 0.041168872 -0.026955543
0.029393524 0.06408402 -0.068509616 -0.026378231 0.09170216 0.11024252 0.11327387 -0.0007218266
-0.009620773 0.03766771 0.14880675 0.059772238 0.007660264 -0.07245356 0.015429257 -0.0011675578
0.020712016 0.025821598 0.23088808 -0.0067510377 -0.23562083 -0.08922641 0.01523354 0.20426568
-0.03756394 -0.23127735 -0.061354153 -0.0032896888 0.25319937 0.062117115 -0.12408534 0.094603084
-0.017519232 0.16537482 -0.024179677 -0.090599 -0.0067988536 0.06953945 0.27623612 0.012607631
-0.12651007 0.10390153 -0.03404225 0.30946562 0.028539157 -0.14892368 -0.098177366 0.029832643
0.37051377 0.0074309376 -0.14634463 -0.020922055 0.031761523 0.21337612 -0.07299837 -0.028581785

network_body.linear_encoder.seq_layers.2.bias f4 [256]
00000000: cb12 fb3c 9c9e 02bd ea8b df3c f7f0 fe3c
00000010: 0741 eebc 9a2e dc3b faa4 60bb 327e 9cbc
00000020: 1106 213c 0102 d9bb f5ef f3bc a822 95bc
00000030: 402a b53c 5395 8cbd 9e54 6c3b 823f 1cbd
00000040: c8bf 8dbb 4178 e83b d931 403b 3bae 65bc
00000050: b2bd 4abd 943c b2bb 07bc ad3b 8d57 933b
00000060: 0708 073c ac46 12bd 3d0c babc abfa 693d
00000070: 4799 803d 8527 82bb ffea 0fbd 10f9 01bd
00000080: 4080 3f3d bde5 423d ac5a 123d b070 7fbd
00000090: 5c2e 57bc b96c dabc ccf5 9aba 6a04 963c
000000a0: faa6 eabb d0ed 39bb c3c9 76bc f412 f33c
000000b0: 173f 96bd 0599 893d e99d 10bc 24b9 84bc
000000c0: 58fa ed3b f331 5ebc 28c0 0f3b e3ef f9bc
000000d0: a55b d9bc 8a74 3b3d 9c6f 26bd 246a 51bd
000000e0: 574a 62bd 2e5c 8ebc 678b 093d 3fef 693d
000000f0: 6d83 923c e0a9 a93c ce24 cc39 bdcf 363d
00000100: 2326 97bb 9127 50bc a3af 2e3d 2315 dfbc
00000110: 279e 5bbd 9db9 183c 165d 413b 0ae2 afbc
00000120: bbb3 7cbd 46f4 94bc 1bdc 2c3b f71e 833c
00000130: fefd 8cba 4c4a cf3c 5090 21bd 263f 38bd
00000140: 0680 0abd fd40 133d 4e20 653d 28cd 4f3b
00000150: 771c 24bd a5cd 51bd c5a6 e83c f61f 873b
00000160: 5f91 8dbc fec4 8a3c e9e3 aebc 5639 523c
00000170: 772e 8cbd 8dd2 29bc a3ac a3bd 0183 d6bc
00000180: d7a3 f53c 442c 3bbc 7a54 a0bc 96d0 ca3c
00000190: b842 eabc bb4a 833d 3ec4 3cbd f534 a7bd
000001a0: b5d4 9c3b 986d 733c 331f 2f3d c730 a8bc
000001b0: 098a 25bd cdf7 16bd 4598 d03c 52b7 0cbc
000001c0: 455f cebc b335 2c3d cf80 b6bb 6eb3 aa3b
000001d0: ffa3 a6bc d065 8fbd eec9 133d 7b64 4e3d
000001e0: 82e8 07bc 4783 273c f4a6 8abc 2e29 9f3b
000001f0: 0567 bf3c 5940 c13c fa54 d7bb 2e1a 67bd
00000200: 43d2 313d ff43 913b bcbb 753c 6c43 b4bc
00000210: af6b 0f3c 2040 41bd 0b70 43bd 38b7 a53c
00000220: e08c 3abd 8b14 dbbc 8bb6 c9bc 3a79 463c
00000230: e850 e4bb 8f4d fb3c caec 273b 7cc7 c9bc
00000240: 8118 12bd 0564 27bd 1903 8bbd fd1c 313b
00000250: 5d92 9fbc 58a0 06bc 7b3e 1abd 7143 4a3c
00000260: 554b b9bc 5d58 683d f29e 1abc 33b7 9abc
00000270: 795d 07bd 6ab5 4a39 182b 5dbd d15d e0bb
00000280: 8754 b3ba 6bfb b0bc 1edf 813c 2c1e 273c
00000290: a805 5f3d 7410 04bb 8e58 cf3c 867f ae3c
000002a0: 8ef3 3cbd a769 0ebd 3a24 ecbc 2522 2e3d
000002b0: 8ba7 77bd 3c69 61bd aa76 06b9 c156 6e3d
000002c0: 4128 1bbc 9c48 47bc 2847 b1bb 909f 103c
000002d0: 1333 f5bb a352 1dbc d522 0fbd ca26 b3ba
000002e0: b856 173c 3fb2 793c 095c 12bd be5a aabc
000002f0: 4835 ea3c 94ea b7bc 17b9 b2bc 7635 333c
00000300: 2e2b 4d3c c5ad 80bc 58b8 b4bb d0fa a43c
00000310: d6b1 4d3c 76be ca3c 55cd e1ba 6e18 f4bb
00000320: 8073 5eba 52cf a1bc 6b70 36bd 7e51 a93c
00000330: 60f7 16bd bdf0 73bc 19f8 483a c3c5 42bd
00000340: 292d 98ba 8236 313d 5fe5 bf3b 4b28 34bb
00000350: a209 cabc 871a b63c b194 3abd e7fb ab3b
00000360: ae91 9b3c 4230 513b b53a 60bb e0be 82bd
00000370: c3bd 083c e5ee 3c3c 6d72 2d3c 76c2 7c3b
00000380: 6089 a1bc 1e55 c0bd e16e 01bd a7ee 56bd
00000390: e892 afbc 1c8b 953c 4690 bebb ea0b 2fbc
000003a0: cef1 663c 8435 ed3c 31c3 11bb 5da4 1b3d
000003b0: a2c7 dabc 25f0 3d3c bf47 74bc 3c9a b23c
000003c0: a9da c9bc ffa0 8fbb 9c96 69bc 0701 d93c
000003d0: 76af 8fbc 4f18 52bc 235a be3c c7c5 27bd
000003e0: 9775 5b3b 1826 833c 13f4 f03b 5b55 813d
000003f0: 3150 613c 28b0 5c3c bc00 b2bc 1575 d83a
0.03064861 -0.031889543 0.027288396 0.03112076 -0.029083742 0.0067194225 -0.0034278021 -0.019103143
0.0098281065 -0.0066225533 -0.029777506 -0.018205002 0.022114873 -0.06864419 0.0036061178 -0.038146503
-0.0043258406 0.0070944135 0.0029326587 -0.014018591 -0.049497314 -0.0054393504 0.0053019556 0.004496521
0.00824166 -0.03571193 -0.022710914 0.05712382 0.06279235 -0.0039719963 -0.03513622 -0.031731665
0.046753168 0.047582377 0.035731003 -0.062363327 -0.0131336115 -0.026663171 -0.0011822521 0.018312652
-0.0071610184 -0.0028370507 -0.015062752 0.029672123 -0.07336252 0.06718639 -0.008826711 -0.016201563
0.0072625093 -0.0135617135 0.0021934602 -0.030509895 -0.026532957 0.045765437 -0.040633783 -0.051126614
-0.055246677 -0.01737794 0.03358021 0.05711293 0.017884934 0.020710886 0.00038937334 0.04463171
-0.0046127005 -0.012704746 0.04264797 -0.027231758 -0.053617623 0.009321597 0.0029504946 -0.021470089
-0.06169484 -0.018182885 0.002637631 0.016005976 -0.0010756848 0.025303982 -0.039444268 -0.044982098
-0.0338135 0.03595065 0.05593901 0.0031707976 -0.04006621 -0.05122151 0.028399834 0.004123683
-0.017281232 0.016939636 -0.02134891 0.012831053 -0.068448 -0.010365141 -0.07991912 -0.026185514
0.029985351 -0.011424128 -0.019571532 0.024757665 -0.028596267 0.06410738 -0.04608559 -0.081643976
0.004786099 0.014857672 0.042754363 -0.020531071 -0.040414844 -0.036857415 0.025463233 -0.008588629
-0.025191912 0.0420434 -0.0055695544 0.005209378 -0.020341871 -0.07001841 0.036081247 0.050388794
-0.00829518 0.01022417 -0.016925313 0.004857204 0.023364553 0.023590254 -0.0065714093 -0.05642145
0.04341341 0.0044331546 0.014998373 -0.022004806 0.008753701 -0.047180295 -0.047714274 0.020228967
-0.045544505 -0.026743194 -0.024623176 0.012113864 -0.0069676526 0.030676631 0.0025623315 -0.024631254
-0.0356679 -0.04086687 -0.067877 0.0027025335 -0.019478971 -0.00821694 -0.037657242 0.012345181
-0.022618929 0.056724895 -0.00943731 -0.018886184 -0.033048127 0.00019331803 -0.053996176 -0.0068471213
-0.0013681807 -0.02160426 0.01585346 0.010200065 0.054448754 -0.0020151408 0.02531078 0.021301042
-0.04613071 -0.034768727 -0.028825868 0.04251303 -0.060462516 -0.055032 -0.00012823442 0.058188204
-0.0094700465 -0.0121633075 -0.005410094 0.008827105 -0.007482895 -0.009602222 -0.034945328 -0.0013668176
0.009236984 0.015240251 -0.035732303 -0.020795222 0.02858986 -0.022450723 -0.021816773 0.010938039
0.012522502 -0.01570786 -0.0055151395 0.020139128 0.012554606 0.024749022 -0.0017227331 -0.0074492013
-0.0008485839 -0.019752178 -0.044540804 0.020668741 -0.03685701 -0.014888939 0.0007666364 -0.04755188
-0.0011610138 0.043264873 0.0058562006 -0.0027489837 -0.024662796 0.022229446 -0.04555196 0.005248535
0.018990364 0.0031919633 -0.003421468 -0.06384063 0.008346024 0.011531566 0.010586363 0.0038568056
-0.019718826 -0.09391235 -0.031599883 -0.05247369 -0.021432355 0.01825481 -0.0058155386 -0.010683993
0.014095737 0.028956182 -0.0022241587 0.037998546 -0.02670652 0.011592899 -0.014909684 0.02180206
-0.024640398 -0.004383206 -0.0142570995 0.026489748 -0.017539721 -0.012823178 0.02323634 -0.0409601
0.0033486837 0.016009375 0.0073533147 0.063151084 0.013752029 0.013469733 -0.021728866 0.0016514385

network_body.linear_encoder.seq_layers.2.weight f4 [256, 256]
00000000: fa35 683d fe50 2e3d f066 bdba 17c2 d03a
00000010: d15d 39bc 3127 8bbd d37e 2e3d 96f8 a0bd
00000020: 1983 ddbd 2066 26bc 7577 a4bc cf5c adbd
00000030: 869c f63d 9551 95bd ca91 ddbc ba3e 04be
00000040: 8c64 c23d 8dba b73d 4003 00bd 163d 55be
00000050: 0547 10be 0550 0fbd d75c 27be cd12 64ba
00000060: 39a2 963b c3b7 41be 4306 0d3e ed16 e03d
00000070: 7f0a 10be 4ba4 bfbc 7344 613c 91c2 b73d
00000080: 05d4 57bd f798 1e3d d8a5 0f3e 59c3 d83d
00000090: 153e 12bd a390 3abd 0a31 13bd 8b61 97bd
000000a0: 452c d5bd c269 94bd 54d0 e83d 5334 de3c
000000b0: ee3d a83d 4588 23be 4f57 8c3d 102f 263d
000000c0: ba01 a2bd 7961 7cbd 5f79 923c d31f 833c
000000d0: 12f8 273c 526c 363d d15e b33c 3322 db3d
000000e0: f70b a43c 8252 d03d 67fd 29bc 9123 eebc
000000f0: 7a75 dbbc d3d0 03bc 25ab b6bd ab04 62bd
00000100: 47cc 493d d6fb 3e3e f50a ab3d 72bb 2dbe
00000110: d3f9 343d d915 943d c568 d53c d1e2 c9bc
00000120: 5977 36bd fb93 823d 768a c2bd 4f72 3cbd
00000130: 9f3d 6d3d f804 17be 7450 b4bc 0a08 b8bd
00000140: 0800 94bb 6ed2 fbbc e489 a23d 251c 20be
00000150: 19c2 f8bc 038b cebc aca8 f5bc 6ddb 66be
00000160: 4266 523d 5e58 7ebd 9eb5 163e a6df c1bc
00000170: 76fc ec3c 189a 07be e0eb 063b c14b 3b3c
00000180: c52b dfbd 23f1 14be 1cb9 94bd a57e 35be
00000190: 3680 99bd 1051 08bd 61be c83c 6f54 7f3d
000001a0: 19ee 853e 3852 223d e4eb 3e3d 58b9 9cbd
000001b0: 4d8b 413e e555 453d 7495 2abc 998e 30bd
000001c0: 80aa d9bc ccbc d63d 9f58 9e3c a3f5 29bd
000001d0: d277 15bd 6e56 123e 4e77 1dbd b61a be3c
000001e0: 63c2 00bd 2cde b1bc b920 64bc e8a2 2fbd
000001f0: b229 2fbd a97c 0a3e e637 f63d 3ab1 e3bd
00000200: e6e7 fabd 9c62 53bd f193 4fbe 2070 623d
00000210: 1c59 2dbe 47de b13d 18f8 febb a259 053e
00000220: 8275 65bd ae35 443d 5979 f03c 26f6 943b
00000230: 7a95 97bd ba21 b0bd 52a0 263e cd3a ebbd
00000240: 900c 51bd a0dc 63bb 8f1f 2e3d 870d 20bd
00000250: 1ae3 1abe ed40 eebd 630c 8f3d 5bd8 423d
00000260: 85ae 1e3d 34a2 dabd f7ee a0bc d87b ccbd
00000270: d19e 11bd 3b7b 6c3d 65c9 27bd 7b13 d6bc
00000280: 161e 09bd 7264 69be 087e 1ebe ba79 153d
00000290: 326d 433d dc4f 63be 0d4e 11bd b335 d13d
000002a0: bee7 9fbc 373d 623d 91bf 89ba 94d4 6cbd
000002b0: cbf9 7ebd 4451 7c3d 2790 4cbd b6c7 0bbe
000002c0: 2ad1 0ebc 9f81 34bd fe36 d0bd 82d9 9abd
000002d0: cec2 d23d 0a9a 943c e248 dabb 0687 edbd
000002e0: 9400 e03c 172c f33c eda0 d1bd 10e4 a93d
000002f0: 42c5 95bc ef25 65bd 30c0 4a3d 1515 783d
00000300: cee8 15be a452 933c 36d6 26bd 83ce 653c
00000310: 1acc 88bd 6cec 1a3e 2159 e33c d091 c53c
00000320: 13ea 223d 4106 20be a779 163e 7ac5 6dbc
00000330: 2b9d 7fbc 68f8 eebd 993e 03bc 6a7f d4bd
00000340: c46c e0bc 205d b3bd 4db8 693c 2c8a 86bd
00000350: bfc5 67bc 64d8 ff3c 3bc3 1f3c 04f1 073d
00000360: ee61 a7bd 5551 a5bd d4fa fd3d 1f5f db3d
00000370: 6c29 5c3c de49 f6bd a234 a03d 5315 cabc
00000380: 1b16 b83d 35bc 363d e3b4 cebc 70b3 963d
00000390: d512 313d 5fd5 35ba bb7b df3d 6ad0 cabd
000003a0: 345a da3c 853a 88bd 5724 03bd 50c5 d33d
000003b0: 4ea2 ca3d d466 a7bc 27ae 86bd c1aa dbbc
000003c0: e992 8dbd f61a 573d 0262 bc3b f0d6 52bd
000003d0: 1cc7 3abd 997e c0bb 0e8a 2dbd 34c5 b3bd
000003e0: e7b1 18be 40af c3bd b8fc 653d fc95 363d
000003f0: 60b8 27bd d09a aa3d 68f6 d1bd 1ef6 863d
0.0566921 0.04255771 -0.0014450233 0.0015926984 -0.0113138715 -0.067945845 0.042601418 -0.07859914
-0.108160205 -0.010156184 -0.020076493 -0.084649675 0.12041573 -0.07290951 -0.027047057 -0.12914553
0.09491834 0.089711286 -0.0312531 -0.20824084 -0.14089592 -0.034988422 -0.1634401 -0.00087003113
0.004596975 -0.18917756 0.1377192 0.10941873 -0.14066504 -0.02339377 0.01374923 0.089726575
-0.052692432 0.038720097 0.14028108 0.105841346 -0.035703737 -0.045548093 -0.03593544 -0.07391652
-0.10408834 -0.07246734 0.113678604 0.02712456 0.08214937 -0.15969951 0.0685259 0.040572226
-0.079104856 -0.061616395 0.01788014 0.016006386 0.010252016 0.044536896 0.021895798 0.10699882
0.020025237 0.10171987 -0.010375357 -0.029069694 -0.026789416 -0.008045393 -0.08919362 -0.055180233
0.04926708 0.18650755 0.08351699 -0.16966036 0.044183563 0.072307296 0.026050935 -0.024644287
-0.044547413 0.06375881 -0.094990656 -0.04600745 0.057920095 -0.14747989 -0.02201102 -0.08985908
-0.0045166053 -0.03073999 0.07936457 -0.15635736 -0.03036599 -0.02521277 -0.029987656 -0.22544642
0.051367052 -0.062095992 0.14717719 -0.023666214 0.028928977 -0.13242376 0.002058737 0.011431635
-0.1089702 -0.14545111 -0.07261869 -0.17724092 -0.074951574 -0.033280432 0.024504842 0.06233638
0.26158217 0.03962919 0.04661168 -0.07652539 0.18900795 0.04817762 -0.010411609 -0.04310474
-0.026570559 0.10485229 0.019329367 -0.041494023 -0.036491223 0.14290783 -0.038443856 0.023206096
-0.03143538 -0.021712385 -0.013923817 -0.04287997 -0.042764373 0.13524117 0.120223805 -0.11117788
-0.12251262 -0.051607713 -0.20271279 0.055282712 -0.16928524 0.08684974 -0.00778104 0.13022473
-0.056020267 0.047902755 0.029354738 0.0045459447 -0.07401557 -0.08600183 0.16272095 -0.11485825
-0.05103737 -0.0034768954 0.042510565 -0.0390754 -0.15125695 -0.11633477 0.069847845 0.047569614
0.038740654 -0.10675469 -0.019645197 -0.09984559 -0.03555185 0.05773471 -0.04096355 -0.026132336
-0.033475958 -0.22792223 -0.15477765 0.03649304 0.04771156 -0.22198433 -0.035474826 0.102153204
-0.019519683 0.05523416 -0.0010509362 -0.057819918 -0.06224994 0.06160094 -0.049942162 -0.13650402
-0.008716861 -0.04406893 -0.10166739 -0.075610176 0.10291062 0.018139858 -0.0066615203 -0.11598019
0.027344026 0.02968411 -0.10235772 0.082954526 -0.018282536 -0.05594438 0.04949969 0.06056698
-0.14639589 0.017983742 -0.04073163 0.014026287 -0.06679554 0.1512925 0.02775246 0.02411738
0.03977401 -0.15627386 0.14694844 -0.014512414 -0.015601437 -0.116684735 -0.00801053 -0.10375865
-0.027395613 -0.087579966 0.014265132 -0.06569323 -0.014146267 0.031231113 0.009751136 0.033188835
-0.081729755 -0.080721535 0.12401357 0.10711502 0.01343761 -0.12025808 0.07822539 -0.024668371
0.08988591 0.044613082 -0.025232738 0.07358444 0.04323085 -0.0006936397 0.109122716 -0.09903033
0.02665434 -0.06651787 -0.03201708 0.10340369 0.098942384 -0.020434774 -0.06576186 -0.02681482
-0.069127865 0.052515946 0.005748988 -0.05147451 -0.04560004 -0.0058744666 -0.042367987 -0.08777848
-0.14911614 -0.09554911 0.056149215 0.04457663 -0.040947318 0.083303094 -0.102520764 0.06589912
