Project/Assets/MyProject/Chaser/CVR 4/Models/ver 3/PoliceBrain.onnx (onnx, 532910 bytes, 6 tensors)

action_model._discrete_distribution.branches.0.bias f4 [7]
0	0x3cb243ad	0.021760786
1	0xbcffecb2	-0.031240795
2	0x3cb790a0	0.02240783
3	0x3c5659a3	0.0130828945
4	0x3b809cc2	0.003924937
5	0xbc34947a	-0.011021728
6	0xbd3277dd	-0.04357134

action_model._discrete_distribution.branches.0.weight f4 [7, 256]
0	0xbd45f7bc	-0.04833196
1	0x3bb12dbd	0.0054070638
2	0x3c9593c8	0.018258944
3	0x3c687b61	0.014189572
4	0x3ca1dd0f	0.01975873
5	0x3d078c53	0.033092808
6	0xbd0988ea	-0.033577837
7	0xbde9709f	-0.11398434
8	0x3c7563dc	0.014977422
9	0xbd87dd4f	-0.06634008
10	0xbc48b045	-0.012249057
11	0xbd070197	-0.0329605
12	0x3cc0317f	0.023461102
13	0x3b819637	0.0039546746
14	0x3ce7eed2	0.02831212
15	0xbcbfd9f4	-0.023419358
16	0xbccbbda0	-0.024870694
17	0xbd6692c6	-0.056292318
18	0x3c430c49	0.0119047845
19	0x3b9375f6	0.004500146
20	0x3c8ec1ab	0.017426332
21	0xbb867399	-0.004103136
22	0xbd729a38	-0.059229106
23	0xbc0eb3b3	-0.008709836
24	0x3bd167cc	0.0063905474
25	0xbcfa95cb	-0.030589005
26	0xbdf79bd6	-0.1209027
27	0xbbd343e6	-0.006447303
28	0x3c28b2bb	0.010296519
29	0xbd8ff635	-0.07029382
30	0xbb978bf6	-0.004624839
31	0xbd4ba169	-0.04971448
32	0x3c414e85	0.011798506
33	0x3af2c486	0.0018521703
34	0x3c0751d6	0.008259257
35	0x3c794215	0.015213509
36	0x3bc753f8	0.006083008
37	0xbb36d5e6	-0.002789849
38	0xbb8765d7	-0.0041320133
39	0x3d4ed9ff	0.050500866
40	0x3af34178	0.001855894
41	0xbe067ec6	-0.13134298
42	0x3d44bc1e	0.048030965
43	0x3d419d52	0.047269173
44	0x3ce72424	0.028215475
45	0xbc7ba30a	-0.015358696
46	0xbdb53ba5	-0.08849267
47	0x3d261ba8	0.04055372
48	0x3d179763	0.037009608
49	0x3c04ea3a	0.008112485
50	0xbd70606a	-0.058685698
51	0xbcd14fc0	-0.025550723
52	0xbbe52982	-0.0069934735
53	0xbc5b6ce7	-0.013392664
54	0xbd8a15fb	-0.06742474
55	0x3cb35c74	0.021894671
56	0xbda98ff1	-0.08279408
57	0x3cbe0deb	0.023199996
58	0xbd6e1a4f	-0.05813056
59	0x3cac690e	0.021046188
60	0xbcf5a160	-0.029984176
61	0xbde374fe	-0.11106299
62	0xbd1d49a0	-0.038400292
63	0xbd6c0eb6	-0.057631217
64	0x3c0fe9da	0.008783782
65	0xbd8d52be	-0.069005474
66	0x3cb851b1	0.022499891
67	0x3caecf8c	0.0213392
68	0xbddab10f	-0.106783025
69	0xbdaf0674	-0.08546153
70	0xbd103dec	-0.035215303
71	0x3c7c0c75	0.015383829
72	0xbc3a7cb1	-0.011382268
73	0x3b9bc94e	0.004754222
74	0x3c8825cd	0.016619587
75	0x3c55cc9b	0.01304927
76	0xbdb81175	-0.08987705
77	0x3c922341	0.017839076
78	0x3d332653	0.04373772
79	0x3b580b86	0.0032965853
80	0xbd869921	-0.06572176
81	0x3c498f1c	0.012302186
82	0xbd4f8dae	-0.050672226
83	0x3d4950df	0.04914939
84	0x3c35b1c9	0.011089751
85	0x3cf8d07f	0.030372856
86	0xbd44d6c6	-0.048056386
87	0xbbe7a53c	-0.007069258
88	0x3c5eb74b	0.013593505
89	0x3bd2d72e	0.006434343
90	0xbd0b51ba	-0.034013487
91	0x3c72207d	0.014778254
92	0xbce5eefa	-0.028068054
93	0xbd85fcae	-0.065423355
94	0x3cc4167e	0.023936506
95	0xbcbf9485	-0.02338625
96	0x3d30c382	0.0431552
97	0xbdc20570	-0.09473693
98	0x3cfc371d	0.030787999
99	0xbdc8ae51	-0.09798873
100	0xbc11b3c2	-0.008892955
101	0x3caa2114	0.020767726
102	0xbd10bb07	-0.035334613
103	0x3d257442	0.040394075
104	0xbda0d88e	-0.078538045
105	0x3cb37f92	0.021911416
106	0x3d260e09	0.04054073
107	0x3b9e0429	0.0048222733
108	0x3d342816	0.04398354
109	0x3c81ae78	0.015830263
110	0xbcbeb86a	-0.023281295
111	0xbc37bef7	-0.011214963
112	0xbd57eaea	-0.052714266
113	0x3c19dd0b	0.00939108
114	0x3d486112	0.0489207
115	0x3d3ad285	0.045610923
116	0x3d50e9b9	0.051004145
117	0x3c97e679	0.018542515
118	0xbdc45d02	-0.09588052
119	0x3c30ed36	0.010798743
120	0xbc3b4719	-0.011430525
121	0x3cfd8656	0.030947845
122	0x3c9aa1a8	0.018875912
123	0x3d4c47a9	0.049873028
124	0x3c93c813	0.018039739
125	0xbccb16b0	-0.024791092
126	0x3d9bc775	0.07606403
127	0x3ca4f6ee	0.020137277
128	0x3c54f6d2	0.0129983
129	0x3d08532d	0.033282448
130	0x3c5db2c0	0.013531387
131	0xbc2b31db	-0.010448898
132	0x3d8cbe5d	0.068722464
133	0x3c719935	0.014746
134	0x3c2c7f4f	0.0105284
135	0xbc967f6f	-0.018371312
136	0x3c6a7aad	0.014311475
137	0xbd4b4a93	-0.049631666
138	0x3cda45fd	0.026644701
139	0x3c33a847	0.010965413
140	0x3ce567d2	0.028003607
141	0x3cd8bde5	0.026457736
142	0x3cdd87e4	0.027042337
143	0x3cea6e75	0.028617123
144	0xbc845e8f	-0.01615837
145	0x3d31b8fb	0.0433893
146	0x3c5bf5d8	0.013425313
147	0xbc43ef9c	-0.011958983
148	0xbcbc5bce	-0.022992995
149	0x3cd5c18b	0.026093265
150	0xbb6c5e7b	-0.0036067057
151	0x3c024a8b	0.007952343
152	0x3d4501d3	0.048097443
153	0xbc23238f	-0.009957208
154	0xbd019af9	-0.031641934
155	0xbcad6e6d	-0.02117082
156	0x3b3ff8eb	0.0029292654
157	0x3c3063af	0.010765954
158	0x3d1cf4ba	0.038319327
159	0x3d532b61	0.05155504
160	0x3d938314	0.072027355
161	0x3d0f45c6	0.03497865
162	0xbc69b0d4	-0.0142633505
163	0xbdcca4a9	-0.09992344
164	0x3d8653d5	0.065589584
165	0x3ba53770	0.005042009
166	0xbc371969	-0.011175492
167	0x3d8f0c64	0.06984785
168	0x3bd41e97	0.006473373
169	0xbc703f65	-0.014663552
170	0xbcf5b364	-0.029992767
171	0x3d145562	0.03621424
172	0x3d29dcb6	0.041470252
173	0xbd78405e	-0.06060826
174	0xbb953329	-0.004553218
175	0x3d6a4d69	0.05720273
176	0xbda110da	-0.07864542
177	0x3d2c2efc	0.042036995
178	0x3d1b52ba	0.03792069
179	0xbcd3e219	-0.025864648
180	0x3d1d3a9d	0.038385976
181	0x3ccf739e	0.025323685
182	0x3c8693f8	0.016427979
183	0x3c4b1eae	0.012397451
184	0xbc5c3bd1	-0.013441996
185	0x3ca2b519	0.019861745
186	0x3db1145f	0.086464636
187	0xbc843894	-0.01614026
188	0x3d587fe4	0.05285634
189	0xbd52ddd8	-0.051481098
190	0xbd900de3	-0.07033899
191	0x3c6b00bd	0.014343438
192	0xbc834481	-0.016023876
193	0x3d208577	0.039189782
194	0x3cf6cffa	0.030128468
195	0x3d9e149d	0.077187754
196	0xbc85342f	-0.016260235
197	0x3cb1f337	0.02172242
198	0xbbbd20a0	-0.0057717115
199	0x3ba5c4e7	0.005058873
200	0x3d102f7a	0.035201527
201	0x3d165fa8	0.03671232
202	0xbd33de4b	-0.043913167
203	0x3d7aed61	0.06126154
204	0x3bd9b2b0	0.0066436157
205	0x3d5a4236	0.0532858
206	0x3ccc3553	0.02492777
207	0x3b304160	0.0026894435
208	0x3d2e56b3	0.04256315
209	0xbd3d7be1	-0.04626072
210	0xbd40e916	-0.047097288
211	0xbce3357d	-0.027735466
212	0x3c550c12	0.013003366
213	0xbd25c437	-0.04047033
214	0x3d19ab89	0.037517104
215	0x3d1e8e02	0.038709648
216	0x3caf63ae	0.021409836
217	0xbcb76e48	-0.022391453
218	0xbd169663	-0.036764514
219	0x3d253f8b	0.040343802
220	0x3b9c7b10	0.0047754124
221	0x3d9b2bd5	0.0757672
222	0x3d7fe78f	0.06247669
223	0xbc21f795	-0.009885688
224	0x3cf11f60	0.029433906
225	0x3d7e44cc	0.06207733
226	0xbbc58021	-0.006027237
227	0xbc478c90	-0.012179509
228	0xbd94c1e0	-0.07263541
229	0xbd05259a	-0.032506563
230	0x3ccd7c6d	0.025083745
231	0xbd9c9ab7	-0.07646697
232	0x3b40da36	0.002942694
233	0x3bb17b2a	0.0054162936
234	0x3c99090e	0.018681075
235	0xbdf0f3ec	-0.117652744
236	0xbbe672e7	-0.0070327404
237	0x3d88281f	0.066482775
238	0xbd201963	-0.03908671
239	0xb89d6260	-7.504667e-05
240	0xbb6cee41	-0.0036152753
241	0x3d16bfcb	0.036804
242	0x3cfd0b75	0.030889252
243	0x3d1aefc6	0.037826322
244	0xbc0f548d	-0.008748186
245	0xbbea03bb	-0.007141558
246	0x3c5100ec	0.012756567
247	0x3b9c239d	0.0047649876
248	0xbd627468	-0.055286795
249	0xbd630930	-0.055428684
250	0x3c23cce8	0.009997584
251	0x3c8eafb4	0.017417766
252	0x3ca63994	0.020291127
253	0x3cdac6c3	0.026706105
254	0x3d309d39	0.04311869
255	0xbd045f4b	-0.03231744

network_body.linear_encoder.seq_layers.0.bias f4 [256]
0	0xbbbec048	-0.0058212616
1	0xbd3c399a	-0.04595337
2	0xbbb5a4dd	-0.005543335
3	0xbd0781a8	-0.033082634
4	0xbd106401	-0.03525162
5	0x3cd11cfa	0.025526512
6	0xbcbbdfa1	-0.022933783
7	0x3b5b4e31	0.0033463354
8	0x3c6737c8	0.01411242
9	0xbcdd2841	-0.026996734
10	0xbbc0018d	-0.00585956
11	0xbcd25806	-0.025676738
12	0xbc1d50a8	-0.0096017495
13	0xbd4b751e	-0.04967224
14	0x3d23aa93	0.039957594
15	0x3d4ff8b0	0.050774276
16	0xbc41974d	-0.011815858
17	0x3ab15665	0.0013529776
18	0xbcc42a2a	-0.023945887
19	0xbcdf01a8	-0.02722247
20	0x3cb7d97f	0.022442577
21	0x3c903134	0.017601587
22	0x3b36abf3	0.0027873486
23	0xbc5ba0b8	-0.013405018
24	0x3976c4fd	0.00023533772
25	0x3cd9e16f	0.026596753
26	0xbc64c946	-0.013964003
27	0xbb08463a	-0.0020793811
28	0xbc138aa1	-0.00900522
29	0xbb9dbc74	-0.004813725
30	0x3cfef510	0.031122714
31	0x3d4e8ef3	0.050429296
32	0x3b880231	0.004150652
33	0x3c2ce1fb	0.010551925
34	0xbc63673f	-0.013879596
35	0xbb983c35	-0.004645849
36	0x3ca51541	0.020151736
37	0x3d47b3d8	0.048755497
38	0x3c250a81	0.010073305
39	0x3c6333cc	0.01386733
40	0x3d13385b	0.035942417
41	0x3bc93210	0.006140001
42	0x3c2840f6	0.010269394
43	0xbd0142b6	-0.03155776
44	0xbc5781f8	-0.013153546
45	0xbc1f5fcf	-0.009727432
46	0xbbaadf29	-0.005214591
47	0x39f7acd2	0.00047240272
48	0x3c6cf01d	0.014461544
49	0x3cbf5ec0	0.02336061
50	0x3bb1d05a	0.005426449
51	0xbb1f1638	-0.0024274718
52	0x3cc3e78c	0.023914121
53	0xbaf7cc21	-0.001890544
54	0xbcee2b61	-0.029073419
55	0xbbdde4e3	-0.00677167
56	0x3bab240e	0.005222804
57	0xbc5f7cbd	-0.01364058
58	0x3bf82477	0.0075727063
59	0xbd120a08	-0.035654098
60	0x3cc4bbf9	0.024015414
61	0x3c401aef	0.0117251715
62	0x3c845d99	0.016157912
63	0x3d2ff821	0.042961244
64	0x3cfe041e	0.031007823
65	0x3d0527f5	0.03250881
66	0x3cdef534	0.027216531
67	0xbd279fed	-0.040924
68	0x3c743fc4	0.014907781
69	0xbd225e39	-0.03964064
70	0xbc6a4816	-0.014299413
71	0x3d27b76b	0.040946405
72	0x3c706b1e	0.014673976
73	0x3b8befb8	0.00427052
74	0x3c492918	0.012277864
75	0x3c2993fc	0.010350224
76	0xbd250850	-0.04029113
77	0x3996bb83	0.00028749937
78	0x3bd39ff5	0.0064582773
79	0xbc419837	-0.011816076
80	0xbc9e8082	-0.019348387
81	0x3bb4bab1	0.0055154194
82	0x3b90601b	0.004405988
83	0xbcc35eb7	-0.023848874
84	0x3cb16667	0.021655275
85	0xbbfec628	-0.007775087
86	0xbbc5d91f	-0.0060378457
87	0xbc038d7a	-0.008029336
88	0x3b9778fd	0.004622577
89	0xbc88b1f1	-0.016686412
90	0x3bbbd607	0.005732301
91	0x3bd881bd	0.006607263
92	0xbc37098f	-0.011171713
93	0xbb87d2c8	-0.004145
94	0xbc8a7597	-0.016901774
95	0x3c4ed3ec	0.012623768
96	0xbc901e30	-0.01759252
97	0x3d366b76	0.044536076
98	0xbc5e97a3	-0.013585958
99	0xbb7dc1f5	-0.0038720344
100	0xbc1f6901	-0.009729625
101	0xbcbb701b	-0.022880604
102	0xbceea943	-0.029133445
103	0xbbdd56ee	-0.0067547476
104	0x3cf77047	0.030204905
105	0xbc1827c1	-0.009286822
106	0xbc80e02f	-0.015731899
107	0x3ca1dde1	0.01975912
108	0xbd0fa315	-0.035067637
109	0x3c864d3c	0.01639425
110	0x3b99deda	0.0046957554
111	0xbcb20dbd	-0.021735067
112	0x3c9d2cb3	0.019186353
113	0xbce23264	-0.027611919
114	0xbd0222d9	-0.031771515
115	0xbcfa5e61	-0.030562581
116	0xbcb793c4	-0.022409327
117	0x3c4cfe24	0.012511764
118	0xb9f46dec	-0.00046621205
119	0xbbc5873e	-0.006028085
120	0xbd154319	-0.036440942
121	0xbce362f3	-0.027757144
122	0xbc88aeb2	-0.016684864
123	0x3d540128	0.051758915
124	0xbba6d2fa	-0.0050910683
125	0x3cf1db81	0.029523613
126	0x3ad817aa	0.0016486545
127	0x3c6cde05	0.01445723
128	0x3c995e28	0.018721655
129	0xbbcebb7a	-0.00630897
130	0x3d4a9f38	0.04946825
131	0xbc105b30	-0.008810803
132	0x3d0259f3	0.031824064
133	0xbc3f04b7	-0.011658839
134	0xbc9e36d4	-0.019313253
135	0x3b80bd71	0.003928833
136	0xbb52e193	-0.003217791
137	0xbbbf3538	-0.0058352016
138	0x3c7a701e	0.01528552
139	0xbb8a95af	-0.0042292695
140	0x3c3e6cfd	0.0116226645
141	0xba26c77e	-0.0006362124
142	0xbd07a05d	-0.03311192
143	0xbce97d5b	-0.028502157
144	0x3c24eac2	0.010065736
145	0xbcb1bdcd	-0.02169695
146	0xbb09874a	-0.002098518
147	0x3d8e7388	0.069556296
148	0xbd3ac620	-0.045599103
149	0x3d49fcd1	0.04931337
150	0xbcccd467	-0.025003625
151	0x3ce4d852	0.02793518
152	0xbcbdb43d	-0.023157233
153	0xbcb25661	-0.021769704
154	0x3a73ab94	0.00092952815
155	0x3c1f39e4	0.009718392
156	0xbc7e340e	-0.0155153405
157	0xbc4dd8e0	-0.012563914
158	0xba0ad285	-0.0005295652
159	0xbd348242	-0.044069536
160	0xbb7d12d9	-0.003861597
161	0x381a48ad	3.6784146e-05
162	0x3ba9be77	0.005180176
163	0x3ce4896a	0.027897555
164	0xbc08e9e6	-0.008356547
165	0xbcd72d83	-0.026266819
166	0xbc336631	-0.010949657
167	0xbbaca2e6	-0.0052684424
168	0x3c654ac9	0.013994881
169	0xbc382e95	-0.011241575
170	0x3c738f7d	0.014865753
171	0xbc1d591a	-0.009603763
172	0xbd12f174	-0.0358748
173	0xbcbccc92	-0.023046765
174	0xbc80ac7c	-0.015707247
175	0x3b2ef6fd	0.002669751
176	0xb9345b49	-0.00017200144
177	0x3c6941a1	0.014236839
178	0xbd0a4f6c	-0.03376715
179	0xbc3fbf55	-0.011703332
180	0xbc1e1036	-0.00964742
181	0x3d19f4dd	0.037587035
182	0xbc245766	-0.010030603
183	0x3b9b7d8c	0.004745191
184	0xbc9c8f99	-0.019111441
185	0xbc8c28a9	-0.017109232
186	0x3bb17c8e	0.0054164594
187	0xbc54eaf4	-0.01299547
188	0xbc554000	-0.013015747
189	0xbc005a89	-0.007834085
190	0xba74484d	-0.0009318635
191	0x3d44fdb7	0.048093524
192	0x3c834007	0.016021742
193	0xbb9179f2	-0.004439586
194	0x3cffaaf5	0.031209448
195	0x39bb090d	0.00035674163
196	0x3d14dc65	0.036342997
197	0x3d1ab43f	0.037769552
198	0xbb7f1954	-0.003892501
199	0x3a610433	0.00085836946
200	0xbba2b3e7	-0.0049652937
201	0xbd0d60d0	-0.034516156
202	0x3c244ec7	0.010028548
203	0x3d0f369f	0.0349642
204	0x3b90c617	0.0044181454
205	0x3c820c10	0.015874892
206	0x3b612f3f	0.0034360436
207	0x3cc8f0b6	0.024528842
208	0xbc82b83a	-0.015956987
209	0xbc772d16	-0.015086433
210	0xbce50451	-0.02795616
211	0x3d0ccc20	0.034374356
212	0xbb016054	-0.0019741254
213	0xbcea043b	-0.02856647
214	0xbcf7d61a	-0.030253459
215	0x3cbc6ad2	0.023000155
216	0xbbe00edd	-0.0068377093
217	0xbc8f342d	-0.017480934
218	0x3bc9d84b	0.0061598173
219	0xbc823816	-0.015895884
220	0xbc681ae8	-0.014166571
221	0xbae4e157	-0.0017462176
222	0xbb34904d	-0.002755183
223	0x3c8fd9d2	0.01755992
224	0xbc435cf4	-0.011924017
225	0x3b50223d	0.003175869
226	0x3bf7a821	0.0075578843
227	0xbc88b9ed	-0.016690219
228	0x3c8561f6	0.016282063
229	0x3d18b9b1	0.037286464
230	0xbd264ebd	-0.040602434
231	0x3cbec3ca	0.023286719
232	0xbc95cd51	-0.018286379
233	0x3c899322	0.016793791
234	0x3c5fa6ba	0.013650591
235	0xbbf2d46f	-0.007410578
236	0xbc2ec55c	-0.010667171
237	0xbc6884e7	-0.014191843
238	0x3cf87dc8	0.030333415
239	0x3aa30613	0.0012437723
240	0x3cc3bd90	0.023894101
241	0x3c5d52c0	0.013508499
242	0xbc866d3a	-0.016409505
243	0x3ca560be	0.020187732
244	0xbd0c6634	-0.034277156
245	0xbcb5f0df	-0.022209583
246	0xbc771e54	-0.015082914
247	0x3c0f8d83	0.008761766
248	0x3ba14f20	0.0049227625
249	0x3d4ec31f	0.05047905
250	0xbcff5d55	-0.031172434
251	0xbcc497b5	-0.02399812
252	0xbd3cfa8f	-0.04613739
253	0xbc80e90d	-0.015736127
254	0xbc5f8fa8	-0.01364509
255	0x3a1289f2	0.00055900135

network_body.linear_encoder.seq_layers.0.weight f4 [256, 253]
0	0x3d9f8fe2	0.07791115
1	0xbe2f41ea	-0.17114988
2	0x3db948d0	0.09047091
3	0x3d304324	0.04303278
4	0x3dde6f13	0.108610295
5	0xbd092e36	-0.033491336
6	0xbcb2ea9f	-0.021840392
7	0xbe22e015	-0.15905793
8	0x3d6b2e58	0.057417244
9	0xbe6638e7	-0.22482644
10	0xbda0ebd1	-0.078574784
11	0x3e0d98a3	0.13827758
12	0x3e04b499	0.12959518
13	0x3d9160e8	0.070985615
14	0xbdf29170	-0.11844146
15	0x3d151112	0.036393233
16	0xbd54047d	-0.051762093
17	0xbd99c5f4	-0.0750846
18	0x3db8eaff	0.09029197
19	0xbd0cc6b7	-0.034369197
20	0x3c415608	0.011800297
21	0x3d07d51b	0.033162218
22	0xbd4c32b0	-0.049853027
23	0xbd6a4c08	-0.057201415
24	0x3df1e2ea	0.118108585
25	0x3d2aafba	0.041671492
26	0xbce075a9	-0.027399855
27	0x3d986c14	0.07442489
28	0xbe1379c3	-0.14401917
29	0x3d5aa4d6	0.053379856
30	0xbda4a6e9	-0.08039648
31	0x3de5404d	0.11193905
32	0xbe5ed16c	-0.21759576
33	0xbe0b5a0f	-0.13608573
34	0xbe1a5778	-0.15072429
35	0xbdb975c7	-0.09055667
36	0x3d40dcfb	0.047085743
37	0x3d3808b8	0.04493019
38	0xbd722d61	-0.059125308
39	0x3db82f62	0.089934126
40	0xbbc591d3	-0.0060293465
41	0xbd9c45d5	-0.07630507
42	0x3c711990	0.014715567
43	0x3e1b1a5a	0.15146771
44	0xbc88318b	-0.016625186
45	0xbce72ff4	-0.028221108
46	0x3d8c9625	0.06864575
47	0x3d3221f0	0.043489397
48	0xbdd94e8f	-0.10610687
49	0x3d67e481	0.056614403
50	0x3e1341e3	0.14380603
51	0x3dc28efe	0.0949993
52	0xbce9c49d	-0.028536135
53	0xbd3d25a9	-0.046178494
54	0x3d8f25af	0.069896095
55	0x3bd4d9cd	0.0064956904
56	0x3c5beffe	0.013423918
57	0x3df20aff	0.118185036
58	0x3dcaea1c	0.09907934
59	0x3e0bafc1	0.13641264
60	0x3e5ade32	0.21373823
61	0x3dc90c1c	0.09816763
62	0xbe03ecb2	-0.12883261
63	0x3cad7c5f	0.021177469
64	0x3bab4f82	0.005227984
65	0x3d6af01b	0.05735789
66	0xbde988b7	-0.114030294
67	0xbdc54227	-0.09631758
68	0x3d49cec8	0.049269468
69	0x3d354aa4	0.044260636
70	0xbe68e321	-0.22742893
71	0xbda7b9ae	-0.081897125
72	0xbd8d2fba	-0.06893869
73	0x3dd8a6ec	0.10578713
74	0xbe48d98f	-0.19614242
75	0xbe120126	-0.1425825
76	0x3dded64d	0.108807184
77	0xbc70ded5	-0.014701565
78	0xbe1b270e	-0.15151617
79	0xbcf2a2b1	-0.029618593
80	0xbb72ebd2	-0.003706683
81	0xbe06e367	-0.13172685
82	0xbe1347cc	-0.14382857
83	0xbdec1aa1	-0.115285166
84	0x3d2ceaca	0.0422161
85	0x3d25ff6b	0.04052679
86	0xbe17abf0	-0.14811683
87	0xbd75ddc3	-0.06002594
88	0xbdb9dbad	-0.09075103
89	0xbd3a9be8	-0.04555884
90	0xbe342901	-0.17593767
91	0x3cd8488f	0.026401786
92	0x3dc8fa8f	0.09813415
93	0x3da4fb46	0.08055739
94	0xbce9aa76	-0.028523665
95	0xbdd038a7	-0.101670556
96	0xb9996ae3	-0.0002926207
97	0xbe449879	-0.19198789
98	0xbe528678	-0.20559108
99	0x3d7f37f5	0.062309224
100	0x3d7e7db2	0.06213159
101	0x3d605038	0.054764003
102	0xbe237593	-0.1596282
103	0x3d9c7625	0.07639722
104	0xbb63d205	-0.0034762633
105	0xbdc387db	-0.09547397
106	0xbce51e0f	-0.027968435
107	0xbe3ac3d5	-0.18238766
108	0x3d43adab	0.047773045
109	0x3ceaacd1	0.028646858
110	0xbd1f432b	-0.038882416
111	0x3d30fc00	0.043209076
112	0x3c15731f	0.009121685
113	0xbd7124a6	-0.05887284
114	0xbde4143c	-0.11136672
115	0x3cce1761	0.025157632
116	0x3da1a523	0.078928255
117	0x3d3a8225	0.04553427
118	0x3c9cc33b	0.019136062
119	0xbd308f6c	-0.043105528
120	0x3d043268	0.032274634
121	0xbd1ba87e	-0.038002484
122	0xbd96270c	-0.07331666
123	0xbcd69763	-0.026195234
124	0xbdc7fe5e	-0.097653136
125	0xba389af8	-0.0007042135
126	0xbd82be54	-0.063839585
127	0x3db00809	0.085952826
128	0x3cc99cec	0.024610959
129	0xbe83380f	-0.25628707
130	0xbe2230a5	-0.15838869
131	0xbd17f6fa	-0.03710077
132	0x3cb0988d	0.021557117
133	0xbd0622f5	-0.03274818
134	0x3cda4ed5	0.026648918
135	0x3d5f5f90	0.054534495
136	0x3cecd6f7	0.028911097
137	0xbe0ab293	-0.13544683
138	0x3bfa1ff2	0.0076332027
139	0xbd91d9fd	-0.07121656
140	0x3ca3dbbe	0.020002242
141	0x3d73715a	0.059434272
142	0xbe181d89	-0.14855017
143	0x3e8c051d	0.2734765
144	0x3cead68e	0.02866676
145	0xbdb39379	-0.087683626
146	0xbd5e103c	-0.0542147
147	0x3d6bf382	0.057605274
148	0x3c912c4e	0.017721321
149	0x3da1832a	0.07886346
150	0xbea4686e	-0.32110924
151	0x3dfeed94	0.12447658
152	0xbd3d3f82	-0.046203144
153	0xbd8d2a10	-0.068927884
154	0x3dee3a70	0.1163224
155	0xbe0f96f5	-0.1402243
156	0xbc528566	-0.0128491875
157	0xbce46522	-0.027880255
158	0xbdea4fc7	-0.114409976
159	0x3cad718c	0.021172307
160	0x3c8521f3	0.01625154
161	0xbe2d6ec3	-0.16936783
162	0x3c400ddb	0.011722053
163	0xbde5804e	-0.11206113
164	0xbca1ea0a	-0.019764919
165	0xbe02216f	-0.12708066
166	0x3bd97517	0.0066362727
167	0xbdb7889c	-0.08961603
168	0x3e0fa2b3	0.14026909
169	0xbe41d47a	-0.1892871
170	0x3e100f92	0.1406844
171	0x3e06cfa6	0.13165149
172	0xbd9563c8	-0.072944224
173	0xbe0b42cb	-0.13599698
174	0xbd8a2b82	-0.0674658
175	0xbb0a6976	-0.0021119989
176	0x3df19319	0.11795635
177	0xbe3cc3db	-0.18434088
178	0xbcd13b7f	-0.025541065
179	0xbde5bc3f	-0.11217546
180	0x3d500abd	0.05079149
181	0xbdc8445e	-0.09778665
182	0xbe007d39	-0.12547769
183	0x3caece8b	0.021338722
184	0x3d325285	0.043535728
185	0xbdef7d5a	-0.11693831
186	0x3b1b94fb	0.0023739922
187	0xbda64840	-0.08119249
188	0x3b7d9249	0.003869193
189	0x3c5027dc	0.012704816
190	0xbe09d78f	-0.13461135
191	0x3d850554	0.06495157
192	0x3d46e539	0.048558448
193	0xbdae2e04	-0.085048705
194	0x3d967728	0.07346946
195	0xbceb00ac	-0.028686844
196	0x3db2ebd8	0.0873639
197	0xbd7b65b1	-0.061376277
198	0xbd71ece5	-0.05906381
199	0x3dd7e85a	0.105423644
200	0x3e05b822	0.13058522
201	0xbdb36280	-0.08759022
202	0xbd58043a	-0.052738406
203	0x3d864281	0.06555653
204	0x3c53aa5d	0.012919036
205	0x3d9b39c9	0.07579381
206	0x3b09b05d	0.0021009662
207	0x3e1015ac	0.14070767
208	0x3d452911	0.048134867
209	0x3d6d2897	0.057900038
210	0x3c203ae1	0.009779663
211	0x3ce2d5c5	0.027689824
212	0x3cfbdecf	0.030745892
213	0xbceab120	-0.028648913
214	0xbd16543a	-0.03670142
215	0x3e40d048	0.18829453
216	0x3ced8d64	0.028998084
217	0x3d81b496	0.06333272
218	0x3e22ab5a	0.15885678
219	0xbcc879a3	-0.024472063
220	0x3cb39902	0.021923546
221	0xbadeef7f	-0.0017008631
222	0xbd43c4e8	-0.047795206
223	0x3e04aced	0.12956591
224	0x3c3428c2	0.010996046
225	0xbd52f7e1	-0.051505927
226	0x3e07cd66	0.13261947
227	0x3d3f4f60	0.046706557
228	0x3d9b19e8	0.075733006
229	0x3e2168a8	0.1576258
230	0xbdcee146	-0.10101561
231	0xbd0cfcb4	-0.034420684
232	0x3d99e9a3	0.07515266
233	0x3d82114b	0.063509546
234	0x3d911ce1	0.07085586
235	0x3d145e27	0.036222603
236	0x3c27f975	0.010252346
237	0x3d529cbf	0.051419016
238	0x3c8f2638	0.017474279
239	0x3e19013f	0.14941882
240	0x3d3294ad	0.04359882
241	0x3d432dad	0.04765098
242	0x3e29d680	0.16585732
243	0x3dc8cc6d	0.09804616
244	0x3dbfeab0	0.09370935
245	0x3df1104f	0.11770689
246	0xbe1aa4c5	-0.15101917
247	0xbc94f975	-0.018185357
248	0xbd82cf2d	-0.06387172
249	0x3d385c9f	0.045010205
250	0x3e8cc67c	0.27495182
251	0x3e40a4ec	0.18812913
252	0x3dbc5114	0.09195152
253	0xbe25d526	-0.16194591
254	0x3d9569a0	0.07295537
255	0x3c995c9f	0.018720923

network_body.linear_encoder.seq_layers.2.bias f4 [256]
0	0xbc857e3f	-0.01629555
1	0xba7d716b	-0.00096680847
2	0xbca511c9	-0.020150082
3	0xbccab90b	-0.024746438
4	0x3adcf29f	0.0016856975
5	0x3c84f29a	0.016228963
6	0xbd3098e6	-0.043114565
7	0xbd279897	-0.040917005
8	0xbb9c3f45	-0.0047682845
9	0xbd15ce87	-0.036573913
10	0x3cf2d2f8	0.029641613
11	0xb9967eaa	-0.00028704602
12	0xbce3c45d	-0.027803594
13	0xbb9c0837	-0.0047617215
14	0x3d72706b	0.05918924
15	0xbd8432ed	-0.06455026
16	0x3b8c299e	0.004277422
17	0xbb2a2a45	-0.0025965136
18	0xbcae817e	-0.021301981
19	0x3ab5d06b	0.0013871317
20	0xbcbf624c	-0.023362301
21	0xbd626fdd	-0.055282462
22	0xbc585a83	-0.013205173
23	0xbd0d0b2b	-0.03443448
24	0xbc9d938d	-0.019235397
25	0xbd08e5f1	-0.033422414
26	0xbbe423ca	-0.006962274
27	0x3c508d3b	0.0127289845
28	0x3c30d2eb	0.010792474
29	0xbd45a494	-0.048252657
30	0xbb496fb9	-0.0030736758
31	0xbd5fb72f	-0.054618057
32	0xbd9c9a29	-0.07646591
33	0xbd5e24d6	-0.05423435
34	0xbd1fdbd6	-0.03902801
35	0x3cb2e3f6	0.021837216
36	0xbcdbf21e	-0.026848849
37	0xbd6974ca	-0.056996144
38	0xbd62338c	-0.05522494
39	0x3d2c16b3	0.042013835
40	0xbd2f07a3	-0.042731892
41	0x3cd2e1a1	0.025742354
42	0x3c6dadab	0.014506738
43	0x3c96844f	0.018373637
44	0xbc80a6b9	-0.0157045
45	0xbd2909dd	-0.041269172
46	0x3c012f6a	0.00788484
47	0xbc962f41	-0.01833308
48	0x3cfca428	0.030839995
49	0x3d4e5755	0.050376255
50	0xbd247b4a	-0.04015664
51	0xbcbd5202	-0.023110393
52	0xbb4480d0	-0.0029984005
53	0x3d61657a	0.055028416
54	0xbd33010a	-0.043702163
55	0x3cc6e93c	0.024281137
56	0x3cd0fe46	0.025511872
57	0xbc566092	-0.013084548
58	0xbd0a4188	-0.0337539
59	0xbca608e6	-0.020267915
60	0xbcaad87d	-0.020855183
61	0xbc6b7392	-0.014370816
62	0x3c46dcdf	0.012137621
63	0x3c168a40	0.009188235
64	0xbcebd7a2	-0.028789345
65	0x3ca4ebf2	0.020132039
66	0xbd34ff9e	-0.044189088
67	0xbcf671e1	-0.030083599
68	0x3c3c73c4	0.01150221
69	0xbcc6b368	-0.02425547
70	0xbcf7d729	-0.030253964
71	0x3d00aaff	0.031413075
72	0xbbfc99d2	-0.0077087665
73	0xbc3dc79e	-0.011583237
74	0xbcddcd74	-0.027075507
75	0xbcfd3607	-0.030909551
76	0xbccb58b4	-0.02482257
77	0x3c85074b	0.01623883
78	0xbc8fc82e	-0.017551508
79	0xbd0de201	-0.034639362
80	0x3c099f02	0.008399727
81	0xbd31ff1f	-0.043456193
82	0xbcf2a8fe	-0.029621597
83	0x3c9a6801	0.018848421
84	0xbbc77ce9	-0.0060878885
85	0xbc88fe32	-0.016722772
86	0xbd064e51	-0.032789532
87	0xbd17c0e9	-0.037049208
88	0xbd60a075	-0.054840524
89	0xbd1ae799	-0.037818525
90	0xbd10606b	-0.0352482
91	0x3c04fcfc	0.008116957
92	0xbd899c0e	-0.06719218
93	0xbbbb2523	-0.005711214
94	0xbc0715c7	-0.008244938
95	0xbb99aa09	-0.004689459
96	0xbcdb16f4	-0.026744343
97	0x3d09621f	0.03354084
98	0x3ca7ae29	0.020468788
99	0xbb536216	-0.0032254509
100	0x3c39cce1	0.011340351
101	0x3d510354	0.051028565
102	0x3c99127b	0.01868557
103	0xbd056152	-0.032563515
104	0xbd3b2a56	-0.04569467
105	0xbcf3d2cb	-0.0297636
106	0x3d832ba0	0.06404805
107	0xbcd51544	-0.026011117
108	0x3d1ccd5f	0.038281795
109	0xbd65d106	-0.056107543
110	0xbc4ffebf	-0.012695014
111	0xbcc440c3	-0.023956662
112	0xbc6f56af	-0.014608069
113	0xbd6a6e0d	-0.05723386
114	0xbd4900be	-0.049072973
115	0x3cb4bc57	0.022062464
116	0xbc9d53c0	-0.019204974
117	0xbc6b9eb2	-0.014381098
118	0xbd136bbe	-0.035991423
119	0x3c02f406	0.00799275
120	0xbcea19c3	-0.028576737
121	0xbc318713	-0.010835427
122	0x3cb86a94	0.022511758
123	0x3c918f33	0.017768478
124	0xbc975f07	-0.01847793
125	0xbc98b939	-0.018643009
126	0x3cfd3d31	0.030912967
127	0xbcfffa8b	-0.031247398
128	0x3ca92fd9	0.020652698
129	0x3c3d6f18	0.011562131
130	0x3cd5574e	0.026042607
131	0xbac371c7	-0.0014911228
132	0xbd081bf1	-0.033229772
133	0xbd3698c1	-0.04457927
134	0x3cbafb04	0.022824772
135	0xbd070488	-0.032963306
136	0xbcfcf45b	-0.030878237
137	0xbd3cc4d8	-0.046086162
138	0xbd1e1b91	-0.038600508
139	0xbc6aa3c6	-0.014321273
140	0x3d682649	0.056677137
141	0x3d142bf9	0.036174748
142	0xbd0d179b	-0.03444634
143	0xbd561446	-0.052265428
144	0xbcd4ec00	-0.02599144
145	0xbd709c02	-0.05874253
146	0xbd08629f	-0.033297177
147	0xbc0d6a89	-0.008631357
148	0xbd02767b	-0.031851273
149	0xbd0c2bf8	-0.03422162
150	0xbd540282	-0.051760204
151	0xbd0df6a0	-0.034659028
152	0x3c44f548	0.01202137
153	0x3d00b0d6	0.031418644
154	0x3d26c775	0.04071756
155	0xbcc8d4d0	-0.02451554
156	0x3c94ed83	0.01817966
157	0x3b18c335	0.0023309712
158	0x3c06aac7	0.008219427
159	0x3cbfcbc5	0.023412595
160	0x3d1d33e5	0.03837957
161	0xbc860c01	-0.016363146
162	0xbd96eff7	-0.073699884
163	0xbc9a21cc	-0.018814944
164	0x399071de	0.00027550658
165	0xbce51402	-0.027963642
166	0x3c09e28d	0.00841583
167	0x3c18fcc4	0.009337608
168	0xbc63b86b	-0.013898949
169	0xbd1fe750	-0.039038956
170	0x3bc7bcb9	0.0060954955
171	0x3be7d9ae	0.00707551
172	0xbd290ba0	-0.041270852
173	0xbcb489b5	-0.02203832
174	0xbd001045	-0.031265516
175	0x3d2893c7	0.041156556
176	0xbc027f1a	-0.007964874
177	0x3c182bcc	0.009287786
178	0x3d7339e0	0.059381366
179	0xbd93a953	-0.072100304
180	0xbce48f92	-0.02790049
181	0xbc8c4927	-0.017124726
182	0xbd0adcca	-0.033901967
183	0x3c455ba9	0.012045779
184	0xbc65c4c9	-0.014023968
185	0x3d451514	0.048115805
186	0xbcdeb99d	-0.027188117
187	0xbc9353eb	-0.017984351
188	0x3d8e7d38	0.06957477
189	0x3ce47d2d	0.02789172
190	0x3c1825eb	0.009286384
191	0xbcd83f52	-0.026397381
192	0x3cefe837	0.029285533
193	0x3c727f48	0.014800854
194	0xbcc504d7	-0.02405016
195	0xbcca1553	-0.024668371
196	0x3c59b363	0.013287398
197	0xbc93669d	-0.017993266
198	0xbd8d761e	-0.06907295
199	0xbcb034bb	-0.021509519
200	0xbcd47e27	-0.02593906
201	0xbcb774cc	-0.02239456
202	0xbd4871c6	-0.048936628
203	0x3ad298b8	0.0016067242
204	0x3c426188	0.011864074
205	0x3d32ca39	0.043649886
206	0xbbad92d0	-0.0052970424
207	0xbce4a3db	-0.027910164
208	0x3d316194	0.04330595
209	0xbd2b1733	-0.04177017
210	0xbc2bcc85	-0.010485773
211	0xbd07833d	-0.033084143
212	0xbc3c3bb5	-0.011488845
213	0x3d059342	0.03261114
214	0xbc4f1221	-0.0126386
215	0x3d28a70c	0.041174933
216	0xbd91682c	-0.07099947
217	0xbd197c03	-0.037471782
218	0xbb8d8d36	-0.004319812
219	0xbc53b52e	-0.012921615
220	0xbd2c41a5	-0.04205479
221	0xbc94a2d0	-0.018144041
222	0xbd72c261	-0.059267405
223	0xbc9e5303	-0.019326692
224	0x3cd4cb5e	0.02597588
225	0x3c6eaf79	0.014568203
226	0x3cdb1270	0.02674219
227	0x39853099	0.00025403945
228	0x3c200ae8	0.009768225
229	0xbd6a882e	-0.057258777
230	0xbbca5a15	-0.0061752894
231	0xbc7a53dd	-0.015278784
232	0xbd383eab	-0.04498164
233	0xbc9c17a2	-0.019054238
234	0xbb4a3676	-0.0030855215
235	0x3c7e8d4b	0.015536617
236	0x3cdef545	0.027216563
237	0xbc59f185	-0.013302212
238	0x3a56a100	0.0008187443
239	0xbc49cdec	-0.012317162
240	0xbca8c054	-0.020599522
241	0x3d22141e	0.039569966
242	0x3cfc6156	0.030808132
243	0xba0771f8	-0.0005166824
244	0xbc898985	-0.016789207
245	0xbd860835	-0.06544534
246	0xbab07a88	-0.0013464252
247	0xbd401097	-0.04689082
248	0xbcab501a	-0.020912219
249	0xbce2c2fb	-0.027680865
250	0xbcd7f499	-0.02636175
251	0xbb7dc5f3	-0.0038722723
252	0xbab613c1	-0.0013891385
253	0x3d035e01	0.03207207
254	0xbd2eab88	-0.042644054
255	0xbd2850db	-0.041092735

network_body.linear_encoder.seq_layers.2.weight f4 [256, 256]
0	0x3aeb74d8	0.0017963899
1	0x3e2cc387	0.16871463
2	0x3d294735	0.041327674
3	0xbd847376	-0.06467335
4	0x3d70a93f	0.058755156
5	0xbd829d38	-0.06377643
6	0xbe2620db	-0.16223471
7	0x3e2af306	0.16694269
8	0xbd1af5b5	-0.03783198
9	0x3d9df5cf	0.077129
10	0xbdab32e5	-0.08359317
11	0xbdf47438	-0.119362295
12	0x3e14daf2	0.14536646
13	0xbe44d214	-0.19220763
14	0xbda74da2	-0.08169104
15	0xbd38cf7e	-0.045119755
16	0xbd3e1155	-0.046403248
17	0x3d1fb04e	0.038986497
18	0x3e2b399b	0.16721193
19	0xbc0a9498	-0.008458279
20	0x3e2f0121	0.17090274
21	0x3d03b954	0.032159165
22	0xbdd51931	-0.104051955
23	0x3ba65a95	0.005076716
24	0x3dc9fdda	0.098628715
25	0xbd07661b	-0.03305636
26	0xbb04c27a	-0.0020257519
27	0x3ce49ad1	0.027905853
28	0xbce0ca42	-0.027440194
29	0xbd4d03cf	-0.05005246
30	0x3bd9dff2	0.006649011
31	0xbd93e487	-0.072213225
32	0xbdd48f32	-0.10378875
33	0xbbed33f4	-0.0072388593
34	0x3e13e6ac	0.14443463
35	0xbdaa4957	-0.0831477
36	0x3d48156e	0.048848562
37	0xbd8581b8	-0.065188825
38	0xbc8a1878	-0.01685737
39	0xbdb6904b	-0.089142404
40	0xbda48cd8	-0.08034676
41	0x3cd36da1	0.025809111
42	0xbcceb844	-0.02523435
43	0xbdb8a92e	-0.090166435
44	0x3cfa4fc3	0.030555611
45	0x3d845e67	0.06463318
46	0x3e444d8e	0.1917021
47	0x3dafd395	0.08585278
48	0x3d929bac	0.07158598
49	0xbd8c1a72	-0.068409815
50	0xbd6e047d	-0.05810975
51	0xbdf5b099	-0.11996574
52	0xbd530b54	-0.051524475
53	0xba72534f	-0.00092439813
54	0x3d7e13c9	0.062030587
55	0x3d8bbd1c	0.06823179
56	0x3e00611a	0.12537041
57	0x3ded114f	0.11575567
58	0x3dda5533	0.10660782
59	0xbd387315	-0.045031626
60	0x3daf1e8e	0.0855075
61	0xbd9eb5cf	-0.07749521
62	0x3d339237	0.043840613
63	0xba915526	-0.0011087998
64	0xba9c02b5	-0.0011902662
65	0xbcb6becd	-0.022307778
66	0xbd10988e	-0.035301737
67	0x3d8e4723	0.06947162
68	0x3ce0bbb1	0.027433248
69	0x3c0e9668	0.008702852
70	0x3cf2df2f	0.029647438
71	0x3d9b5bd9	0.07585878
72	0xbe239020	-0.15972948
73	0xbd411de8	-0.04714766
74	0x3c8f0c1b	0.017461827
75	0xbe283100	-0.16424942
76	0xbdeea20d	-0.116520025
77	0xbddd9b77	-0.10820668
78	0x3af42144	0.0018625637
79	0x3c354ce3	0.0110656945
80	0x3de84d81	0.11342908
81	0x3a19261c	0.00058421656
82	0x3d745e70	0.059660375
83	0xbd7bf0e8	-0.061509043
84	0xbd5c4c4f	-0.05378371
85	0x3cf0e0cd	0.029404068
86	0xbdd449eb	-0.10365661
87	0xbe35f688	-0.17769825
88	0x3e127c05	0.14305122
89	0xbe11c6df	-0.1423602
90	0x3e0b1a78	0.13584316
91	0x3c802a9e	0.015645321
92	0xbd8e9760	-0.06962466
93	0xbe52967a	-0.20565215
94	0x3e3c9e46	0.18419752
95	0xbcb325ae	-0.021868553
96	0x3d266a4a	0.04062871
97	0x3cada3f6	0.021196347
98	0x3d5a4e9f	0.053297635
99	0xbe37ede4	-0.17961842
100	0x3d079ac4	0.03310658
101	0x3d7cd592	0.061727114
102	0xbd04ff78	-0.032470196
103	0xbdac5990	-0.0841552
104	0x3d411d95	0.047147352
105	0x3db74f3a	0.08950658
106	0xbc356a10	-0.011072651
107	0xbcb400c2	-0.021973018
108	0xbdad96be	-0.084760174
109	0x3d90d59c	0.07071993
110	0xbd3eb300	-0.046557426
111	0x3c003bb6	0.007826736
112	0x3e6729ca	0.22574535
113	0x3cb7ee47	0.022452487
114	0xbd39c9dc	-0.045358524
115	0x3d85d762	0.06535222
116	0x3d2c401b	0.042053323
117	0x3d6a580a	0.057212867
118	0x3e116d0b	0.14201753
119	0x3e322f07	0.17400752
120	0xbdb3cd5f	-0.08779406
121	0x3e1ea23d	0.15491576
122	0xbdb8eda3	-0.090297006
123	0xbe4aa3e8	-0.19789088
124	0x3cc79acd	0.024365807
125	0xbdd87bea	-0.1057051
126	0xbd9c0a51	-0.07619155
127	0xbd6be7ef	-0.057594236
128	0x3b54997e	0.0032440121
129	0x3d9bc212	0.07605375
130	0xbde9ce15	-0.1141626
131	0x3d77a0eb	0.060456198
132	0xbc595b5e	-0.013266413
133	0x3e2eab87	0.1705762
134	0xbd1275c3	-0.035756838
135	0x3e5633b4	0.2091816
136	0x3c98d9c9	0.018658536
137	0xbd88a2f3	-0.06671705
138	0xbd51dc54	-0.051235512
139	0xbc62e3e5	-0.01384828
140	0x3ce91d4f	0.028456358
141	0x3e98ad44	0.2981969
142	0xbc0acd58	-0.008471809
143	0x3ce7145d	0.028207952
144	0x3e1b26e7	0.15151559
145	0x3b94498f	0.0045253704
146	0x3e244b9b	0.16044466
147	0xbd4c5685	-0.0498872
148	0x3d023a11	0.031793658
149	0xbe08cd9d	-0.13359685
150	0xbb1c4a96	-0.0023848168
151	0x3b705d9d	0.0036676892
152	0xbcb8d962	-0.022564594
153	0x3e10fb41	0.14158346
154	0x3da75751	0.08170951
155	0xbe3d90e2	-0.185123
156	0xbdc5bcaf	-0.09655129
157	0x3bc8b0c8	0.0061245896
158	0xbcf6b454	-0.030115284
159	0xbd74a3d9	-0.05972657
160	0x3dc56748	0.0963884
161	0x3d8be06d	0.06829915
162	0xbd02ce27	-0.031934883
163	0xbcef4686	-0.029208433
164	0xbd7c5725	-0.061606545
165	0xbcab5a69	-0.020917134
166	0x3c54f228	0.012997188
167	0x3dfa8294	0.12231937
168	0x3d6431e7	0.055711653
169	0x3e5192ce	0.20466158
170	0xbdbb4043	-0.09143116
171	0xbde10a92	-0.10988344
172	0x3e220027	0.1582037
173	0x3d651c57	0.05593523
174	0xbb39c23a	-0.0028344528
175	0xbcd4d794	-0.025981702
176	0x3e88d03a	0.26721364
177	0xbd0f19f2	-0.034936853
178	0x3e0339c2	0.12815002
179	0x3e0d9e7a	0.13829985
180	0x3cbd60cc	0.023117445
181	0xbe21de24	-0.15807396
182	0x3de10a25	0.10988263
183	0x3adaa3b0	0.0016680863
184	0x3e112cfa	0.14177313
185	0xbcc18350	-0.023622185
186	0xbc6fce7b	-0.014636631
187	0x3d3f8db5	0.046766
188	0xbd8b99fb	-0.06816479
189	0xbdbd42fe	-0.09241293
190	0xbd3d07fd	-0.046150196
191	0x3dcb14f5	0.099161066
192	0x3c6711a1	0.014103324
193	0xbe2370bd	-0.15960975
194	0xbe0051c4	-0.12531191
195	0xbe08329d	-0.13300557
196	0x3d45f4cf	0.04832917
197	0x3e322d00	0.17399979
198	0xbd3fd673	-0.046835374
199	0x3e4631f2	0.1935499
200	0x3dcc2202	0.09967424
201	0x3b36e823	0.002790936
202	0xbd8ab09d	-0.067719676
203	0xbd1a8558	-0.037724823
204	0x3e0d2ff7	0.13787828
205	0x3d9199df	0.07109427
206	0x3d275a4b	0.040857594
207	0xbe155741	-0.14584066
208	0xbc1e9aca	-0.009680459
209	0xbd15611f	-0.036469575
210	0xbd88122e	-0.066440925
211	0x3b16a8d0	0.0022988804
212	0x3d6337ac	0.055473015
213	0x3c9f3ce9	0.019438224
214	0x3d888536	0.06666033
215	0xbdf3df40	-0.11907816
216	0xbdc3c23b	-0.09558531
217	0xbc876351	-0.01652685
218	0x3d93e79f	0.072219126
219	0xb9acc57a	-0.00032953528
220	0x3e0febf5	0.14054854
221	0x3dac3c82	0.084099784
222	0x3db81d19	0.08989925
223	0x3ddd3122	0.10800387
224	0x3ddcd5c8	0.10782963
225	0xbc5b398a	-0.013380418
226	0xbe1ad841	-0.15121557
227	0xbd767ca4	-0.06017746
228	0x3d8b2cf8	0.067956865
229	0x3d5c0ebb	0.053724986
230	0x3d820bda	0.06349917
231	0x3cf69437	0.030099971
232	0xbd8598dd	-0.06523297
233	0x3cf05d82	0.029341463
234	0xbe16149a	-0.14656296
235	0xbe26f1c0	-0.16303158
236	0x3e2460c4	0.16052538
237	0x3d53b233	0.051683616
238	0xbb0ada3f	-0.0021187214
239	0x3e32d596	0.17464289
240	0x3d93cc96	0.07216756
241	0x39abd10d	0.00032771417
242	0x3e24ccfe	0.16093823
243	0xbc5a69a2	-0.013330849
244	0xbc5c6427	-0.013451613
245	0xbe0db22e	-0.13837501
246	0x3d641ea0	0.05569327
247	0x3d59b2d3	0.053149056
248	0xbdd15b8d	-0.1022254
249	0xbdec6ebb	-0.11544558
250	0x3e348f7d	0.17632861
251	0xbd5b6542	-0.053563364
252	0x3ca0a6b0	0.019610733
253	0x3de7983a	0.11308332
254	0xbda5dc91	-0.0809871
255	0x3d87b1ac	0.06625685
