Project/Assets/MyProject/Chaser/CVR 4/Models/ver 3/ThiefBrain.onnx (onnx, 546224 bytes, 6 tensors)

action_model._discrete_distribution.branches.0.bias f4 [7]
00000000: 3a99 c5bc 9fcd 853c 3baf 373d 746d 053d
00000010: 437b debc 3401 7bbc 5518 35bb
-0.024120916 0.0163334 0.044844847 0.032575086 -0.027158385 -0.015320111 -0.0027632911

action_model._discrete_distribution.branches.0.weight f4 [7, 256]
00000000: 8169 32bd 839f dd38 fdfc 0dba 09e8 1d3c
00000010: 7b84 db39 0dc3 4dbd 9277 b7bc 8f07 aabc
00000020: 1742 063d 5e27 5c3d 5d84 6cbd ad64 4abb
00000030: 5a1e 6c3d 6d0f 443d 72b1 8e3c 3b2a 223d
00000040: a4cb 7d3d 66f0 083d 96e7 bfbd 9e8f 94bd
00000050: 2fcc 94ba 4aec 04bd 1973 08bd b73c 3e3d
00000060: cbb8 e23b 2b0f 36bd 9478 b2bc 76ba 4dbc
00000070: e4fb 87bc c64f debb 43e3 a23d 0c55 26bd
00000080: 1cf6 383a d5c1 81bb 40a4 e23c 03f3 6a3c
00000090: 3aca 4bbc ed88 9d3b fc93 533d 7565 103d
000000a0: e83b f5bc 1d8c e23b 4676 373d 029c ea3c
000000b0: 2c2e c9ba 53a4 a33c 5596 a4bc 6f31 2fbc
000000c0: 511e e4bb 868d 5dbd 1742 87bd f0af 313d
000000d0: 4d88 8ebc 6fec 9fbc 10c4 4abc 1813 43bd
000000e0: 4abe 943b 52d8 8f3c 9bec 0ebc ac28 7cbd
000000f0: 7a6f f73d 2858 5a3d 69fe a63c dc45 5a3d
00000100: 2248 e6bc 45c9 2cbb 4542 2fbd 9a16 97bb
00000110: c4bd 04bd f11c 763d 3a78 443c 27e3 42bc
00000120: db71 17bc ef86 d2bd 89b0 d53b 245e 2f3d
00000130: b8af 463d 48aa 0abd 11cb fa38 16f8 693d
00000140: 06b8 643d 7bbe 423d 5299 80bd 4d2e fdbc
00000150: 44b5 27bd 041c b83c 7405 e5bc b4d8 95bc
00000160: 3bc8 4cbc 1820 06bd 22a1 213d 85e4 97bc
00000170: 249f 963d bd80 e1bc 3e2e c7bb 5309 253d
00000180: 45b3 6fbc 9715 3c3c ecc3 0e3d 7a8d 4a3b
00000190: 1f89 f7bc 4b2f bebd b75e d5bc cde8 99ba
000001a0: c2ca 25bd 4b9a d2bc 2a76 9a3c c9e4 373d
000001b0: 18af 8b3d 3f0f b53c b1cc 72bd 3d07 84bd
000001c0: 1fb8 cbbc 7bee 60bc 86b4 f03c b59c 9bbc
000001d0: be9f 5b3d 7f66 f0bc c3ee 17bd 115a 30bd
000001e0: f272 9dbc ef1b 15bd 6c54 0cbd 3f27 81bd
000001f0: aca5 40bc 494b e73c 0f57 053d 26d4 383d
00000200: b023 fb39 49af 373d dcb6 943c 7e5e 3abd
00000210: f1b0 bdbd 3592 a33d e51a 29bd 4d1f ae3c
00000220: b233 f93c 3a6a 383a 5c7c 80bc 3bfb 94bd
00000230: 5537 c63c badb 07bc 5e88 9dbc 2a10 1abd
00000240: a069 933d 9ed5 123d 3cce fabb ffea fabb
00000250: 369a c13b 70d8 dcba 02b0 8a3d 77a8 78bd
00000260: f28c ecbc 4a69 4a3d 3f8a 593b d3d5 8ebc
00000270: f4a7 4d3c 3647 33bd 5a8c b23b da41 45bd
00000280: 5a7e 43bd 0268 83bd 040d bebc b178 30bc
00000290: 0c46 08bd 2cea 713d 4cdf 063d 62fe 903b
000002a0: f771 873d 896c 323d b5d0 0dbd 011b 95bd
000002b0: a38d e03c 091b 07bb b122 27bc bdb5 8039
000002c0: aff8 ee3b bea2 c93c 98d6 ca3a 55e0 7cbc
000002d0: ccb6 c9bd 7204 423d a6d7 ef3c e614 24bd
000002e0: b2ea a6bb 3db9 04bc 9f94 82b9 e8b2 c8bd
000002f0: ec39 3b3d 7282 473d 9c62 2e3d 4c04 393d
00000300: bc86 c13c b7a5 78bd 0cef 77bc 89c9 01bc
00000310: 033b 1bbb 077b 1bbd b11e c6bc bc65 f4bc
00000320: ee29 bfbb ec79 fa3b 5cb7 7ebd cebc 68bd
00000330: 6def 34bc 6231 85bd 313f d2bd a6cf 063d
00000340: a808 593d 9886 a83c a349 723b 7bb1 e53c
00000350: 0a33 56bd 6914 873c e857 15bd a895 f23c
00000360: 7d47 a1bd 7747 79bd 7334 c83c bc31 3dbc
00000370: c4f2 3fbd 2601 a73b 555b 5bbd b8b8 e73c
00000380: f04a 173d 49af d13c a298 e23b 00ad b03c
00000390: fb4c 9ebc ae85 a5bb 9895 143d 4d3b ad3c
000003a0: 12b5 903d 04d4 69bc 5bdc aa3c 9f9c a1bd
000003b0: ce04 73bc 8c8c 1abc 6ae7 debc c71c 8bbc
000003c0: 145d 5d3d 4489 41bc 6cd4 523d 4465 b53c
000003d0: d799 213c c68a 07bc b0ed 80bc efcb 36bd
000003e0: 2c0a 76bd 0d67 60bc 22dc 653c d063 553d
000003f0: 573d 053d b4fd 913c a753 843d fd6f a83c
-0.043557648 0.000105678126 -0.00054164213 0.009637841 0.0004186964 -0.050234843 -0.022395883 -0.020755557
0.032777872 0.05374848 -0.05774342 -0.0030882761 0.057646133 0.047866274 0.017418597 0.039591055
0.061961785 0.033432387 -0.093703434 -0.07253955 -0.0011352355 -0.032451905 -0.03331289 0.04644462
0.0069190017 -0.04444806 -0.021786012 -0.012556663 -0.016599603 -0.006784412 0.07953503 -0.04060845
0.0007055716 -0.003959874 0.027666211 0.014340165 -0.012438351 0.0048075826 0.0516548 0.035253007
-0.029935792 0.0069136755 0.04479053 0.028638843 -0.0015348843 0.019975817 -0.020091215 -0.010692938
-0.006961622 -0.054090045 -0.066044025 0.043380678 -0.017398978 -0.01952192 -0.0123758465 -0.04762563
0.004539286 0.017559204 -0.008723403 -0.061562225 0.12081809 0.05330673 0.020384984 0.05328928
-0.028110567 -0.0026365083 -0.04278781 -0.0046108486 -0.032407537 0.060086194 0.011991555 -0.011894978
-0.009243454 -0.10279643 0.006521289 0.04281439 0.048507422 -0.0338538 0.00011958753 0.05712136
0.05583956 0.047544938 -0.062792435 -0.030905867 -0.040944353 0.022474296 -0.027956702 -0.018291809
-0.012498911 -0.03274545 0.03946031 -0.018541584 0.073545724 -0.027527208 -0.0060785105 0.040292095
-0.0146301435 0.011479757 0.034854814 0.003090708 -0.030216752 -0.09286364 -0.02604614 -0.0011742354
-0.040476568 -0.025708338 0.018855173 0.04489592 0.06820506 0.022101996 -0.05927724 -0.06446693
-0.02486807 -0.013728733 0.029382955 -0.018995622 0.05361914 -0.029345749 -0.037092935 -0.043054644
-0.01921985 -0.036403593 -0.0342602 -0.06306314 -0.011758249 0.028234141 0.03255373 0.045124196
0.0004790104 0.0448449 0.0181536 -0.04550027 -0.092622645 0.07986871 -0.041285414 0.02125516
0.030420158 0.0007034872 -0.0156843 -0.07274481 0.024196306 -0.008292133 -0.019230064 -0.03761307
0.07197881 0.035848252 -0.0076539796 -0.0076574082 0.005908276 -0.0016849171 0.06771852 -0.060707536
-0.028875802 0.049416818 0.0033193973 -0.017435944 0.01255225 -0.043769084 0.00544886 -0.048158504
-0.04772792 -0.06416322 -0.023199566 -0.010770963 -0.033269927 0.059061214 0.032927796 0.004424856
0.06613534 0.04356054 -0.034622867 -0.07280541 0.027411288 -0.002061548 -0.010201142 0.00024549468
0.007292829 0.024613734 0.0015475331 -0.015434344 -0.09849319 0.04736752 0.029277634 -0.040058993
-0.005093896 -0.008100805 -0.00024906264 -0.09799749 0.045709535 0.048708387 0.04257451 0.045170113
0.023623817 -0.060704913 -0.015132677 -0.007921585 -0.0023686297 -0.037959125 -0.024184557 -0.029833667
-0.005833856 0.0076439288 -0.062186584 -0.056820683 -0.011043412 -0.0650356 -0.10265959 0.032912873
0.05298677 0.020571992 0.003697016 0.02803873 -0.05229477 0.016489225 -0.036460787 0.029612377
-0.078749634 -0.06085917 0.024439072 -0.011547502 -0.04686238 0.0050965725 -0.053553898 0.028286323
0.0369367 0.025596278 0.006915168 0.021566868 -0.019323817 -0.0050513363 0.036275476 0.02114644
0.070657864 -0.01427174 0.020857027 -0.07891201 -0.0148326885 -0.009432923 -0.027209956 -0.016981496
0.054043844 -0.011812512 0.051472113 0.022143014 0.009863338 -0.008272832 -0.015738338 -0.04462808
-0.060068294 -0.013696444 0.0140295345 0.05209714 0.0325292 0.01782117 0.06461268 0.020561213

network_body.linear_encoder.seq_layers.0.bias f4 [256]
00000000: 9f56 78bc d29a 0ebd 48a7 3ebd 1467 64bc
00000010: 60eb a33c 160b ccbc 46b9 a6bc 4d33 6fbc
00000020: 79bb e8bb 86b2 07bd 4a41 553d 3886 313b
00000030: 8aaa 55bc 89f1 fbbc 4214 68bd 8d69 5ebc
00000040: 697e 073d 3738 11bd 8cff 64bb d2e2 e2bc
00000050: e960 f7bc 5864 c13c 8668 e8bc e060 94bc
00000060: a56c 55bd 2b16 5a3c 35af 6f3c ef2a a73c
00000070: 15cc 59bc 223c 1c3b 617c 8c3c 4c8e 943c
00000080: 7354 ba3c ce35 82bc 977e 25bd 7277 533d
00000090: 5e65 77bc 9346 0e3d 5a60 9fbd bde1 06bb
000000a0: 66cd c5bc 4cbb 2c3c ee5e 383c 38e9 7ebd
000000b0: c549 bdbc 3e89 473a 1957 15bd 9af3 81bb
000000c0: 0aa7 7cbc 67cf 50bc a4b7 0fbd d05d a43a
000000d0: af1b f03c e6a4 2fbd 654f 4ebd 9dd7 dabc
000000e0: acf4 38bc 2bd7 963b 768d 2abc 5acf 493c
000000f0: 30aa faba 8ca8 f53b f762 58bb 3c54 fd3b
00000100: 9ec8 32bc 4777 30bd e71d 3fbd e549 313c
00000110: 1e0b a2bc a2c6 5b3d ef35 3dbd 50ba eebc
00000120: b9d8 c6bb 65f4 5139 9878 003c d4d3 d23b
00000130: 4206 6c3c 727b 9cbc eba5 843c ebd2 6dbb
00000140: 7cc9 1e3d 31ff e5bb 1a33 e0bc bd13 bdbd
00000150: 0efb a43c 26f4 943c 0abe 3c3c c747 913c
00000160: 6ad5 83bc 3517 bbbc bef5 2fbd 341b 2f3d
00000170: c8c3 3dbd 3675 25bd 1aea 04bd be12 4abd
00000180: 1a50 85bc 1aa8 c6bc 413c 053c 90ca 1bbd
00000190: a686 0d3d 880c 4ebc 450e 4fbd 8541 623c
000001a0: 1864 7d3d 319a 0bbd 564f 12bd 73c4 923c
000001b0: 3581 6cbd e5e8 9e3c 11db 84bc c37d 093d
000001c0: 0cd9 023d a8a7 313d 0a00 d03b 083a c13b
000001d0: 4d5c 803b bb92 f73c 4913 b6bc 5ca5 48ba
000001e0: 11ec 38bd 2895 eb3c 587f 72bd 6378 733c
000001f0: 5581 353c da73 35bd 2e69 1b3d 7ff9 0f3c
00000200: e2e3 033d d967 2cbd 8ba0 893c c234 d5bb
00000210: fe1e a9bc 2df0 2d3b a1fa efbb 0095 cb3c
00000220: c20e bfbc 571e 3bb9 8126 4cbd 5d98 25bc
00000230: 9f1f 493d 06b6 edbc d49c c33c 7667 c3bb
00000240: 15ee c2bc d723 b6bc f360 c1bc 5c3b 03bd
00000250: bee7 a03c 5fb2 8ebc 1ae0 20bd 27ac 59bd
00000260: 08a1 4fbd cb68 b2bb fcdd f5bc 5dbf 87bd
00000270: d80c 4b3d 7e6a 303a a04f 3f3d a7df b2bc
00000280: 9e44 153d b593 a93c 7624 11bd 0652 4f3d
00000290: 0fe6 2a3d d000 6cbd 7ca8 72bc d685 b2bb
000002a0: 88bd a4bd 1df0 59bc 8e82 f63c df70 a23a
000002b0: 1f2a 843d ef6e afba bad3 8f3c 2e8e 1cbb
000002c0: b2a3 56bc bded 17bc 461a 273d 9ad2 81bc
000002d0: a8c2 2dbd 7690 42bc d696 013d c38c 1aba
000002e0: a2a4 abbc e914 113d 0d58 063d 2cb6 543c
000002f0: d4a6 ea3a 960a f139 f738 7bbc 0a66 28bd
00000300: cb19 0b3d cf40 99bc 9de9 30bd 853a 49bc
00000310: b8aa 093d 05b5 553a ef85 92bc b53f 643d
00000320: 3640 1abc d59b aa3d 3b88 ac3a 3022 563c
00000330: cd6b 2e3c 2ef6 cabc dbd9 9b3c aa6b 0cbc
00000340: e11a 9abd 89eb 4cbd ae8a e93c c128 f538
00000350: 2dd6 373c b163 1cbd 0364 a9bb 0143 663b
00000360: 94c9 643d af1b 993b 1eee 1bbb 15fa 023d
00000370: b2a6 c0bb 7de6 2abc ca69 cabc 9832 4f3b
00000380: f4bb f93b 176e f7bc a756 44bc 4b68 4d3c
00000390: d6ba eb3b b043 3cbd 5312 4ebb 24fc 3fbd
000003a0: a328 2c3c a5bd d1bc 4fa4 37bd 3991 56bc
000003b0: 87e9 11bc 8f12 0e3d 1f49 a0bd 2f89 c9bc
000003c0: 77c6 033d a022 40bc a58a 6dbc 5d1a 96bc
000003d0: 39e7 323d d954 a93c 619b 48bc f1ec 813d
000003e0: e49c 613c 39e6 63bd fa9b 713d 2bf0 003d
000003f0: e6a7 0fbc 0713 02bd e447 9cbc e98c bf3b
-0.015157371 -0.034815617 -0.04654625 -0.013940591 0.020009696 -0.02490763 -0.020352017 -0.014599633
-0.0071024266 -0.033129238 0.052064218 0.0027088057 -0.013041148 -0.030754821 -0.056659944 -0.01357497
0.03307954 -0.035454 -0.0034942357 -0.027696047 -0.030197578 0.023607418 -0.028370153 -0.0181126
-0.052105565 0.013310949 0.014629175 0.020406215 -0.013293286 0.0023839553 0.017149152 0.018134259
0.022745347 -0.015894797 -0.04040393 0.051627584 -0.015099851 0.034735274 -0.077820495 -0.0020581328
-0.024145793 0.010542702 0.011253102 -0.062234133 -0.023106465 0.0007611698 -0.036460016 -0.003965807
-0.015420685 -0.012744761 -0.035087243 0.0012540165 0.029310076 -0.04288187 -0.050368685 -0.02671414
-0.011288803 0.0046032867 -0.0104097035 0.012317503 -0.0019124206 0.007496899 -0.0033017972 0.007730989
-0.010912089 -0.0430825 -0.046659376 0.0108208405 -0.019780692 0.053656228 -0.046194013 -0.029141575
-0.006068316 0.00020022837 0.007841252 0.0064339433 0.014405789 -0.019101832 0.016192397 -0.0036289047
0.03876637 -0.0070189466 -0.027368117 -0.092322804 0.020139243 0.018182825 0.011519918 0.017734421
-0.016092975 -0.022838214 -0.042958967 0.042750552 -0.04632929 -0.040394984 -0.03244982 -0.04933428
-0.016273547 -0.024250079 0.008132041 -0.038034976 0.03455224 -0.01257623 -0.050550718 0.013809566
0.061863035 -0.034082595 -0.035720192 0.01791594 -0.05774041 0.019398162 -0.01621774 0.0335672
0.031945273 0.04337278 0.006347661 0.0058968104 0.003917253 0.030221334 -0.022225993 -0.0007654035
-0.045147005 0.028757647 -0.059203476 0.014860245 0.011078198 -0.044299938 0.037942104 0.008787512
0.032199748 -0.042091224 0.016800186 -0.0065065334 -0.020644661 0.002654086 -0.0073235785 0.024851322
-0.023322467 -0.00017845012 -0.049841408 -0.010107127 0.04910242 -0.02901746 0.023878492 -0.0059632612
-0.023795167 -0.022233887 -0.0236058 -0.03203903 0.019641753 -0.017419038 -0.03927622 -0.053142693
-0.05069068 -0.005444621 -0.030013077 -0.066282965 0.049572796 0.0006729736 0.046706796 -0.021835161
0.03644239 0.020700315 -0.035435162 0.050615333 0.041723307 -0.057617962 -0.014810678 -0.0054480834
-0.08043963 -0.013301876 0.03009155 0.0012393257 0.064533465 -0.0013384501 0.017557014 -0.0023888457
-0.013100551 -0.00927299 0.04079654 -0.015847493 -0.042421967 -0.0118752625 0.03163799 -0.0005895609
-0.020952526 0.035420332 0.032798816 0.012982886 0.0017902502 0.0004597499 -0.015333406 -0.041112937
0.033960145 -0.018707661 -0.04319154 -0.012282019 0.033610076 0.0008152279 -0.01788613 0.05572482
-0.009414723 0.08330504 0.0013163158 0.013069674 0.010645819 -0.02477559 0.01902478 -0.008570591
-0.07524658 -0.05002931 0.02850851 0.000116901014 0.011220497 -0.03818101 -0.005169393 0.0035135152
0.055856302 0.0046724896 -0.0023793052 0.031976778 -0.0058792466 -0.010430929 -0.024708647 0.003161585
0.0076212827 -0.030203862 -0.01198355 0.012537072 0.0071939034 -0.04596299 -0.0031444028 -0.04687132
0.010507735 -0.025603125 -0.04483443 -0.013096147 -0.008905775 0.034685668 -0.07826447 -0.024601547
0.032171693 -0.011727005 -0.014498387 -0.018323118 0.043677542 0.020670341 -0.0122440765 0.06344021
0.013770316 -0.05563948 0.05898664 0.031479042 -0.008768057 -0.031756427 -0.019077249 0.005845655

network_body.linear_encoder.seq_layers.0.weight f4 [256, 266]
00000000: f60f 2fbd 17fc 2a3d 59ec 603d 0289 19bd
00000010: 1481 a9bc 6600 f1bd 9ff2 a33d 5dd8 943b
00000020: a0f2 86bd fe41 3cbd 28ff 1b3e 9793 5abd
00000030: 7688 7abd 638b 5f3d 6780 953d 3e1a 8c3d
00000040: c2ad 883d b57c 163c 4445 9b3d 4e16 71bd
00000050: 7a49 1ebd e277 1dbc da08 f4ba 8f7d d83c
00000060: ba47 86bd e546 9ebd a184 39bc fb09 c73d
00000070: 1301 8cbd 2a0e a43c a3a8 003e 03c4 dabd
00000080: c646 49bc 2e76 df3c 3c26 64be 804f 28be
00000090: 4863 a9bd e974 1c3d 9a83 29be b663 1cbe
000000a0: a39d b3be 4a21 173c 4a8e da3d 690e 763d
000000b0: d0d3 e4bd 3795 78bc 73e4 223e 5421 0abe
000000c0: 96cf 763c c2aa 8cbd 55c0 e83b 5de3 0f3d
000000d0: 5a4b 12be a4e8 ae3c e21b 183c 497a 86bd
000000e0: 8db1 99bd d8f9 e93d 3349 10be e04b 8abd
000000f0: 91da 3ebb e9f6 50bb defd 393d 050d 4ebc
00000100: deef 48be 8e25 4e3d 5753 a3bc 3722 a6bd
00000110: 7e74 7fbd 8752 2a3c d510 a33d b8b5 183d
00000120: 9af3 58be b2c4 4f3d 7427 81bd 65bf 10be
00000130: 6e80 15bd 284e cebc 7e3d 213e 87e8 9a3a
00000140: c3c6 03be 3ab8 c0bc 7473 c0bd 2912 d63c
00000150: 9a24 babc 6f7b 0a3e 7ccf e03d 98fc c3bd
00000160: 8c95 abbd 6b8a c1bd cb42 0a3d fa63 89bc
00000170: 7119 08be 1952 553d 50cd 223d a806 4bbd
00000180: eeb3 57be dbc3 193d 4b9b 22be c79b 62be
00000190: 7d6d 1f3d d5c2 653d de23 6abd 11ab 1fbc
000001a0: beb5 abbd a348 603d 9f05 26bd 7b62 2f3d
000001b0: 06cd a6bd a19e 673b 740b 9d3b ba07 233e
000001c0: f05f 4b3c e4d8 eb3a 8260 f73c 8383 8e39
000001d0: eb30 0fbd c236 763d 299e 923c 1fce a6bc
000001e0: 479e 0dbe a7c0 f8bb cafc efbd fed4 083d
000001f0: 3c3c d4bc 4952 20bd 3e5e c13d 672b 8a3d
00000200: b6e1 b9bd 9e71 a1bd 13f5 21be ba60 4e3d
00000210: bed2 2dbd f0d7 ac3c e7b4 db3d 88ea b23d
00000220: cd63 f0bb 7cc2 72be 05d7 cf3d 7c58 193d
00000230: 0a26 55bd 5992 9abd 614a 403e acb8 01bd
00000240: deb4 513c 366c 2dbd 92de cbbd 9d21 a53d
00000250: 6e58 31bd a88d 2abc 6aae 073e 572c e6bc
00000260: 0b90 e2bd 13f4 35be ba10 f0bd 3353 083d
00000270: ea22 983c d444 a73c 25ce 103d ab80 b0bc
00000280: 2617 423e 960f 60bd 4666 e3bd 88ca 9fbd
00000290: 5023 d2bd 30e3 10be d4da 813d d234 05bd
000002a0: 670b 8abc bf80 77bd e540 16be 3d37 61bc
000002b0: e306 5e3c 2a13 7e3d f88c a8bb fc35 97bb
000002c0: fcd6 6ebd 2d90 7fbe 9320 3f3d 134b 0d3d
000002d0: b27a 04bd c325 77bd 43ec 833d a7f0 d8bd
000002e0: 9fdd 643d 134d a139 9a56 43bd f303 c73d
000002f0: 07a9 b0bd 8531 823c 37b8 03be a8bd 19bd
00000300: cfe9 45bd f668 58be 0988 3c3d 29de 953c
00000310: 4c90 b2bc 2312 223e d1ff 8cbd c8c2 c7bb
00000320: 85d0 063d 02f0 17be 226a 00bc 582a d3bb
00000330: 75b1 7ebd 7614 173d 7534 7dbd 5aac cabd
00000340: 5733 e23d f6fa 0ebe b8f9 d0bd b3df 07bc
00000350: f726 a2bd 22df 0e3e 1535 843d 6180 76bd
00000360: 5eb8 1bbd 7f7a 54be 876e 903d 224d a5bd
00000370: 11cf 34bd cb9d d03c 589e bebd 85d9 fbbd
00000380: 26be ad3d 87df e7bd cdf7 1bbd d9f6 0ebe
00000390: 038d bfbd ab6b 2b3e ed11 6d3d 4932 8fbd
000003a0: fb2c 473d 78d3 233d 8221 a7bd 28e9 adbd
000003b0: 4c8f ccbd 06b5 823d 853e 28bd 498a 533c
000003c0: 6f56 b83d 8980 3a3e eab3 81bd 2884 26be
000003d0: d836 0c3e f862 bd3d 7cca 47be 51d4 a1bd
000003e0: 3b2b 453d 841a fcbd d9b3 67be f91d 39be
000003f0: 617b 2bbd b524 3e3e 31f8 bfbd 04ba 06bd
-0.04273983 0.041744318 0.0549129 -0.037484176 -0.020691432 -0.11767654 0.08005261 0.004542394
-0.06589246 -0.045961373 0.15234053 -0.05336341 -0.061165296 0.05457629 0.072998814 0.06840943
0.06673767 0.009185006 0.07581571 -0.058859162 -0.03864429 -0.009611102 -0.0018618361 0.026427059
-0.065566495 -0.07728366 -0.011323125 0.097187005 -0.068361424 0.020026285 0.1256433 -0.106819175
-0.01228494 0.027278032 -0.2228021 -0.16436577 -0.082708895 0.03819743 -0.16554108 -0.15272412
-0.35081205 0.009224245 0.10671671 0.060072336 -0.111732125 -0.015172294 0.15907459 -0.13489276
0.015064141 -0.06868507 0.007103006 0.03512894 -0.14286557 0.021351166 0.0092839915 -0.06566293
-0.07504568 0.11424607 -0.14090423 -0.06752753 -0.0029121975 -0.0031885451 0.045408122 -0.012576346
-0.19622752 0.050328784 -0.0199372 -0.08111995 -0.062366955 0.010395653 0.07962195 0.037282676
-0.21186677 0.050724693 -0.06306353 -0.14135511 -0.036499433 -0.025183752 0.15746114 0.0011818566
-0.1286879 -0.023525346 -0.09397021 0.026131706 -0.022722531 0.13523649 0.109770745 -0.09569663
-0.08378133 -0.09450229 0.033755105 -0.016771305 -0.13290955 0.052080248 0.039746583 -0.049566895
-0.21064731 0.037540298 -0.15879552 -0.22129737 0.038922776 0.05609401 -0.057163112 -0.009745375
-0.08384274 0.05475677 -0.040532704 0.042818528 -0.08144574 0.0035342353 0.004792625 0.15920916
0.01241301 0.0017993716 0.030197386 0.00027182334 -0.03495876 0.060110815 0.017897682 -0.020361958
-0.1382991 -0.0075913253 -0.117181376 0.03340625 -0.025907628 -0.039140973 0.094418034 0.067465596
-0.09076254 -0.07882999 -0.15816145 0.050385214 -0.042437308 0.02109906 0.10727864 0.087361395
-0.007336116 -0.23707002 0.101484336 0.0374379 -0.05203823 -0.07547445 0.18778373 -0.031670257
0.01279947 -0.042339526 -0.09954561 0.08063052 -0.043297224 -0.01040975 0.13250127 -0.028097315
-0.1106263 -0.17768888 -0.1172194 0.03328247 0.018571336 0.020418562 0.035352845 -0.021545729
0.18954143 -0.054702364 -0.111034915 -0.07802302 -0.102606416 -0.14149165 0.06340566 -0.032521077
-0.01685114 -0.060425516 -0.14673193 -0.01374608 0.013551447 0.062029995 -0.005143758 -0.0046145897
-0.058310494 -0.24957342 0.046661925 0.034495424 -0.032343574 -0.060338747 0.06441548 -0.10592776
0.055875417 0.00030765738 -0.04769001 0.0971755 -0.086259894 0.015892753 -0.12863241 -0.037534386
-0.04831868 -0.2113379 0.04602817 0.01829441 -0.021797322 0.15827231 -0.068847306 -0.006096218
0.032913703 -0.1483765 -0.007837804 -0.0064442568 -0.062180955 0.036884747 -0.061817605 -0.09896155
0.110449485 -0.13962922 -0.1020388 -0.00829308 -0.07917588 0.13952306 0.06455437 -0.060181025
-0.038017623 -0.20749854 0.070523314 -0.080713525 -0.044142786 0.025465867 -0.093075454 -0.12297348
0.084835336 -0.11321931 -0.038078118 -0.13961352 -0.09353068 0.16740291 0.057878423 -0.06992013
0.04862688 0.039996594 -0.08160688 -0.08491737 -0.09988269 0.06382184 -0.04107525 0.012911388
0.09000861 0.18213095 -0.06333144 -0.16261351 0.13692796 0.092473924 -0.19510835 -0.07901824
0.04813693 -0.12309745 -0.226272 -0.1807784 -0.04186571 0.1856869 -0.09373511 -0.032892242

network_body.linear_encoder.seq_layers.2.bias f4 [256]
00000000: 5460 39bd fea0 083c 2673 493c 1073 5cbd
00000010: d651 cfbc 1ef4 f6bc 1210 3bbd d7f1 c5bd
00000020: 7ccc ccbd b453 8bbd ed89 26bd a061 0cbc
00000030: fbd2 063b 41fe 87bd 5578 0cbd 368a 0abd
00000040: 5f12 9f3b c67f 2abd 8462 0e3c b33c e33c
00000050: 8d69 0c3d d08d 50bd 7cac cbbc aaf0 1fbb
00000060: e769 adbd b72d 2dbc 2534 03bd f78d 893c
00000070: eb75 db3b 9e8b 27bd 22f7 a43b 56cc efbc
00000080: 52bd e4bc 9260 63bb 3502 2dbd 7388 2fbd
00000090: 1efa f5bc cf01 1d3c f20a c7bc b8db 7bbd
000000a0: 6d6a 91bd cc40 9c3c cd03 58bd 1927 2ebd
000000b0: 04dc cebd d599 cbbd 196c 57bd 4fa3 fabb
000000c0: 1506 78bd 85fd fdbc 9264 8fbb e7af 85bd
000000d0: 4b9d afbc 4b64 373d 0bca e2bc 526a 1fbd
000000e0: bacf 71bc 5aed 8cbd 498a 50bc 4ec3 34bc
000000f0: b95c 0e3d f286 bbbc 3991 acbd d7f7 18bd
00000100: 04cb e139 248f c9bd 0f4a 0bbd df4b 3cbc
00000110: 8825 dabc a215 8abd 96b3 3dbd 52ea 18bd
00000120: 5969 c6bc 234b d7bc 41be 71bd d8df 683a
00000130: 17a6 3abd 6cfc 7ebd f668 5bbd b96d 4b3d
00000140: fc70 24bd 8abc 4dbb 7e95 7fbd b979 83bd
00000150: dde1 f8bc 93b1 43bd 74da 97ba 7690 b5bd
00000160: e6c9 54bd ba8b 2d3d 37ff 20bd 36f4 b5bd
00000170: 097c a8bd c972 30bc d0c9 d3bd 8d16 73bd
00000180: a995 61bd 23df 09bd 0256 36bd 6275 3bbd
00000190: ce89 0cbd 0b0a 813b 136d 83bd f50c f3bb
000001a0: d234 7bbd 53d9 91bd 2bdc 80bd 8170 70bd
000001b0: 4c7d bcbc fe9d 08bd 8297 fbbc 0230 28bc
000001c0: af35 15bd 0baf 9f3a 9124 24bd 95f5 b63c
000001d0: 9c6f 52bd 31bc a1bd d852 893c 9f90 5ebd
000001e0: d708 ccbc ca0c b5bc a6ad e1bc ceae 45bd
000001f0: 763c 0fbd fab2 4bbd 9fdf 8ebd 12e1 8fbc
00000200: f425 33bd d6c2 4b3c b9d6 83bd 98aa b7bc
00000210: 2156 943c afee 52bd 5dbc 35bd 838f d73c
00000220: bc4c 3dbd 901f 08bd 0270 c7bb 9cb0 aabc
00000230: 7c84 85bd d0a6 4ebd 58a0 183c 24a7 64bc
00000240: c75a 05bd b844 41bd 3588 74bd fb77 1a3c
00000250: 02d8 f63b 2f0e 73bd 7a6c d5bb bc09 403a
00000260: b126 55bd 34a6 cebd d9cd 1bbd f39b 38bc
00000270: e86e 0dbd d0d8 1ebd 69f3 7fbd c47c 2ebd
00000280: f893 70bc 86ea 563c e136 65bd dddb d6bc
00000290: 7267 2139 6e91 6bbd 6ba4 95bd 2395 db3b
000002a0: 1196 03bd 693d a8bd 55de 1cbd fd28 ed3c
000002b0: ff60 4c3c dd0c 06bd 058f 123c bce3 90bd
000002c0: 8228 1fba 9ac3 963b 49a5 3abd 4340 48bd
000002d0: ebb3 913c ab44 1cbd 481f 35bd 7ab5 ab3c
000002e0: 8b40 cabd b5cf 7dbc 42db a8bc 05de 4cbd
000002f0: 0d26 62bc 7bb1 92bc 9768 53bd 0f41 c8bb
00000300: dc1d 05bd c035 1cbd eb8a 0bbd 3c5b 91bd
00000310: 042d 46bd 4665 90bd 1049 06bd 51e6 ecbc
00000320: 031f 54bc 6573 d2bd 4882 37bd 1a3b 91bd
00000330: 6a59 e4bb effa 2bbd f6cb cebc 12a8 343a
00000340: 9297 02bd 476b 8ebd 986b 0ebd 4327 bdbc
00000350: c429 01bd c4e7 96bc 78b7 07bd 8b10 1bbd
00000360: c0bf 853c 50c6 30bd 3753 14bd 54c0 02bd
00000370: a731 833b a65f a13c c741 1e3c 5dd4 69bd
00000380: 1fa1 e7bc 21d9 d8bb c9ac 21bd 4bce fb3c
00000390: c435 93bd e4a2 3cbd a493 e6bc 1257 78bd
000003a0: 0313 deba 0149 8dbd 9eb7 183c be2f 153d
000003b0: 1998 d7bc 6c8b 8fbc 6468 dcbc 0e8f 68bd
000003c0: 8bbd 9dbd 57ca 88bc 13d3 e7bc 2c7e c3bd
000003d0: 4e66 19bd dcb7 93bd f94d 05bd a680 a9bb
000003e0: 4f82 1bbd 57ff cf3b eef5 adbd abbb 41bd
000003f0: e2e5 d93c 60d0 0fbd c026 87bd 00cc c5bc
-0.04525788 0.008339165 0.01229552 -0.05382067 -0.025307577 -0.030145701 -0.045669623 -0.09665268
-0.0999994 -0.068030745 -0.04065888 -0.0085681975 0.0020572532 -0.06640292 -0.034294445 -0.033823214
0.004854485 -0.04162576 0.00869048 0.027738905 0.03428035 -0.050916493 -0.02486252 -0.0024404922
-0.08467465 -0.010569981 -0.03203215 0.016791327 0.0066974065 -0.040904634 0.0050343433 -0.02927224
-0.027922306 -0.0034695012 -0.042238433 -0.042854737 -0.030026492 0.009582951 -0.024297211 -0.061488837
-0.07100377 0.019073866 -0.052738 -0.042517755 -0.101005584 -0.099414505 -0.052593324 -0.0076488624
-0.060552675 -0.031004677 -0.0043760026 -0.06527691 -0.021437308 0.04477338 -0.027684232 -0.038919754
-0.0147589985 -0.06881209 -0.012728282 -0.011032892 0.034756396 -0.022891495 -0.084261365 -0.037345733
0.00043066603 -0.09841755 -0.034006175 -0.011492698 -0.026629224 -0.067424074 -0.046313845 -0.03733284
-0.024220156 -0.026280945 -0.05901933 0.0008883453 -0.045568552 -0.062252447 -0.053566895 0.049665187
-0.040146813 -0.0031392896 -0.062398426 -0.06419701 -0.030381138 -0.04777677 -0.001158549 -0.08865444
-0.051950358 0.04236958 -0.03930589 -0.0888447 -0.08226783 -0.010769554 -0.10341227 -0.059347678
-0.055074368 -0.033660065 -0.044515617 -0.04576624 -0.03431111 0.003937965 -0.06417289 -0.007417316
-0.06132967 -0.071215294 -0.06291994 -0.058701042 -0.023008965 -0.033353798 -0.030711893 -0.010265352
-0.03642815 0.0012182904 -0.040073935 0.0223339 -0.05137597 -0.07897223 0.016763136 -0.05433714
-0.024906559 -0.022100825 -0.027548622 -0.04826241 -0.03496977 -0.049731232 -0.06976246 -0.017563377
-0.043737367 0.012436589 -0.064374395 -0.022420213 0.018107476 -0.051497158 -0.04436909 0.026313549
-0.046215758 -0.033233225 -0.0060863504 -0.020836167 -0.0651941 -0.050452054 0.009315573 -0.013955865
-0.032557275 -0.047184676 -0.05970021 0.00942802 0.0075330744 -0.0593397 -0.0065131756 0.0007325669
-0.052038852 -0.100902945 -0.03803811 -0.01126765 -0.034529597 -0.038780987 -0.062487993 -0.042599455
-0.014683716 0.013117438 -0.05596054 -0.026227886 0.00015392693 -0.05751174 -0.07306751 0.006701128
-0.032125536 -0.08214838 -0.03829797 0.028950209 0.012474298 -0.03272711 0.008945231 -0.07074687
-0.0006071405 0.0046009542 -0.045567784 -0.04888941 0.017785987 -0.038151424 -0.044219285 0.020960558
-0.09875592 -0.015491416 -0.020612363 -0.05001642 -0.013803017 -0.017906895 -0.051613417 -0.006111271
-0.03249918 -0.038137197 -0.03406803 -0.0709748 -0.048382774 -0.070505664 -0.03278452 -0.028918417
-0.012946847 -0.10275916 -0.04480198 -0.07091351 -0.006968667 -0.041987356 -0.02524374 0.00068914995
-0.03188283 -0.06954055 -0.03477058 -0.02309001 -0.03153397 -0.018421061 -0.033133954 -0.037857573
0.016326785 -0.043157876 -0.036212172 -0.0319217 0.0040037218 0.019698929 0.009659237 -0.05708729
-0.02827507 -0.0066176807 -0.03947142 0.030738017 -0.07187989 -0.046053782 -0.028146572 -0.06062991
-0.0016942922 -0.0689869 0.0093211215 0.036422484 -0.026317643 -0.017522536 -0.026905246 -0.056777053
-0.07702168 -0.016698046 -0.02829889 -0.0954555 -0.03745108 -0.07212803 -0.032545064 -0.005172807
-0.03796607 0.0063475776 -0.08494173 -0.047298115 0.026598874 -0.03511083 -0.06599188 -0.024145126

network_body.linear_encoder.seq_layers.2.weight f4 [256, 256]
00000000: e268 8c3c 6952 e63c aed0 4ebd 0fb0 9cbd
00000010: 957d 3abe 9379 673d 581d 95bd 51e4 4c3d
00000020: 05f3 b7bd 1e27 a63b 0744 0dbe 1553 3ebe
00000030: 1053 dabd 84ea d03d 332d 2c3c 3a1e be3d
00000040: 4d7a b33d 9956 073d 60e8 94bd 4efd 55bd
00000050: fc29 a1bd 1110 63bd b5df cabc 2509 13bd
00000060: 6fdd 133e 0775 73bd fb8e c03b d571 e73b
00000070: c368 603c f48c b63d 3fde 33bd 429d 733e
00000080: 1e4d 96bd d4cc 7cbc 94d2 283d 804f c43c
00000090: 4289 bfbd df1f 04be db96 b03d b056 a13b
000000a0: 9756 f53c 0230 07bd d791 9a3d c710 b13d
000000b0: 7f93 de3d a95c ca3d d4d7 94bc 92b3 a23c
000000c0: 1996 f63c b395 5c3d 7668 9abd 5733 b0bc
000000d0: 91c5 b1bd 9750 833d a967 c13d f440 73bd
000000e0: 032e 62bd b6e3 bfbd f4df 0ebd 2b2c 103c
000000f0: 4240 f6bc 718e de3d beee 523d 8358 c2bc
00000100: 6ea9 4dbb 4d5a 123e 116a 413e 6dca c13d
00000110: 7272 163e 751c a9bd 0237 aa3d 100d f03d
00000120: 6885 4fbd 51c9 ee3c ba8e 92bc 1dd5 68bd
00000130: 6eae 4a3e 1f6b b1bd b9f3 9fbd 0935 c13d
00000140: c1cd 883b 8eaf 39bd 82f0 2d3d de30 2d3d
00000150: b21c c83d 696c 2b3e 81f3 4fbd 9e72 2b3d
00000160: 8f8e 233b 4a3e 923d 8cf4 fdbc 51f3 9c3d
00000170: 1d2c ba3d d512 753d 4146 0fbd 397a 3abd
00000180: 6012 4f3c 8507 5abc d4c0 6b3d 1fea 7bbc
00000190: 20ea a83c 4850 cd3c bb9d 9f3d 9c5d 603e
000001a0: fe1e c7bb a7bb 353e 1168 6b3d 4625 d3bb
000001b0: 6d32 7e3c 6777 543d 5d39 833d 7064 cbbd
000001c0: fbbe ecbb 4991 45be 0b03 e53d 7054 d3bd
000001d0: a2a4 1d3d 90e0 f53d 4bb0 913d 4405 0f3c
000001e0: ae18 3a3c af5e 36bd 3b2e b73d 2920 903d
000001f0: e303 8d3c 66d6 183d db8c 84bd 08f7 8dbd
00000200: ffc6 78bd eb8f bb3d 65d7 e9bd 3127 d23d
00000210: 6186 90bc b247 863d 7731 71bd fb59 1dbe
00000220: a21d a13d 6293 da3d 9127 9abd a972 96bd
00000230: 1d40 b0bd 964f ea3d 5607 0e3d 6a92 13bd
00000240: a1f4 90bc 014f 07bd dc80 04be b91b 4f3d
00000250: 2461 683d e22b a03d d147 b2bc 7ed5 d2bc
00000260: 8197 793d 37ff d33d e617 0ebd 89cc d9bc
00000270: da6e 47bd b0d7 8dbc 86be f3bd c94a 2a3e
00000280: 4169 31bd af2d bebd 812d 623e 641c 73bd
00000290: 3e42 08be c120 ab3c ed04 083e 08f2 0dbe
000002a0: 3253 bfbd de8f 0ebe 6ae0 263e 56a0 1cbd
000002b0: 376a a1bd 0057 8dbc 0242 dabc 62f9 e43c
000002c0: ab83 9c3d b6e0 a9bd 87b9 42bd b2f9 e8bc
000002d0: 35f7 ea3d 47dd e53c 1f03 7d3d 2017 ca3c
000002e0: 5379 ca3d 4098 bbbc cb0a 4d3e 9b39 ac3d
000002f0: 020f 5e3d 5f05 f43d 1055 75bc 9ef2 af3d
00000300: 4c89 17bd c497 b93d 232e ef3c 27f1 c73d
00000310: 4942 95bc 1979 593c 29aa 35bd 8bf2 22bc
00000320: 45f3 ca3d f58f 96bc ccdc 77bd be7e babc
00000330: 11ce d33b c849 17bd cc45 debd 08f7 3c3e
00000340: 8830 8f3d 9846 ba3d 946a 07be 68e5 d9bc
00000350: 6063 a73d 336f bd3c d75d f83d 9585 443d
00000360: a68c c0bd 33f8 ff3d 1199 973d 81b1 38bc
00000370: 2455 323b 6844 623d 4b0d acbd 4ce0 57bd
00000380: 7b29 49bd f433 033a 3166 3e3c c2b3 42bd
00000390: c70c 83bc d1c4 a6bd 85a5 3fbd 213e d43d
000003a0: 39a3 afbd 5ffb ddbd 475f acbd 2a1d 8a3d
000003b0: 8eeb 6dbd ad57 52bd 7d83 d03c 7073 2e3e
000003c0: d859 cabd 33d2 733c 8831 163c 267d 4b3e
000003d0: 1e46 71bd 748b fc3b f881 d2bd 9ad0 8abd
000003e0: 92ae cb3d 6b0c 60bd 0e31 d5bd 9a7f babb
000003f0: 76c2 7dbb d8a3 39bd 81bd d3bc 687e 1a3d
0.017139856 0.028115468 -0.05049198 -0.07650768 -0.18211968 0.056512427 -0.072809875 0.050022427
-0.08981899 0.005070581 -0.13795482 -0.18586381 -0.10660374 0.1020098 0.010508823 0.09283109
0.087635614 0.03304157 -0.072708845 -0.052243523 -0.07869336 -0.055435244 -0.024764875 -0.035897393
0.14439939 -0.059437778 0.0058764196 0.0070631304 0.013696852 0.089136034 -0.043913122 0.23790458
-0.07338928 -0.015429694 0.041216448 0.02396369 -0.09352352 -0.12902783 0.086225234 0.004923664
0.029948516 -0.03300477 0.07547348 0.08645778 0.108679764 0.09880955 -0.018169321 0.019861016
0.030100869 0.0538537 -0.075394556 -0.021508856 -0.08680261 0.06411856 0.094436 -0.059388116
-0.05521966 -0.09369604 -0.034881547 0.008799593 -0.030059937 0.10867012 0.051497214 -0.023723846
-0.0031381506 0.1429226 0.18888117 0.09462438 0.14692095 -0.08257381 0.08311273 0.117212415
-0.050664335 0.02914873 -0.017890323 -0.056843866 0.19793102 -0.0866301 -0.07810158 0.09433944
0.0041749184 -0.045333438 0.042465694 0.04228293 0.09771098 0.16740574 -0.050769333 0.041857354
0.0024956798 0.07140787 -0.031000398 0.076635964 0.09090445 0.059832413 -0.03497911 -0.045526717
0.012638658 -0.013307457 0.057556942 -0.015375643 0.020619452 0.025062695 0.077937566 0.21910709
-0.0060766926 0.17747365 0.057472292 -0.0064436523 0.015514952 0.051871683 0.064074256 -0.09931266
-0.007224915 -0.19293703 0.11182221 -0.103188396 0.038487084 0.120057225 0.07113703 0.008729283
0.011358423 -0.04452389 0.08944365 0.07037384 0.017213767 0.03731384 -0.064721785 -0.06931883
-0.060736652 0.091583095 -0.11418036 0.102613814 -0.017642202 0.065566435 -0.058885064 -0.15366356
0.0786698 0.10672642 -0.07527078 -0.073460884 -0.08605979 0.11440961 0.034674965 -0.036028303
-0.017694773 -0.03303433 -0.12939781 0.050563548 0.056733266 0.0782087 -0.02176276 -0.025736567
0.0609355 0.10351413 -0.03469076 -0.026586788 -0.0486897 -0.017314762 -0.11901574 0.16630091
-0.04331327 -0.09286057 0.22087671 -0.059353247 -0.1330652 0.020889642 0.13283129 -0.13861859
-0.0934204 -0.13922068 0.16296545 -0.038238846 -0.07881587 -0.017253399 -0.026642803 0.027950946
0.07642301 -0.08294813 -0.047540214 -0.028439377 0.11472932 0.028059615 0.061770555 0.02466923
0.09886422 -0.022899747 0.20023648 0.08409425 0.05421353 0.11915087 -0.014973894 0.085911974
-0.03699617 0.0906215 0.029196804 0.09762793 -0.018220084 0.013273501 -0.04435173 -0.009945522
0.09909681 -0.018379191 -0.060513303 -0.022765514 0.006463774 -0.036935598 -0.108531564 0.1845361
0.069916785 0.09095496 -0.1322425 -0.026598647 0.08173251 0.023124313 0.121272735 0.047978956
-0.094018266 0.12498512 0.07402242 -0.011272789 0.0027211392 0.05524102 -0.08400973 -0.05270414
-0.049111824 0.0005004995 0.011621044 -0.04753471 -0.015997304 -0.081430085 -0.04678871 0.10363413
-0.08576054 -0.10838961 -0.0841661 0.06743844 -0.05808597 -0.051353145 0.025453323 0.17036223
-0.098804176 0.014881658 0.009167083 0.19871959 -0.05890476 0.007707054 -0.10278696 -0.06778069
0.09945406 -0.054699343 -0.10409747 -0.005691481 -0.0038720644 -0.04532227 -0.025847198 0.037718207
