Project/Assets/MyProject/Chaser/CVR 4/Models/ver 4/PoliceBrain.onnx (onnx, 585134 bytes, 6 tensors)

action_model._discrete_distribution.branches.0.bias f4 [7]
-0.03159958 -0.054496117 0.009845353 0.06894738 -0.03163972 0.008115839 -0.025630573
00000000: 906e 01bd 5237 5fbd 674e 213c 4934 8d3d
00000010: a798 01bd 4cf8 043c 35f7 d1bc

action_model._discrete_distribution.branches.0.weight f4 [7, 256]
-0.013824917 0.092845224 -0.043072272 -0.04165808 0.08429906 -0.00016040825 -0.059732117 0.023418788
0.03259205 -0.06331506 0.025940666 0.06371782 0.016092286 0.033008475 0.048562888 -0.023444152
0.00017275868 0.078628235 -0.0041978797 -0.08593069 -0.039020084 -0.0020754456 0.06728381 -0.009046648
-0.012553971 -0.0449051 0.048704185 0.010585618 -0.008165043 -0.0070997924 0.06736035 -0.031884205
-0.063516825 0.07374365 0.0036855924 -0.0039929766 0.002634239 0.01570042 0.05255758 -0.02391402
-0.017441215 -0.03715944 0.031868402 0.09263617 -0.039982297 0.043542657 -0.033744447 0.0045204554
0.044378694 0.061050124 -0.02069468 -0.0052785594 0.026037646 0.0775389 -0.04657965 -0.00454397
0.009534258 0.04372221 0.06969496 -0.058922514 -0.009007581 -0.048830345 0.019366205 0.013629349
-0.047223285 0.049678262 -0.01931274 -0.030315388 0.03185747 0.052002203 -0.036747392 -0.06145301
-0.0023024126 -0.020854764 0.035668537 0.03798364 -0.041507635 -0.04729097 0.026786776 0.0082541
0.028394999 -0.07153184 -0.07248063 0.033675537 -0.013869798 0.033515707 0.03519557 0.1011053
-0.04117322 -0.029921683 -0.0023916569 -0.07676048 -0.0043866555 -0.032694057 -0.07833286 0.014011342
0.012506693 0.022951402 -0.0024395094 0.005173174 0.015909497 0.11588556 -0.020457728 0.00597709
-0.010036944 0.03201197 0.03848937 0.0028265899 0.012131613 0.014125029 0.032031924 0.008567402
-0.037410334 -0.07947213 -0.0834533 0.05728415 -0.027776526 -0.010113599 -0.049383644 0.0261633
0.03360142 -0.029417548 -0.02449876 -0.02295056 -0.0402242 0.032945104 0.013779954 -0.015957627
-0.05955405 -0.0054197013 0.036038917 0.06782234 -0.05257709 -0.061583422 0.041301873 0.06371826
-0.036965646 0.0422074 -0.017662581 0.009723338 -0.071897164 -0.0060069747 -0.023966162 -0.029700274
-0.08754874 -0.053682495 0.09382518 0.05736853 0.044852834 -0.05776478 -0.024007527 0.027752198
-0.006626892 0.010507061 0.004955139 0.024483737 -0.012944804 -0.024968125 0.008105376 -0.017116427
0.05123479 -0.0012806257 -0.03053864 0.025748394 -0.013886464 -0.023485415 0.03728243 0.00213973
0.0017446026 0.041927423 -0.117266186 0.07556409 -0.030165719 0.06051542 0.01133913 0.024774106
-0.053317025 0.037695166 0.010869813 -0.021805167 -0.045621466 0.008511186 0.026800102 0.05161899
-0.072534 -0.092981055 0.047583286 -0.013502966 -0.0034515066 -0.028772244 0.032922525 0.05128332
0.08687253 0.0026011618 0.007242647 0.044117447 -0.0043011024 -0.03083885 -0.022027336 0.029616363
0.029813534 0.014323489 -0.008198264 0.07576365 -0.030761743 0.09917123 -0.014025604 -0.06732849
0.05398575 0.008384629 0.05828375 0.04257066 -0.014693152 0.040423524 -0.00799866 0.0099063795
0.027102692 -0.035713155 -0.12742329 -0.08671092 -0.040694963 -0.035571143 0.03777248 -0.09131479
0.051397018 0.047611866 -0.025116678 -0.030522183 0.0028911904 0.023188824 0.035499334 0.0035709587
0.04137471 0.016368406 0.03369795 0.00077287765 -0.005649262 -0.00095609354 -0.018005595 0.025656767
0.041329566 0.05810505 0.025611538 0.033423774 0.025096757 -0.07399159 0.08813383 0.034667905
0.07371414 -0.0066046338 -0.04568717 -0.037457213 0.019909194 -0.015721127 0.015249117 0.08456241
00000000: e881 62bc a325 be3d 8d6c 30bd aaa1 2abd
00000010: fca4 ac3d 4333 28b9 aaa9 74bd c2d8 bf3c
00000020: 3e7f 053d 54ab 81bd 8581 d43c 7d7e 823d
00000030: f8d3 833c e533 073d e1e9 463d f30d c0bc
00000040: 8e26 3539 d707 a13d 5e8e 89bb 6efc afbd
00000050: 86d3 1fbd 3304 08bb 18cc 893d 6438 14bc
00000060: 2caf 4dbc 69ee 37bd 0a7e 473d 4d6f 2d3c
00000070: acc6 05bc 60a5 e8bb 39f4 893d 0399 02bd
00000080: 1c15 82bd e906 973d fb89 713b 84d7 82bb
00000090: 32a3 2c3b 2b9e 803c 9e46 573d 56e7 c3bc
000000a0: e1e0 8ebc 7f34 18bd 7188 023d 08b8 bd3d
000000b0: 7ac4 23bd c959 323d 9e37 0abd 5420 943b
000000c0: 6fc6 353d b20f 7a3d e487 a9bc c4f7 acbb
000000d0: e74c d53c b7cc 9e3d 4eca 3ebd 95e5 94bb
000000e0: 9435 1c3c 0f16 333d 3bbc 8e3d bc58 71bd
000000f0: 8894 13bc 5402 48bd e0a5 9e3c a24d 5f3c
00000100: 346d 41bd 6f7b 4b3d c035 9ebc fa57 f8bc
00000110: fa7c 023d 4300 553d 6f84 16bd 27b6 7bbd
00000120: 13e4 16bb 9cd7 aabc 2c19 123d bc94 1b3d
00000130: e903 2abd 2db4 41bd f16f db3c 343c 073c
00000140: a19c e83c 497f 92bd b970 94bd 5cef 093d
00000150: 263e 63bc c447 093d 3b29 103d 4c10 cf3d
00000160: 40a5 28bd 511e f5bc 58bd 1cbb 9934 9dbd
00000170: efbd 8fbb 34ea 05bd fa6c a0bd d48f 653c
00000180: dfe8 4c3c 9404 bc3c 2de0 1fbb bb83 a93b
00000190: a254 823c 6955 ed3d f796 a7bc 77db c33b
000001a0: ff71 24bc fc1e 033d 08a7 1d3d 4f3e 393b
000001b0: acc3 463c aa6c 673c e833 033d 4a5e 0c3c
000001c0: 943b 19bd 49c2 a2bd 90e9 aabd c9a2 6a3d
000001d0: 998b e3bc 82b3 25bc 8146 4abd 6b54 d63c
000001e0: a4a1 093d 12fd f0bc a0b1 c8bc d002 bcbc
000001f0: 21c2 24bd 72f1 063d 51c5 613c 92b9 82bc
00000200: f3ee 73bd c097 b1bb 8b9d 133d 70e6 8a3d
00000210: 135b 57bd e63e 7cbd 272c 293d b87e 823d
00000220: 4a69 17bd abe1 2c3d 1eb1 90bc a34e 1f3c
00000230: d23e 93bd 28d6 c4bb af54 c4bc fd4d f3bc
00000240: c14c b3bd 2de2 5bbd 6a27 c03d 44fb 6a3d
00000250: 9bb7 373d c39a 6cbd 6fab c4bc 9458 e33c
00000260: 6626 d9bb cf25 2c3c b85e a23b 1e92 c83c
00000270: 7116 54bc f489 ccbc 69cc 043c c037 8cbc
00000280: 92db 513d abda a7ba 2c2c fabc 4cee d23c
00000290: 0d84 63bc 7c64 c0bc 76b5 183d b63a 0c3b
000002a0: 26ab e43a 17bc 2b3d 4129 f0bd 58c1 9a3d
000002b0: 191e f7bc 04df 773d c2c7 393c 11f3 ca3c
000002c0: f462 5abd 3f66 1a3d 4d17 323c c0a0 b2bc
000002d0: 93dd 3abd 8072 0b3c e38b db3c 6f6e 533d
000002e0: b58c 94bd da6c bebd b1e6 423d 8b3b 5dbc
000002f0: ac32 62bb c5b3 ebbc c5d9 063d 750e 523d
00000300: 3aea b13d 4178 2a3b ba53 ed3b 7fb4 343d
00000310: 43f0 8cbb c2a1 fcbc ac72 b4bc 049e f23c
00000320: 833b f43c 11ad 6a3c 0352 06bc f929 9b3d
00000330: 0d00 fcbc 491a cb3d a6cb 65bc 85e3 89bd
00000340: 2920 5d3d af5f 093c f1ba 6e3d 935e 2e3d
00000350: 8cbb 70bc 2393 253d d00c 03bc 5e4e 223c
00000360: 7706 de3c f547 12bd 407b 02be 7f95 b1bd
00000370: c3af 26bd 0cb3 11bd 51b7 1a3d 4003 bbbd
00000380: ae85 523d a904 433d 7ec1 cdbc a809 fabc
00000390: 207a 3d3b 7df6 bd3c c067 113d bf06 6a3b
000003a0: 8778 293d 0917 863c dd06 0a3d f19a 4a3a
000003b0: 721d b9bb 5aa2 7aba 7880 93bc 242e d23c
000003c0: 3149 293d 90ff 6d3d 4acf d13c 5ee7 083d
000003d0: b797 cd3c e788 97bd 827f b43d efff 0d3d
000003e0: 70f7 963d af6b d8bb 7822 3bbd bc6c 19bd
000003f0: 9b18 a33c 98c9 80bc 6fd7 793c 0f2f ad3d

network_body.linear_encoder.seq_layers.0.bias f4 [256]
0.016804423 -0.0022662617 0.01449047 0.0009437338 0.0018652652 0.024679234 0.019421585 0.020153169
0.008534494 0.0042219264 0.0038501148 0.008069499 0.019746417 0.0081677 -0.013726597 -0.0135353925
0.0118967565 0.007139329 0.010288352 -0.003716182 -0.0127586955 0.0075885556 0.002520737 0.0040917364
-0.0025022752 0.0013645719 0.014344726 0.0014692206 0.004592133 -0.009693649 0.016445702 -0.0016102311
0.005164251 0.015582914 -0.010711453 -0.021437084 -0.0011331864 -0.041429784 0.011585439 -0.0044847378
-0.00836108 0.023635231 -0.030467575 -0.007443201 0.012480332 -0.0035525593 0.008427788 -0.009432716
0.012767813 -0.008939688 0.025158037 0.0023588263 0.0062066517 -0.012450004 -0.019627383 0.0061687776
0.001720735 0.0064435075 0.0053363084 0.024222696 -0.033125635 0.0028071164 0.003931953 0.0036673949
-0.0025548977 0.026619734 0.0072391373 -0.0052103405 -0.0060567614 0.0052890675 -0.0005998096 0.012343105
-0.017083742 0.023713056 0.013030134 -0.02843664 -0.01860915 0.019372454 -0.014392179 0.020150617
0.0066274554 -0.015427569 -0.00507187 -0.0091981245 0.004520482 0.012448497 0.002400952 -0.0011167846
0.04507249 -0.004185669 0.016009053 0.022463638 0.0068874904 0.033897646 0.004544611 -0.003495154
0.02028106 -0.01274948 0.0022174316 0.021219838 -0.016465737 -0.016264163 -0.0075077163 -0.0032508576
-0.008724256 0.00827464 0.0044800662 0.0018616767 0.003034569 0.008176837 0.0056991084 0.01094894
-0.001222317 -0.00088575156 0.015705254 -0.0024423352 -0.013713726 0.0025572085 0.0033591983 0.009730256
0.0039649312 0.007034636 0.015442068 0.023924924 0.023983994 0.00094263273 -0.017393632 0.004983924
-0.0032427607 -0.008134142 0.014975009 -0.005028352 -0.012731829 0.021662235 0.00822652 0.0008379451
-0.02824222 -0.005257308 0.0023599584 0.012813431 -0.00021692457 -0.005850578 -0.018436057 -0.014748983
0.007809218 0.0057684905 -0.018628776 -0.014123528 -0.020181071 0.011014609 0.0036257135 0.009469886
-0.0054277326 -0.0125044985 -0.010471044 -0.0061588236 -0.00039643806 -0.011944586 0.012147917 0.030134981
0.0021805775 0.008306442 0.0094514275 0.010457137 0.0055580814 -0.0033422594 -0.017397694 0.014981979
0.0124586765 -0.0032888204 0.014731967 -0.03039518 0.0023923444 0.0018212888 0.011232954 -0.08597633
-0.011728177 0.0074086143 -0.0065438533 -0.0017475374 -0.002105289 -0.0082721105 0.019664811 0.009131323
0.014112345 -0.014164473 0.00841896 0.03146066 -0.015847012 0.010355963 -0.0067025423 0.008946507
-0.010623242 0.0014191332 0.00013787604 0.00010459612 -0.002061837 -0.006907362 0.015831506 -0.0072510457
2.8074299e-05 0.037287943 0.0082710385 0.0014919303 0.028547263 -0.034699615 -0.023414029 0.022413071
-0.022522002 0.012878411 -0.005204766 0.020621609 -0.009893233 -0.006952808 -0.0032368617 -0.0021860895
-0.00038444268 0.01572291 -0.014612657 -0.0048965113 0.006448129 0.012669094 0.030185247 0.029417207
0.0030487664 -0.016008725 0.005446114 -0.0006715167 -0.00014606025 -0.0097291935 0.007571902 0.0040911105
-0.0036389441 0.018695915 0.0071370644 0.0073714107 0.002845685 -0.0063515417 0.0108292 -0.0028021338
0.014425401 -0.026775926 -0.0002847799 0.006102513 -0.022017049 -0.0019434753 0.008344533 -0.000107115964
-0.009348049 0.010289395 0.003614608 0.016817564 0.002896364 0.025089739 -0.056565963 -0.0050307657
00000000: 6ea9 893c 9085 14bb 7069 6d3c e764 773a
00000010: ea7b f43a 1b2c ca3c 041a 9f3c 4218 a53c
00000020: 43d4 0b3c 1658 8a3b 3552 7c3b ef35 043c
00000030: 3dc3 a13c d1d1 053c 85e5 60bc 8dc3 5dbc
00000040: 9dea 423c 08f1 e93b 7a90 283c 308b 73bb
00000050: d909 51bc 6ba9 f83b f332 253b f913 863b
00000060: 36fd 23bb 6fdb b23a 2406 6b3c dd92 c03a
00000070: 9b79 963b 1cd2 1ebc 23b9 863c 640e d3ba
00000080: e138 a93b 7b4f 7f3c 177f 2fbc d39c afbc
00000090: 6d87 94ba 47b2 29bd dad0 3d3c b5f4 92bb
000000a0: e9fc 08bc ac9e c13c 2397 f9bc 18e6 f3bb
000000b0: 4e7a 4c3c 0ed2 68bb b414 0a3c ae8b 1abc
000000c0: 1730 513c c577 12bc 3a18 ce3c 8a96 1a3b
000000d0: 2b61 cb3b 1afb 4bbc 9bc9 a0bc 7523 ca3b
000000e0: 498a e13a 0f24 d33b 33dc ae3b ad6e c63c
000000f0: bfae 07bd 99f7 373b 9dd7 803b ad58 703b
00000100: 1270 27bb a111 da3c 4936 ed3b 81bb aabb
00000110: cc77 c6bb ea4f ad3b 8a3c 1dba bc3a 4a3c
00000120: 34f3 8bbc e241 c23c 587c 553c f5f3 e8bc
00000130: 3772 98bc fbb2 9e3c 2dcd 6bbc e812 a53c
00000140: 202b d93b eac3 7cbc ee31 a6bb bbb3 16bc
00000150: 8d20 943b c8f4 4b3c 4a59 1d3b 1361 92ba
00000160: ee9d 383d f027 89bb 6b25 833c aa05 b83c
00000170: 75b0 e13b 42d8 0a3d f6ea 943b f40e 65bb
00000180: 7724 a63c 32e3 50bc 5452 113b 3ad5 ad3c
00000190: 27e3 86bc 6c3c 85bc 4a03 f6bb 570c 55bb
000001a0: 2ff0 0ebc 5b92 073c 85cd 923b 8103 f43a
000001b0: 9fdf 463b 24f8 053c 96bf ba3b 2f63 333c
000001c0: 2736 a0ba c831 68ba 4ea8 803c 960f 20bb
000001d0: 89af 60bc d796 273b ff25 5c3b a76b 1f3c
000001e0: 41ec 813b ce82 e63b ba00 7d3c 34fe c33c
000001f0: 157a c43c 031b 773a 177d 8ebc 2f50 a33b
00000200: 7f84 54bb 1045 05bc bd59 753c e0c4 a4bb
00000210: 2999 50bc 0075 b13c 87c8 063c 8ba9 5b3a
00000220: 3a5c e7bc 7f45 acbb 88a9 1a3b 6def 513c
00000230: 3f76 63b9 35b6 bfbb 3707 97bc b8a5 71bc
00000240: 78e4 ff3b 9b05 bd3b 609b 98bc 5f66 67bc
00000250: c652 a5bc 9e76 343c 619d 6d3b 9527 1b3c
00000260: 1fdb b1bb abdf 4cbc be8e 2bbc f5cf c9bb
00000270: 04d9 cfb9 3ab3 43bc 0f08 473c a3dd f63c
00000280: 05e8 0e3b be17 083c 29da 1a3c 6954 2b3c
00000290: 9120 b63b cf09 5bbb 9c85 8ebc f976 753c
000002a0: 7a1f 4c3c 4089 57bb 595e 713c 50ff f8bc
000002b0: e1c8 1c3b 50b8 ee3a 6d0a 383c 5c14 b0bd
000002c0: 8a27 40bc f6c3 f23b d26d d6bb a00d e5ba
000002d0: e3f8 09bb bf87 07bc 1918 a13c 8b9b 153c
000002e0: 7737 673c 1b12 68bc adef 093c e5dc 003d
000002f0: 98d1 81bc 0fac 293c 00a1 dbbb 5f94 123c
00000300: 1b0d 2ebc 3502 ba3a d192 1039 9d5a db38
00000310: e21f 07bb 2757 e2bb 13b1 813c 2e9a edbb
00000320: 1981 eb37 3ebb 183d 4083 073c e08c c33a
00000330: f3db e93c 2f21 0ebd c7ce bfbc 9e9b b73c
00000340: 1080 b8bc f9ff 523c be8c aabb a6ee a83c
00000350: 3a17 22bc 61d4 e3bb 8721 54bb 7f44 0fbb
00000360: 068f c9b9 55cd 803c ed69 6fbc ea72 a0bb
00000370: d44a d33b 0892 4f3c 0d47 f73c 5bfc f03c
00000380: d0cd 473b bb24 83bc 5175 b23b b908 30ba
00000390: c027 19b9 3267 1fbc b81d f83b b90e 863b
000003a0: 5a7b 6ebb 2d28 993c 09de e93b e08b f13b
000003b0: ac7e 3a3b 9820 d0bb f56c 313c 01a4 37bb
000003c0: 8458 6c3c 3059 dbbc 834e 95b9 97f7 c73b
000003d0: 195d b4bc 36bc feba 82b7 083c 72a3 e0b8
000003e0: 8f28 19bc da94 283c 0fe3 6c3b fdc4 893c
000003f0: edd0 3d3b ff88 cd3c b6b1 67bd 1fd9 a4bb

network_body.linear_encoder.seq_layers.0.weight f4 [256, 304]
-0.05964854 0.04488131 0.015845403 -0.015253377 -0.15025504 -0.046503484 -0.077849574 0.07344856
-0.01440295 -0.050415996 0.08485063 -0.10565497 -0.07244441 -0.13302666 -0.011142141 0.04267438
0.124920785 -0.012145771 -0.03855804 -0.18520662 -0.04676312 0.018415822 -0.05632187 0.059362378
-0.043601375 -0.047198884 -0.08928627 -0.0021084668 -0.002956605 0.07466526 0.04070705 -0.17577787
0.07329026 0.071270965 0.034723487 0.047539163 0.04803995 0.054015607 0.057127893 0.006142002
-0.09224488 0.19168025 -0.009386898 -0.1162996 -0.07639857 -0.022767244 -0.11662003 -0.0037949737
0.07447496 -0.014145838 -0.0800305 -0.07226071 0.06989912 -0.028437966 0.05705247 -0.011807582
-0.0022281352 -0.07790084 -0.0656244 -0.051486447 -0.024192853 -0.022776484 -0.012841959 0.078407094
-0.027149897 -0.0059768227 0.13044852 -0.10570192 -0.006677843 0.07994218 0.03557226 0.10194233
-0.0909764 -0.025504088 0.048198592 -0.10446564 0.02896489 0.017491335 0.02316446 0.067454435
-0.12141739 0.017047541 0.07319606 -0.004493814 -0.08079522 -0.027110277 0.077792995 0.07049439
0.021292193 0.052449394 -0.1201138 0.03326642 -0.044512186 0.04590911 -0.043167863 0.03826035
-0.21422483 0.14511274 -0.07517443 0.13106538 -0.10829049 -0.005257076 0.020946896 0.038066622
-0.04705964 -0.14859745 0.031177498 0.020356188 -0.011610109 0.014545456 -0.23697926 0.052247975
0.072937764 -0.053490773 -0.07180352 -0.048511036 0.13293242 -0.03576083 0.07077698 0.09945014
-0.09272592 0.08296212 0.1129555 0.022722673 -0.03619621 -0.03723364 0.019933986 -0.10918605
0.040766813 0.2475478 -0.011554066 0.11149615 0.0015717746 0.00790832 0.060297012 0.0508484
0.048329674 -0.03643854 0.027073877 0.019875424 -0.1443139 0.11216977 0.05527212 -0.004460547
-0.02853866 -0.14457707 -0.016293047 0.0199965 -0.09056818 0.11232716 -0.029594421 0.032010127
-0.12974298 0.09101774 0.008940365 -0.018008377 0.032934513 -0.0011409837 -0.039319396 0.028557653
0.12547082 0.037787557 -0.11178833 0.03129411 0.13690563 0.10114644 0.08904536 -0.1711921
0.009864835 0.07294322 -0.07273544 0.030398278 -0.055535335 -0.12523094 0.17123657 0.14109956
-0.044751838 -0.051515512 -0.031854883 -0.0055666934 -0.16622113 -0.048050378 0.02571847 0.020758767
0.079641774 0.1584497 -0.06451523 -0.010519268 -0.065805994 0.018018238 0.0057260655 0.057703894
-0.05343097 0.073549315 0.08833155 0.051004153 -0.10979574 0.042462327 -0.01189084 -0.090535164
0.07340363 0.09875845 -0.11847264 0.023248097 0.18863931 0.11300531 -0.0014453102 -0.099732384
0.06894511 0.04112116 0.009790244 0.06964148 -0.04535823 -0.013916585 0.017538005 0.045057666
0.062353514 -0.07298858 -0.0055213375 0.07465633 0.033698082 -0.0042226436 -0.24620476 -0.059830666
-0.05871326 0.16386235 -0.013009081 0.021226231 -0.0908878 0.005383784 -0.07910463 -0.05232538
-0.05618382 -0.055989005 -0.12840076 0.2567639 0.014041779 -0.045502044 -0.031037018 0.00875547
-0.10307475 0.052469935 -0.034559455 -0.07075788 0.009204184 0.19424227 -0.09120455 0.0011110306
-0.014090296 0.125728 -0.16572732 0.06845086 -0.08227551 -0.023589205 -0.08132935 0.2444358
00000000: 0752 74bd 77d5 373d 38ce 813c 4de9 79bc
00000010: 75dc 19be 707a 3ebd 996f 9fbd 336c 963d
00000020: 5afa 6bbc 0181 4ebd 2bc6 ad3d a261 d8bd
00000030: bc5d 94bd 2438 08be 878d 36bc 55cb 2e3d
00000040: 78d6 ff3d 0eff 46bc 09ef 1dbd cea6 3dbe
00000050: af8a 3fbd c7dc 963c c3b1 66bd f725 733d
00000060: 5b97 32bd 9e53 41bd b8db b6bd 342e 0abb
00000070: 9ac3 41bb 1aea 983d 70bc 263d 1dff 33be
00000080: 3419 963d 83f6 913d 373a 0e3d 6db8 423d
00000090: 8ac5 443d 783f 5d3d f0fe 693d d942 c93b
000000a0: e2ea bcbd d447 443e 81cb 19bc 7c2e eebd
000000b0: da76 9cbd 5f82 babc 7bd6 eebd 18b5 78bb
000000c0: 5486 983d f2c3 67bc 08e7 a3bd 6cfd 93bd
000000d0: 4527 8f3d bdf6 e8bc daaf 693d 9774 41bc
000000e0: e805 12bb 7a8a 9fbd 1666 86bd 74e3 52bd
000000f0: 1730 c6bc c095 babc 1467 52bc e693 a03d
00000100: 7669 debc 39d9 c3bb 4c94 053e 407a d8bd
00000110: cfd1 dabb bab8 a33d 38b4 113d 24c7 d03d
00000120: d651 babd f3ed d0bc e36b 453d 15f2 d5bd
00000130: c747 ed3c fd49 8f3c 65c3 bd3c 8d25 8a3d
00000140: aea9 f8bd 49a7 8b3c d1e7 953d d840 93bb
00000150: f777 a5bd 5f16 debc ef51 9f3d 5d5f 903d
00000160: f76c ae3c 2dd5 563d 39fe f5bd 5f42 083d
00000170: 6952 36bd 310b 3c3d c9d0 30bd e2b6 1c3d
00000180: c15d 5bbe 6f98 143e 0df5 99bd 0136 063e
00000190: 68c7 ddbd 8d43 acbb d398 ab3c bfeb 1b3d
000001a0: 9cc1 40bd ee29 18be f467 ff3c 05c2 a63c
000001b0: 5438 3ebc 1050 6e3c b1aa 72be f901 563d
000001c0: 6560 953d 2419 5bbd b90d 93bd 82b3 46bd
000001d0: 701f 083e f379 12bd 85f3 903d 84ac cb3d
000001e0: 16e7 bdbd 0be8 a93d 3755 e73d e624 ba3c
000001f0: 7a42 14bd 4d82 18bd 994c a33c f09c dfbd
00000200: 1afb 263d 2c7d 7d3e 444d 3dbc 1858 e43d
00000210: 0104 ce3a e691 013c 00fa 763d 6946 503d
00000220: 56f5 453d 9440 15bd 09ca dd3c c9d1 a23c
00000230: 06c7 13be 44b9 e53d 0565 623d c829 92bb
00000240: e8c9 e9bc 030c 14be ff78 85bc b3cf a33c
00000250: cf7b b9bd c80b e63d 0070 f2bc 0d1d 033d
00000260: 58db 04be 8267 ba3d 9c7a 123c 4e86 93bc
00000270: 57e6 063d 0f8d 95ba 600d 21bd bdf1 e93c
00000280: 6c7b 003e 20c7 1a3d 48f1 e4bd 412e 003d
00000290: fd30 0c3e dd25 cf3d 6a5d b63d fb4c 2fbe
000002a0: 1ea0 213c 4163 953d 52f6 94bd cf05 f93c
000002b0: 0579 63bd 8a3c 00be a458 2f3e 677c 103e
000002c0: b44d 37bd ee01 53bd 447a 02bd cf68 b6bb
000002d0: df35 2abe 79d0 44bd 8aaf d23c 4a0e aa3c
000002e0: 3a1b a33d a340 223e 9020 84bd 0259 2cbc
000002f0: 4bc5 86bd fc9a 933c b8a1 bb3b eb5a 6c3d
00000300: 6fda 5abd 06a1 963d 2ce7 b43d bbe9 503d
00000310: 97dc e0bd faec 2d3d ccd1 42bc 806a b9bd
00000320: a454 963d df41 ca3d c9a1 f2bd cb72 be3c
00000330: aa2a 413e 546f e73d 9070 bdba 7e40 ccbd
00000340: 1833 8d3d a96e 283d 4267 203c 31a0 8e3d
00000350: 8dc9 39bd 6302 64bc ddab 8f3c 638e 383d
00000360: 6666 7f3d 097b 95bd 56ec b4bb 6be5 983d
00000370: 0007 0a3d 1a5e 8abb 1a1d 7cbe 0011 75bd
00000380: 517d 70bd 88cb 273e 0a24 55bc a2e2 ad3c
00000390: 6223 babd 746a b03b 9c01 a2bd 2353 56bd
000003a0: 0121 66bd ba54 65bd 7d7b 03be 8f76 833e
000003b0: 7d0f 663c 5a60 3abd 5841 febc 1a73 0f3c
000003c0: db18 d3bd b7ea 563d 378e 0dbd 82e9 90bd
000003d0: 25cd 163c 72e7 463e 73c9 babd 00a0 913a
000003e0: fcda 66bc d7be 003e 6cb4 29be f72f 8c3d
000003f0: 1080 a8bd 263e c1bc 0190 a6bd 614d 7a3e

network_body.linear_encoder.seq_layers.2.bias f4 [256]
-0.0006918986 -0.054960974 0.03125926 0.0324059 -0.04041453 0.005025902 0.0018655265 -0.014238016
-0.06461775 0.023053883 -0.012202578 -0.05075422 -0.0565857 -0.018027976 -0.018624341 0.016065096
-0.046979535 0.036050607 0.033861704 0.04474902 -0.03969602 -0.017127398 -0.020989418 -0.03054964
-0.014594368 0.030191746 0.0025198304 -0.03845281 0.014351794 0.00016457637 -0.012722845 -0.00042783486
0.025160838 -0.0017190434 0.02909552 0.009654682 -0.046767127 0.014878311 3.258796e-05 -0.025903653
0.005447649 -0.027175207 0.007213495 -0.06902128 0.05680077 -0.023254 -0.030077377 -0.029717173
-0.0330403 -0.05152343 -0.019834246 0.01567375 -0.020237159 -0.0046442505 0.028808907 -0.04362874
0.025679693 0.026599828 0.01873411 0.037032448 0.0082193045 0.029135743 -0.023864234 -0.013560678
-0.013528691 -0.008752079 -0.01983702 0.010754848 -0.018029341 0.0020920767 0.0018509622 -0.062921114
0.0016020319 0.03688558 -0.03791551 -0.0030349859 0.016007576 -0.0025270812 0.0069823284 0.018097052
-0.067332864 0.00479759 0.033677515 -0.008645532 -0.04183341 -0.02218527 -0.01793382 -0.047123622
0.0114818355 -0.018846257 -0.03690468 0.043165404 -0.0047022584 -0.018508473 0.0016254542 -7.280231e-05
-0.01073115 -0.02365526 -0.03104174 0.0073756045 -0.054621786 -0.009755001 0.024203712 -0.009474604
0.011385365 -0.07212282 -0.012423802 0.00941358 -0.015841724 -0.03902278 -0.013774816 -0.0046921275
0.025373068 0.04107289 0.02734391 -0.024946902 -0.0059313034 -0.029353185 0.028709732 -0.0040656263
0.0021096687 0.0057996265 -0.026811145 0.00226962 0.023749135 -0.0150986565 -0.008915611 -0.012944616
0.02706361 -0.037910342 -0.017225621 -0.035403464 -0.0167266 0.019109927 -0.021962224 -0.059937418
-0.03150352 0.0012900477 0.05135545 -0.041746944 -0.042644303 -0.03971783 -0.024834486 0.03100913
0.024526939 0.016600162 -0.005921347 0.018771645 -0.00035519592 -0.03339048 -0.0078050527 -0.014109277
-0.044340577 0.04148423 -0.010234668 -0.008153616 -0.034497734 -0.044287194 -0.014618483 -0.040831845
-0.006615624 -0.00985375 0.002267381 0.0030907488 -0.011245121 -0.038344312 -0.044277526 -0.053017855
-0.010010574 -0.015771443 0.04474237 -0.079988346 -0.0021562509 -0.028019907 -0.015708499 -0.055327453
0.0011942533 0.0050519984 0.009846038 0.0043607294 0.010278635 -0.031991184 -0.029065477 -0.019193962
0.014235894 0.055870477 -0.036673237 0.008713856 -0.04466805 0.008733306 -0.05209062 -0.009479568
-0.016947756 0.0036632384 -0.028944198 -0.035194058 -0.034361407 0.018457873 -0.051740937 -0.058687095
-0.02323635 -0.042951114 -0.010963583 -0.011999161 -0.024447305 -0.05069744 0.007235148 -0.033481788
-0.0035458338 -0.020919818 0.013163975 -0.076900154 0.015863761 -0.01807043 -0.045020565 -0.032904413
-0.005396352 0.020577654 0.021495802 -0.0090350425 0.03086717 0.005929526 -0.06418748 -0.0052731787
-0.05403908 0.003791108 0.0048208106 -0.054810707 0.001341753 -0.004308416 -5.424593e-05 -0.061049473
0.008218477 -0.034681942 -0.016813941 0.0047012814 -0.029690914 0.028174458 0.024660032 -0.0024326146
0.013852782 -0.012841503 0.028046424 0.0025463465 -0.041672893 -0.03033387 0.00594114 0.003147771
-0.019533364 0.06428997 -0.023100318 -0.04204857 0.015469285 -0.049743686 0.01623524 0.024436124
00000000: 8760 35ba c21e 61bd b609 003d 0dbc 043d
00000010: b589 25bd 52b0 a43b af84 f43a 9146 69bc
00000020: 5056 84bd 7fdb bc3c 52ed 47bc a8e3 4fbd
00000030: 68c6 67bd 68af 93bc 1392 98bc f39a 833c
00000040: 9d6d 40bd cda9 133d 92b2 0a3d c04a 373d
00000050: 4b98 22bd c24e 8cbc 00f2 abbc 3d43 fabc
00000060: 371d 6fbc ae54 f73c bd23 253b b280 1dbd
00000070: c923 6b3c 2292 2c39 7b73 50bc 064f e0b9
00000080: 1a1e ce3c 8651 e1ba ba59 ee3c ac2e 1e3c
00000090: e38e 3fbd 29c4 733c 0eaf 0838 e633 d4bc
000000a0: 3182 b23b 8a9e debc 2f5f ec3b 075b 8dbd
000000b0: eda7 683d 2c7f bebc d564 f6bc 6e71 f3bc
000000c0: 4455 07bd 3b0a 53bd 6e7b a2bc 3c66 803c
000000d0: 66c8 a5bc cc2e 98bb a800 ec3c 0db4 32bd
000000e0: 385e d23c e2e7 d93c 4778 993c 56af 173d
000000f0: 43aa 063c 15ae ee3c ed7e c3bc 9b2d 5ebc
00000100: 71a7 5dbc e164 0fbc 3f81 a2bc 1a35 303c
00000110: 45b2 93bc 391b 093b fc9b f23a c9dc 80bd
00000120: 45fb d13a 5515 173d 4b4d 1bbd 9de6 46bb
00000130: 5222 833c 639d 25bb 04cc e43b 4540 943c
00000140: d0e5 89bd 1a35 9d3b 6ff1 093d fda5 0dbc
00000150: 8259 2bbd e2bd b5bc f2e9 92bc b304 41bd
00000160: 4f1e 3c3c 7763 9abc 5d29 17bd 35ce 303d
00000170: 6715 9abb 159f 97bc 310d d53a 71ad 98b8
00000180: b5d1 2fbc adc8 c1bc 3f4b febc 0eaf f13b
00000190: 18bb 5fbd 71d3 1fbc dd46 c63c 5f3b 1bbc
000001a0: af89 3a3c 21b5 93bd 348d 4bbc 6b3b 1a3c
000001b0: 81c6 81bc 5ad6 1fbd c4af 61bc 6bc0 99bb
000001c0: 2edb cf3c 0c3c 283d 5600 e03c 725d ccbc
000001d0: 615b c2bb 1776 f0bc ac30 eb3c f238 85bb
000001e0: 5e42 0a3b cb0a be3b 0ca3 dbbc e8bd 143b
000001f0: 8c8d c23c 5b60 77bc c812 12bc a815 54bc
00000200: 81b4 dd3c e047 1bbd bf1c 8dbc 3903 11bd
00000210: 3906 89bc 6c8c 9c3c 1fea b3bc f080 75bd
00000220: d609 01bd d116 a93a 185a 523d d8fe 2abd
00000230: cbab 2ebd 2aaf 22bd b171 cbbc dc06 fe3c
00000240: b8ec c83c 10fd 873c dc07 c2bb fec6 993c
00000250: 9739 bab9 75c4 08bd 87c1 ffbb 992a 67bc
00000260: 779e 35bd 5eeb 293d 4faf 27bc bf96 05bc
00000270: 7f4d 0dbd 7d66 35bd 5d82 6fbc 4b3f 27bd
00000280: e0c7 d8bb 9f71 21bc 5798 143b 298e 4a3b
00000290: 753d 38bc ed0e 1dbd 5a5c 35bd 4029 59bd
000002a0: 6403 24bc 1d33 81bc c643 373d eed0 a3bd
000002b0: e34f 0dbb 018a e5bc 1caf 80bc 0a9f 62bd
000002c0: 7e88 9c3a 3c8b a53b 4751 213c 73e4 8e3b
000002d0: b867 283c 3009 03bd b91a eebc a83c 9dbc
000002e0: ab3d 693c 71d8 643d ad36 16bd 90c4 0e3c
000002f0: d8f5 36bd 2416 0f3c f95c 55bd 3150 1bbc
00000300: 05d6 8abc f112 703b 621c edbc a527 10bd
00000310: 8cbe 0cbd f734 973c 4eee 53bd e161 70bd
00000320: 285a bebc 82ed 2fbd 9aa0 33bc 2198 44bc
00000330: b745 c8bc 1ea8 4fbd d214 ed3b 3324 09bd
00000340: 3861 68bb 0a60 abbc b7ad 573c d47d 9dbd
00000350: b8f4 813c 7008 94bc 7c67 38bd c7c6 06bd
00000360: e2d3 b0bb 7892 a83c f717 b03c b707 14bc
00000370: 26dd fc3c 784c c23b ba74 83bd a1ca acbb
00000380: 1558 5dbd 3d74 783b e4f7 9d3b 3181 60bd
00000390: c3dd af3a 9d2d 8dbb 2086 63b8 030f 7abd
000003a0: caa6 063c a70e 0ebd 64bd 89bc 350d 9a3b
000003b0: 5c3a f3bc 1fce e63c d603 ca3c 806c 1fbb
000003c0: c7f6 623c 2b65 52bc 9dc1 e53c 9be0 263b
000003d0: 32b1 2abd bc7e f8bc e5ad c23b d64a 4e3b
000003e0: 6f04 a0bc 76aa 833d e13c bdbc 1f3b 2cbd
000003f0: e272 7d3c 09c0 4bbd c4ff 843c 442e c83c

network_body.linear_encoder.seq_layers.2.weight f4 [256, 256]
-0.15363827 -0.007959722 0.050448414 0.03602267 0.17524621 -0.006428304 0.021657646 0.12288795
-0.047399733 -0.0725425 -0.07167368 0.051083278 0.07848095 -0.12413256 0.13183294 0.052641664
-0.051442683 0.10212386 -0.05764193 0.0519569 -0.028388005 0.034565046 0.053869594 -0.072723106
0.15234655 -0.0864044 0.051394917 -0.12446105 -0.027401425 0.09328444 0.070611656 -0.006102515
0.015297998 -0.047219757 -0.063632645 0.036312107 0.06896103 0.0056624287 0.018593466 -0.09195414
-0.026425323 -0.0060918434 0.09307558 -0.053919334 0.14303976 0.11012929 -0.17273004 0.056071434
0.07155615 -0.081651956 0.018672256 0.0017438291 -0.07887396 0.037424255 -0.045427296 0.12577747
-0.047904182 0.051725063 0.01382746 0.009839752 -0.07307204 -0.08636054 -0.15572909 0.023117388
-0.017953807 0.03277157 0.054819174 -0.085996225 0.16997972 -0.11924029 0.089633904 0.08648283
-0.09166867 -0.042356353 -0.034867242 -0.10513213 -0.022434382 0.04410556 0.012589728 0.08177939
-0.083689466 -0.008324578 0.13711235 0.09184979 -0.0114118215 0.15198354 0.06713576 0.06939643
-0.011602004 -0.004874682 -0.004983692 -0.086663984 -0.083321154 0.07299501 0.04705065 -0.032894656
0.0032918951 -0.026874602 0.03159134 -0.07589722 0.10302536 -0.08086722 -0.09361523 -0.103261314
0.23615338 -0.011555247 -0.027209124 0.016089156 0.117017254 0.007887767 0.19920649 0.19500743
0.17440341 0.18072423 -0.09214546 0.057495035 0.031182671 0.1467904 0.068018325 0.038283177
-0.014802144 0.04491319 -0.005086227 0.062082596 0.18901634 0.08948361 -0.026079623 -0.16105554
-0.07169128 0.02240457 0.04600203 0.1046293 0.06300923 -0.1476774 -0.15204072 0.21141374
0.017513102 0.02536567 -0.059709165 0.14413376 -0.03381105 0.15964936 0.06631113 0.10002927
0.12314008 0.15008605 0.028716294 0.034531724 -0.04213006 -0.011764079 0.09435608 -0.12549417
0.07545051 0.046277784 0.006977886 -0.027517391 -0.046096083 0.15271719 0.06479784 -0.051236525
-0.09172623 0.0531412 0.023676286 -0.043437924 0.07839108 0.035427216 -0.08447253 0.060961418
-0.002913155 -0.012668305 0.035367213 0.095361404 0.082518436 -0.10352732 0.008842555 0.02898023
0.00017216353 -0.11944734 -0.068966515 0.073099 0.16935995 0.118479565 -0.07468862 0.025715617
0.010293046 -0.17503673 -0.0351858 -0.023893602 0.13140967 0.20975316 0.040196422 0.06647424
-0.054600097 0.0063887318 -0.007301659 0.11890791 0.087425835 0.00056974153 -0.07738531 0.08348149
-0.10629929 -0.017131556 -0.13242325 0.027958632 0.05896897 0.0059640585 0.068069555 0.12422519
-0.12144901 -0.07423106 0.03828147 0.048956946 -0.059146807 0.12603287 -0.009769304 -0.086469196
0.13045123 -0.05542536 0.018061416 0.17048731 -0.026513247 0.080472365 -0.06508615 -0.015495164
-0.14285427 -0.055303045 0.10855074 0.10785225 -0.024544887 -0.011523224 -0.11711782 -0.014569129
0.0025800266 -0.11002252 0.21557786 -0.12760028 -0.1763942 -0.068622 0.03111905 -0.051652715
-0.12695791 -0.035242025 -0.14677429 0.18600196 -0.040299814 0.04136189 0.23896362 0.0074432716
-0.043243557 -0.098661266 -0.11235343 -0.12232537 0.103912055 -0.023877071 -0.039142225 0.010521315
00000000: 5a53 1dbe 7e69 02bc ffa2 4e3d 828c 133d
00000010: be73 333e 86a4 d2bb 606b b13c adac fb3d
00000020: 3926 42bd 2a91 94bd a6c9 92bd b33c 513d
00000030: 9fba a03d 3639 febd 37ff 063e c99e 573d
00000040: 90b5 52bd 5026 d13d f219 6cbd c2d0 543d
00000050: f68d e8bc 1494 0d3d 5da6 5c3d daef 94bd
00000060: bc00 1c3e caf4 b0bd 7a83 523d 6fe5 febd
00000070: f478 e0bc ea0b bf3d d89c 903d 9bf7 c7bb
00000080: 74a4 7a3c 8169 41bd d551 82bd 01bc 143d
00000090: 713b 8d3d e58b b93b 5351 983c 7452 bcbd
000000a0: eb79 d8bc 169e c7bb 699e be3d 85da 5cbd
000000b0: 0479 123e 778b e13d 25e0 30be 29ab 653d
000000c0: 088c 923d 2439 a7bd 8ff6 983c 3291 e43a
000000d0: ac88 a1bd 2d4a 193d f911 3abd cfcb 003e
000000e0: 2d37 44bd a9dd 533d 928c 623c e936 213c
000000f0: cba6 95bd cbdd b0bd 7277 1fbe ad60 bd3c
00000100: dd13 93bc 7b3b 063d 128a 603d ca1e b0bd
00000110: 2a0f 2e3e 4134 f4bd fb91 b73d e91d b13d
00000120: c9bc bbbd db7d 2dbd f4d0 0ebd 844f d7bd
00000130: 4fc8 b7bc 08a8 343d 2645 4e3c f47b a73d
00000140: 6265 abbd d063 08bc 2e67 0c3e be1b bc3d
00000150: a6f8 3abc 93a1 1b3e 797e 893d b71f 8e3d
00000160: 5516 3ebc ccbb 9fbb 3d4e a3bb e37c b1bd
00000170: 48a4 aabd 687e 953d 2fb8 403d 8cbc 06bd
00000180: d6bc 573b 2028 dcbc ec65 013d 0070 9bbd
00000190: f6fe d23d b79d a5bd 57b9 bfbd ab7a d3bd
000001a0: 31d2 713e 3852 3dbc abe5 debc 68cd 833c
000001b0: bea6 ef3d b13b 013c c9fc 4b3e 07b0 473e
000001c0: cf96 323e c60f 393e c2b6 bcbd ea7f 6b3d
000001d0: cd72 ff3c 3950 163e 314d 8b3d d2ce 1c3d
000001e0: b184 72bc e5f6 373d 5daa a6bb 524a 7e3d
000001f0: 808d 413e 2f43 b73d efa4 d5bc beeb 24be
00000200: e1d2 92bd ca89 b73c a06c 3c3d e347 d63d
00000210: fc0a 813d bf38 17be 90b0 1bbe d87c 583e
00000220: a377 8f3c aacb cf3c 9991 74bd cd97 133e
00000230: 757d 0abd 1f7b 233e 21ce 873d 25dc cc3d
00000240: de30 fc3d 28b0 193e 6f3e eb3c 2371 0d3d
00000250: 9290 2cbd 20be 40bc c33d c13d 8b81 00be
00000260: cc85 9a3d c68d 3d3d c0a6 e43b 276c e1bc
00000270: 3fcf 3cbd e561 1c3e bbb4 843d 64dd 51bd
00000280: f6da bbbd 96aa 593d c5f4 c13c f7eb 31bd
00000290: 818b a03d 211c 113d efff acbd aeb2 793d
000002a0: a1ea 3ebb b98e 4fbc 36dd 103d d74c c33d
000002b0: 6dff a83d 2206 d4bd 5de0 103c f367 ed3c
000002c0: cc86 3439 cfa0 f4bd 513e 8dbd eeb4 953d
000002d0: b26c 2d3e 6aa5 f23d 59f6 98bd 8fa9 d23c
000002e0: 2aa4 283c d43c 33be fc1e 10bd 84bc c3bc
000002f0: 4290 063e 88c9 563e 01a5 243d a523 883d
00000300: 5aa4 5fbd 9158 d13b c142 efbb fe85 f33d
00000310: 510c b33d b55a 153a 307c 9ebd 58f8 aa3d
00000320: 71b3 d9bd 7a57 8cbc f699 07be 8009 e53c
00000330: 7289 713d 266e c33b 0d68 8b3d c769 fe3d
00000340: 42ba f8bd 7406 98bd 08cd 1c3d 1487 483d
00000350: ec43 72bd c30e 013e 6e0f 20bc c316 b1bd
00000360: 0295 053e b405 63bd 89f5 933c 3a94 2e3e
00000370: 4f32 d9bc b2ce a43d e34b 85bd 6edf 7dbc
00000380: 6448 12be 7285 62bd da4f de3d a4e1 dc3d
00000390: 5c12 c9bc e8cb 3cbc 78db efbd 5bb3 6ebc
000003a0: aa15 293b 7d53 e1bd 71c0 5c3e a6a9 02be
000003b0: aea0 34be b189 8cbd 61ed fe3c cc91 53bd
000003c0: 4101 02be f159 10bd 004c 16be 4c77 3e3e
000003d0: 6b11 25bd 166b 293d e1b2 743e b0e6 f33b
000003e0: 2820 31bd eb0e cabd 8e19 e6bd b985 fabd
000003f0: d8cf d43d d999 c3bc 9953 20bd 9861 2c3c
