Project/Assets/ML-Agents/MyProject/TrainModels/rubyrun/rubychaser.onnx (onnx, 413014 bytes, 6 tensors)

action_model._discrete_distribution.branches.0.bias f4 [7]
00000000: dce7 30bd 8632 1b3c 7381 603b fa09 1ebd
00000010: 04fc cd3c 36cc 193c dd8e 9d3c
-0.04318987 0.009472495 0.0034256845 -0.038583733 0.025144584 0.009387067 0.019233162

action_model._discrete_distribution.branches.0.weight f4 [7, 256]
00000000: d4e8 c0bb 452b 0ebd 3fef 8fbc 2ee4 54bc
00000010: d9fc 86bc ee9c 1cbb 89cb acbb 71e0 07bc
00000020: f326 56ba f1fd d5bb fb9f 39bd b211 60bd
00000030: c72a 63bd dc5d e3bc 47fd 68bc a700 89bc
00000040: e42e cc3c 8ad8 84bd ad20 22bd 71d2 073c
00000050: e2f8 9bbb 5ef4 513a 31a9 64bd 82c5 5b3c
00000060: 4eaa da3c 28c5 fdbc 52b5 99bd 1e27 51bc
00000070: 3740 113c 8407 dabc dfed 7dbd 2632 453c
00000080: c8b0 4bbd 3afa 50bc 34cb 62bd 7eb5 e93c
00000090: c081 96bc bed0 033c 5606 27bd 67f1 fd3c
000000a0: 07fc 53bd bf9e 0cbc 89c0 913c d102 17bd
000000b0: 913a 35ba 9515 ddbb 2374 0dbc 41b1 5bbc
000000c0: 5836 7dbd e7b5 0ebd 3b0a 5cbd 14c8 873c
000000d0: 8571 fdb7 cf64 dfbc 6cb4 71bd 86eb c4bb
000000e0: 952e 3fbc b499 253b be7a a0bd db24 23bd
000000f0: 9c80 9bbb ad76 5abc 69e8 253c 5df7 213d
00000100: e7a4 e2bc 17d9 3fbd 3498 b33c 43b3 40bd
00000110: 579c 923b df52 ccbc c583 1fbc f6b6 8ebc
00000120: 7504 4abc 73f0 f8bc dcee e9bc 5616 85bd
00000130: 47eb 803c 6acc cb3c f1d5 e8bc 0b53 67bd
00000140: 5de0 bdbb 53aa 0bbc a1e2 0bbd bf16 e43b
00000150: 7b6e 17bd f31e cebd 30a5 853c c8d6 4abd
00000160: 32c5 1abd fb71 25bd 311d 8b3b 89dd 6ebd
00000170: 8d3e c83c 7424 283b 5e66 b7bb 5429 253c
00000180: e479 2cbd 4044 d6bc 74fa 783b 0738 b1bc
00000190: df0d 3d3c aff0 45bd fc28 d83c 8fe6 ecbb
000001a0: 59b6 cbbc f49f c73c b0b8 f93b 8d59 c03c
000001b0: 3336 18bd 712b af3c 9a2e 32bc 9bc6 e4bc
000001c0: 15a8 2dbd 015d 833d 0984 a13b 9d84 87bb
000001d0: 1c9b fabc fd6d 2cbb bf6f 953c 7922 8c3c
000001e0: aae6 1cbb ab58 a6ba 256a 86bc 5235 823c
000001f0: 22d7 94bb 53fe 483d 63dc 2abc 7600 7dbd
00000200: 99ad d83c b1fd cfbc 72e9 a03c f266 0b3b
00000210: 0bfa 3e3b bdac 05bd 60cc a93c a726 103d
00000220: 121b 0a3d 2918 adbc 6d06 f43c 84d8 1dbd
00000230: f575 8ebd 7bd6 b4bc 59f5 58bd 220a 9cba
00000240: fa13 5dbd 1809 a9bc 263d 7dbc f368 bb3c
00000250: a236 e8bb 4a02 3bbd 87d6 bd3b 5f0b 43bb
00000260: aa74 4d3b a069 043d 343c 533c e9b3 1e3b
00000270: 3072 13bd 7250 613c 1b96 f93b f506 28bd
00000280: b604 46bd c6be 3cbd fbe8 88bb 3e8d 2c3c
00000290: e5d4 0ebd b35a 95bb 4ace 2ebd 5c82 38bc
000002a0: f826 46bc bacc e3bc b730 a1bb 7f70 94bd
000002b0: 4015 82bd 4469 65bc 1db5 3c3b 547e c5bc
000002c0: b194 22bd 48a0 643c 959d c93c b306 41bd
000002d0: 1603 aabc 9a31 11bd 451b 763c 67da 0a3d
000002e0: 2fb1 efbc 6613 a1bc 4ab3 ea3c 08d5 14bd
000002f0: a1bd 603c f516 b3bb 6003 0a3c fbe8 01bc
00000300: 201e c2ba 1670 bbbc edad f23c 51f3 5abd
00000310: 986f 7dbd 3916 00bd ffd3 453c 30d0 37bd
00000320: f75f d9bc a36b 30bb 4a9a f9bc 70f2 433c
00000330: bd1e c13a 6e85 853c 952c 4d3c 75ae e3bc
00000340: e078 2cbc af58 69bd 617a 1dbd 7549 7f3c
00000350: 0a7b 443b b645 66bb ee51 be3c 3673 5e3c
00000360: 935f aa3c 7786 2d3d 2f91 9fbb dbe7 963c
00000370: 5399 9abc 2447 74bd 5e94 1a3d 7293 053c
00000380: b524 363c ccf6 86bc 6764 2539 57b1 94bb
00000390: 8857 143d f82c bebc 02c3 9dbd eb40 b43b
000003a0: d336 73bc b181 a2bc 7669 443b 5006 23ba
000003b0: a623 c73b fe8d b83a d673 543c 6523 8abd
000003c0: ac54 f5bc 895f a6bc 8e3e 033d c646 1bbd
000003d0: 38b0 85bc 30d9 193d fcd1 7ebd a2b5 863c
000003e0: 75b1 df3c 12d9 9abd 00ac aebc a3ad 1c3d
000003f0: f78e 30bc 91b4 04bd 643d 41bd e6d3 a9bc
-0.0058871303 -0.034709234 -0.017570136 -0.012993855 -0.016477989 -0.0023897248 -0.0052732867 -0.008293257
-0.0008169256 -0.0065305163 -0.045318585 -0.054704376 -0.055460718 -0.027754717 -0.014220542 -0.016723944
0.024924703 -0.06486614 -0.039581943 0.008289919 -0.0047598938 0.0008009131 -0.055825416 0.013413789
0.026692536 -0.0309778 -0.07505287 -0.012765674 0.008865408 -0.026614912 -0.06199443 0.012035882
-0.04972914 -0.012754971 -0.05536957 0.028528925 -0.018372416 0.0080453735 -0.040777527 0.030998899
-0.051754024 -0.00858277 0.017792003 -0.03686792 -0.0006913329 -0.0067469575 -0.008633646 -0.01340896
-0.061819404 -0.034841444 -0.053720694 0.016574897 -3.0212812e-05 -0.027269749 -0.059009954 -0.006009522
-0.011668821 0.0025268616 -0.07835911 -0.03983007 -0.004745556 -0.013333959 0.010126212 0.039542545
-0.027666522 -0.046837892 0.021923162 -0.047045957 0.0044742036 -0.02494186 -0.009736006 -0.017421227
-0.012330164 -0.030388093 -0.02855628 -0.06498401 0.015737189 0.024877746 -0.028422328 -0.05647568
-0.0057945685 -0.008524495 -0.034151677 0.0069607194 -0.036970597 -0.10064497 0.01631412 -0.049521238
-0.037785716 -0.040391903 0.0042454232 -0.05831674 0.024443889 0.0025656493 -0.00559692 0.010080654
-0.04210843 -0.026155591 0.0037991079 -0.021633161 0.011538952 -0.048325237 0.02638673 -0.007229633
-0.024867224 0.024368264 0.0076208934 0.023480201 -0.037161063 0.02138302 -0.0108753685 -0.027926734
-0.042396624 0.064142235 0.00492907 -0.004135682 -0.03059154 -0.0026310675 0.018241761 0.017106282
-0.0023941197 -0.001269122 -0.016408036 0.015894566 -0.0045422474 0.049070667 -0.010428521 -0.061768018
0.026449965 -0.025389524 0.019642565 0.0021271077 0.0029140736 -0.03263544 0.020727336 0.03519311
0.033717223 -0.021129685 0.02978822 -0.038536564 -0.06956092 -0.022074929 -0.052968357 -0.0011904875
-0.05397413 -0.020634219 -0.015456473 0.022877192 -0.007086591 -0.04565648 0.005793396 -0.0029761416
0.0031350055 0.032327294 0.0128927715 0.0024216122 -0.03599757 0.01375209 0.007616771 -0.04102226
-0.048344336 -0.046080373 -0.004178164 0.010531722 -0.034871 -0.0045579313 -0.0426772 -0.011261549
-0.012094252 -0.027807582 -0.0049191373 -0.072480194 -0.06351709 -0.014002148 0.0028794475 -0.02410809
-0.039692584 0.01395423 0.024611274 -0.04712553 -0.020753425 -0.035447694 0.01502115 0.03389969
-0.029259292 -0.01966257 0.028649945 -0.036335975 0.013717086 -0.005465383 0.008423656 -0.007929082
-0.0014810003 -0.022880595 0.02962395 -0.0534547 -0.061874002 -0.031271193 0.01207447 -0.044876277
-0.026535017 -0.0026919625 -0.030469079 0.011959657 0.0014733892 0.016298976 0.012522836 -0.027793149
-0.010526866 -0.05696934 -0.038446788 0.015581478 0.0029980564 -0.0035136766 0.023232426 0.013577273
0.020797526 0.042364564 -0.004869602 0.018421104 -0.018871939 -0.059638157 0.03773915 0.0081528295
0.01111715 -0.016475104 0.00015773029 -0.004537742 0.03621629 -0.023214802 -0.077032104 0.005500903
-0.014844614 -0.019837232 0.0029970086 -0.0006218897 0.0060772477 0.0014080403 0.012967071 -0.06745032
-0.029947601 -0.020309227 0.03204208 -0.03790929 -0.01631938 0.03756064 -0.062211975 0.016444031
0.027306298 -0.07560934 -0.02132225 0.03825153 -0.010776273 -0.032398764 -0.047177687 -0.020730924

network_body.linear_encoder.seq_layers.0.bias f4 [256]
00000000: 8c34 443c 6c3e 04bc 263c 143c e1b9 26bd
00000010: fec3 013d d47d 1cbb 869f 9dbc c00b ce3c
00000020: a8d0 9a3c cb35 123c 70f0 d4bb f3cf b33c
00000030: fb62 7abc d7ad 20bc 1247 573c fa70 093d
00000040: 8822 79bc e675 8b3a a028 923c cb1e bf3a
00000050: aba9 2e3c 41af 44ba bfa0 89bb 672f 89bb
00000060: e591 e1ba bf79 3b3c 737d eb3c 7941 6d3b
00000070: 1304 ecba 5d0b 1a3c a26c 883c 19fd a83c
00000080: d984 253d d973 223c 85f7 edbb 7dfe 7dbb
00000090: e33d 133d 1fd5 da39 3329 103d 46a7 153d
000000a0: fe0b febc f406 143d 0800 de3b 03df d43c
000000b0: 2766 1d3d e6c3 ad3b a283 c63c b944 96bb
000000c0: 0f6c 813c b9f5 2c3c d91a 613d b074 a839
000000d0: cb1e ab3b a811 e23c e2a2 ad3c 38ca db3c
000000e0: 10a3 433c be21 8fbb 8df9 253b 9820 0ebd
000000f0: 54ff 733c fab8 9d3c 4fb3 173d 3a36 3d3b
00000100: 30c0 153d 2b6c 663c 5747 603c 5fe4 48bc
00000110: 137f a93b 180b 35bc 1968 df3b e8f1 c93c
00000120: c1bb afba 7ddd 76bc e046 c53c ae86 0ebc
00000130: 539c 733c 687f 073d 2de6 293d 7e3d 403c
00000140: 102b fe3b 1abe d13a 49f2 213c daf5 103d
00000150: 3ac6 f7bc 8320 df3c b5f7 223d 821a 52bb
00000160: 313f 02bd 6263 9a3c 50c5 0d3c 9fde 86bc
00000170: 88c2 f83c 7cda 80bb 8aa1 b23c e997 fd3c
00000180: 21fb c43c b286 95ba ed7f 383c 2ed6 3fbc
00000190: da14 d93c 7465 c93c f999 043d f160 f33c
000001a0: 0825 103d 6a81 cc3c d5ae 65bc 9e77 463c
000001b0: c7ba 7f3c d9ca 07bc 5716 d13c 118e 173d
000001c0: 6b50 813c 9bdb e13c c9fa 423c b155 8e3c
000001d0: ed10 c23a e444 ca3c f35c 2f3c bbf0 593c
000001e0: 89fd 45bb dc13 a93c c4e6 0dbb 523c ec3c
000001f0: 6bf1 cbba 49f6 08bc 86a3 103d 814d 81bc
00000200: c2d4 93bc 8f24 a43a dfec 97bc 9ed7 003d
00000210: e20d bb3c eb3f 6bbc 0da5 d53a aa47 ecb9
00000220: e891 473b fc4d 6eba 2ff4 f3bb 98cf f03c
00000230: b5c9 3e3b e598 533c a73d 003d 2d1e 713b
00000240: 6392 983b 5724 65bc d6ed 123d 0bbd 2f3c
00000250: 24db bb3a 7cdf 33bc 2ba5 173d 2820 ad3c
00000260: 66a2 913c 7d9d 88bc 10e6 a1bc b28a ca3c
00000270: f161 583c 1c79 a4b7 edca d63a 781b c13c
00000280: 15a3 ec3c 2692 2cbc 2bed c73b bdc8 e03c
00000290: 1e4c 5bbc e33d 66ba 6151 703d a193 123d
000002a0: 24e7 4e3c f5fe e23c 7ec8 4bba 56a4 e4bc
000002b0: c79f bd3c 82af 07bc bdea e53c 66cf 9fbb
000002c0: e44d 1a3d 91bf 743b 4054 983c 0e2e a73b
000002d0: bd51 3f3b 3eed 173c 927b 5f3d 1337 e03c
000002e0: 3854 d03c dd2d ff3c f2a0 15bc be36 e93c
000002f0: 7e92 f53c 65a4 083c 924d f23c 70db 0c3d
00000300: 1fab ad3c b14b 043d 463c 3c3d 8643 853b
00000310: ed29 1c3d 0076 683b e046 db3b 4c75 5d3c
00000320: 32c5 8dbc 136f d4bc 8648 0d3c 440c 7b3a
00000330: c711 753c 5bfb b8ba 34ec 913c f088 e4bb
00000340: 9d29 66bc 22fa 84bc 8937 c7bb 794e 2bbc
00000350: c578 cb3c 0e3b 7c3b 1a76 d9bb 0447 433c
00000360: 465f c63a 10a5 723c 5f3f abbc 3841 943c
00000370: c087 39bc 0542 da3c a73f 9c3b 2b82 01bc
00000380: 550e 0ebb 539c d13c 64fc 443b 342c 9fbb
00000390: bbcc 793c 01c0 5b3c ce39 8dbc 6b77 c9bb
000003a0: fa41 a13c c690 a93c b39e 6bbc d6ed e33c
000003b0: 6316 573c 5eb1 1b3b 6598 d23b 55e7 f23c
000003c0: 1d46 5d3b 9a92 39bb 7a0c 3b3a b166 813b
000003d0: 35c6 b53c dd7d 88bb 3fd2 87bb 8048 dd3c
000003e0: 1292 6aba 2727 ca3c a4a4 7c3c cce0 0f3c
000003f0: 5519 62bc 3d3b bfbc a75b df3c 484a b7bc
0.011975419 -0.008071523 0.009047544 -0.04070461 0.031681053 -0.002387871 -0.019241106 0.025152087
0.018898323 0.008923958 -0.006498389 0.021949744 -0.015282388 -0.009807072 0.013139503 0.03355501
-0.015205987 0.0010639995 0.017841637 0.001458132 0.010660569 -0.00075029215 -0.0042000706 -0.004186559
-0.0017209618 0.011442601 0.028746342 0.0036202355 -0.0018006585 0.009402123 0.016653363 0.020628499
0.040409897 0.009915316 -0.0072621726 -0.0038756423 0.03594769 0.00041738988 0.03519554 0.036536478
-0.031011578 0.036139444 0.006774906 0.025985247 0.0384275 0.005302894 0.02423269 -0.004585829
0.015798597 0.010556632 0.054957245 0.00032130396 0.0052221767 0.02759631 0.021195833 0.026829824
0.011940733 -0.004368036 0.0025325746 -0.034699053 0.014892418 0.019253243 0.037036236 0.0028871433
0.036560237 0.014063875 0.013688884 -0.012261479 0.005172619 -0.011050008 0.0068178293 0.024651483
-0.0013407395 -0.015067455 0.024081647 -0.008699102 0.014868814 0.03308049 0.04147928 0.011733411
0.0077565983 0.0016002089 0.009884425 0.035390712 -0.030245889 0.027237182 0.039787013 -0.0032059257
-0.031798545 0.018846218 0.008653 -0.016463576 0.030366197 -0.0039322954 0.021805543 0.030956225
0.024045529 -0.001140794 0.011260969 -0.011708779 0.0264992 0.02458451 0.032373402 0.029709311
0.035191566 0.024964053 -0.014018734 0.01211348 0.015608496 -0.008288109 0.025523348 0.03700072
0.015785417 0.027570536 0.011900612 0.017374845 0.001480607 0.024691053 0.010703313 0.0133020235
-0.0030210933 0.020639353 -0.002165244 0.028837357 -0.0015559619 -0.0083595 0.035312198 -0.015784027
-0.018045787 0.0012523102 -0.018545566 0.03145563 0.022833768 -0.014358501 0.0016299799 -0.00045066822
0.0030451957 -0.00090906 -0.0074448804 0.029395863 0.0029111926 0.012914871 0.031308796 0.0036791668
0.0046561225 -0.013985715 0.03587135 0.010726224 0.0014332277 -0.010978576 0.03702275 0.021133497
0.017777633 -0.016676659 -0.019763023 0.024724338 0.013206945 -1.960672e-05 0.0016387381 0.023572668
0.028886357 -0.010532891 0.0061012707 0.02743947 -0.013384847 -0.00087830256 0.05867136 0.03578532
0.01262835 0.027709464 -0.0007773711 -0.027910393 0.023147477 -0.00828159 0.028066033 -0.0048770187
0.03767194 0.0037345628 0.018594861 0.0051019257 0.0029193007 0.009272872 0.054561205 0.027370011
0.025430784 0.031149799 -0.009132611 0.028468486 0.02997708 0.008339976 0.029578004 0.03438896
0.021199761 0.032298747 0.04595592 0.0040668873 0.03812592 0.0035470724 0.0066917986 0.013516735
-0.017305944 -0.02593187 0.008623248 0.0009576718 0.014957852 -0.0014112996 0.017812826 -0.006974332
-0.014048007 -0.016232554 -0.0060796184 -0.010455721 0.02483786 0.0038487348 -0.0066363933 0.011918787
0.0015134595 0.014809862 -0.020904241 0.018097505 -0.011323869 0.026642809 0.00476833 -0.00790457
-0.0021676023 0.025587237 0.0030057663 -0.0048575643 0.015246565 0.0134124765 -0.017239477 -0.006148269
0.01968478 0.020698916 -0.014381099 0.02782337 0.013127896 0.0023756842 0.0064268583 0.029651323
0.0033763715 -0.002831614 0.0007135343 0.0039490093 0.022189239 -0.0041653947 -0.0041449363 0.02701211
-0.0008948158 0.024676872 0.015420113 0.008781623 -0.013799985 -0.023343677 0.027265383 -0.022374287

network_body.linear_encoder.seq_layers.0.weight f4 [256, 136]
00000000: 0d6c b7bd 84b2 c7bd 6404 0c3b 5622 2a3e
00000010: 4f35 7abd 954e 263d 974a b0bd 84ab df3b
00000020: 5361 fbbb 785e 933e 6d04 0d3e 708f 9dbb
00000030: 7f2d f33c 637f 26bd 7fee a23b 1e02 2c3e
00000040: 7a3c 1bbb 39a6 c3bd 3b59 ebbc f4d6 2c3c
00000050: cae1 42bd bbfe 1d3e ed0d e1bc 5972 1e3c
00000060: 812f d0bb c168 a4bd bf4a 193e 3b13 643e
00000070: e3e7 8fbd 649a 9f3d dde0 e03d b70d 5c3d
00000080: 4d91 7fbd 1cde 29bd 644a 173e 3c66 c73d
00000090: e850 46be bcbf 1f3e 581b b63d 1c1d 193e
000000a0: 3435 3ebe 9fc4 aa3d 6225 1f3d 096f aebc
000000b0: 585c 07be 4490 523d be7f d5bc 2fb9 06be
000000c0: dfd4 b3bd c33a fbbc 4faf 99bd b608 ad3d
000000d0: eca7 5cbd a73b 8fbc fc65 ff3d bfe2 fc3c
000000e0: 6d7a 9d3d 9ebd 62bd f97d c7bd 967a 01be
000000f0: 9f62 72bd 6c90 a73d 1ecf 6e3d a4d4 2f3e
00000100: 3b26 4bbd 73f9 4f3d 7487 5a3d 7df5 80bd
00000110: e1d1 353e 83b2 b33d c2f3 99bc 19ea 0abd
00000120: b4e9 70bd 2bb4 803d 0c58 25bd 8287 493d
00000130: b999 b1bd 44c2 f93d 632c 023e 5fb1 3fbd
00000140: 8857 b33d 997d b3bd 55b9 22be d575 db3d
00000150: c510 12bd 1a51 7abe b021 7dbd be3d af3d
00000160: 09ee 0dbd 6489 303d 908c 17bd 5d9e 323d
00000170: 2659 5fbe 7ef5 0cbe fb87 053e 6af7 f83d
00000180: 7586 693c cb8a 07be 6b92 6e3a c70b a23d
00000190: 432f 2cbd 38ac c73c 8094 c5bd 5102 6f3c
000001a0: 9f26 d8bd e400 3cbe 5ec1 da3b 6a1b 243e
000001b0: 568e 33be ba62 7bbd 86a7 a13d ffb3 853d
000001c0: 3ff3 97bd 0506 d83b 7f8f 4fbc 7fc8 12be
000001d0: 6286 aabd 3808 a8bd fdb9 433d 35bd ce3c
000001e0: 1f3a ecbb 3a0f 083e e48a 17bd edbf 173d
000001f0: e046 30bd c8a2 c83d d3a8 81bc 7fbb 45be
00000200: 862f 113e fa5b a33d c986 b3b8 b2d2 ea3d
00000210: 8b73 313d db7a 24bd bd6f 48bc 8ad5 9abd
00000220: f6e3 78bd a32b da3d a1ee 7b3d 885e df3c
00000230: 556b 163d 776a 37bc f2e1 f6bd d037 183b
00000240: b116 c5bd 4bfd 0e3d a9e1 52bd 2dd3 093d
00000250: c8c6 19bd 0734 9cbc 82d1 03be e938 4f3d
00000260: adcb 253e b910 9e3d 7fb4 943d 4a7a f13c
00000270: 4fe7 5e3d 53a5 823e eba4 41bd dbe4 c43d
00000280: 16c5 0ebe 788f 113e c13e da3d 2b78 50bd
00000290: 9019 1bbe ca0d 823e 885d 86bd e6ee 55bd
000002a0: 8dae df3d bcc1 b53d 7e4c 5cbe 243e 2cbe
000002b0: 9c0c 8f3d 9252 57be 75fa 873d c84e 833d
000002c0: 841a 4e3d 2b57 9dbd 7226 14be 3439 4abd
000002d0: be92 c33d c32d 913c 650d f73d 26ee 153c
000002e0: 7dec 4abd 30e8 e53c 0395 0e3e 7a64 8a3d
000002f0: 8c03 b1bd 3fa7 193d 7f44 2a3d 0e5d 243d
00000300: bd20 f2bd 5852 313e b216 9f3b 0e72 0ebe
00000310: ad1c 99bd fc70 893d 5871 2f3d 5d5a 45bc
00000320: c289 d0bc 50de 913b aa2e 893d 7ce7 cbbd
00000330: 6ac8 933c 8520 e53d fd64 9fbe 7930 433e
00000340: e089 963c d68c f23d daca b5bd f083 85bd
00000350: 26c3 9f3c ace2 b5bd 1e18 893d 0172 9f3d
00000360: ad0c 2c3e 5d77 633c 8b59 aebd 07ef 2a3e
00000370: d75d 5d3d 91fd 743d bf53 dabd d5ee bebb
00000380: d344 2b3c 97fa c8bb 0986 e5bd 8d6e 80bb
00000390: 2daf c2bd 1c89 563e 852e ca3d 0e94 fb3d
000003a0: 1f19 09bd acf0 ffbd e9b8 19bd d666 963d
000003b0: 074e 05b9 a4b7 cf3d 75ff 4dbd 041d 5cbe
000003c0: 84e2 cd3d 9fde a13d 2917 59bd 8c55 f73d
000003d0: d319 80bb 57df 36bd b2db 49be 7b5b f3bd
000003e0: 7a05 94bd 5f9f 053d 253d 56be a8f1 c2bb
000003f0: c56f b7bc df80 5c3e a86e 67bd a255 453d
-0.08956156 -0.09750846 0.0021364922 0.1661466 -0.061085995 0.040602285 -0.08607977 0.006825866
-0.007671514 0.2878301 0.1377122 -0.004808359 0.02968478 -0.04064883 0.0049722786 0.16797683
-0.002368717 -0.09553189 -0.028729072 0.010549296 -0.04757861 0.15429203 -0.02747246 0.009670817
-0.006353319 -0.08027793 0.1496992 0.22272961 -0.07026651 0.077931195 0.10980389 0.053724017
-0.06239443 -0.041471586 0.14774472 0.097362965 -0.19366801 0.15600485 0.08891934 0.1495251
-0.18574983 0.08338284 0.03885401 -0.02129318 -0.1321882 0.051407114 -0.026061889 -0.1315658
-0.08780836 -0.030667668 -0.075041406 0.08448927 -0.05387108 -0.0174845 0.12470624 0.03086984
0.076893665 -0.055356614 -0.09740824 -0.12644419 -0.059176084 0.08181843 0.05830299 0.1717096
-0.049597006 0.050775003 0.053351834 -0.06296823 0.17755844 0.08774283 -0.01879299 -0.03391466
-0.058816627 0.06284364 -0.04036717 0.049201496 -0.086718984 0.12195256 0.12712245 -0.046800014
0.0875693 -0.0876419 -0.15891011 0.10715834 -0.035660524 -0.24445 -0.061799705 0.08556698
-0.034650836 0.043099776 -0.036999285 0.04360806 -0.21811351 -0.13765523 0.13040154 0.121565655
0.014253248 -0.13236539 0.00091007975 0.079124026 -0.04203726 0.024374112 -0.09647465 0.014587955
-0.105542414 -0.18359715 0.006675883 0.16026083 -0.17534766 -0.06137345 0.07893281 0.06528472
-0.074194424 0.0065925145 -0.0126684895 -0.14334296 -0.08326413 -0.082046926 0.047784794 0.025236705
-0.007209077 0.13287058 -0.03699769 0.03704827 -0.04303634 0.09796673 -0.015827572 -0.19309805
0.14178285 0.079765275 -8.560491e-05 0.11465968 0.04332308 -0.040156227 -0.012233672 -0.075602606
-0.060764275 0.10652854 0.06150687 0.027266756 0.036723454 -0.011194817 -0.120548144 0.0023226626
-0.09623469 0.034909528 -0.051484738 0.03364866 -0.03754309 -0.019067777 -0.1287289 0.050591383
0.16190977 0.07718033 0.072609894 0.029477257 0.05441981 0.25516757 -0.04727642 0.09613963
-0.1394237 0.14214885 0.106565006 -0.05089585 -0.1514647 0.25401145 -0.065608084 -0.052229784
0.10921965 0.088748425 -0.21513554 -0.1682058 0.06984827 -0.21027592 0.06639568 0.06411511
0.050318256 -0.076826416 -0.1446779 -0.04937096 0.09549473 0.017722016 0.12063102 0.009151017
-0.04954194 0.028064817 0.13924031 0.06757446 -0.08643255 0.037513014 0.04156923 0.040127806
-0.118226506 0.17316568 0.0048550004 -0.13910696 -0.074761726 0.06711003 0.042832702 -0.01204547
-0.025456313 0.0044515505 0.066983536 -0.099562615 0.0180399 0.11187843 -0.31131735 0.1906146
0.01837629 0.118432686 -0.088765815 -0.06519306 0.019502234 -0.08881125 0.06694053 0.077854164
0.1680171 0.013883439 -0.08513173 0.16692744 0.05404457 0.059812132 -0.106605045 -0.005826811
0.010453421 -0.0061333883 -0.11207206 -0.0039194287 -0.095060684 0.2095074 0.09872154 0.122840986
-0.033471223 -0.124970764 -0.03752986 0.07343833 -0.00012712936 0.101424485 -0.05029245 -0.21495444
0.1005297 0.0790379 -0.053000603 0.12076864 -0.0039093285 -0.044646587 -0.19712713 -0.11882683
-0.07227607 0.03262269 -0.20921762 -0.005949218 -0.022392163 0.21533535 -0.056502014 0.04817737

network_body.linear_encoder.seq_layers.2.bias f4 [256]
00000000: e6ae 3fbc ff64 943c c8fb 1b3b 7010 bf3c
00000010: ac47 0d3c 4975 5a3c f29f 3cbc bfd9 82bc
00000020: 3bc4 9b3b dacd c23c 5133 d53c 5b1f 2b3d
00000030: 0866 4f3d bb57 923c 9dd8 113c 68f0 1f3d
00000040: 34b4 0fbc 8dea 033d 7c3e 8bbb bbc5 cabb
00000050: 276c c33a bd8f 02bc a6b5 cf3c be2a d6bb
00000060: 4c87 6c39 f962 9f3b 0b3d 8e3c b525 c63c
00000070: cfca 413c 2c5b 8c3c 576f c63c cf61 923c
00000080: 2ad4 0c3d 8216 aa3c 7b35 2a3d f46d c2bb
00000090: 21fd 683b b236 de3b 1da2 4c3c 74bd c2bc
000000a0: 831a 003d 2963 9ebc 8d7e 483c bb55 dfba
000000b0: 59c3 df3a 09c8 6f3b 04ef 9d3c 167f 123c
000000c0: 0aa2 9a3c 6926 c9b9 7ac5 0ebc e4c0 883c
000000d0: 1c36 45bc 56d3 a5bc 560a 773d b070 ae3c
000000e0: 41cb f13c 912a ecbb 750d 033c a715 943b
000000f0: 8166 8f3c ee1e b33b 19f3 353a d96a eabc
00000100: ddd7 a93c 9e57 883c 207a 9e3b 5893 4a3c
00000110: 5dec f23b fb49 e5ba 6de2 58bc da0e 58bb
00000120: f1a6 da3c 7d02 56bb a971 5d3c ff8e 5f3d
00000130: b287 f53c a423 62bc 7924 6dbc c72b 213d
00000140: a794 ea3b 41f7 1abb 580d 9d3c 72ac b9b8
00000150: fa66 2e3d 6e94 313d fad5 89bc 1a84 1c3d
00000160: 5816 31ba d605 14bc a2d1 8bbb cff7 5e3b
00000170: 06fa 32bc 6026 313b aafb bdbc e692 47bb
00000180: 73fe a83c 4d2a 613c fb78 aebc 6a00 133c
00000190: 0995 403d 0179 383d 8bf2 2dbc 1ee7 4b3b
000001a0: 5068 543c 69e6 243c d4a4 36bc f9fb 54bd
000001b0: 62d5 033b fa80 4f3b fe54 e9bb 8ef4 f73a
000001c0: 4517 443c 90c6 88bc 7189 41bc cdf4 513c
000001d0: 3bed 5f3c b292 a3ba 1659 6ebb 39ff 7b3a
000001e0: 4b0d 5fb7 0168 60bc 2b55 3a3c 1805 51bc
000001f0: 0108 6d3b 4432 a8bd 2988 0cbc cd3f 9d3c
00000200: 1491 9e3c 7ef2 2f3c 7983 c03c db8d ad39
00000210: 38c1 28bc 4f05 2bbc 4976 ffbc 1e0f 45bc
00000220: 52f0 97bc b6fe e13b aaa7 4d3c 54ef 7b3c
00000230: 7f70 023d ee86 103d 4daf 8f3c f02e 683c
00000240: 26a7 e23c 72c1 a33c 194a 663c a87d b93c
00000250: af01 0aba 8ccb 693c d263 b33c 6fea 843c
00000260: dde8 ba3b 1e03 043c 0591 84bb e3f2 dcbb
00000270: 8b4f 113d a3c1 b53b 613e 59bb 4f0c 71bb
00000280: aec2 ba3b 180c a83b f8d0 fabb 139a 1b3d
00000290: c596 133d 9986 aa3b a15c 0f3d 9fba 2f3c
000002a0: 3f9d 30bc 247a 253d b0d7 523c d3b7 e53c
000002b0: 632c da3c 3740 383c a429 b23c 6e5b 773c
000002c0: a650 fe3c b896 733c 47d4 59bd 7272 693c
000002d0: d520 56bb f454 473c 33ef 84bb b73a 01bd
000002e0: d666 073c 370b 5abb def1 0e3c 8ac2 4e3c
000002f0: 2c0a 303c 981c 4f3c 6f88 25bc 9d5e 48bc
00000300: 99c8 c5bb 3b7c 53bc ff25 debc 9c00 c33c
00000310: 1116 b03b 2244 f73b 2971 563d 45c6 1f3d
00000320: eb05 d8bc f5f8 a2bc 687c 023b 7a7f b83b
00000330: 3bf4 963c 8752 953c 4ac1 09bc 38a0 303c
00000340: de79 bd3c e616 0abc db37 41bc 9f3b b8bb
00000350: 1fa3 303a 65a3 43bc c1aa 523c 81ef ecbb
00000360: 5315 dbbc 7add f0bc c50c ac3c d1a2 8d3c
00000370: 4cd0 283d 2171 fa3c 50fb f4bc 2fce c5bc
00000380: f648 ac3c 1a4f a7bc 255e 05bd 6285 c43c
00000390: 6920 9cbb c962 563b e729 5a3c 8e8c 0bbd
000003a0: baf0 46bc 35d5 96ba 4781 6f3c 8606 913c
000003b0: 7871 293b b4d2 bc3b f906 edbb d5d8 933c
000003c0: 0329 0a3d 6a72 5f3b 55a3 72bc c1aa f23c
000003d0: 94a7 83bb 8145 7c3c 559a dc3c bab7 9a3b
000003e0: e99b 283c 5844 323d 8551 033d 87e3 a1bb
000003f0: 9f4d 053d 0049 533d 756c 0d3c 2fb4 df3c
-0.011699414 0.018114565 0.0023801196 0.023323268 0.008623045 0.013333627 -0.011512743 -0.01597297
0.004753617 0.023779798 0.026025446 0.04177795 0.050634414 0.017864099 0.008901742 0.03904763
-0.008770991 0.032206107 -0.004249392 -0.006188122 0.0014909551 -0.00796884 0.025355171 -0.006535857
0.00022557116 0.0048640934 0.017363092 0.024187902 0.0118281385 0.017133318 0.024223013 0.017868904
0.034382023 0.020762686 0.04155491 -0.0059335176 0.0035551267 0.0067814225 0.012489823 -0.023771979
0.031275284 -0.019334393 0.012237203 -0.00170391 0.0017071768 0.0036587736 0.01927901 0.008941432
0.018876094 -0.00038366325 -0.008714074 0.01669354 -0.012036826 -0.020242374 0.06031259 0.021293968
0.029515864 -0.0072072227 0.007998814 0.0045191827 0.017504932 0.0054663336 0.00069408264 -0.028615402
0.020732814 0.016643342 0.004836336 0.012364231 0.0074134306 -0.0017493361 -0.013237578 -0.0032967837
0.026690932 -0.0032655292 0.013515868 0.05457973 0.029971931 -0.013802443 -0.014474028 0.03934839
0.007158834 -0.002364591 0.019171402 -8.853608e-05 0.042578675 0.043354444 -0.016825665 0.03821192
-0.00067553436 -0.0090345945 -0.0042669335 0.0034022217 -0.010923868 0.002703093 -0.023191292 -0.0030452549
0.020629143 0.013742995 -0.021297922 0.008972267 0.04701713 0.045037273 -0.010616909 0.0031113098
0.012964323 0.0100647 -0.0111476965 -0.051998112 0.00201162 0.003166257 -0.0071207276 0.0018917487
0.0119684385 -0.016696244 -0.011812554 0.012814713 0.0136674 -0.0012479632 -0.0036369017 0.0009612921
-1.3294931e-05 -0.013696671 0.011372845 -0.012757562 0.00361681 -0.082127124 -0.008577385 0.019195462
0.019356288 0.010738967 0.023500191 0.00033102822 -0.010299973 -0.010438277 -0.031184332 -0.01202753
-0.01854721 0.006896819 0.012552181 0.0153768845 0.031845566 0.03528493 0.017539645 0.014171347
0.027667593 0.019989703 0.014055752 0.022642925 -0.0005264533 0.014269721 0.021898184 0.016225068
0.005704029 0.008057384 -0.004045608 -0.0067428215 0.03547625 0.005546765 -0.0033148753 -0.0036781018
0.005699477 0.005128395 -0.0076543055 0.037988734 0.036032457 0.0052040336 0.035000447 0.010725646
-0.010779678 0.040399686 0.012868807 0.028041756 0.026632493 0.011245779 0.021748371 0.015097482
0.031044316 0.014867477 -0.05318096 0.014248477 -0.0032673378 0.0121662505 -0.004056835 -0.031550135
0.008264264 -0.0033270845 0.008724658 0.012619624 0.010744613 0.012641095 -0.010103329 -0.012229589
-0.006035876 -0.012908037 -0.027117727 0.023804002 0.0053737243 0.007545964 0.05235401 0.039007444
-0.02637001 -0.019894103 0.0019910578 0.0056304308 0.018427005 0.018227829 -0.0084079 0.010780387
0.0231294 -0.008428311 -0.011793102 -0.0056223418 0.0006738174 -0.011940812 0.012858094 -0.0072306995
-0.026743567 -0.029402483 0.021002183 0.017289551 0.041214272 0.030571522 -0.029904991 -0.024146168
0.021030884 -0.02042346 -0.032560486 0.023989383 -0.004764606 0.003271269 0.013315654 -0.03406959
-0.012142355 -0.0011507632 0.014618224 0.017703306 0.0025854986 0.0057624225 -0.007233497 0.01804773
0.033730518 0.0034095296 -0.014809449 0.029622437 -0.0040177796 0.01539743 0.02692906 0.004721609
0.010291078 0.04352221 0.032060165 -0.0049404535 0.03254473 0.05158329 0.008631815 0.027307598

network_body.linear_encoder.seq_layers.2.weight f4 [256, 256]
00000000: b1a1 92bd 69f7 ac3d 601f 8abd d638 35bd
00000010: 5d2e 2a3d bb77 8a3d f8ed 4f3d 0a1f 033c
00000020: 39b3 be3c 0376 313d fe89 923d 1e76 d4bd
00000030: 375a 293d 0870 f73c 0e66 d83c 9a77 173e
00000040: a7ec 473d 0be1 ecbb aa9d 723b ddfe 473d
00000050: 1893 96bc f16a 893d 0945 a93d 1349 053e
00000060: 87db 1cbc 41ca 7abc 806a 293c c6f2 95bd
00000070: 7fd2 aa3d f347 863c c739 69bd bb8b df3c
00000080: 5052 2c3d 92ea c3ba 5d8c 7abc 0c53 bdbd
00000090: 33b7 cdbd 7743 48bd 6476 46bd 3f25 b1bb
000000a0: 7920 de3d d44d 77bc 67e3 2e3d 85e0 d2bb
000000b0: 94cf 45bd 4dc1 1cbe 3207 043b 9935 3dbe
000000c0: a631 d63c fe50 e33d debb 473d 0ca1 1c3d
000000d0: 4cff 94bd 6bfb 733d 0995 3ebc b768 a33d
000000e0: 3285 acbd ee27 343c 5727 d53c 3d64 63bd
000000f0: 870e df3d f9fb 8fbd 10dd ccba 0707 0cbd
00000100: b108 04be 9af1 7d3c b7db 34bc 3cc3 6c3d
00000110: 8db5 e1bb cc22 11bd 3a0f c7bd a25d 43bd
00000120: e087 edbd 3489 303d 7f7e 843d 1626 73bd
00000130: 239a 9d3d 9f7d 06be 1c62 8abc aec0 99bc
00000140: b6f6 82bc 67df 833b 552c 8fba 7d2e b7bc
00000150: 598e 4cbd c25f 02be 43db 783d 1d6e 63bd
00000160: 8014 b53d eb44 133e ca19 efbb 4131 9fbd
00000170: f8cc 04bd b00d 3d3e a62c 073e 1a37 74ba
00000180: 87f7 923d 55f1 22be 9e7a 90bc 2ecd 26bd
00000190: f43a adbc 3514 4b3d 7c79 9d3b e7b8 34be
000001a0: 3ac3 f0ba ec76 a13d 128e 893d a495 d0bd
000001b0: b77d 22bd 40f0 08be c795 b2bd 6720 e93c
000001c0: 0822 efbc 1e4a 76bc 79c8 cf3c 638a 83bc
000001d0: 56e4 cc3b 7904 9ebc 6349 97bd ab9d 9a3d
000001e0: 36da 86bd 7b7a 033e 02c2 b63c 6b00 b1bc
000001f0: d109 183e 09c7 443b 93cb a1bd fa20 ea3c
00000200: d72f 20bd 56e8 2cbc c467 143e 407d d5bc
00000210: 7b81 6dbd de3e fe3c 0c86 88b9 7991 7e3d
00000220: a0ca de3c d2c2 56bd c8ea 42bd 15d2 093d
00000230: 3eff f3bd e3a9 c63d 85ac 9fbd 8425 91bd
00000240: da83 8fbd a2dc e83d caa5 1bbd fcc9 fb3d
00000250: f07a 28bd 690c 373e 0c87 43bd c374 aabd
00000260: 79b3 e8bb e8a1 063d 6849 e5bd 6c9d df3d
00000270: de9a e2bd 1a69 40bd 8f9e b4bd 08a9 b1bd
00000280: a489 ed3d e850 57bd f3ca c63d afef 743d
00000290: e0ad 393c ae3d b0bb 0d5c febc 05f6 b2bd
000002a0: 934e a0bd 5b6f f13b db78 7c3d 467b 7c3c
000002b0: 2048 0fbd 7a40 023d a321 413c 8f59 47bc
000002c0: 7559 b33d 39a5 d1bd a0a8 e13d 018e 6c3c
000002d0: dbf3 d5bd 15a3 1c3c fd49 f43c 7db1 3bbd
000002e0: c12f 0a3d bdd8 f0bb e51e 55bd cc2b 453d
000002f0: 5929 0abd c35b 24bd 6e93 c23d d1b3 a1bd
00000300: a0c0 543d 81af cbbd 0690 8a3c 911b 493d
00000310: 5108 743d 02d5 e23d 9e78 8b3c 0deb 953b
00000320: 4aa8 64bb 6cd9 49bd ae46 20be cfb5 593d
00000330: 1aa5 0ebc 7f8b 90bd 4df4 333d ace6 1f3e
00000340: b465 3cbd e924 483d 0780 e33d cbed 74bd
00000350: 39ed 133d b9d1 a73d 6973 2abd 7b4c 9abd
00000360: 2f54 063e 4449 65bd f0f2 50bd 8a75 983c
00000370: a766 b9ba 3176 003c c2f2 84bc 2f15 a3bc
00000380: a3f5 95bb e66a aebc 6492 113c 4977 5a3c
00000390: 5ca6 083e 01b9 7dbd b038 52bd ccae b03c
000003a0: 3d92 dbbd 6fe0 143d 437e d0bd 7467 45be
000003b0: 4570 da3d 600f f8bb 70f3 02bd 6180 95bc
000003c0: 6d52 77bd 7606 babd 5bd3 6dbd d973 f13b
000003d0: 2b12 efbd 8a6f f73d 6e23 10bc 1df8 413c
000003e0: 73eb 1cbc 1236 5ebd 3e53 49bd 82eb a73c
000003f0: 3b9b c03d 7fb3 a93d 9771 32be 5178 81bd
-0.071597464 0.08445627 -0.067442656 -0.044243656 0.04154812 0.06761118 0.050764054 0.008003006
0.02327882 0.043325435 0.07155226 -0.103740916 0.0413458 0.030204788 0.026415851 0.14791718
0.048809674 -0.0072289756 0.0037020245 0.04882704 -0.018380687 0.067098506 0.082651205 0.13016157
-0.009573824 -0.01530701 0.010340333 -0.07321696 0.0834093 0.01639173 -0.056939866 0.027288308
0.042070687 -0.0014947227 -0.015292254 -0.092443556 -0.10044708 -0.048892464 -0.04845275 -0.0054060514
0.108460374 -0.015094239 0.042697337 -0.006435456 -0.048293665 -0.15308113 0.002014589 -0.18477477
0.026146721 0.110994324 0.04876315 0.038239524 -0.072752565 0.059565943 -0.011632212 0.07978957
-0.084238425 0.010995848 0.026019735 -0.055515517 0.10891443 -0.07030482 -0.0015629847 -0.03418639
-0.1289394 0.015499497 -0.011038712 0.057803378 -0.0068880976 -0.035433576 -0.09719701 -0.047696717
-0.11598182 0.043099597 0.0646944 -0.059362493 0.07695415 -0.13133858 -0.016892485 -0.018768635
-0.015986782 0.0040244344 -0.0010923246 -0.022361035 -0.04994044 -0.12731841 0.06075598 -0.055524934
0.08841801 0.14381759 -0.0072967755 -0.07773066 -0.032422036 0.18462253 0.13200626 -0.0009316072
0.07176118 -0.15912373 -0.017636593 -0.04072302 -0.021146275 0.049579818 0.004805742 -0.1764866
-0.0018368729 0.07884011 0.06716551 -0.10184792 -0.039670672 -0.13372898 -0.08719974 0.028457833
-0.029191032 -0.015032319 0.025364147 -0.016057199 0.0062528057 -0.019289242 -0.07387044 0.07549604
-0.06584589 0.12839691 0.022309307 -0.021606645 0.14847495 0.003002586 -0.07900157 0.028580178
-0.039108124 -0.01055344 0.14492708 -0.0260607 -0.05798481 0.031035837 -0.00026039814 0.062150452
0.027196229 -0.05243189 -0.047587186 0.033647615 -0.11913918 0.09700372 -0.07796577 -0.07087234
-0.070075706 0.11370207 -0.037999906 0.12294385 -0.041132867 0.17875828 -0.047736213 -0.08323052
-0.007101473 0.03286925 -0.11195642 0.10918698 -0.11064695 -0.046975233 -0.08819305 -0.08674818
0.115985185 -0.052567393 0.09706678 0.059798893 0.011332959 -0.0053784465 -0.031049753 -0.08738331
-0.07827487 0.007368011 0.061638694 0.01541025 -0.034980893 0.03179977 0.011787805 -0.0121673485
0.08757297 -0.10236592 0.11018491 0.014438153 -0.10446902 0.009560366 0.029820437 -0.045823563
0.033736948 -0.007350056 -0.052031416 0.04813747 -0.03373084 -0.040126573 0.09500776 -0.078956254
0.051941514 -0.09945584 0.016914379 0.049098555 0.059578244 0.11075784 0.017025288 0.0045751394
-0.0034890347 -0.049279615 -0.15651962 0.0531519 -0.0087063555 -0.07057857 0.043934155 0.15615338
-0.04599543 0.048863325 0.11108404 -0.05979709 0.036114905 0.08194298 -0.04161397 -0.07534119
0.13118051 -0.055978075 -0.051012933 0.018610734 -0.0014144973 0.007840679 -0.016229037 -0.019907562
-0.0045764013 -0.021291208 0.008885 0.013334104 0.13344711 -0.06194401 -0.051323593 0.021567725
-0.10721252 0.03634685 -0.101803325 -0.19277745 0.10665945 -0.007570192 -0.03197044 -0.018249692
-0.06038134 -0.090832636 -0.058062892 0.0073685464 -0.11673387 0.12081821 -0.00879751 0.01183894
-0.00957762 -0.054250784 -0.04915165 0.020498041 0.09404608 0.08286189 -0.17426144 -0.06321777
