Project/Assets/MyProject/Train/TrainModels/Chaser/rubychaser.onnx (onnx, 548274 bytes, 6 tensors)

action_model._discrete_distribution.branches.0.bias f4 [7]
-0.0028623897 0.02591927 -0.06673 0.0013839871 -0.019258529 0.0038046595 -0.018657882
00000000: ee96 3bbb a654 d43c bda9 88bd e766 b53a
00000010: 10c4 9dbc 9857 793b 6ad8 98bc

action_model._discrete_distribution.branches.0.weight f4 [7, 256]
-0.021731595 -0.02554592 -0.13733724 -0.068849646 -0.09536445 -0.021771964 -0.049561102 0.014902063
-0.0019512081 -0.04468113 -0.08503743 -0.003908837 0.029337963 -0.041933566 -0.027891772 0.05464866
-0.05990557 -0.04999727 -0.055011146 0.009411824 -0.0050819446 -0.049716096 0.058995053 -0.03198094
-0.0036445998 -0.002935269 -0.01229219 -0.04405734 0.00025103666 0.025739985 -0.00012484376 -0.017082576
0.033898886 -0.047644474 -0.09710888 -0.0368333 -0.038108964 0.006816265 -0.084573664 0.015348445
-0.03063879 -0.048527732 -0.011986589 0.039658166 -0.01531217 -0.0017111483 -0.054206643 -0.03238204
-0.045477595 -0.013440527 -0.03610216 0.038287874 -0.04583286 -0.040721875 0.03306847 -0.020612609
-0.011349272 -0.0071266247 -0.078311116 -0.14203899 -0.002000286 0.024417488 -0.012967791 -0.09340629
-0.053182837 -0.08860724 -0.044717446 0.02881602 -0.043049417 -0.04106635 -0.055938415 -0.0041458686
-0.023612015 -0.028891344 -0.019913306 -0.07162799 -0.024912018 -0.051389642 -0.060585763 0.021977663
-0.025394168 -0.019577047 0.05216806 -0.061875522 0.009970775 -0.027754888 -0.024461728 -0.016063811
-0.019090462 0.0044373283 0.03249637 -0.023009239 -0.09363007 -0.07147339 -0.014654222 -0.05843473
-0.025860604 0.007440698 -0.044637013 -0.07197528 0.01829208 0.0057127597 0.018095708 -0.041872494
0.0072836885 0.019282203 -0.034471054 -0.0104459105 -0.10469422 -0.08042556 -0.0153889 -0.013995112
-0.014260568 -0.030094296 -0.0110688275 -0.023352494 -0.015380596 0.0042053037 -0.024310049 -0.023305783
-0.094037436 0.024800178 -0.024410022 -0.03472632 0.042979196 -0.045251943 -0.042652033 0.03061789
0.019128444 -0.08960102 -0.08068072 0.0087130135 -0.025857873 -0.08560845 -0.07215455 0.008311094
-0.0035043613 -0.0264938 -0.029210588 -0.012247616 -0.042899698 -0.07299174 -0.032808464 -0.037892587
8.048141e-06 -0.050176505 0.023067355 -0.09175833 -0.04625998 0.03824295 -0.040195398 -0.037784394
-0.050952032 -0.040236585 -0.068701036 0.013635004 -0.018988911 0.0020712863 0.011817384 -0.023402877
-0.047241826 -0.10303939 -0.09132249 0.02617539 -0.033490498 -0.0048516695 -0.010407624 -0.07630639
-0.016903924 -0.027202416 -0.025124785 -0.07318324 -0.065931946 -0.023156904 -0.0131331645 -0.051766384
-0.025140757 0.007438998 -0.052827522 -0.04940545 -0.04692239 0.00020567639 -0.025960522 -0.022823323
-0.0010318205 -0.021315554 -0.013821492 -0.004372731 0.03415309 -0.06088686 0.009574293 -0.10645566
-0.07269159 -0.0047115935 0.032410577 -0.0015335705 0.0038008813 -0.008192094 -0.03524584 -0.014302204
-0.078044765 0.012295396 0.01580562 -0.055876233 -0.11539666 0.030152498 0.0009063633 -0.062768914
0.016920948 -0.054217856 0.040518604 -0.016580027 0.052213904 0.006941029 0.07617435 -0.03529803
-0.008789167 -0.06824031 0.006487984 -0.031415828 -0.029346867 0.027666146 -0.02773713 -0.046011534
-0.0627429 -0.07598609 -0.037783984 0.028028948 -0.0056070606 -0.07646624 -0.0634108 -0.039987925
-0.028541459 -0.054043803 -0.054942086 -0.054487295 0.020666905 0.037283503 -0.048342153 -0.0030231418
0.0011543424 -0.025025008 -0.026580883 -0.025731727 -0.029595401 -0.05687789 -0.08351626 -0.083552055
-0.013074819 0.02914626 -0.0487218 -0.10499289 -0.028536202 -0.019461265 -0.033530157 -0.0017139072
00000000: 7506 b2bc ad45 d1bc 22a2 0cbe 0b01 8dbd
00000010: 704e c3bd 1e5b b2bc 9500 4bbd c827 743c
00000020: aebf ffba 9003 37bd 1b28 aebd b415 80bb
00000030: 2b56 f03c 88c2 2bbd 497d e4bc 46d7 5f3d
00000040: 8b5f 75bd f0c9 4cbd 5e53 61bd 0d34 1a3c
00000050: 7186 a6bb 1ba3 4bbd cca4 713d 72fe 02bd
00000060: 3dda 6ebb a45d 40bb 2f65 49bc 7875 34bd
00000070: 929d 8339 a9dc d23c 7ee8 02b9 c2f0 8bbc
00000080: 8fd9 0a3d da26 43bd 05e1 c6bd 84de 16bd
00000090: 2518 1cbd fa5a df3b f534 adbd 0b78 7b3c
000000a0: 33fe fabc 04c5 46bd 6663 44bc 9a70 223d
000000b0: e5df 7abc 9c48 e0ba c907 5ebd 08a3 04bd
000000c0: b746 3abd a835 5cbc dcdf 13bd bfd3 1c3d
000000d0: 3dbb 3bbd fbcb 26bd ce72 073d c6db a8bc
000000e0: 4cf2 39bc 7686 e9bb 9461 a0bd ab72 11be
000000f0: 3b17 03bb 2f07 c83c dc76 54bc cc4b bfbd
00000100: 3fd6 59bd b677 b5bd a429 37bd 930f ec3c
00000110: 9654 30bd 3035 28bd ae1f 65bd 11da 87bb
00000120: fc6d c1bc 8aad ecbc 3b21 a3bc b2b1 92bd
00000130: 4a14 ccbc f27d 52bd c728 78bd 800a b43c
00000140: 6e07 d0bc 0b60 a0bc 2dae 553d 3071 7dbd
00000150: 765c 233c 385e e3bc f663 c8bc 4198 83bc
00000160: 9a63 9cbc 0267 913b ea1a 053d df7d bcbc
00000170: 1fc1 bfbd a460 92bd 4318 70bc 4159 6fbd
00000180: 9ed9 d3bc 19d1 f33b 4dd5 36bd c767 93bd
00000190: 46d9 953c 1a32 bb3b 733d 943c 7e82 2bbd
000001a0: 02ac ee3b b6f5 9d3c 8531 0dbd 5325 2bbc
000001b0: ec69 d6bd 28b6 a4bd ba21 7cbc c14b 65bc
000001c0: 28a5 69bc 5088 f6bc 075a 35bc bb4d bfbc
000001d0: e5fe 7bbc a5cc 893b de25 c7bc c5eb bebc
000001e0: b396 c0bd be29 cb3c 87f7 c7bc 303d 0ebd
000001f0: f40a 303d 1a5a 39bd e6b3 2ebd 5fd2 fa3c
00000200: 41b3 9c3c bd80 b7bd ef3b a5bd 07c1 0e3c
00000210: e4d3 d3bc 7c53 afbd c4c5 93bd 412b 083c
00000220: 6da9 65bb 8709 d9bc 0b4b efbc 3aaa 48bc
00000230: 98b7 2fbd b27c 95bd 2b62 06bd 4235 1bbd
00000240: 8106 0737 e185 4dbd c0f7 bc3c cbeb bbbd
00000250: 1b7b 3dbd a4a4 1c3d eea3 24bd cfc3 1abd
00000260: 14b3 50bd 1ecf 24bd 21b3 8cbd 5a65 5f3c
00000270: a28e 9bbc 6bbe 073b b39d 413c 64b7 bfbc
00000280: a580 41bd 5106 d3bd 4907 bbbd c66d d63c
00000290: 552d 09bd c1fa 9ebb bd84 2abc 8646 9cbd
000002a0: 197a 8abc 9ad7 debc 7ed2 cdbc 18e1 95bd
000002b0: 5407 87bd 8cb3 bdbc 7c2c 57bc fd08 54bd
000002c0: fdf3 cdbc d7c2 f33b ac61 58bd 5e5d 4abd
000002d0: b131 40bd d6aa 5739 29ab d4bc faf7 babc
000002e0: 273e 87ba f59d aebc 8a73 62bc 2049 8fbb
000002f0: 1ce4 0b3d 8064 79bd 7fdd 1c3c 6d05 dabd
00000300: 54df 94bd b663 9abb f4c0 043d 1602 c9ba
00000310: 3518 793b 2238 06bc f15d 10bd cb53 6abc
00000320: efd5 9fbd a172 493c ca7a 813c 7ade 64bd
00000330: 1655 ecbd 5f02 f73c 0399 6d3a fd8c 80bd
00000340: cd9d 8a3c 8b13 5ebd d6f6 253d d6d2 87bc
00000350: 3fde 553d 9271 e33b 4c01 9c3d ab94 10bd
00000360: 7000 10bc 93c1 8bbd 2899 d43b e2ad 00bd
00000370: d768 f0bc 1da4 e23c fa38 e3bc 9776 3cbd
00000380: 597f 80bd 989e 9bbd 61c3 1abd f79c e53c
00000390: 6fbb b7bb 559a 9cbd 86dd 81bd 61ca 23bd
000003a0: c7cf e9bc 095d 5dbd f40a 61bd 122e 5fbd
000003b0: a44d a93c 96b6 183d 6c02 46bd e71f 46bb
000003c0: 4e4d 973a 3f01 cdbc 27c0 d9bc 58cb d2bc
000003d0: 0e72 f2bc caf8 68bd 930a abbd 571d abbd
000003e0: c437 56bc 23c4 ee3c 8390 47bd 8306 d7bd
000003f0: c1c4 e9bc 3b6d 9fbc eb56 09bd 2fa5 e0ba

network_body.linear_encoder.seq_layers.0.bias f4 [256]
0.005536738 -0.011374786 0.008214469 0.029882211 -0.01682512 -0.023245944 -0.011343379 -0.00063865585
0.053266943 -0.02319203 0.02091603 0.012182 -0.0018347786 -0.016182024 -0.010403295 -0.02211523
-0.033118125 -0.006431722 -0.028756792 -0.036490567 -0.0017142986 -0.009075422 0.018906597 -0.0038729922
-0.014136242 0.004917453 0.0148595935 0.031640973 -0.0105713215 0.00061452214 -0.008639369 -0.056279436
-0.049979508 -0.026778009 0.012200106 0.026367238 0.028813424 0.03894726 -0.010562173 -0.009911871
-0.006088025 0.022233408 -0.044149984 0.0061635575 -0.009085903 -0.012085319 -0.022693941 0.0025723204
-0.015993765 -0.015518844 0.003516066 -0.019828483 -0.02342856 -0.011215715 -0.023439776 -0.005631911
0.02275749 -0.0207124 -0.010649373 0.06353666 0.04020134 -0.010128371 0.008917653 -0.0091240695
-0.0003023653 0.0013701544 -0.08550267 0.00887119 0.00364802 0.030509427 0.00976056 0.024155319
0.0003134819 -0.018884491 0.026168846 -0.014446032 0.0148726115 0.0055140215 -0.015230449 0.013142744
-0.017292023 0.027987948 -0.0059097386 -0.01042314 0.009941121 -0.013771535 -0.012952843 -0.001015446
0.01176473 -0.013940696 0.02113022 -0.003319139 0.03373984 0.006930384 -0.015860835 0.036569152
0.0062598116 -0.00010394642 -0.000987979 -0.014847961 -0.015520022 0.001328203 0.019890122 -0.015290063
-0.025888426 -0.010830115 0.010798928 -0.06507164 0.060123954 0.023102295 -0.035680037 -0.0019151126
-0.021545362 0.014721568 -0.006250595 -0.023186052 0.05582799 -0.024507683 0.0029790816 0.0068804747
-0.013716085 -0.051162828 -0.018117242 0.00945327 -0.009582642 0.037879404 0.01943626 -0.03249536
-0.012495931 -0.0067477236 -0.01033617 0.03103862 -0.0138779 -0.008270358 -0.0067412737 0.0015247006
-0.026401566 0.013029971 -0.05837708 0.01504436 0.025407372 -0.016160745 0.027813425 -0.0004237299
0.0017287608 -0.016218716 -0.028062377 -0.008626396 -0.01783841 -0.00078436016 0.024406461 0.023490217
-0.0057175015 -0.0106532965 0.042840388 -0.017293762 0.009219424 -0.014018168 0.016584149 0.017531559
-0.0022619946 -0.0072773304 0.0047343015 0.022671575 -0.0053407606 -0.014895037 0.023458682 0.0014027276
0.009121966 0.016632091 0.015276388 -0.0069296095 -0.027150856 -0.03211736 -0.01731694 -0.017617218
0.040851787 0.036111597 -0.013917655 0.0065839672 -0.019171257 -0.01742814 0.019804006 -0.007591746
-1.6956077e-05 0.020721516 -0.002808389 0.029040176 -0.003986216 0.03200303 0.030806217 0.0010908212
0.0333157 0.05555128 -0.012296619 -0.009423188 -0.03642828 -0.0035541237 0.0050759083 0.009240299
-0.001254688 -0.032898553 -0.01161917 0.020384604 -0.010613482 0.004138313 -0.0113771465 -0.012892974
-0.0068943887 0.0003954247 -0.070644364 0.0024733061 -0.020448348 -0.0060026594 -0.022342231 -0.018024264
-0.015852345 -0.021163331 -0.024461284 0.025384592 -0.020707538 0.018939614 -0.021805882 -0.0014543126
-0.039278217 0.027248254 -0.019688524 -0.015434411 0.008483471 -0.016455382 0.012625058 0.027184159
-0.0477954 0.00018389238 -0.044504356 -0.03142324 -0.0056076064 -0.0058798515 0.002920941 -0.005094487
0.021793367 -0.02057744 0.029006094 0.026203047 0.030363705 -0.015400597 0.01766351 0.005711914
0.03196127 -0.020636726 -0.018422075 -0.009527199 0.015414552 -0.017222086 0.013369068 -0.0064505986
00000000: 866d b53b 4f5d 3abc fb95 063c 8acb f43c
00000010: d6d4 89bc 476e bebc 94d9 39bc 786b 27ba
00000020: 702e 5a3d 36fd bdbc 1858 ab3c 0397 473c
00000030: f47c f0ba 2a90 84bc 9572 2abc 002b b5bc
00000040: dfa6 07bd 32c1 d2bb 5d93 ebbc 2277 15bd
00000050: 51b2 e0ba 14b1 14bc 02e2 9a3c 07d2 7dbb
00000060: b29b 67bc 9622 a13b a775 733c f799 013d
00000070: 5633 2dbc e217 213a 248c 0dbc 4485 66bd
00000080: 50b7 4cbd 8e5d dbbc f4e2 473c 1b00 d83c
00000090: 210a ec3c 2987 1f3d f70c 2dbc 6665 22bc
000000a0: 0e7e c7bb d622 b63c 9dd6 34bd abf7 c93b
000000b0: 0add 14bc 8001 46bc a5e8 b9bc 6094 283b
000000c0: 5b05 83bc c042 7ebc cc6d 663b 586f a2bc
000000d0: 40ed bfbc 1ec2 37bc c604 c0bc e58b b8bb
000000e0: ea6d ba3c 0dad a9bc b57a 2ebc 821f 823d
000000f0: 29aa 243d 78f1 25bc 591b 123c 1f7d 15bc
00000100: c986 9eb9 c196 b33a 061c afbd 7858 113c
00000110: 9f13 6f3b e8ee f93c c1ea 1f3c 60e1 c53c
00000120: d45a a439 a6b3 9abc 0c60 d63c 0daf 6cbc
00000130: 41ac 733c f7ae b43b 2289 79bc aa54 573c
00000140: 00a8 8dbc fb46 e53c 7ba6 c1bb d1c5 2abc
00000150: 15e0 223c 01a2 61bc 2938 54bc b718 85ba
00000160: dbc0 403c 8467 64bc 4819 ad3c e985 59bb
00000170: c932 0a3d 4618 e33b 95ee 81bc 89c9 153d
00000180: 1b1f cd3b cffd d9b8 137f 81ba dd44 73bc
00000190: b147 7ebc 1917 ae3a 9cf0 a23c 2c83 7abc
000001a0: f713 d4bc cb70 31bc fded 303c 4844 85bd
000001b0: 8944 763d 0641 bd3c 3b25 12bd 8404 fbba
000001c0: e67f b0bc bb32 713c cbd1 ccbb adf0 bdbc
000001d0: e4ab 643d 56c4 c8bc b23c 433b 9b75 e13b
000001e0: 6eb9 60bc 1d90 51bd 9c6a 94bc e3e1 1a3c
000001f0: 8300 1dbc 6f27 1b3d cb38 9f3c db19 05bd
00000200: bcbb 4cbc 021c ddbb 0a59 29bc b444 fe3c
00000210: 2260 63bc 6580 07bc e7e5 dcbb 76d8 c73a
00000220: 1948 d8bc a97b 553c ce1c 6fbd 9f7c 763c
00000230: 1f23 d03c 8a63 84bc fbd8 e33c 1128 deb9
00000240: 9697 e23a 1ddd 84bc 12e3 e5bc ba55 0dbc
00000250: db21 92bc 859d 4dba 0ff0 c73c 8e6e c03c
00000260: e159 bbbb 2a8b 2ebc 6779 2f3d a6ab 8dbc
00000270: 110d 173c 75ac 65bc 7bdb 873c 589e 8f3c
00000280: f93d 14bb ac76 eebb 3322 9b3b bdb9 b93c
00000290: 8c01 afbb 500a 74bc 6c2c c03c badb b73a
000002a0: 4c74 153c 0640 883c d149 7a3c c711 e3bb
000002b0: 796b debc 7e8d 03bd 41dc 8dbc fc51 90bc
000002c0: 3454 273d c1e9 133d e006 64bc 52be d73b
000002d0: 0a0d 9dbc 75c5 8ebc 033c a23c 2ec4 f8bb
000002e0: e63c 8eb7 2bc0 a93c f30c 38bb aae5 ed3c
000002f0: ce9e 82bb 9c15 033d 525d fc3c e3f9 8e3a
00000300: 0b76 083d bd89 633d c277 49bc b763 1abc
00000310: d235 15bd 4dec 68bb ce53 a63b a064 173c
00000320: 5874 a4ba a2c0 06bd 555e 3ebc 9dfd a63c
00000330: 2ce4 2dbc af9a 873b 3667 3abc 0d3d 53bc
00000340: 53ea e1bb 0151 cf39 fead 90bd 3117 223b
00000350: 4b83 a7bc f5b1 c4bb 0e07 b7bc 9fa7 93bc
00000360: c7dc 81bc b95e adbc 0863 c8bc 59f3 cf3c
00000370: dba2 a9bc 4027 9b3c 40a2 b2bc a29e beba
00000380: 32e2 20bd bb37 df3c d449 a1bc 9de0 7cbc
00000390: 42fe 0a3c 70cd 86bc 55d9 4e3c 50b1 de3c
000003a0: 1cc5 43bd 3cd3 4039 334a 36bd a8b5 00bd
000003b0: 03c0 b7bb c5ab c0bb 426d 3f3b a8ef a6bb
000003c0: 0188 b23c 0592 a8bc 309e ed3c c6a7 d63c
000003d0: 4ebd f83c c952 7cbc 11b3 903c 022b bb3b
000003e0: d2e9 023d 5a0e a9bc e4e9 96bc f817 1cbc
000003f0: 518d 7c3c 5515 8dbc ef09 5b3c 8b5f d3bb

network_body.linear_encoder.seq_layers.0.weight f4 [256, 268]
-0.016991843 0.049722657 0.0076688025 -0.057971615 0.00680274 -0.06276272 0.23449712 -0.041398633
0.10364422 0.06348173 0.011788425 0.047137655 -0.07653031 0.032428287 -0.019030714 0.012307819
0.15620683 0.044975657 -0.018277444 0.023893384 -0.10271295 0.028720563 0.024841912 0.018848456
-0.07354758 0.02306652 0.06231093 0.03681236 0.03752996 0.090187535 0.02872183 0.053015687
0.04374114 -0.070081055 -0.08256405 0.010162979 0.04083177 -0.00077525515 -0.033774022 -0.103304096
0.1222007 0.15522105 0.005713226 0.024297856 -0.0049525914 0.096072935 0.098196276 -0.059712827
0.055855438 0.0015387443 0.04657039 0.11317783 -0.0343672 -0.05589278 -0.10564652 0.024520397
0.0063237473 -0.012057733 0.07329239 -0.022469042 -0.048167214 0.03743443 -0.1388596 -0.025965171
0.041517876 -0.06058656 -0.0061220196 -0.004710619 0.03992695 -0.052184056 0.004365232 -0.07338218
0.0683952 -0.022406911 -0.1111158 -0.029380314 0.055897985 -0.008925857 0.09009244 0.055475455
0.0054446035 -0.013682698 -0.05014496 -0.063648924 -0.11930204 -0.09166311 0.105284065 -0.089303374
-0.010701409 -0.07026464 0.050373938 0.025914475 -0.04982565 0.024806723 0.030640492 -0.003986157
0.057855036 -0.15688449 -0.10226381 0.10293355 0.07841183 0.051612433 -0.09565953 -0.030532783
-0.024948532 0.12784891 0.111754484 0.001421804 0.010774274 0.04293839 -0.025007876 -0.07396883
-0.04149378 0.02863167 -0.14790563 0.09838911 0.08213457 0.04432755 0.039043263 0.07142727
-0.059800267 -0.15257044 0.08289612 -0.096067324 -0.03497153 -0.045318957 0.14579952 0.021953816
0.08713443 0.053273614 0.068066664 -0.093964204 -0.1848325 -0.0396078 0.10543371 0.0830092
0.1358016 -0.061281737 0.088817544 -0.0079630995 -0.007507283 -0.18422505 -0.115111366 0.009754682
0.075686805 -0.11080096 0.18836513 -0.0019783438 0.047965065 -0.08825642 -0.080461785 -0.034023035
0.01219031 0.060672298 0.051851436 0.032515496 0.13480055 0.04656805 0.04376186 0.06068453
0.08253003 -0.13900498 -0.13323827 -0.06254408 -0.024697356 0.033959903 0.11678487 -0.0078021716
0.078328274 0.028602341 0.004081381 -0.0991435 0.06392957 0.04836422 -0.11826937 0.049793534
0.20208952 -0.093408555 0.0107472995 -0.0023822084 0.04757514 -0.18695249 -0.021564644 0.121682346
-0.12591086 0.048473053 0.2074773 -0.13538401 0.06696803 -0.04232197 0.027363978 -0.18783736
-0.01167475 0.069416136 -0.02068981 -0.056770854 0.22009306 -0.057335734 0.12427321 0.09031519
-0.09017513 -0.24438915 -0.020419462 -0.04763604 0.0245811 0.0023658276 0.13759474 -0.1311758
0.038312204 0.0767017 0.10273229 -0.19635305 0.019867232 0.08709195 0.00075603917 0.025278186
0.15582874 -0.07332992 0.10412849 -0.06603441 -0.14728996 -0.1815891 0.018771688 0.028440358
0.06953705 0.11448166 0.21738549 -0.044097498 -0.056248743 -0.19019991 0.05884352 -0.26625994
-0.07251757 -0.06197102 0.038591664 -0.10033352 0.35233292 0.022780517 0.022917364 0.0004543052
0.024099167 -0.2543945 0.014790628 0.09525158 0.07944104 0.0076987185 0.43968505 0.04115551
0.028795838 0.032763302 -0.069122106 -0.483579 0.010739621 -0.034427952 0.014000941 0.15809694
00000000: 7a32 8bbc fca9 4b3d 944a fb3b a573 6dbd
00000010: 85e9 de3b be89 80bd 0320 703e 9d91 29bd
00000020: 6c43 d43d b602 823d 3d24 413c 6a13 413d
00000030: ecbb 9cbd 86d3 043d 4de6 9bbc bca6 493c
00000040: aff4 1f3e 6538 383d 94ba 95bc 0fbc c33c
00000050: 2b5b d2bd 6347 eb3c 4481 cb3c 1468 9a3c
00000060: 1da0 96bd 00f6 bc3c bf39 7f3d 8fc8 163d
00000070: 04b9 193d 3eb4 b83d 0b4a eb3c fa26 593d
00000080: e929 333d a886 8fbd 5717 a9bd a082 263c
00000090: 373f 273d 7e3a 4bba a156 0abd 1991 d3bd
000000a0: 5c44 fa3d 44f2 1e3e 0336 bb3b 4c0c c73c
000000b0: 5949 a2bb e3c1 c43d 211b c93d 7095 74bd
000000c0: acc8 643d b1af c93a 98c0 3e3d c7c9 e73d
000000d0: 9fc4 0cbd d4ef 64bd 345d d8bd 00df c83c
000000e0: 7037 cf3b cc8d 45bc 521a 963d ff10 b8bc
000000f0: fc4a 45bd d854 193d 3631 0ebe e9b4 d4bc
00000100: a60e 2a3d 9d29 78bd 399b c8bb 895b 9abb
00000110: 718a 233d f3be 55bd 380a 8f3b 6549 96bd
00000120: c812 8c3d b38e b7bc ae90 e3bd fcae f0bc
00000130: 49f5 643d c23d 12bc 6382 b83d 3b3a 633d
00000140: a568 b23b 652d 60bc cd64 4dbd 5e5a 82bd
00000150: a154 f4bd deb9 bbbd 2c9f d73d b0e4 b6bd
00000160: f654 2fbc e8e6 8fbd e754 4e3d 984a d43c
00000170: fb15 4cbd 7837 cb3c c501 fb3c 4f9e 82bb
00000180: 67f9 6c3d 54a6 20be b06f d1bd d3ce d23d
00000190: 6296 a03d 8f67 533d 25e9 c3bd e31f fabc
000001a0: dd60 ccbc d3ea 023e 89df e43d d35b ba3a
000001b0: 9586 303c 2ae0 2f3d 51dd ccbc f87c 97bd
000001c0: 62f5 29bd f78c ea3c 9374 17be 3b80 c93d
000001d0: 2b36 a83d ce90 353d d4eb 1f3d 7648 923d
000001e0: 20f1 74bd 6d3b 1cbe 71c5 a93d f2be c4bd
000001f0: 4f3e 0fbd 5fa0 39bd 784c 153e 7dd8 b33c
00000200: 8973 b23d 6f35 5a3d 8966 8b3d 4e70 c0bd
00000210: bb44 3dbe ca3b 22bd a1ed d73d ba00 aa3d
00000220: 930f 0b3e 8f02 7bbd f9e5 b53d a977 02bc
00000230: a7ff f5bb 7ea5 3cbe 82bf ebbd 1ad2 1f3c
00000240: af01 9b3d 9deb e2bd cae2 403e 1aa7 01bb
00000250: 0477 443d c8bf b4bd 26c9 a4bd bd5b 0bbd
00000260: deb9 473c 8483 783d 2c62 543d f82e 053d
00000270: 2809 0a3e 24be 3e3d a33f 333d 5790 783d
00000280: 8105 a93d 5257 0ebe 9d6f 08be 1c17 80bd
00000290: 1c52 cabc 8a19 0b3d e82c ef3d 5ca9 ffbb
000002a0: 936a a03d 754f ea3c 1bbd 853b bf0b cbbd
000002b0: 82ed 823d 8f19 463d 3637 f2bd 4ef4 4b3d
000002c0: 8ef0 4e3e fc4c bfbd 7115 303c d31e 1cbb
000002d0: 26de 423d 7970 3fbe 56a8 b0bc 9834 f93d
000002e0: c7ee 00be ae8b 463d ee74 543e 1ba2 0abe
000002f0: 8926 893d cd59 2dbd 6c2a e03c 7058 40be
00000300: 7347 3fbc 0c2a 8e3d ad7d a9bc 8e88 68bd
00000310: 1360 613e e0d8 6abd f482 fe3d 2cf7 b83d
00000320: bdad b8bd 2641 7abe b746 a7bc 021e 43bd
00000330: 4e5e c93c 000c 1b3b a3e5 0c3e f352 06be
00000340: 42ed 1c3d c815 9d3d 4f65 d23d c610 49be
00000350: 9bc0 a23c 445d b23d ee30 463a 3314 cf3c
00000360: 9291 1f3e ff2d 96bd 5141 d53d 0c3d 87bd
00000370: 2ed3 16be 7ef2 39be 15c7 993c c1fb e83c
00000380: 7169 8e3d 5c75 ea3d 4d9a 5e3e 949f 34bd
00000390: 1565 66bd c4c3 42be e705 713d 3953 88be
000003a0: 1784 94bd 53d5 7dbd 4b12 1e3d a97b cdbd
000003b0: fb64 b43e 359e ba3c 32bd bb3c d02f ee39
000003c0: 9e6b c53c ff3f 82be 6454 723c 4313 c33d
000003d0: fcb1 a23d 8845 fc3b 661e e13e ae92 283d
000003e0: 40e5 eb3c d032 063d e48f 8dbd ab97 f7be
000003f0: 3cf5 2f3c 5304 0dbd 3464 653c 2ae4 213e

network_body.linear_encoder.seq_layers.2.bias f4 [256]
-0.0173174 -0.0024264292 -0.029808357 -0.06864639 -0.00966219 0.0068666907 0.018371565 -0.019747486
0.014392038 -0.0058059497 0.0056021702 0.014870849 -0.02452927 0.025896126 0.0041648224 -0.040956877
0.012493229 0.02354708 0.00067450764 0.026083158 -0.009290747 0.015037509 -0.023249991 0.019583777
-0.00507733 0.008619048 -0.0029768944 0.010180267 0.009949952 -0.048224203 -0.012209686 -0.03279786
0.018365394 -0.00078682357 -0.0008822306 0.04376553 -0.0043848106 -0.069924995 -0.014816775 -0.04363884
-0.011971609 -0.008309771 0.020171972 -0.0132212145 -0.007274455 -0.05110394 0.0028052493 -0.054288264
-0.010791202 -4.6212146e-05 0.025250118 -0.0055317506 -0.010897062 0.008422 0.011581715 -0.0033059926
-0.037989423 0.0121671595 -0.0834926 -0.02625408 -0.0037163037 -0.020420134 -0.03484573 -0.04548211
0.009650595 -0.0075292154 -0.020702291 -0.013803591 0.003934208 -0.051428642 -0.023528237 0.03397158
0.0039860914 -0.017102992 0.058776423 -0.034535695 -0.0057041817 -0.02065022 -0.026218347 -0.097551785
-0.031473104 0.018546848 -0.026573056 0.036717385 -0.086004645 0.025468599 0.013615196 0.025086133
0.04248833 0.011759452 0.014793718 -0.028298479 0.0052255634 0.02645046 -0.021352828 0.013888963
0.008826833 -0.052414346 -0.02304085 -0.06233973 0.03241064 -0.0499934 0.036845133 0.06257903
-0.026593845 -0.031573445 -0.033109803 -0.0055711586 0.015525988 -0.09482769 -0.022772433 -0.039405692
0.021102218 -0.009802166 0.022480626 0.017595151 -0.026407313 0.0055925427 -0.012228356 0.0073833447
-0.023032421 -0.09391374 -0.02095505 -0.0060483105 0.01639924 -0.051706307 0.017008148 0.006389434
-0.053829025 0.033327065 0.014080868 -0.00062336714 0.029933805 0.024214847 -0.021866808 -0.04962406
-0.028577544 0.03884886 -0.059557464 -0.0014128502 -0.0011227179 -0.03685837 0.018606247 0.0042696483
0.00582127 0.010181854 -0.008439335 -0.020746185 0.0067420057 0.031718884 -0.017215198 -0.04569741
0.006482742 0.04360007 0.018308394 0.009080826 -0.046786617 -0.06030019 0.014915293 -0.018689912
-0.013033262 -0.014902206 0.02079249 -0.013220697 -0.075613 0.03315402 -0.029760389 -0.02956447
-0.01315496 0.065686055 0.0089545585 -0.0037461587 -0.044977915 -0.018637296 -0.059739985 0.0077163363
-0.04358878 0.008725445 -0.034003127 0.0032626002 0.060300693 -0.021671798 0.020664107 -0.03925543
-0.08702618 -0.0354293 0.03993254 0.009048756 -0.016232012 0.07540075 -0.036479108 0.0020602653
0.023109566 -0.025835637 0.04138482 -0.0095421905 -0.01116044 -0.029456193 0.035842776 0.042230453
-0.016919777 -0.004165547 -0.027321735 -0.008708082 -0.042044554 -0.029799305 -0.008856478 0.017940285
0.008114104 -0.009492164 -0.030026123 -0.041903097 -0.04619728 -0.081300676 0.008474644 0.026187653
-0.0048506507 0.0043170596 0.0013352423 0.042240817 0.012202849 -0.03984628 -0.0055524036 0.008084476
-0.015513071 -0.056087095 -0.027542997 -0.042362057 -0.043341972 -0.0042995876 -0.047584154 0.008724389
-0.044956345 -0.015547755 -0.026967023 -0.034698963 -0.0007385621 -0.0070811505 0.035977878 0.013282481
0.0011446592 0.011811396 -0.007788585 0.029254371 -0.027598208 -0.07439977 -0.030469902 -0.019034773
0.002072028 0.003857086 -0.017736277 -0.0010079916 -0.010713938 -0.010131297 0.026433988 0.025516953
00000000: 38dd 8dbc ba04 1fbb a830 f4bc 7b96 8cbd
00000010: 2a4e 1ebc fa01 e13b f77f 963c 7bc5 a1bc
00000020: 95cc 6b3c d63f bebb 6992 b73b dda4 733c
00000030: 9cf1 c8bc 1d24 d43c 1079 883b 66c2 27bd
00000040: 66b0 4c3c cee5 c03c 71d1 303a 59ac d53c
00000050: 3838 18bc e25f 763c c476 bebc 286e a03c
00000060: bb5f a6bb e836 0d3c 0018 43bb 22cb 263c
00000070: 2005 233c be86 45bd 230b 48bc 0d57 06bd
00000080: 0673 963c d642 4eba 7e45 67ba 7c43 333d
00000090: 75ae 8fbb d634 8fbd 0fc2 72bc a4be 32bd
000000a0: 9124 44bc b525 08bc b13f a53c cb9d 58bc
000000b0: 8d5e eebb 5d52 51bd 46d8 373b 5f5d 5ebd
000000c0: 95cd 30bc ead3 41b8 56d9 ce3c b043 b5bb
000000d0: 9789 32bc 6efc 093c 3cc1 3d3c 5aa9 58bb
000000e0: cc9a 1bbd c458 473c 2bfe aabd cc12 d7bc
000000f0: 3b8d 73bb 2048 a7bc 65ba 0ebd 734b 3abd
00000100: 871d 1e3c a3b7 f6bb da97 a9bc 7528 62bc
00000110: 87ea 803b d7a6 52bd 4abe c0bc c925 0b3d
00000120: c29d 823b 931b 8cbc 8cbf 703d 4d75 0dbd
00000130: 25ea babb a62a a9bc dcc7 d6bc 3bc9 c7bd
00000140: f1e9 00bd 8fef 973c bdaf d9bc f864 163d
00000150: 3423 b0bd 86a3 d03c 4512 5f3c 6f81 cd3c
00000160: 3e08 2e3d b7aa 403c 5a61 723c 36d2 e7bc
00000170: 343b ab3b a3ae d83c 20ec aebc 888e 633c
00000180: 6c9e 103c 6db0 56bd 2ac0 bcbc f257 7fbd
00000190: 05c1 043d e1c5 4cbd ecea 163d 6f29 803d
000001a0: 56db d9bc 2853 01bd 259e 07bd 448e b6bb
000001b0: b760 7e3c 0535 c2bd 418d babc dd67 21bd
000001c0: 8fde ac3c 4499 20bc 4a29 b83c b523 903c
000001d0: 2654 d8bc a641 b73b 7159 48bc fcef f13b
000001e0: 7dae bcbc d955 c0bd eda9 abbc e830 c6bb
000001f0: b357 863c fec9 53bd ac54 8b3c 755e d13b
00000200: d37b 5cbd f681 083d 71b3 663c 7669 23ba
00000210: bd37 f53c 375e c63c 0522 b3bc 9942 4bbd
00000220: 741b eabc fb1f 1f3d 87f2 73bd 632f b9ba
00000230: 2928 93ba cdf8 16bd 216c 983c 68e8 8b3b
00000240: 5ac0 be3b cad1 263c 2345 0abc e7f3 a9bc
00000250: 0bec dc3b a9eb 013d e306 8dbc 352d 3bbd
00000260: 2e6d d43b fd95 323d 7cfb 953c bfc7 143c
00000270: 53a3 3fbd 55fd 76bd 465f 743c 961b 99bc
00000280: 7789 55bc 6228 74bc 0355 aa3c 9f9b 58bc
00000290: fdda 9abd 82cc 073d 0fcc f3bc 3031 f2bc
000002a0: e787 57bc 6986 863d 24b6 123c 1d82 75bb
000002b0: c33a 38bd 3ead 98bc eab1 74bd 52d9 fc3b
000002c0: 268a 32bd 2bf5 0e3c dd46 0bbd 59d1 553b
000002d0: dcfd 763d 0e89 b1bc c647 a93c 4dca 20bd
000002e0: c83a b2bd 501e 11bd 4e90 233d 3c41 143c
000002f0: fff8 84bc b56b 9a3d 1e6b 15bd 8405 073b
00000300: 4650 bd3c 42a5 d3bc 2183 293d d956 1cbc
00000310: 47da 36bc 1d4e f1bc e0cf 123d d7f9 2c3d
00000320: 589b 8abc 247f 88bb d5d1 dfbc 58ac 0ebc
00000330: e936 2cbd ac1d f4bc c31a 11bc 81f7 923c
00000340: 05f1 043c 0585 1bbc 58f9 f5bc 95a2 2bbd
00000350: 5c39 3dbd f880 a6bd 3cd9 0a3c 7d87 d63c
00000360: 35f2 9ebb 1f76 8d3b 4c03 af3a b504 2d3d
00000370: 75ee 473c da35 23bd f0f0 b5bb c074 043c
00000380: 892a 7ebc 95bb 65bd daa1 e1bc d683 2dbd
00000390: 5a87 31bd 8ee3 8cbb 9ae7 42bd bdf0 0e3c
000003a0: 2524 38bd 03bc 7ebc f2e9 dcbc 8020 0ebd
000003b0: 109c 41ba ff08 e8bb 8a5d 133d c39e 593c
000003c0: 6408 963a 9684 413c 6337 ffbb dda6 ef3c
000003d0: a315 e2bc e85e 98bd 049c f9bc d0ee 9bbc
000003e0: dcca 073b 2ac7 7c3b ab4b 91bc 961e 84ba
000003f0: 8389 2fbc bdfd 25bc 178c d83c ee08 d13c

network_body.linear_encoder.seq_layers.2.weight f4 [256, 256]
-0.058415975 0.04728403 -0.11167299 -0.1159503 0.06907067 0.01975066 0.013187648 -0.04520238
0.107927576 0.027257992 0.06400861 0.0846122 0.17499572 -0.022678865 -0.06704911 -0.03782022
0.03535438 -0.14030756 0.07276361 0.049431358 0.03985278 -0.0034611782 0.0017249625 0.06027853
0.11596111 0.058625605 -0.036992017 -0.08131141 -0.030785605 0.020517364 -0.046154525 0.006147823
-0.07412725 -0.07025628 -0.10640508 0.097592816 0.14910397 0.08698667 0.007419017 0.10752961
0.080168694 -0.06992383 -0.042257324 -0.06797048 -0.046797086 0.07212267 0.016786821 0.028167745
0.015113271 0.060472302 -0.027182328 0.077688 0.08353181 -0.043006867 -0.045222476 0.04370704
-0.067119986 -0.01013102 0.1253721 0.100596145 -0.007502589 0.038949337 -0.03114977 0.018405594
-0.027567392 0.032637518 -0.044861525 -0.02556348 -0.03732996 -0.027142348 -0.07580907 0.07808087
0.010577363 0.080029994 0.077310905 0.13663505 0.01701002 0.092592455 0.046306003 0.12337652
-0.08051834 -0.099522844 -0.081357814 0.021155104 0.005367853 -0.030026598 -0.011002029 -0.016892862
-0.08140767 -0.008219235 -0.00943011 0.020709956 -0.033698425 -0.051695704 0.17193273 0.073967755
-0.0009061416 0.08129181 -0.10207325 0.018917698 -0.05319063 0.0016591985 0.17219026 0.009358792
0.0957501 -0.018187607 0.0031624741 -0.09151353 -0.14995345 -0.016798185 -0.0023788873 -0.030474897
-0.0353948 -0.041738532 -0.01357106 0.05177588 -0.011288323 0.009365639 -0.1626835 -0.043888334
0.029610569 -0.116946764 0.031824213 -0.051988997 -0.08468754 0.08997113 0.040088948 -0.12164982
-0.013076393 0.026166791 -0.049315084 0.059401046 -0.09156707 0.03787951 0.106214136 -0.29085034
0.2431883 0.0021812208 0.053306114 -0.06590367 0.026529813 -0.053547043 0.120581 -0.040969037
0.04248715 0.0203142 -0.14523046 0.123386845 0.04885061 0.027212782 0.019823983 0.08392503
-0.08542968 -0.103113376 0.110985406 0.004734662 -0.1377863 0.018108146 -0.082132705 0.18072523
0.045341894 -0.047001958 -0.054050554 -0.12547141 -0.03911611 0.07945517 0.020242674 -0.09781703
0.005299104 -0.10125823 0.0066373735 0.029953955 0.010976024 -0.049036644 0.11603998 0.118159406
0.02269581 -0.20241831 0.0067698136 0.04539674 0.00543339 -0.017045427 0.14705011 0.032691903
0.094026856 0.019278478 0.0677969 -0.08119833 0.05791684 -0.03611648 -0.0031566508 -0.18099494
-0.039806347 -0.004134928 0.06283117 0.014351499 0.067973286 -0.034150667 -0.053477235 -0.007908528
0.03929722 0.079233974 -0.13371836 0.018572554 -0.018136892 -0.0073921126 -0.021789802 -0.06981189
-0.12222064 0.008460848 -0.13408157 -0.019866342 0.056354787 -0.000538899 0.102615625 0.053711127
-0.084819436 0.014722589 0.10644811 0.043174997 0.00079805957 -0.047276426 -0.07072328 -0.07092776
0.089739405 -0.050766647 -0.04975358 0.039325025 -0.08361127 0.022252463 -0.1083168 0.09146463
-0.10659522 -0.07995668 -0.09683699 0.03882916 0.117003076 -0.01708511 0.09379039 0.013469554
0.015470018 -0.005305609 -0.22594355 -0.09360822 0.13571022 0.07573812 -0.0014573092 -0.09834293
0.036900185 0.020704685 -0.08126548 -0.10615159 0.08111519 -0.06380165 0.04659737 -0.16541636
00000000: 9745 6fbd e6ac 413d cfb4 e4bd 5a77 edbd
00000010: ec74 8d3d 23cc a13c 0111 583c 2126 39bd
00000020: 2209 dd3d 274c df3c f216 833d 2949 ad3d
00000030: 1432 333e 07c9 b9bc 0b51 89bd 60e9 1abd
00000040: c1cf 103d c9ac 0fbe 1605 953d 8978 4a3d
00000050: ab3c 233d efd4 62bb 2318 e23a 9fe6 763d
00000060: 057d ed3d 6721 703d f184 17bd 9986 a6bd
00000070: 1832 fcbc 0814 a83c 870c 3dbd ad73 c93b
00000080: 07d0 97bd 86e2 8fbd e8ea d9bd bede c73d
00000090: b6ae 183e 1126 b23d 3a1b f33b 7c38 dc3d
000000a0: 7c2f a43d 3a34 8fbd 0416 2dbd 1b34 8bbd
000000b0: 4dae 3fbd 0db5 933d 8484 893c 0bc0 e63c
000000c0: a79d 773c ceb1 773d 79ad debc e31a 9f3d
000000d0: ba12 ab3d f827 30bd 343b 39bd 2706 333d
000000e0: 3476 89bd 94fc 25bc 8b61 003e 5a05 ce3d
000000f0: 47d8 f5bb 5789 1f3d cd2d ffbc 54c7 963c
00000100: 03d5 e1bc ebae 053d b8c0 37bd 816a d1bc
00000110: 4de7 18bd a159 debc c941 9bbd dde8 9f3d
00000120: ad4c 2d3c c4e6 a33d 2e55 9e3d 0fea 0b3e
00000130: 9958 8b3c 1da1 bd3d 5dab 3d3d d4ac fc3d
00000140: cde6 a4bd a2d2 cbbd ed9e a6bd 784d ad3c
00000150: d1e4 af3b 57fa f5bc db41 34bc e662 8abc
00000160: 11b9 a6bd f8a9 06bc c080 1abc eda7 a93c
00000170: 5c07 0abd e0be 53bd 220f 303e 687c 973d
00000180: 228a 6dba 527c a63d c80b d1bd 4af9 9a3c
00000190: 6bde 59bd 7779 d93a a552 303e 9e55 193c
000001a0: a118 c43d 2dfe 94bc 8341 4f3b 726b bbbd
000001b0: 668d 19be 599c 89bc 1be7 1bbb 7ea6 f9bc
000001c0: 23fa 10bd 06f6 2abd 2759 5ebc f212 543d
000001d0: a9f2 38bc 5672 193c 8196 26be 41c4 33bd
000001e0: dd91 f23c c981 efbd 1b5a 023d 6af2 54bd
000001f0: a970 adbd c942 b83d 4f34 243d 8a23 f9bd
00000200: 5e3e 56bc bd5b d63c 9dfe 49bd 834e 733d
00000210: 8487 bbbd 8c27 1b3d cc86 d93d 56ea 94be
00000220: 5b06 793e d0f2 0e3b 8357 5a3d 81f8 86bd
00000230: 0d55 d93c 2554 5bbd 2cf3 f63d 26cf 27bd
00000240: 0107 2e3d f769 a63c 4bb7 14be 3eb2 fc3d
00000250: 9417 483d 57ed de3c e865 a23c e3e0 ab3d
00000260: c2f5 aebd 1b2d d3bd 514c e33d 3925 9b3b
00000270: da17 0dbe 8957 943c 3135 a8bd 0910 393e
00000280: 6cb8 393d 2085 40bd 1d64 5dbd 947b 00be
00000290: 3738 20bd 64b9 a23d f7d3 a53c 4c54 c8bd
000002a0: 1ba4 ad3b 7a60 cfbd 537e d93b ff61 f53c
000002b0: c8d4 333c a6da 48bd 5ea6 ed3d 8ffd f13d
000002c0: 90ec b93c bf46 4fbe 50d5 dd3b eff1 393d
000002d0: 940a b23b daa2 8bbc 4e94 163e f2e7 053d
000002e0: 2791 c03d e6ed 9d3c 1ad9 8a3d 4f4b a6bd
000002f0: 353a 6d3d e0ee 13bd d0df 4ebb bd56 39be
00000300: fb0b 23bd 4a7e 87bb a1ad 803d 8d22 6b3c
00000310: 9435 8b3d 92e1 0bbd f20a 5bbd c592 01bc
00000320: 1ff6 203d 6c45 a23d 77ed 08be 7825 983c
00000330: d293 94bc 8939 f2bb 8780 b2bc 89f9 8ebd
00000340: d14e fabd 5e9f 0a3c ae4c 09be bdbe a2bc
00000350: 47d4 663d e644 0dba 2428 d23d 3300 5c3d
00000360: d0b5 adbd 0437 713c 7701 da3d 44d8 303d
00000370: df34 513a eda4 41bd 5ed7 90bd 9342 91bd
00000380: 4bc9 b73d b0f0 4fbd 69ca 4bbd 4713 213d
00000390: 633c abbd cc4a b63c 33d5 ddbd cf51 bb3d
000003a0: 984e dabd 54c0 a3bd 7952 c6bd 530b 1f3d
000003b0: 4f9f ef3d 13f6 8bbc 2d15 c03d 67af 5c3c
000003c0: f575 7d3c adda adbb bf5d 67be abb5 bfbd
000003d0: 9ff7 0a3e 961c 9b3d 2f03 bfba 0568 c9bd
000003e0: a624 173d df9c a93c 846e a6bd 0166 d9bd
000003f0: b91f a63d 71aa 82bd e2dc 3e3d e862 29be
