Project/Assets/MyProject/Train/Train_Moon/TrainModel/Runner/rubyrun_RunModel.onnx (onnx, 726448 bytes, 6 tensors)

action_model._discrete_distribution.branches.0.bias f4 [7]
000000 66 db 4e 3d 44 49 ce 3c c8 fb f5 bc b7 bc 3a bd
       0.050502203 0.02518142 -0.030027285 -0.04559013
000010 e2 49 b2 bc 23 5e 5a bd 29 e9 48 3d
       -0.021763746 -0.053312432 0.049050484

action_model._discrete_distribution.branches.0.weight f4 [7, 256]
000000 61 5a 2b bd f5 69 92 bd c2 b2 f6 bb 81 ab c4 3b
       -0.04183424 -0.07149116 -0.007528634 0.00600189
000010 ab d6 d7 3b ee 29 1b be 3a d7 37 bd 38 ee 13 be
       0.0065868697 -0.15152714 -0.04488299 -0.14446342
000020 43 5f 5f bd 8d 6a 8b bb 63 4e 41 bc 24 f4 88 bd
       -0.054534208 -0.004254645 -0.011798474 -0.06687191
000030 2e bb 0f bd f6 8b a7 3c 78 16 44 bd 6c db 8c bd
       -0.035090618 0.02045248 -0.04787299 -0.06877789
000040 7a 2c 23 3d 65 2d f4 bc 9f f7 ba 3c a6 46 2d bc
       0.039837338 -0.029806802 0.022823153 -0.010575926
000050 36 40 8e bd 97 81 b8 bb 66 7e b3 3c 32 a2 60 bd
       -0.06945841 -0.0056306827 0.021910857 -0.05484218
000060 0c a1 3d 3b 3d b4 05 bd f7 a5 88 bd dc 59 69 3d
       0.0028935103 -0.03264259 -0.0667228 0.056970462
000070 bb ce 8c bd dd f4 17 3c f8 e5 76 3b 5e 51 1c bd
       -0.06875368 0.009274689 0.0037673693 -0.038163535
000080 08 55 03 3c 03 fe b6 3c b9 a5 ed bc ad 8e 68 3b
       0.0080158785 0.02233792 -0.029009687 0.0035485432
000090 93 7d 9c bd ee 1a 18 3d d9 c0 e6 bb 38 99 ac 3c
       -0.07641139 0.037135057 -0.007042032 0.021069154
0000a0 45 d8 ce bd 27 4f 9a bc f3 da 97 3b 99 26 ed bc
       -0.10099844 -0.01883657 0.004634255 -0.028949069
0000b0 96 be 33 bd 28 53 e1 bb cc 68 36 bd 7a 91 55 bd
       -0.04388293 -0.006876368 -0.044533536 -0.05214069
0000c0 b5 17 d5 3c 58 44 a7 3c 5d 2c 6a 3d 85 41 1d bd
       0.026012281 0.020418331 0.057171214 -0.038392562
0000d0 45 4f bd bd 2b 2d 0e 3d 73 01 ce bd 96 c6 9a 3d
       -0.09243635 0.034711044 -0.1005887 0.075574085
0000e0 47 4a 94 bd 86 ef 0b b9 25 ac 3e 3d c1 07 27 bd
       -0.0724073 -0.00013345302 0.04655089 -0.04077888
0000f0 89 68 09 3d cd 38 a4 bd 09 6e 85 bd 3c 63 e9 3b
       0.033546958 -0.080186464 -0.06515128 0.0071224254
000100 cd 71 0c bc 52 75 01 3d 88 53 1d bd dd 7d 8a 3c
       -0.008572054 0.031606026 -0.03840974 0.01690572
000110 64 63 1c 3d 83 d9 27 3b c8 b4 1e bc 6f c9 a7 3c
       0.038180724 0.0025611825 -0.009686656 0.020481793
000120 bf 4a 0e 3a 01 42 68 bc 51 91 e1 bd 4e a9 11 bd
       0.0005428008 -0.014175893 -0.11014045 -0.035561852
000130 a8 c6 7d bc b6 fa 00 bc 87 aa 09 3d 2c 4c 05 bd
       -0.015489258 -0.007872274 0.033609893 -0.032543346
000140 97 80 d4 3c 09 cb a2 3c 7e 1e 34 3d 75 82 b0 3d
       0.025940223 0.019872205 0.043974392 0.08618633
000150 cb 9f d8 bc 0e d0 a0 bd df 0a 6e 3c d5 70 1a 3d
       -0.026443383 -0.07852183 0.014528959 0.03770526
000160 53 35 90 bd 0b b3 1e 3d 04 f0 3f bd 9d 04 50 3d
       -0.07041421 0.038744967 -0.046859756 0.05078565
000170 a5 3d 55 bd 9a 1f f8 3b 69 12 84 3b 27 92 17 be
       -0.052060742 0.0075721266 0.004030515 -0.14801846
000180 04 32 4a 3d b4 09 db bd 06 3e 8d bc 8b f6 1a 3c
       0.049364105 -0.1069521 -0.01724149 0.0094581945
000190 0d 21 98 bd ac 1a a6 bd 3b 86 1a bd 49 af f7 bb
       -0.07428179 -0.08110556 -0.03772567 -0.0075587374
0001a0 6e 16 3c bd d9 4e 72 bd 59 22 2b bd d3 3f 3a 3d
       -0.045919828 -0.059157226 -0.041780803 0.045471024
0001b0 dc 61 0d 3c 26 b0 55 3d c3 b7 6b bb 39 4a ac 3c
       0.0086292885 0.05216994 -0.0035967685 0.021031486
0001c0 40 ab 0c bd 71 14 94 bc d5 80 9f 3c 07 6f bf bc
       -0.034343004 -0.018076153 0.019470612 -0.023368372
0001d0 e7 e6 95 3d 38 52 87 bd 89 70 f9 bc 26 25 40 3d
       0.07319432 -0.06607479 -0.030449169 0.046910428
0001e0 29 c1 aa bd a4 84 0b 3d 2e 18 48 bd 54 e4 70 bd
       -0.083376236 0.034062043 -0.048851185 -0.0588115
0001f0 bb 4f 84 3c 9b 01 c8 3d c2 92 5d bd 5a 12 80 3c
       0.0161513 0.09765931 -0.054095037 0.01563375
000200 23 cc 88 b9 2f 84 2e bd 6a 03 c1 bc 6f 57 a7 bd
       -0.00026092035 -0.04260653 -0.023561198 -0.081709735
000210 d7 65 c1 bd 95 e6 7f 3d 50 b1 14 3c a3 74 e6 bc
       -0.094432525 0.06247576 0.009075478 -0.028131789
000220 9e 7e 97 3c aa 14 71 3c 92 20 35 3d c1 b4 df bc
       0.018492993 0.014714399 0.044220515 -0.02730787
000230 80 fe a2 bc df 67 38 bd 51 06 49 3c 82 cc ad 3d
       -0.019896746 -0.045020934 0.012269572 0.084862724
000240 6d 3e 54 bc 90 3e dd bc 0d c8 84 3c 26 39 ba bd
       -0.012954337 -0.027007371 0.016208673 -0.090929314
000250 f5 92 03 3d eb 50 48 bc 26 00 98 bc c2 2d 30 3c
       0.03212257 -0.012226324 -0.018554758 0.010753097
000260 13 a8 40 3d 30 e9 78 3c d4 65 dc 3c 1d 79 87 3d
       0.047035288 0.015192315 0.026904024 0.066148974
000270 dd 03 3e 3c 52 49 10 3c 8e d9 cc 3c c8 1f 3b 3b
       0.011597601 0.008806543 0.025006082 0.0028552879
000280 98 59 b6 bd a2 86 e4 3c 61 20 7d bd a5 9c 62 bd
       -0.089038074 0.02789623 -0.061798457 -0.05532517
000290 02 1f d6 bc 97 f9 69 ba 55 3d e8 bc 74 4c f1 3b
       -0.026137833 -0.00089254364 -0.028349558 0.0073638503
0002a0 51 02 95 bc 63 db 5b bd 96 f6 31 be 3c 7a c0 bd
       -0.018189581 -0.05367602 -0.17379221 -0.09398314
0002b0 ad e6 7b 3d 3b 2e 0b bd fa ee 24 3d fa 86 9a 3c
       0.061499286 -0.033979636 0.04026697 0.01886319
0002c0 fe 52 07 3d 35 09 6c 3c 70 63 8a bd b6 2f a8 3d
       0.033038132 0.014406492 -0.067572474 0.08212225
0002d0 11 a7 12 bc be 01 54 bb 84 c7 2e 3d 15 9f 75 3c
       -0.008950965 -0.0032349671 0.04267074 0.014991541
0002e0 60 a1 e5 3c 21 5a 61 3d 07 fe 65 3c 47 be b4 bd
       0.028031051 0.055017594 0.014037616 -0.08825355
0002f0 9c a9 3a bd ce 12 a4 bb 28 eb ea 3c b2 3e 0c 3d
       -0.04557191 -0.0050071245 0.028676584 0.03423948
000300 93 8a 1f bc 14 a7 5c bd 47 f3 e2 bc 01 0e b6 bd
       -0.0097376285 -0.053870276 -0.027703894 -0.0888939
000310 5a 9c a9 bc 4f a2 ed bb f5 54 35 3c 97 07 4f 3d
       -0.020704437 -0.0072520147 0.011067619 0.050544348
000320 6b 19 b3 bd 58 c5 22 bc d0 33 b1 3c 6d 41 76 bd
       -0.087450825 -0.009934746 0.021631151 -0.06012099
000330 e9 5c 22 bd 88 73 d0 bd 62 59 f3 bb 48 34 d7 3c
       -0.039639387 -0.10178286 -0.0074264267 0.026270047
000340 73 f9 b8 3c 8f 43 d1 3c 45 41 18 3d 86 80 5c bd
       0.022579884 0.02554491 0.03717162 -0.053833507
000350 ae 76 c4 3c 00 d1 31 bd 4e fb 04 3c ad c6 ea 3a
       0.023982372 -0.04341221 0.008116556 0.0017911993
000360 a7 cb 9c 3d bb ed 0b 3d e6 ec 7b bc 9c b0 2c 3d
       0.07656031 0.034162264 -0.015376305 0.042160615
000370 f2 06 75 3c a5 34 6a 3c ad c3 c9 bc 03 b3 b8 bc
       0.014955269 0.014294778 -0.024629438 -0.022546297
000380 28 58 0e 3d e9 68 47 3c 4e 46 22 bb c3 2e d9 bc
       0.03475204 0.012171009 -0.0024761143 -0.026511556
000390 c0 8c 2a 3d c3 f3 04 bc f9 b2 55 3d ff ac 3b 3d
       0.041638136 -0.008114758 0.052172635 0.04581928
0003a0 8f 18 13 3d 34 4b 17 bb 7f 0f ec 3b 96 8c 61 bc
       0.035912093 -0.0023085596 0.0072039957 -0.013766428
0003b0 76 c5 a3 bc da 73 82 bd 59 f4 af 3b 35 fd d2 bd
       -0.019991618 -0.06369753 0.0053697047 -0.10302202
0003c0 02 06 6a bc 2f cd 7c 3d 85 f7 a7 bc 67 6d 9e bd
       -0.014283659 0.061719116 -0.020503769 -0.077357106
0003d0 26 58 58 3d 97 be 2e bd 56 84 21 bd 25 18 d0 bd
       0.05281844 -0.04266223 -0.039432846 -0.10160855
0003e0 51 e7 30 bc c7 aa 95 3c 6e e3 9c bd f7 d6 b2 3b
       -0.010797338 0.01826991 -0.07660566 0.0054577547
0003f0 01 63 d3 bc 6c 2e c0 bd 3b f6 d9 3b 83 e8 a8 3b
       -0.025804045 -0.09383854 0.0066516674 0.0051546707

network_body.linear_encoder.seq_layers.0.bias f4 [256]
000000 7b 1f 47 bc 71 00 92 bc c5 09 05 be ff 62 bc bd
       -0.012153502 -0.017822476 -0.12992008 -0.091985695
000010 cd cf 4d bd 91 97 f6 3a f2 3b 24 3c 18 74 5e bd
       -0.050247002 0.0018813481 0.010024058 -0.054309934
000020 b7 e2 6b bd b1 d4 92 bc a0 37 fa 3b ea 86 25 be
       -0.05758926 -0.017923685 0.0076360255 -0.16164747
000030 a2 fd 5e bd 3e 96 88 bd 3f 4c 32 3d 73 7f a9 bd
       -0.0544411 -0.066692814 0.043529745 -0.08276262
000040 c2 48 b2 3c 64 f2 43 bd f6 24 08 bd d0 fc a8 bd
       0.02176321 -0.047838584 -0.033238374 -0.08251345
000050 63 f8 b6 bc 5e 4e 88 bd 95 1a 9f bd a5 bc fd 3c
       -0.022335237 -0.06655572 -0.07768742 0.030973742
000060 6e 19 67 bc cb d0 b1 3b ff bb dd 3c d9 7c 09 bc
       -0.014105184 0.0054265014 0.027067183 -0.008391582
000070 61 b8 30 3c 6b b0 31 3d 74 0f 7d bb 23 68 05 be
       0.010786147 0.043381136 -0.0038613947 -0.13028006
000080 69 52 1a bb 4c b5 a9 bc b5 59 44 bc 8f c5 ca 3c
       -0.0023547655 -0.020716332 -0.011984278 0.024752406
000090 49 21 91 bc b5 22 42 bd cd d4 02 bd 4a 98 8d bc
       -0.017716067 -0.04739638 -0.031941224 -0.017284531
0000a0 fa aa 4f bd c2 8e ca bd cf dd e3 bb 23 0b 22 bd
       -0.050700165 -0.0989051 -0.006953932 -0.039561402
0000b0 60 3f 82 bd 74 1a 54 bb df 0c 2b 3d ef 4c b2 3c
       -0.06359744 -0.00323644 0.04176032 0.0217652
0000c0 f5 dc 9f bd 0e 85 34 3c 8b d4 ed bc 32 15 f5 bc
       -0.07805816 0.011018051 -0.029032012 -0.029917333
0000d0 3a 10 2d bc b7 3d c6 bd 8e 52 c1 3c 56 74 82 bd
       -0.010562951 -0.0967974 0.023598935 -0.063698456
0000e0 a0 15 73 b9 20 84 e4 bc 74 cb 91 bc 37 4a 26 3c
       -0.00023182342 -0.027895033 -0.01779721 0.01014953
0000f0 50 06 00 bc 87 93 21 bd 85 9a dc ba 59 1e 8c bc
       -0.007814005 -0.039447334 -0.0016830718 -0.017104315
000100 59 bd 86 bd 24 c9 1a bd 04 32 f8 b8 be e9 0d 3d
       -0.06579084 -0.03778948 -0.00011834878 0.034646742
000110 1d 58 01 bc 61 a0 4d bd 12 fa 40 bd a8 25 10 3d
       -0.007894543 -0.050201777 -0.047113486 0.03519216
000120 63 8d 34 3d d9 8c f1 bc 0b 0d e9 bc c6 0e 94 3d
       0.04408015 -0.029486107 -0.028448602 0.0722938
000130 f7 89 2d 3d 64 78 41 bd 65 c1 75 bd 8e f2 3b 3d
       0.0423679 -0.047233954 -0.05999889 0.045885615
000140 ab 5b da bc df 20 cb bc 70 2d 9b bb 52 9d 7b bd
       -0.026655039 -0.024795948 -0.004735641 -0.06142933
000150 6f 78 cf bd d0 c3 1b be b1 8f a3 3b 3d e8 ad bd
       -0.10130393 -0.15211415 0.0049914946 -0.084915616
000160 60 e6 82 bd 09 b7 67 3c 05 b8 f7 bd 4f 75 37 bc
       -0.06391597 0.01414276 -0.12095646 -0.011197402
000170 0f bf 07 bd 51 9f 90 bd c5 5d b7 bc 9a b5 bb 3b
       -0.033141192 -0.07061637 -0.02238358 0.0057284357
000180 b0 ad 85 bd d9 9e fa bc db 7f 1c be 10 f2 0c bb
       -0.06527269 -0.030593323 -0.15283148 -0.0021506585
000190 99 c0 4f 3a 56 e4 c6 bd 4c ff 12 3c e5 75 19 bd
       0.00079251226 -0.097115204 0.008972 -0.03746595
0001a0 40 5f 1f 3c b0 73 c0 bc 88 eb 1a be a4 0a d8 bc
       0.009727299 -0.023492664 -0.1512891 -0.026372261
0001b0 76 86 2c 3d 23 a1 ab bc d5 2b 98 bc 22 70 0b be
       0.04212042 -0.02095086 -0.018575588 -0.13616994
0001c0 47 96 2c bc 36 f6 65 3d 18 c9 8c bd 68 a3 a6 3b
       -0.010533876 0.05614301 -0.06874293 0.0050853975
0001d0 df 7e 30 3c 16 cd e0 bd ae 90 04 bd e1 61 5c bd
       0.010772436 -0.10976617 -0.03236454 -0.053804282
0001e0 fd bf ac bd 24 85 91 bd 1b c3 8b bd 6c 8f 86 3d
       -0.08435056 -0.07105473 -0.06824323 0.06570324
0001f0 4f e8 04 bd 10 a7 05 3d 5c 59 d0 3c c9 0b 82 3c
       -0.03244811 0.032630026 0.025433235 0.01587476
000200 f2 4a 82 3b 15 9a 88 bc 06 0e 13 3d 5d 33 1d bd
       0.0039762193 -0.016675035 0.035902046 -0.038379062
000210 40 34 1f bd be 2c 5b bd c0 86 31 bc 52 66 9f bb
       -0.03886819 -0.053509466 -0.01083535 -0.0048644925
000220 38 21 2d 3d f1 86 a0 bd c4 9e 6e 3b 37 bd 38 bc
       0.042268008 -0.07838238 0.003641055 -0.011275581
000230 65 08 f6 bd 96 b2 df bb 48 12 ad bc 6f 8e fa b8
       -0.1201332 -0.006826709 -0.021126881 -0.00011947459
000240 90 7d 29 3c fe 8c 2a bd d7 6f 88 bc be a9 8a bc
       0.010344878 -0.041638367 -0.016654892 -0.016926643
000250 56 df 16 3c 09 fe 76 bc 14 d2 c0 bc 3d 5d 16 3c
       0.009208521 -0.015075215 -0.023537673 0.009177503
000260 85 56 d6 bd 43 3f 65 bc ae a6 24 bd 4d 15 d7 bc
       -0.10465721 -0.013992134 -0.04019802 -0.026255274
000270 09 88 d1 3c d0 4b 49 bd c9 c2 94 bd 99 19 35 bd
       0.025577562 -0.049144566 -0.07263715 -0.044213865
000280 96 5d f0 bb 05 1b fd 3b 1b 9e 62 bd ca 42 22 bd
       -0.007335375 0.0077241682 -0.055326562 -0.039614476
000290 6f 3c d3 bd e5 b8 cd bc 8f 78 27 bd 3e 45 cc bd
       -0.10314261 -0.025112579 -0.040886458 -0.099741444
0002a0 d2 2d e8 3c 32 80 a1 3c 89 6d a5 bd f2 f5 34 bd
       0.028342161 0.019714449 -0.08077533 -0.044179864
0002b0 2c 0c 91 3c 6f f3 ca bc 61 66 09 be da bf 60 3b
       0.017706 -0.024774281 -0.1341796 0.003429404
0002c0 94 0e f3 bc 96 fd 46 3c 56 e1 76 3c 39 9c 42 bc
       -0.029670037 0.012145421 0.015068373 -0.011878067
0002d0 31 1f 27 bd d9 30 94 3a 8a 9b 59 3a df ed ca bd
       -0.04080123 0.0011306062 0.000830107 -0.099086516
0002e0 a7 d8 c2 bb d0 4c 9f bc 6f 49 74 3b 16 45 c4 3b
       -0.005946237 -0.019445807 0.0037275215 0.005989681
0002f0 2d 0f a7 3c 7c fb 12 bd 5e 25 ec bd b1 b3 81 bc
       0.020392979 -0.035884365 -0.11530565 -0.015832754
000300 01 ad 90 bd 9e 36 33 bd 86 ad 0f bd 36 20 bb bc
       -0.07064248 -0.04375326 -0.035077594 -0.022842508
000310 d9 94 98 3b 4b bb c5 3a 04 da 88 3c 59 cd a0 3b
       0.004656416 0.0015085725 0.01670552 0.004907292
000320 fc 20 ce bb 2a dd 8c 3a 3b 37 95 3a 9c 8e 80 bc
       -0.006290553 0.0010747064 0.0011384258 -0.015693001
000330 d0 22 3c bd b4 f4 88 3c 26 44 05 bd fe 1d bd bc
       -0.045931637 0.016718246 -0.032535695 -0.02308559
000340 6f 20 1d 3c 12 26 a7 bb 45 9f bb bb d1 e9 ec bc
       0.009590252 -0.005100974 -0.0057257735 -0.028920086
000350 08 f8 9a bc 0e 1d d1 3c 31 01 2a bd a4 93 d5 3a
       -0.018917099 0.02552655 -0.041505042 0.0016294611
000360 9a 1e 05 bd 26 fb fb bb 11 a1 c6 3b ae 96 3a bc
       -0.032499887 -0.0076898513 0.006061681 -0.011388464
000370 d6 60 86 bc bf d1 26 3d 0d 54 15 bd 9e f2 82 bc
       -0.016403597 0.040727373 -0.03645711 -0.01598483
000380 f5 40 bc bd d0 48 93 bb 3d e0 39 bc 5d 96 d5 bc
       -0.09192077 -0.004494764 -0.0113449665 -0.026072675
000390 6e 99 32 bd 14 b0 a5 bd 6e 65 75 3a da 0b fb bc
       -0.043603353 -0.08090225 0.00093611225 -0.0306453
0003a0 df 9a c2 bc 28 2d b7 bc ae fc 91 bd 39 ff 23 3c
       -0.023755489 -0.0223604 -0.07128273 0.01000958
0003b0 82 cb b3 3c 31 26 9a bc fc 56 9a 3a 42 ca 18 3d
       0.021947626 -0.01881704 0.0011775191 0.037302263
0003c0 54 21 f4 bd 6e da e5 bd 72 3a fa bc 11 05 45 3c
       -0.11920419 -0.11223303 -0.030545447 0.012025134
0003d0 88 87 c7 3c 2a 89 67 3b 26 2a 28 bd bf 7b fb bc
       0.024356619 0.003532956 -0.04105582 -0.030698655
0003e0 dc 10 55 bd 34 10 38 bb 2c 46 d8 bc 7a a2 60 bb
       -0.05201803 -0.002808583 -0.026400648 -0.003427653
0003f0 a6 0e 48 3d 51 1f 52 bc d5 45 76 bb 8e 43 4f 3d
       0.048842095 -0.012824849 -0.0037578244 0.050601535

network_body.linear_encoder.seq_layers.0.weight f4 [256, 442]
000000 28 26 9c bc 25 22 23 3d 99 1a 6f bc 7c a6 fa 39
       -0.019061163 0.039827485 -0.014593744 0.00047807756
000010 de 57 70 3c c9 fe 97 3d ce 25 be 3c e7 8b 53 3d
       0.014669387 0.07421643 0.023211386 0.051647093
000020 78 db 06 3d dc d2 03 bd 3a 06 ab 3d 59 62 fc bb
       0.032924145 -0.032183513 0.08350797 -0.0077021536
000030 62 2e 32 bc 78 e3 10 be 22 40 6a 3d dc 0e 08 3d
       -0.010875316 -0.14149272 0.057190068 0.033217296
000040 bf 61 14 bd b6 3e 0f 3e 95 6c fc bd 90 6f c0 bb
       -0.03622603 0.13988766 -0.12325398 -0.0058726743
000050 6f cd b2 bc a6 27 4f bd 15 6f a2 3d eb fc ca 3d
       -0.021826474 -0.05057492 0.079313435 0.099115215
000060 2a bb 47 3c 5d 6a a0 3d ea d2 26 3d 92 39 c3 bd
       0.0121906195 0.07832787 0.040728487 -0.09532465
000070 3f f4 35 3c 5c ad ab bd 0e 2e 3b 3d 32 36 56 3d
       0.011105596 -0.08382675 0.045698218 0.05229778
000080 da f1 86 bd b9 4e f1 3c ad 30 e4 bd 46 db 89 3d
       -0.06589098 0.029456483 -0.11142097 0.06731276
000090 ca 22 24 3e d7 36 47 3d 64 89 d6 3d 70 39 17 3e
       0.16028896 0.048636284 0.10475424 0.14768004
0000a0 6d ad 53 bc 9e e2 cc bd 1b a2 9c 3d 33 b7 8f 3d
       -0.012919766 -0.10004161 0.07648107 0.07017364
0000b0 9c 7e a4 3d af 2b 03 bc ea ad 3f bd 98 a1 2e 3c
       0.08031961 -0.00800602 -0.046796717 0.010658644
0000c0 73 ce ec ba 7c b2 90 3a 5c 63 ab 3d 77 4c 3d 3c
       -0.0018066898 0.0011039521 0.08368561 0.011553875
0000d0 85 d9 94 bd d5 7e c1 3d 5c 12 7f 3d c3 35 92 bc
       -0.07268051 0.094480194 0.06227337 -0.017847901
0000e0 c9 f7 88 3c b9 fd cd bd dc 8a 1a bd 4b 6b 89 bc
       0.016719716 -0.100581594 -0.037730083 -0.016774794
0000f0 b3 3e 44 bc 69 19 5b ba 40 43 d8 bd 03 f5 91 bd
       -0.011977839 -0.00083579734 -0.10559702 -0.071268104
000100 55 13 5f bc 09 57 5f bd fb de bd bd eb 2c c4 bc
       -0.013615449 -0.054526363 -0.09271046 -0.0239472
000110 0e f3 cf 3b 03 55 ca bd b3 5e 85 3d 3b 8e 0f be
       0.006346113 -0.09879496 0.06512203 -0.140191
000120 81 89 ce bc 18 a6 e8 bd fb 44 82 bd 14 7c 76 bc
       -0.025212051 -0.11359805 -0.06360813 -0.015044231
000130 3b 98 c9 bc 58 7b f9 3c 07 e0 62 bd 01 16 60 bd
       -0.024608722 0.030454323 -0.05538943 -0.054708485
000140 8c 0c e1 3c e8 60 a4 bc 12 9a 0b ba 84 61 5e 3c
       0.027471803 -0.02006574 -0.00053253875 0.013573054
000150 3b fc 51 bd 62 9e 21 be ab fd e8 bc b1 0a 1b be
       -0.051265936 -0.15783074 -0.02844127 -0.15140797
000160 62 b2 53 bd 53 d4 68 bc f8 6e da bd 66 7c 22 3d
       -0.05168379 -0.014210778 -0.10665697 0.039669417
000170 6d 38 00 be 50 00 f3 bd 78 2f dd 3d 95 8d 86 3d
       -0.12521525 -0.11865294 0.108000696 0.065699734
000180 ac ad 59 bd 1c 0a e4 bc f6 61 7b bc 1e 8e 89 bd
       -0.053144142 -0.027836852 -0.01534318 -0.0671656
000190 12 ef b7 3c 66 a9 84 bd f2 00 1d 3d eb 33 8f 3d
       0.022452865 -0.06477623 0.03833098 0.069923244
0001a0 4d 7e a3 bd 31 f9 5e bd 52 26 ce bd 43 b7 05 be
       -0.07983074 -0.054436866 -0.10065903 -0.1305819
0001b0 2c db 56 3e 69 0d 04 be 2f f2 02 bd e5 bf b4 bc
       0.20982045 -0.1289574 -0.031969246 -0.022064159
0001c0 5c f8 af bd 02 ed 8c b7 f1 e6 0c 3b c1 33 d7 bd
       -0.08592293 -1.6799666e-05 0.0021499956 -0.10507918
0001d0 94 a5 9f 3c 80 31 0c 3d f3 7e 8c bd ef f0 96 3d
       0.019488133 0.034226894 -0.06860151 0.07370173
0001e0 f3 1f ea bd 71 16 32 bd 71 6e 40 3e 66 79 01 be
       -0.11431875 -0.043478433 0.1879213 -0.12643966
0001f0 09 62 2f bb 8b 0c ce bd f5 a0 87 3d 26 5a b9 3d
       -0.0026761314 -0.10060986 0.06622497 0.090503976
000200 bd 27 0a 3d ed a6 78 3c f9 36 b1 3b 48 31 aa bd
       0.033729304 0.015176517 0.0054081646 -0.08310181
000210 ad bc 38 3d 21 8b 60 bd c4 f9 40 be e6 52 48 bd
       0.04510181 -0.054820184 -0.18845278 -0.048907183
000220 bd 0f f9 3d 32 0b a9 bd 49 af e8 bd 75 9e b9 bc
       0.12161205 -0.082540885 -0.11361558 -0.022658566
000230 1a bd 19 3d 08 52 cf 3d c3 93 c4 3d 4d ab 3e 3b
       0.037533857 0.10123068 0.09598496 0.0029093802
000240 01 43 ce 3c 4f a9 dd 3d e3 1a d7 3d 1d c4 2b 3c
       0.025178434 0.10823309 0.10503175 0.010483769
000250 25 58 65 bd 19 d8 99 bd 37 cc 21 3e 29 44 dd bd
       -0.055992264 -0.075119205 0.15800558 -0.10804016
000260 7b 1d ae 3c 3e bf 25 bd 46 cd 86 3b cb f0 1b 3c
       0.021254292 -0.040465586 0.004113826 0.009517859
000270 85 af 4c 3d 9a 92 fd bd 0e 33 6d 3d 7b 73 75 bc
       0.049972076 -0.12381478 0.057910018 -0.014981146
000280 b3 95 83 3d db aa a1 bd ad 5d c3 bc c7 37 4d bd
       0.06425037 -0.07893916 -0.023848379 -0.05010202
000290 8e 3b 11 3e 3e dc 05 be c5 a5 1f 3c 03 7a 88 3d
       0.14182875 -0.13072297 0.009744112 0.06663897
0002a0 fa 0c 06 bd 88 7e ea bd c4 ec 52 3d b4 d8 d7 bd
       -0.03272722 -0.11449915 0.05149533 -0.1053938
0002b0 2e 0c ce 3d 6b e8 4d 3c 9e 87 83 3b da 1b a3 3c
       0.10060917 0.01256762 0.0040139696 0.019910742
0002c0 41 06 bf bd 89 7e 2c be 56 c1 da 3d 53 33 dd bd
       -0.09327365 -0.16845144 0.10681407 -0.10800805
0002d0 f4 20 c1 3d 8f 72 ee 3c 69 3b 87 3d c8 76 89 be
       0.094301134 0.02910736 0.066031285 -0.26848435
0002e0 ac d4 67 3c 61 06 c1 bd 59 f4 fd 3c b7 46 48 3d
       0.014149826 -0.09425045 0.031000303 0.048895564
0002f0 c3 6c 07 bc 61 2b ab bc 06 35 b8 bd 2c b7 4b bd
       -0.008265677 -0.020894708 -0.089944884 -0.049735233
000300 c3 c0 8b 3d 85 8d e1 bd 1b 12 1e 3c 25 22 6a 3d
       0.06823876 -0.11013321 0.009647871 0.05716147
000310 2c 6e 9b bd f8 ce 49 be cf da 90 3d e7 cb 7e 3d
       -0.07589373 -0.19707859 0.070729844 0.062206175
000320 7c be 9b 3d 2b f4 71 bd 44 21 c5 3c ee eb bc 3c
       0.076046914 -0.059070747 0.024063714 0.023061719
000330 a6 0d f8 3b 73 a0 88 bd 1c e7 1e 3e b1 58 d5 bd
       0.0075699864 -0.06671228 0.15517849 -0.10417307
000340 d1 3b 8b 3d 88 08 66 3d 75 14 b6 bc 20 a7 0e be
       0.067985184 0.05616048 -0.022226552 -0.1393094
000350 f5 03 9f 3b 97 52 7d bd 6a 7a ec 3c f6 e2 28 3d
       0.0048527666 -0.061846342 0.028866965 0.04123207
000360 f3 0f 85 bc c4 83 49 bd 7b b5 7f be 74 94 44 be
       -0.016242957 -0.049197927 -0.24971573 -0.19197255
000370 31 64 13 bd b9 55 32 bd a9 4f 3e 3b 6b d5 44 3b
       -0.03598422 -0.043538783 0.002903918 0.0030034434
000380 29 9f 31 3d c5 0e a6 bd 38 1f 0c bd e1 a4 9c bd
       0.043364678 -0.08108286 -0.03420946 -0.07648636
000390 29 82 a4 3d ab d2 b8 3c ba e2 6c bc c0 22 2f bc
       0.080326386 0.022561392 -0.014458353 -0.010689437
0003a0 eb 8c 1b be 3b b8 4c be a9 ac 30 3c 7f 35 81 3d
       -0.15190475 -0.19992153 0.010783353 0.06309032
0003b0 0b 80 91 ba fc 9b d1 3c e4 88 10 3b 76 c4 33 be
       -0.0011100782 0.025587074 0.002205425 -0.17555413
0003c0 d5 a0 98 bd 9a 9b c5 bd 1c 07 e4 bc 6e 7d f1 bc
       -0.07452551 -0.09648819 -0.027835421 -0.029478755
0003d0 b8 99 e4 3c b1 37 1b bc 32 b8 1b be 08 2e 49 be
       0.02790533 -0.009473727 -0.15206984 -0.19646466
0003e0 10 9a 41 be d6 fb f4 bc 95 c5 48 bd d4 29 02 3e
       -0.18906426 -0.029905241 -0.049016554 0.12711269
0003f0 35 bc de 3a 82 c6 7f be 7f 8e d0 bd a9 f9 ed bd
       0.0016993346 -0.24978068 -0.10183429 -0.116198845

network_body.linear_encoder.seq_layers.2.bias f4 [256]
000000 68 83 bf bd 55 61 57 3d 15 af 0a bc 53 22 90 bd
       -0.09351236 0.052583057 -0.008464594 -0.07037797
000010 f0 6f 99 3d 0d 60 b8 bc e8 b5 65 bd 77 c7 89 ba
       0.074920535 -0.022506738 -0.056081682 -0.0010511716
000020 c7 59 16 3c 86 39 33 bd 3e 31 81 bc b0 27 3e bd
       0.009176678 -0.04375603 -0.01577055 -0.046424568
000030 71 6d 2e bd 74 8e cb bb 2d f4 8c bb a2 da 71 bd
       -0.04258484 -0.00621205 -0.004301569 -0.059046395
000040 8e 26 d7 bb 9b 1c d1 bd 07 ad 46 3d 1c ae 4e bd
       -0.0065658754 -0.10210534 0.048504855 -0.050459012
000050 b9 1a 0c bd 4f a1 ea bb 2d 0c f3 bd 45 2b 47 bc
       -0.034205172 -0.0071603428 -0.11867557 -0.012156312
000060 0c 91 1f bd 47 f5 d6 bd 8c 24 ad 3c 91 31 b7 bd
       -0.038956687 -0.10496002 0.021135591 -0.08945001
000070 ed ad d0 bc d0 b2 a0 bd 3c 06 46 bd 96 f6 e9 bc
       -0.02547356 -0.07846606 -0.04834579 -0.028559964
000080 22 35 4b 3c ee 5b 3d ba 28 0e b7 bd ea 04 b2 bd
       0.012402805 -0.00072234764 -0.08938247 -0.086923435
000090 ea 31 02 bd 1c 1e b2 3b 3e 26 6c bd d6 a4 9b bd
       -0.031785883 0.005435718 -0.057653658 -0.07599799
0000a0 8f 86 a5 3c 66 3f 37 bd 14 d4 15 bd e9 6b 60 bd
       0.020205764 -0.044738196 -0.036579207 -0.05479041
0000b0 00 aa 00 bc bf f8 2e bc 35 c2 30 bd 47 00 37 bd
       -0.007853031 -0.010679423 -0.04315396 -0.044678
0000c0 b0 1a 46 3d f6 45 4f 3a 77 7c 36 bd d1 9c a9 bc
       0.048365295 0.00079068483 -0.044552293 -0.020704659
0000d0 b7 a1 a7 bb be ae a1 bb 1c 42 0a bd 63 9a 76 bd
       -0.0051157135 -0.004934161 -0.033754453 -0.06020583
0000e0 e3 4a e3 bc a4 4e 9a bd 17 6b bd 3c 7f b9 a6 bd
       -0.02774567 -0.07534531 0.023122353 -0.08140849
0000f0 df 75 03 be c8 d2 e2 bb 52 e1 f0 bd b1 43 9c bd
       -0.12837933 -0.0069220997 -0.117617264 -0.076300986
000100 b3 f6 ab 3c 90 17 04 bd f8 34 a9 3b b1 6c 41 3c
       0.020991659 -0.032249033 0.005163785 0.011805699
000110 0c 2f e1 3c a0 05 cd bc ae e0 3b bd d3 cc 97 bd
       0.027488254 -0.025027096 -0.045868568 -0.07412114
000120 f1 61 5b bb 6d 10 42 3d 18 c9 10 bb 88 e3 c4 bd
       -0.0033475126 0.047378946 -0.0022092517 -0.09613711
000130 e1 35 3d bd fb e7 ca bd 64 83 1c 3c 4f 78 05 bd
       -0.04619396 -0.09907528 0.00955281 -0.03258544
000140 af 6b 57 3b d5 83 69 bd 40 17 98 bd b5 ab 86 bc
       0.003287058 -0.05701049 -0.074263096 -0.016439298
000150 2b 3f 8d bd 75 b5 09 bd 50 34 df bd 06 66 90 3c
       -0.06896814 -0.033620317 -0.1089865 0.017626774
000160 09 87 e1 3b 9d 9c a0 3c 4b 46 73 3c 37 ad cc 3b
       0.0068825525 0.019605929 0.014848302 0.0062462348
000170 e0 3b 00 bd c9 b7 e0 3c d5 76 52 3a 66 c0 a3 bc
       -0.0313071 0.027431386 0.00080285716 -0.019989204
000180 4b 7b d3 bc eb 8f 53 3d 94 35 c7 bc 7f a1 2e bb
       -0.025815627 0.051650923 -0.02431754 -0.0026646552
000190 b0 f6 15 3d d0 0b 95 3b da c6 17 3d f9 68 8c 3a
       0.036612213 0.0045485273 0.037054874 0.0010712437
0001a0 f1 da 92 3d 10 c9 96 3c e7 55 4b bd 7c 3d af 3d
       0.07170666 0.018406421 -0.04964247 0.08556649
0001b0 2b 51 72 bc 93 d8 ac bd 91 aa 58 bd 1f 4b e8 bc
       -0.01478986 -0.08439746 -0.05289704 -0.028356133
0001c0 4e b8 ea bd c8 8c b2 bd 05 a3 9d bc 9d 1c 05 bd
       -0.114609346 -0.08718258 -0.019242773 -0.03249799
0001d0 76 7b 3c 3d 86 29 a8 bd 16 a1 ae bb f1 82 1c be
       0.04601618 -0.08211045 -0.0053292615 -0.15284325
0001e0 8f ec bc bd 84 b5 05 bd 74 73 0d bd 41 fb c4 bc
       -0.092248075 -0.03264381 -0.034533933 -0.024045588
0001f0 48 a3 52 bc a5 d9 88 bc f1 64 93 3b 71 4d 87 bd
       -0.012856312 -0.016705343 0.004498117 -0.06606568
000200 cf 78 88 bd 83 6c 09 bd 6f dc e5 bd 01 30 d8 3a
       -0.066636674 -0.03355075 -0.11223685 0.0016493798
000210 8d ef 0b bd e2 6e 76 bb 91 bf ef bd 30 9b 9f bd
       -0.034164 -0.0037602712 -0.1170646 -0.077932715
000220 a4 44 b4 bd cc 9f 99 bc 83 98 c1 3c 30 22 56 3d
       -0.08802155 -0.018752955 0.023632294 0.052278697
000230 24 f0 eb bc 61 0a a4 bd 1b a6 59 bd 6e 13 27 3d
       -0.028801031 -0.08009792 -0.053136926 0.040790014
000240 dd 37 76 bd 59 b7 97 bd 88 e3 d3 bc 52 a2 ac bd
       -0.06011187 -0.07408018 -0.025865331 -0.08429398
000250 1e 7c 60 3b e4 eb 85 bd 8d ea 65 bc a1 7e 98 bd
       0.0034253667 -0.06539133 -0.014032972 -0.074460275
000260 87 28 8b bd 6d 52 60 bd 7d fd 4d 3c 47 1a 07 be
       -0.06794839 -0.054766107 0.012572643 -0.13193618
000270 67 3f cf bd ac ae 90 3c 60 7e 54 bd d3 7b 21 bd
       -0.10119515 0.017661415 -0.051878333 -0.03942473
000280 cd 6e 6a 3c 8b a1 06 bd ec 88 84 3d 92 0c 21 bd
       0.0143086435 -0.032868903 0.06471428 -0.03931863
000290 2f 18 cc 3b 7c 51 9f bd f5 eb 8c 3d 78 3c df bd
       0.006228469 -0.07779214 0.06880943 -0.109002054
0002a0 44 8a b2 3b 9a 19 46 3d b5 a6 1c 3d 9f 77 6f 3d
       0.0054486115 0.04836426 0.03824492 0.05846369
0002b0 7e 82 a7 3c e5 5a 36 bd 25 cb 25 bd 4e 06 1b be
       0.020447966 -0.044520278 -0.040476937 -0.15139124
0002c0 8d ce db 3c 26 bb f6 3b bb 7c 5d bc 5d 0c c6 bc
       0.02683189 0.007529634 -0.013518508 -0.024175817
0002d0 b9 00 40 bd 94 8e 24 3c 34 7d 49 bd 93 41 cb 3c
       -0.04687569 0.010043759 -0.04919167 0.024811542
0002e0 93 da 4b bd 1a b0 c4 bb bf 00 77 bd 51 08 08 bd
       -0.049768995 -0.0060024383 -0.060303446 -0.033211056
0002f0 1e 2e eb bd f6 b1 2c bd ae 17 b9 bd 4d 10 c3 3c
       -0.114834055 -0.042161904 -0.0903772 0.023811484
000300 10 5f 13 3b 3c 3a 24 bd 2c ad ea 3b 88 ba fd 3c
       0.0022487082 -0.0400946 0.007161757 0.030972734
000310 cf 60 00 be ce 8e 9e 3c 16 fa 83 bc 81 03 08 bc
       -0.1253693 0.019355204 -0.016110461 -0.008301617
000320 be 7a c0 bc 14 3b c3 bd ee aa 81 3c 08 f1 5b bd
       -0.023496028 -0.09532753 0.015828576 -0.053696662
000330 44 33 0e 3d 3a 2c 90 bd 80 92 9e 3c ed 14 68 3c
       0.03471686 -0.070396855 0.019356966 0.014165145
000340 8c 64 11 3d 4d 5f c3 3b a8 c8 0b bc 76 35 be bd
       0.03549628 0.0059622885 -0.008531727 -0.092875406
000350 51 3f 3f bd c7 13 e3 bb 86 10 8e bc 6b dc a9 bd
       -0.046691243 -0.006929848 -0.017341863 -0.082939945
000360 59 d2 79 bc d6 a0 f6 bb ec 7c 80 ba 30 52 12 3d
       -0.015247905 -0.0075264974 -0.0009802855 0.03572291
000370 ec 5b c2 bd 31 9e 5d 3d a4 c8 35 bd 0c 06 33 bd
       -0.09490189 0.05410594 -0.0443808 -0.04370694
000380 3a de 8f 3c a6 89 e9 3b bf 1d 23 be 07 6a 32 bd
       0.01756202 0.0071270047 -0.15929316 -0.043558147
000390 07 6f 4f b9 de e7 43 3c ae 8b 06 bd e8 82 0e bd
       -0.00019782419 0.011957137 -0.032848053 -0.03479281
0003a0 94 0e 7a bc 1b 57 33 3c 2f ea 5d bd fa 6e 7c 3d
       -0.015262265 0.0109460605 -0.054178413 0.061629273
0003b0 e5 9c 49 3c f1 2e 5e bd 42 2a a6 3a 8e 92 b1 bd
       0.012305473 -0.054243986 0.0012677389 -0.08670531
0003c0 7d d9 94 bd 3c 8d 06 bd c3 ff c0 3b 8d c7 c7 bc
       -0.07268045 -0.032849535 0.005889864 -0.024387145
0003d0 c4 b7 d9 3c 50 6c 6e bc f3 3d cc bc 3a 63 db bc
       0.026576884 -0.014552191 -0.024931883 -0.026780713
0003e0 87 aa 86 3b 3c 2b d8 bc 10 93 90 bd a6 79 a5 3d
       0.004109684 -0.026387803 -0.070593 0.08079843
0003f0 8b 32 64 3d da a0 9a bc 9a 73 ad bc 8d 76 26 bb
       0.055712264 -0.018875528 -0.021173287 -0.0025400252

network_body.linear_encoder.seq_layers.2.weight f4 [256, 256]
000000 21 40 01 3d 99 5f 68 be 4d 06 98 3d d3 70 08 be
       0.0315553 -0.22692718 0.07423077 -0.13324289
000010 88 41 6a be 86 ff 3c bd 7e 5f e8 bd f5 65 16 bd
       -0.2287656 -0.046142124 -0.11346339 -0.036718328
000020 49 2e 42 3d 6c 72 18 bd 8c 94 cf bc f5 a0 06 3e
       0.047407422 -0.037218496 -0.025339387 0.13147338
000030 c8 95 35 bd 52 2a 00 3e 7c 5e 86 bd 97 27 1b 3e
       -0.044332296 0.12516144 -0.0656099 0.15151821
000040 11 29 04 be 53 73 06 be b7 1d 06 be 66 33 15 3d
       -0.1290629 -0.1312993 -0.13097273 0.03642597
000050 38 aa 06 be ff 80 17 3d d7 5c 38 3c 14 86 dc 3b
       -0.13150871 0.036988255 0.0112526035 0.0067298505
000060 5a ca 49 bd d2 32 c7 bd de 36 72 bc 4b 0f 84 3d
       -0.049265243 -0.0972649 -0.014783589 0.064482294
000070 54 ab 85 3c b3 3e 46 bd 55 93 f5 bc 39 56 1a 3d
       0.016317047 -0.04839964 -0.02997748 0.037679885
000080 2b 4e 80 3d 8d d4 8a ba 85 ea 0f 3e 6e 32 bb bd
       0.06264909 -0.001059191 0.14054306 -0.09140478
000090 d4 f8 11 3d b3 a2 53 3a 43 12 75 3c 31 c1 71 3d
       0.03563769 0.00080732553 0.014957967 0.059022132
0000a0 c8 f5 12 3d 25 d2 67 bc 91 d6 1a bc ee 2c 2a 3e
       0.035878927 -0.014149223 -0.009450571 0.16618702
0000b0 ef 8c 3c 3d a5 7f c2 bd 4b c7 a7 bd e4 aa 9c 3c
       0.046032842 -0.094970025 -0.08192309 0.019124456
0000c0 8d dd c4 3c 34 7d 76 3d ae 2b 92 3d d3 0b 10 3e
       0.024031425 0.060177997 0.071372375 0.1406701
0000d0 dc a4 fe 3c 5d d3 27 3e 8f 2b cd bd 43 00 65 bd
       0.03108447 0.16389222 -0.10018074 -0.055908453
0000e0 79 a1 18 be 89 9c 4e 3e 5c cb 10 3e e9 d9 e9 bb
       -0.14905347 0.20176901 0.14140075 -0.0071365726
0000f0 83 2e a6 bd ed e4 eb 3c c2 b5 9e bd e5 20 6a 3d
       -0.0811434 0.028795684 -0.07749511 0.057160277
000100 ef f3 d0 3c ed 13 9b bd e8 fc d2 3b af ce 23 be
       0.025506942 -0.0757216 0.00643884 -0.15996812
000110 1a 80 bf 3d b8 d2 07 3d dc 4f a4 3d d7 d9 4d 3d
       0.09350605 0.03315994 0.080230445 0.050256576
000120 f8 a3 3a 3e 43 af 2e bd 30 5f 6f bd d7 86 dd 3d
       0.18226612 -0.04264761 -0.058440387 0.10816734
000130 aa 7d 93 bd a3 cc b3 bc 49 8a 15 3d ec e9 94 bd
       -0.07201703 -0.021948164 0.036508832 -0.072711796
000140 de a9 97 bd bf d0 0b 3e 53 34 0f 3e d0 55 fe 3d
       -0.074054465 0.13653849 0.13984804 0.12418711
000150 83 d9 80 3d ab 86 0f 3e 9d 4c 22 3e 72 11 84 b9
       0.06291487 0.14016216 0.15849538 -0.0002519
000160 54 64 fa 3b 7c 58 2c 3d 3b 2e 24 3e bd 51 56 be
       0.0076413546 0.042076573 0.1603326 -0.20929618
000170 0d e8 81 bc fb 5a ea 3d b2 5b f9 3d e8 9c ec bd
       -0.01585772 0.114431344 0.121756926 -0.11553365
000180 e8 60 36 be 46 b1 9d ba b9 f6 11 3d 4d 10 14 be
       -0.17810404 -0.0012030981 0.035635684 -0.14459343
000190 a7 a4 44 3d f1 0f f4 bb 9f 9b d7 bd cb b9 d0 3c
       0.048008587 -0.0074481894 -0.10527729 0.025479218
0001a0 ab 46 0b bd b2 03 fa 3c 2a b1 b8 3c 42 47 7e bd
       -0.03400294 0.03051934 0.022545416 -0.062079675
0001b0 46 7b 01 3d cc a1 10 3c f1 86 11 3d f8 7a 91 3d
       0.031611703 0.008827638 0.03552908 0.071035326
0001c0 7b 9e 84 bd 04 39 5c bd 98 0a da 3c 43 75 84 bd
       -0.0647554 -0.05376531 0.02661638 -0.064676784
0001d0 75 ce 7d bd 25 87 de bc 75 a4 2c bd 42 69 41 3d
       -0.06196447 -0.027164051 -0.042149026 0.047219522
0001e0 99 7a 0d bd 31 d8 7c bd 72 95 3a be 1a ad a4 3d
       -0.034540746 -0.061729614 -0.18221071 0.08040829
0001f0 4a f9 07 be 5e ef 81 bd 94 c6 99 bd 8f 8f 12 be
       -0.1327869 -0.06344484 -0.07508579 -0.14312576
000200 8e 92 82 bd 73 3e a0 bd 8c 58 02 bc 2b b5 df 3c
       -0.06375609 -0.07824411 -0.0079556815 0.027308067
000210 65 56 ea bc 51 f1 d2 3c 13 32 db bd 53 1c 1f be
       -0.02860565 0.025749834 -0.1070291 -0.15538149
000220 0f b0 88 bd 0d 5d d9 bd d9 4a a8 3c dd a5 a2 bd
       -0.066742055 -0.10613451 0.020543503 -0.07941792
000230 db 00 f6 bc 17 1a 39 bd fe b5 4e 3d 05 bd 5f 3d
       -0.030029705 -0.045190897 0.05046653 0.054623622
000240 6c 23 56 3c e6 0b ef bd 30 b4 f5 3c f2 20 fc 3c
       0.013069969 -0.11672191 0.029993147 0.030777428
000250 ba 35 b8 bd 33 3c 01 bd 1e 17 b9 3b c5 e3 2b 3d
       -0.089946225 -0.03155155 0.0056485077 0.041965265
000260 72 a4 a9 3c aa 82 e3 3d 5b ed 1e bc 5d e6 48 be
       0.020708296 0.111089066 -0.009700145 -0.19619127
000270 81 36 fc bd 36 30 4e bc 56 b3 29 bd 09 4b 08 3d
       -0.12315083 -0.012584737 -0.041430794 0.033274684
000280 13 2a 06 bd 8e c6 6e bd 46 eb 8e 3d e1 ed f3 bd
       -0.03275497 -0.058294825 0.069784686 -0.11910606
000290 1a 60 21 3d 30 81 85 3d e4 f8 d3 3c b4 24 ae bc
       0.03939829 0.06518781 0.025875516 -0.021257736
0002a0 73 50 c4 3c c4 4b 72 3d c1 87 d8 3c b0 9b c6 3d
       0.023964142 0.059154287 0.02643192 0.09697664
0002b0 5f 83 01 be 59 ed 1d bd 1f e4 f8 3c bb e0 71 3e
       -0.1264777 -0.03855643 0.030382214 0.23620884
0002c0 9c ea 69 3d 63 0f 58 bd d3 03 d9 3d 6d 43 b3 bd
       0.057108507 -0.05274905 0.105964325 -0.08753095
0002d0 96 34 e9 bc 99 1a 95 bd 3c f0 aa 3d b6 14 5a 3d
       -0.028467458 -0.07280464 0.08346602 0.053242408
0002e0 46 b2 75 bd 81 cb 8c 3c b5 31 32 bd 72 ae ef bd
       -0.059984468 0.017186882 -0.043504436 -0.11703195
0002f0 fc e1 70 3d be ad c3 bc 10 80 11 3e 20 41 39 3b
       0.058809265 -0.023886558 0.14209008 0.0028267577
000300 b5 27 09 be 4f b3 38 bd ef db a2 3c ed 50 de bd
       -0.13394053 -0.045092877 0.019880263 -0.10855279
000310 70 20 e0 3d 47 09 2a be 03 3d 4f 3e 06 9e be 3d
       0.10943687 -0.16605102 0.20238118 0.09307484
000320 f6 af 71 bd 22 97 a0 3d 9f 23 be 3c 10 b8 09 be
       -0.0590057 0.07841326 0.023210345 -0.1344912
000330 cc c8 8d ba c3 32 a6 3d 9e 0d cf bd 40 97 d6 3d
       -0.0010817288 0.08115151 -0.10110019 0.104780674
000340 98 95 dd bd ee 93 96 be ad 57 96 bc 26 58 2b be
       -0.10819548 -0.29409736 -0.018352354 -0.16732845
000350 01 40 1d be fd 34 a9 39 d2 7c 16 be 3f ef 4a 3d
       -0.15356447 0.0003227367 -0.14696053 0.04954457
000360 52 5c df bd 2a 15 05 3e db eb 59 3d 00 81 9f 3d
       -0.109062806 0.12996355 0.053203445 0.07788277
000370 c8 5f 5f bd d8 6f 1f 3d 4e b6 b5 bc b0 d7 27 be
       -0.054534703 0.038925022 -0.022181656 -0.16390872
000380 1d ce 9a 3d 95 fd 29 3e 8f 96 dd 3d b3 57 85 bd
       0.07558844 0.1660064 0.108197324 -0.06510868
000390 e5 62 20 be a7 56 08 3c 6e ef f6 bc 6a ff 85 bd
       -0.15662725 0.008321441 -0.030143466 -0.06542857
0003a0 2a aa aa bd 4c 7f 29 bd 18 5d 35 be 46 93 a3 3b
       -0.083332375 -0.041381165 -0.17711294 0.0049919216
0003b0 a5 44 bf 3d ab 7b a5 3b 2d a6 78 3b 1f 96 78 be
       0.09339265 0.0050501428 0.0037940845 -0.24276017
0003c0 de bb 4d bd 44 0c 96 3d 63 8d 2e 3d c3 f5 bc bd
       -0.050227992 0.07326558 0.042615306 -0.09226563
0003d0 af f1 31 be dd 42 de 3c 10 6c f3 bd 54 e5 c2 b9
       -0.17377351 0.027131492 -0.11885846 -0.00037173426
0003e0 79 4b 02 3e 93 50 2e 3d 99 d1 0c be 75 6e 9f bd
       0.12724103 0.04255731 -0.1375183 -0.0778474
0003f0 70 de 50 be 9b ae 8f bd 41 4e 8f 3d 07 be 40 3d
       -0.20397353 -0.07015725 0.069973476 0.047056224
